code/ml_model/model_weights_m8p8n10_lr0.001000_bs250_epochs30.pth (torch, 21926 bytes, 48 tensors)

ff1.weight f4 [5, 5]
000000 96 76 3a be f9 71 66 be 07 c8 8b be f8 cc 14 be
       -0.182093 -0.22504415 -0.27301046 -0.14531314
000010 6e 85 a1 3e 85 ca 8f 3e f5 f6 72 be c8 70 d5 3d
       0.3154711 0.28084198 -0.23727019 0.10421902
000020 56 33 d1 be f2 ed 98 be df c6 7c 3e 71 a9 5f 3e
       -0.4085948 -0.29869038 0.24685238 0.2184198
000030 15 ed 75 be 1a f6 16 be f1 da f6 3d 40 6a cb bd
       -0.24016221 -0.14742318 0.120534785 -0.09932375
000040 dd 76 48 3e 24 89 02 3e 8b d7 bb 3e 17 3a 99 3e
       0.19576593 0.12747627 0.36687884 0.29927132
000050 f7 f2 31 bb 28 8d 2b be c1 22 ec 3d c2 ec c6 3e
       -0.0027152875 -0.16753066 0.11530066 0.38852507
000060 0b 89 27 be
       -0.16360871

ff1.bias f4 [5]
000000 20 ce 83 be 21 cf 91 3e 7f ff 6b be 67 55 80 3d
       -0.25743198 0.2847834 -0.23046683 0.06266289
000010 78 a0 75 bc
       -0.014991872

ff2.weight f4 [5, 5]
000000 c9 ed a9 3e 4b 4c a9 be 7d a1 a2 be be d3 8a 3e
       0.33189228 -0.3306602 -0.3176383 0.2711467
000010 9c 1c 7d 3e b2 a4 eb bd ec bd ae 3e e9 0c 98 3c
       0.24717945 -0.115060225 0.34129274 0.018560844
000020 77 44 81 3b a2 35 9e 3e c3 91 c6 3d d8 3d 84 bc
       0.003944929 0.30900294 0.096957706 -0.01614277
000030 55 af f2 bd 74 0b de 3e dc 78 9d 3e ba a4 c2 be
       -0.11849848 0.43368113 0.3075627 -0.380163
000040 f1 0e 48 be fc ec 60 3d 54 4d a6 3e cb 0f 66 3d
       -0.1953695 0.054913506 0.32480872 0.056167405
000050 6b ff 41 be 20 b2 bc be a4 cf a5 be d3 de a9 3e
       -0.1894509 -0.3685465 -0.3238498 0.33177814
000060 3d 3b c9 3e
       0.39303008

ff2.bias f4 [5]
000000 12 6b b3 3c 0d 8a 28 3d 0a 13 59 3d fa 12 bd 3e
       0.021901641 0.04114728 0.052996673 0.3692854
000010 14 9e b5 3e
       0.35472167

ff3.weight f4 [5, 5]
000000 46 f1 f6 bd f3 5b c1 be e4 e4 d7 bc 13 64 7a 3e
       -0.12057738 -0.37765464 -0.02635426 0.24452238
000010 54 99 d8 3e 29 51 c2 bd 48 c7 94 3e 1f c1 72 3e
       0.4230448 -0.09488136 0.2905829 0.23706482
000020 00 65 3f 3d 69 66 dc be af 0c db 3e 0e 47 41 be
       0.04672718 -0.43046883 0.42783114 -0.18874761
000030 e3 e0 f1 3d 9e 79 84 be ab ab 5b 3e 94 d9 8a be
       0.11810472 -0.25874037 0.21452205 -0.27119124
000040 95 79 8c 3e cd 48 04 3b 44 97 54 3d 15 a3 6f be
       0.2743651 0.0020184994 0.05190207 -0.23402055
000050 f3 19 85 be 08 31 8d be 09 8e a5 3e 21 03 b6 bd
       -0.2599636 -0.2757647 0.32334927 -0.088873155
000060 85 1c 1d 3e
       0.1534291

ff3.bias f4 [5]
000000 3e 73 ac 3e 55 54 9e be 40 2c 9a 3d e2 82 e0 3e
       0.33681673 -0.30923715 0.07527971 0.43849856
000010 04 98 14 3e
       0.14511114

firstGCN.attentionLayer.linear.weight f4 [5, 10]
000000 9d 06 f8 b9 8a 5f b3 bd f3 50 43 3e 02 92 5e 3e
       -0.00047307173 -0.08758457 0.19073848 0.21735385
000010 b0 8b 72 3d be 94 15 3e 34 0d 8e 3e 05 0d 52 be
       0.059215248 0.14607522 0.27744448 -0.20512779
000020 7a f7 03 be c6 b4 82 3c a9 85 6e 3e 48 56 d5 bc
       -0.12887374 0.01595534 0.23293175 -0.026042119
000030 57 53 70 3e 51 8d 80 be de 56 93 3d 17 a6 2d 3e
       0.23469292 -0.25107816 0.07194303 0.1695789
000040 24 02 1b be 29 5d 22 3d bc cb 28 3d 22 28 4c bd
       -0.15137535 0.039639626 0.04120992 -0.04984296
000050 e9 5c 89 3e 5d a5 aa bd f0 70 3e bc 58 93 8a 3e
       0.26828697 -0.08332322 -0.011623606 0.2706554
000060 9e 62 1c be 93 5a 2c 3e 2b 67 81 3e b3 75 e2 bc
       -0.15271994 0.16831426 0.25274023 -0.027644014
000070 3f f0 09 be 65 97 89 3e a0 da 81 be ed 49 95 3e
       -0.13470553 0.26873317 -0.2536211 0.29157963
000080 d9 4d 79 3e 66 3e 3d be fb af 18 be c6 2d ea bd
       0.24346103 -0.18480834 -0.14910881 -0.11434512
000090 b8 6b 96 be 86 3a 85 3e 7b 4d 0d bd 0e a2 40 be
       -0.29379058 0.26021212 -0.03449772 -0.18811819
0000a0 a7 19 9b be 69 79 09 3e d0 0c 06 be b6 a5 8b be
       -0.3029301 0.1342522 -0.13090825 -0.27274865
0000b0 64 bf 49 be ea a5 67 3e 12 e9 21 be e6 73 eb bd
       -0.19701916 0.22621885 -0.15811566 -0.11496715
0000c0 bd b3 e7 39 3d a1 a5 bd
       0.0004419367 -0.080873944

firstGCN.attentionLayer.linear.bias f4 [5]
000000 8d 9d a7 bc b9 30 ab bd c5 b6 4d bd 6f ee 4d be
       -0.020460868 -0.083589025 -0.05022313 -0.20110486
000010 19 0d c4 bd
       -0.09572811

firstGCN.attentionLayer.inAttention.W_sum f4 [5, 5]
000000 76 a7 fb 3e b4 b5 33 3f 1c 2a 75 3f 6e 04 7a 3f
       0.491512 0.7019913 0.9576738 0.9766301
000010 78 bf 34 3e 39 d5 34 3f a7 38 3d 3f 63 12 5f 3f
       0.17651165 0.7063785 0.7391457 0.8713743
000020 5e 74 b1 3d 49 0c 08 3e 3a af 28 3f ef 30 7d 3e
       0.086647734 0.13285936 0.65892375 0.24725698
000030 27 23 20 3e 9d 89 c9 3e c6 f1 28 3f 4e 84 76 3f
       0.1563841 0.39362803 0.65993917 0.9629563
000040 42 21 76 3f 83 44 37 3f 39 87 69 3f c4 f3 c2 3e
       0.961445 0.71588916 0.9122196 0.38076603
000050 29 ad 6f 3d ae b3 a1 3d e7 d6 ab 3e ca 83 4a 3f
       0.058514748 0.07895599 0.33562395 0.79107344
000060 78 2c 3b 3e
       0.18278682

firstGCN.attentionLayer.inAttention.W_alpha f4 [5, 5]
000000 a4 d2 30 3f 21 05 15 3f 2a f4 45 3f 35 a7 2d 3f
       0.6907141 0.5821095 0.7732569 0.6783326
000010 69 92 74 3e 36 3a aa 3e 41 12 04 3f bc 1b 88 3e
       0.23883976 0.33247536 0.51590353 0.2658366
000020 32 f5 ae 3e a2 e6 02 3f 00 2a 7b 3d b0 c3 4f 3e
       0.34171444 0.5113317 0.06131935 0.20289493
000030 f4 67 5c 3e c3 fc 17 3e 04 e8 04 3f 12 0d 0d 3f
       0.2152403 0.14842515 0.5191653 0.5509807
000040 58 fd 92 3e 28 ad ed 3e b4 36 67 3f d2 0e 19 3f
       0.2870891 0.4642117 0.90317845 0.5978824
000050 69 58 1d 3f 90 0b c5 3e 0c 6e 14 3e b0 ea 86 3e
       0.6146303 0.38485384 0.14495105 0.26350927
000060 68 f2 e7 3e
       0.4530213

firstGCN.attentionLayer.inAttention.a_alpha f4 [5, 1]
000000 00 9a a4 3e 96 c8 ec 3e c1 1b 72 3f 3a 17 51 3f
       0.32148743 0.46246785 0.945736 0.81676066
000010 c6 79 2c 3f
       0.6737331

firstGCN.attentionLayer.inAttention.b_alpha f4 [5, 1]
000000 f7 04 53 3f 6d 72 17 3f 33 3c 16 3f bc f4 89 3e
       0.8242945 0.59158975 0.58685607 0.2694453
000010 64 9b a8 3d
       0.082327634

firstGCN.attentionLayer.outAttention.W_sum f4 [5, 5]
000000 6c 2d f0 3e 55 e5 ff 3e 09 bd d7 3d ea 6e 64 3e
       0.46909654 0.49979654 0.105341025 0.22307935
000010 00 37 38 3f 15 14 55 3f a2 c9 4d 3f f9 18 62 3f
       0.71958923 0.8323377 0.8038579 0.88319355
000020 c0 b7 0f 3f 57 9f 6c 3f c1 a5 92 3e 25 5d 8b 3e
       0.56139755 0.92430633 0.28642085 0.272195
000030 7b cb 54 3e a1 44 19 3e a3 7e 4b 3f 28 a6 08 3f
       0.20780747 0.14967586 0.7949011 0.53378534
000040 65 9e 73 3e 6c aa d0 3e 77 ab 11 3f 7e 4f 3d 3f
       0.23790891 0.40755022 0.5690226 0.7394942
000050 24 b3 47 3f 3f 5c 69 3f 98 9a 21 3e ae 0e db 3e
       0.7800772 0.9115638 0.15781629 0.42784637
000060 eb 3a 6f 3f
       0.93449277

firstGCN.attentionLayer.outAttention.W_alpha f4 [5, 5]
000000 08 c4 e2 3d 22 04 16 3f b6 86 f3 3e 2a 59 4e 3f
       0.11072546 0.58600056 0.47563714 0.80604804
000010 b8 0f 64 3e 4a e4 cd 3e b9 88 3b 3f 92 41 66 3f
       0.22271621 0.40213233 0.732555 0.899438
000020 bd 77 22 3f a4 72 b8 3e 46 45 96 3e d8 77 ae 3e
       0.63463956 0.36024964 0.29349726 0.3407581
000030 3f f8 af 3e 71 85 2d 3f 60 f0 d9 3d 33 be 58 3f
       0.34369084 0.6778174 0.10641551 0.8466522
000040 47 05 45 3f 70 46 06 3e 44 2f 26 3e a0 cf 72 3d
       0.7696118 0.13112807 0.16228968 0.059280038
000050 8f d9 53 3f 38 d8 d1 3e ec 42 83 3e 55 22 37 3f
       0.82753843 0.40985274 0.25636995 0.7153676
000060 ca 87 d0 3e
       0.407286

firstGCN.attentionLayer.outAttention.a_alpha f4 [5, 1]
000000 c6 c9 bb 3e c8 29 86 3d 22 99 fe 3e 84 11 44 3e
       0.36677378 0.06550938 0.49726206 0.19147307
000010 ea b8 07 3f
       0.5301653

firstGCN.attentionLayer.outAttention.b_alpha f4 [5, 1]
000000 0a 53 0a 3f 70 45 c1 3e 40 30 8f 3e 1d ab 39 3d
       0.5403296 0.3774829 0.279665 0.045329202
000010 96 d3 15 3f
       0.5852598

firstGCN.linearLayer.weight f4 [5, 10]
000000 c5 23 88 be 00 cb 4b 3e cc 82 97 be 5c e7 34 be
       -0.2658979 0.19901657 -0.29591978 -0.17666382
000010 bd ec e5 bc 9c d1 26 be 7c b4 95 be 82 6b 88 3e
       -0.028066987 -0.16290897 -0.2923926 0.26644522
000020 61 fb 24 ba 55 fa 51 be 1e 20 56 be d1 b0 86 3e
       -0.0006293562 -0.2050565 -0.20910689 0.26306775
000030 d6 12 53 3e 2f ea 0a 3c 22 6e 22 3e 82 ec 61 3e
       0.20612654 0.008478685 0.15862325 0.22062877
000040 bc 83 fc 3d ed 47 06 3e 22 cd 8c be 35 09 4f 3e
       0.12329814 0.13113375 -0.27500254 0.20218356
000050 88 7b 9d 3e 78 1f 06 3e 2d 58 32 3e ed 13 48 3e
       0.3075831 0.13097942 0.17416449 0.19538851
000060 5e cd 0d 3d a8 2d 78 be 74 c3 b8 3c e4 3d 24 3e
       0.03461968 -0.24236166 0.022554137 0.16039234
000070 6a 4f 58 3e 15 b9 66 be 99 4e 9a 3d e6 a8 6f 3e
       0.21124044 -0.2253154 0.075345226 0.23404273
000080 0d 3d fe 3b 57 73 35 3e 76 25 ec bd 00 fc 9c be
       0.0077587427 0.1771978 -0.115305826 -0.3066101
000090 14 50 84 be da f2 0f 3d 07 05 95 bd 5b dc 35 bd
       -0.25842345 0.03514371 -0.072763495 -0.0443996
0000a0 e4 98 25 be 4e f9 97 bd bd 12 8d be 8a 7d 9d 3c
       -0.16171604 -0.07420598 -0.2755336 0.0192249
0000b0 1f 55 9f 3e 02 04 6a 3e 56 de c9 3c 10 b9 7b be
       0.3111963 0.22853091 0.02464215 -0.24582314
0000c0 88 ec 18 be 1e 7e 58 bd
       -0.1493398 -0.05285465

firstGCN.linearLayer.bias f4 [5]
000000 5e 91 13 be 5b 0e 37 be 34 f3 fc 3d 63 6e b8 bc
       -0.14410922 -0.1787657 0.12351075 -0.022513574
000010 10 9c c5 3d
       0.09648907

secondGCN.attentionLayer.linear.weight f4 [5, 10]
000000 d0 8e 4a 3e 0f 66 80 be f3 5c 8b 3e cc 13 92 be
       0.19781041 -0.25077865 0.27219352 -0.2853073
000010 79 80 4a 3e 1a d0 8e be dd fb c9 bd d6 23 97 be
       0.19775571 -0.27893144 -0.09862492 -0.29519528
000020 73 f5 3f 3e 0d 8b 14 3e 7c 2f 23 3e c7 99 33 3e
       0.18745975 0.14506169 0.15936083 0.1753913
000030 25 7c 8e be 62 27 82 be d1 59 73 3d d5 67 a0 3e
       -0.2782909 -0.25420672 0.059411827 0.31329218
000040 0c c0 47 be f4 0b 67 be 8d 29 8d 3e b0 87 25 be
       -0.19506854 -0.22563154 0.27570763 -0.16165042
000050 11 78 94 be 7f 75 8a 3e f0 fa 99 be 03 0a 39 bd
       -0.28997853 0.27042767 -0.30074263 -0.045175564
000060 b4 43 ed 3d e7 29 92 be f0 fc 20 bd 47 d7 81 be
       0.11585179 -0.28547594 -0.03930372 -0.25359556
000070 67 b6 e1 bc a3 e8 cd bb 03 d6 57 be 8d 52 6a bd
       -0.027552797 -0.006283836 -0.21077733 -0.057207633
000080 6c fc 86 3c 63 0c 99 3e 72 c2 1a 3e 2f 88 6e 3e
       0.016477786 0.29892263 0.15113238 0.23294137
000090 8b 2d 3c be 66 f9 84 be b4 b7 e7 bd de d6 46 3c
       -0.18376748 -0.25971526 -0.113143355 0.012136189
0000a0 55 dc 4b 3c d6 ab c2 3d 34 89 6b 3e 09 0c ee 3d
       0.012442668 0.09505431 0.23001558 0.11623389
0000b0 35 ff 85 3e d8 88 85 3e 98 9f a4 3d 9f f7 0d 3d
       0.2617127 0.26080966 0.080382526 0.034659978
0000c0 2d b8 4d bd d0 2c 81 be
       -0.05022447 -0.25229502

secondGCN.attentionLayer.linear.bias f4 [5]
000000 0e e7 33 3d fa eb 7a bb a6 93 36 3e c0 45 89 3e
       0.043921523 -0.0038287626 0.17829761 0.26811028
000010 8f 3b 6b be
       -0.22971939

secondGCN.attentionLayer.inAttention.W_sum f4 [5, 5]
000000 5e dc 8b 3e f2 6b 1d 3f 8d 95 52 3f b8 42 b5 3d
       0.27316564 0.61492836 0.82259446 0.08850616
000010 17 2e 03 3f 29 39 64 3f 3e c7 61 3f a8 d1 13 3f
       0.512422 0.8914972 0.88194644 0.57741785
000020 44 c3 e1 3e 98 23 9c 3d 88 4a 63 3f 00 e4 2e 3b
       0.44094288 0.076239765 0.887856 0.0026686192
000030 78 30 f6 3d 0c 85 04 3f b0 8a bc 3d 42 fe 32 3f
       0.120209634 0.51765513 0.0920614 0.69919217
000040 08 87 2e 3f e0 dc 48 3f 36 50 02 3f 80 c9 0a 3c
       0.6817479 0.7846203 0.5090364 0.008470893
000050 ba d2 e4 3e 1a 47 a5 3e 62 d4 bb 3e 5a b2 02 3f
       0.44692022 0.3228081 0.36685473 0.5105339
000060 08 f9 04 3f
       0.5194249

secondGCN.attentionLayer.inAttention.W_alpha f4 [5, 5]
000000 c8 3c 4d 3f 54 97 01 3e 0b 5a 61 3f f0 ea 07 3e
       0.8017087 0.12655383 0.8802802 0.13273215
000010 60 11 70 3e 5a d7 4f 3f ef d8 1b 3f 3a 5f c8 3e
       0.23444128 0.81187975 0.6087789 0.39135152
000020 b4 a6 09 3e 68 1a b1 3d 7e 25 dd 3e a4 6b 21 3f
       0.13442498 0.08647615 0.43192667 0.6305487
000030 2a 02 28 3f b2 9a 79 3f 1c f0 17 3f 69 23 62 3f
       0.656283 0.9750167 0.5935075 0.8833528
000040 ea 15 6f 3f 78 86 51 3e a3 61 33 3f 90 a5 b9 3e
       0.93392813 0.20461452 0.70070857 0.36259127
000050 4c 8d af 3e ea 42 c3 3e bf ed 74 3f d8 31 00 3f
       0.34287488 0.3813699 0.9567527 0.50076056
000060 87 19 52 3f
       0.820702

secondGCN.attentionLayer.inAttention.a_alpha f4 [5, 1]
000000 f8 45 46 3e f5 16 41 3f d7 fe 26 3f 76 f2 88 3e
       0.19362628 0.75425655 0.65232605 0.26747483
000010 97 0a 7e 3f
       0.9923491

secondGCN.attentionLayer.inAttention.b_alpha f4 [5, 1]
000000 d1 45 65 3f 99 2a 17 3f 38 49 5b 3e b8 d5 9c 3d
       0.89559656 0.59049374 0.2141465 0.07657951
000010 56 6b ea 3e
       0.45785016

secondGCN.attentionLayer.outAttention.W_sum f4 [5, 5]
000000 62 a9 4a 3f 06 4a e5 3e 2c f7 33 3e 4a 49 cb 3e
       0.7916471 0.44783038 0.17574757 0.39704353
000010 80 cd 53 3d be eb f1 3e 40 be f9 3d 60 5f c0 3d
       0.051709652 0.4725017 0.121944904 0.09393191
000020 38 df e9 3e 04 55 99 3e ec c3 15 3e 54 40 86 3e
       0.45678115 0.29947674 0.1462552 0.26220953
000030 cc 7c 3b 3e 52 e6 10 3f ce e3 46 3f 92 77 fc 3e
       0.18309325 0.5660144 0.7769135 0.49309975
000040 d6 27 84 3e bc 26 3e 3e 26 09 6d 3f 00 bb ec 3e
       0.25811642 0.18569463 0.92592084 0.4623642
000050 34 85 54 3e a0 d9 71 3d f0 7a 77 3e ca 26 bb 3e
       0.20753938 0.059045434 0.2416799 0.3655303
000060 1a 44 bc 3e
       0.36770707

secondGCN.attentionLayer.outAttention.W_alpha f4 [5, 5]
000000 c4 73 96 3e 60 a9 5d 3d ca 69 ca 3e b8 d3 82 3e
       0.29385197 0.054116607 0.39533836 0.25552154
000010 97 1e 60 3f 28 7c 8d 3e 66 15 95 3e dc a7 97 3e
       0.87546676 0.27633786 0.29117888 0.29620254
000020 50 ba 63 3d bf 91 29 3f 82 05 4d 3f 6c bc 64 3e
       0.055597603 0.66238016 0.8008653 0.22337502
000030 92 f8 19 3f 82 ea 32 3f 07 d3 31 3f 84 73 2f 3e
       0.60144913 0.6988908 0.6946263 0.1713391
000040 b4 5e b0 3e 4e b4 96 3e ca fc 54 3f 1a e4 19 3f
       0.34447253 0.29434437 0.83198225 0.6011368
000050 d7 25 0c 3f 35 46 73 3f 70 62 ae 3e 6c 1d 7c 3e
       0.5474524 0.95029 0.34059477 0.24620599
000060 2a 49 b0 3e
       0.3443082

secondGCN.attentionLayer.outAttention.a_alpha f4 [5, 1]
000000 b1 b7 74 3f 54 89 01 3e b0 e2 4e 3e a8 a8 89 3e
       0.9559279 0.12650043 0.20203662 0.26886487
000010 09 ad 2e 3f
       0.6823278

secondGCN.attentionLayer.outAttention.b_alpha f4 [5, 1]
000000 48 42 66 3f f0 14 32 3e 38 fc cf 3e ac ef 6e 3e
       0.8994489 0.173908 0.40622115 0.23333615
000010 5c 6e b8 3e
       0.36021698

secondGCN.linearLayer.weight f4 [5, 10]
000000 96 45 f7 bd 74 37 77 3d 8f 2b 1c 3e fa 87 14 bd
       -0.12073819 0.06035562 0.15250991 -0.03626249
000010 5c 3e 7a 3e 6a 42 bf bc a0 04 94 3c e8 81 a1 3e
       0.2443785 -0.023347098 0.018068612 0.31544423
000020 d4 5e 1c be c8 06 36 3e 0a ce 79 3e 64 0a 1d 3e
       -0.15270549 0.17776024 0.24395004 0.15335995
000030 a5 e7 82 3d 9f 8a 3d 3b 6c c9 18 bc d1 33 1d be
       0.06391839 0.0028921736 -0.0093253665 -0.15351798
000040 7e e9 9c be a9 f9 31 3e c7 0e a1 3e 59 dd bc 3d
       -0.3064689 0.17380394 0.31456587 0.09221906
000050 8b 15 4b bd da 6d db 3d 21 90 59 bd f7 28 cd bd
       -0.04958109 0.10714312 -0.053115968 -0.10017579
000060 15 10 20 3e 79 0c 04 bd 8e 42 2c 3d b8 2e d7 3d
       0.15631135 -0.032238457 0.04205566 0.10506958
000070 37 7a 03 3d ec 75 3c be ae 78 29 be f0 aa 47 bd
       0.032098975 -0.18404359 -0.16549942 -0.048747003
000080 23 41 06 bd d2 3f a1 bc 85 c6 0f 3e 3d 8c 53 3e
       -0.032776963 -0.019683752 0.14040573 0.20658965
000090 74 e0 70 bd 6e 4b 29 be 29 ba d8 3b 5d 42 8c be
       -0.058807805 -0.1653268 0.006613989 -0.2739438
0000a0 5f 02 d1 3b f7 ba 1d bd 2c 35 c2 bc 05 da 78 3e
       0.0063784565 -0.03850838 -0.023706995 0.24301918
0000b0 6f 6f 2b 3e a3 44 20 be 6e c6 96 3e b4 eb 6c 3e
       0.16741727 -0.15651183 0.29448265 0.23136789
0000c0 2d ab 73 3e 81 de 0c 3e
       0.23795767 0.13756754

secondGCN.linearLayer.bias f4 [5]
000000 b4 09 a4 3c a8 a3 97 3e f0 f2 5a 3d bd e8 5d bc
       0.020024158 0.29617047 0.05345434 -0.013544259
000010 f9 8d e9 3d
       0.11404032

thirdGCN.attentionLayer.linear.weight f4 [5, 10]
000000 e5 5b 11 be 86 7e 7a 3e 55 2d c3 bc ac e4 1c be
       -0.14195211 0.24462327 -0.023825327 -0.15321606
000010 66 e0 8b be ae 1b 7d be 1d 2a 44 3d 48 5a 9e be
       -0.2731964 -0.2471759 0.047891725 -0.30928254
000020 f4 1d a9 3c b8 66 9b bb 76 af 23 3d 34 c1 2a 3e
       0.020644166 -0.0047424696 0.039962254 0.16675264
000030 6d e4 16 3e ba 70 91 be b0 fe 3f 3d 5c aa ed 3d
       0.14735575 -0.28406316 0.04687375 0.11604759
000040 79 bd 92 3e 2f e7 0e be a5 b9 b4 3d af 28 04 be
       0.2866018 -0.13955377 0.088244714 -0.12906145
000050 ae fc 8f 3e e2 be cb bd 57 7f 84 be 95 a6 90 be
       0.28122467 -0.099485174 -0.25878403 -0.28252092
000060 4d 75 5b 3d 6f 9e 2b bd ff 2f a1 3e fd 7b 3a be
       0.053578664 -0.04189914 0.3148193 -0.1821136
000070 e6 a5 c7 bd 9e 2e 40 3e 02 a8 60 be b3 7a d8 bd
       -0.097484395 0.18767783 -0.2193909 -0.10570278
000080 84 77 78 be d4 b2 48 bd 1b c6 07 3e f0 65 20 3d
       -0.24264342 -0.04899867 0.13259165 0.039159715
000090 da 5d 8e 3e 2a 26 91 3e 8f 33 9c 3e 51 0a 8b 3e
       0.27805978 0.2834943 0.30508086 0.27156308
0000a0 b4 b6 4d be 50 69 9b 3e 7c b8 5f 3e f4 31 14 3e
       -0.20089227 0.30353785 0.21847719 0.1447218
0000b0 21 37 32 bc ce 90 97 3e 26 ad a1 be 7e 32 4a bd
       -0.010877402 0.29602665 -0.31577414 -0.04936456
0000c0 88 90 bd bd ae 68 9f be
       -0.09256083 -0.31134552

thirdGCN.attentionLayer.linear.bias f4 [5]
000000 2d 33 80 3e e6 65 10 be 88 a8 0b be 86 85 9b be
       0.25039044 -0.14101371 -0.13638508 -0.30375308
000010 eb 75 05 3d
       0.03258316

thirdGCN.attentionLayer.inAttention.W_sum f4 [5, 5]
000000 20 23 49 3e 45 e7 2c 3f eb a7 3b 3f dc b1 9e 3e
       0.19642305 0.6754039 0.733031 0.3099507
000010 2e cb 5e 3f 5a 45 d0 3e 13 e8 24 3f 68 ad f9 3e
       0.8702878 0.4067791 0.6441662 0.4876511
000020 47 75 42 3f 00 07 52 3e ec a2 68 3f b8 94 cb 3d
       0.759602 0.20510483 0.908736 0.09940475
000030 95 fe 64 3f 06 db 1b 3f f0 33 7f 3e 94 c0 66 3e
       0.8945096 0.6088108 0.24922156 0.225344
000040 00 90 18 3e a6 77 db 3e 0e ec a4 3e a2 f3 77 3f
       0.14898682 0.42864722 0.32211345 0.9685613
000050 58 42 b7 3e d8 d3 53 3e 33 69 5f 3f 5e 12 df 3e
       0.35792804 0.2068628 0.87269896 0.435687
000060 b6 0d 33 3f
       0.69942796

thirdGCN.attentionLayer.inAttention.W_alpha f4 [5, 5]
000000 00 e0 40 3d a4 c1 c8 3e 2c c9 09 3f b7 46 46 3f
       0.047088623 0.39210236 0.5382259 0.7745165
000010 bc f3 ac 3e 20 fa 83 3c 5c af 54 3f 5c 00 fb 3e
       0.33779705 0.01611048 0.8308008 0.49023712
000020 cc 78 af 3e 87 bd 7b 3f 4e 96 1b 3f 09 b7 10 3f
       0.34271848 0.9833607 0.6077622 0.5652929
000030 a6 dd 2e 3f a8 8f 8b 3d d8 7b d8 3d 6f 22 76 3f
       0.6830696 0.0681451 0.10570496 0.9614629
000040 80 c8 87 3c 98 c1 44 3e 50 bc 46 3f a0 06 a5 3d
       0.016575098 0.19214475 0.7763109 0.08057904
000050 d0 35 77 3e 62 de 42 3f 38 f8 3f 3f b2 0f cc 3e
       0.24141622 0.7612058 0.74988127 0.39855725
000060 88 c8 dc 3e
       0.43121743

thirdGCN.attentionLayer.inAttention.a_alpha f4 [5, 1]
000000 d6 07 9b 3e 70 ee 55 3e 67 55 37 3f 20 bb 76 3d
       0.30279416 0.20891738 0.7161469 0.06023705
000010 d0 58 d9 3d
       0.10612643

thirdGCN.attentionLayer.inAttention.b_alpha f4 [5, 1]
000000 bf 89 22 3f 09 3b 01 3f 69 e3 3d 3f 58 81 f2 3e
       0.63491434 0.50480705 0.74175125 0.47364306
000010 16 8a 25 3f
       0.6466383

thirdGCN.attentionLayer.outAttention.W_sum f4 [5, 5]
000000 8c 5f 4e 3e fe 54 03 3f b2 34 22 3f 30 05 19 3f
       0.20153636 0.5130156 0.63361657 0.5977354
000010 aa 9e 78 3f 1a 7e c5 3e b0 b3 52 3d e4 b2 47 3f
       0.971171 0.3857277 0.051440895 0.7800734
000020 a4 d4 da 3e a4 55 42 3f dc d5 05 3f 92 77 ed 3e
       0.42740357 0.7591193 0.5227945 0.46380287
000030 b0 c4 bf 3d b0 c6 21 3d 09 fe 0e 3f 14 86 a3 3e
       0.09363687 0.039496124 0.55856377 0.3193823
000040 2f 0a 34 3f 4a 0b 0a 3f b7 07 0e 3f a4 1e 1a 3e
       0.7032804 0.53923476 0.5548052 0.15050751
000050 78 69 a2 3d ea 42 0c 3f bc 5c 77 3e da 28 67 3f
       0.07930273 0.547896 0.24156469 0.9029671
000060 f3 a3 35 3f
       0.7095329

thirdGCN.attentionLayer.outAttention.W_alpha f4 [5, 5]
000000 5a 8e 93 3e 1e 58 d4 3e 57 47 3b 3f f0 69 32 3e
       0.28819543 0.41473478 0.7315573 0.17423224
000010 24 09 cb 3e 78 fb 43 3f ff 51 5d 3f fb 9f 46 3f
       0.3965541 0.76555586 0.8645324 0.7758786
000020 30 90 7e 3f 50 12 a1 3e 27 fd 29 3f 60 29 fa 3d
       0.9943876 0.31459284 0.66401905 0.12214923
000030 0c eb b0 3e d9 e6 66 3f 58 74 f2 3e 10 0f a5 3d
       0.34554327 0.90195996 0.47354388 0.080595136
000040 2c 63 f2 3e ab 72 78 3f c6 47 8c 3e 5a f8 98 3e
       0.47341287 0.9704997 0.2739851 0.29876977
000050 4d 58 3f 3f 3d c6 65 3f 58 ee 27 3f f0 ba ec 3e
       0.7474411 0.8975561 0.6559806 0.46236372
000060 90 ff 4e 3f
       0.8085871

thirdGCN.attentionLayer.outAttention.a_alpha f4 [5, 1]
000000 d6 4c f7 3e c9 20 1d 3f 82 1b 35 3f 9a e7 8b 3e
       0.4830081 0.6137815 0.707451 0.27325135
000010 96 1b 90 3e
       0.28146046

thirdGCN.attentionLayer.outAttention.b_alpha f4 [5, 1]
000000 c4 14 d6 3e 12 e3 96 3e 0b 9d 21 3f 08 2a f7 3d
       0.41812718 0.29470116 0.63130254 0.12068564
000010 ab d4 01 3f
       0.5071513

thirdGCN.linearLayer.weight f4 [5, 10]
000000 e1 bf 9c be d6 06 1f 3e 1e 4b 23 3e 30 fe 51 be
       -0.30615142 0.15529951 0.15946624 -0.20507121
000010 14 3e 9b be 32 58 9b be f5 c8 8a be b0 74 9b be
       -0.303208 -0.30340725 -0.27106443 -0.30362463
000020 63 d0 3d be d2 20 fd 3d 38 14 1c be 16 14 85 3e
       -0.18536524 0.123597756 -0.15242088 0.25991887
000030 d1 47 6d be 89 e4 9a 3e be 87 81 be a1 c8 3b bd
       -0.23171927 0.30252483 -0.25298876 -0.04584563
000040 c1 b3 5e bc 06 6c a1 3e 4c 94 1a 3e 37 93 7b 3e
       -0.013592661 0.31527728 0.15095633 0.24567877
000050 44 2a 99 3c 20 ba af bd 60 05 d1 3c ce 8a 87 bc
       0.018696912 -0.085804224 0.025515258 -0.01654568
000060 15 ae 4e 3d ee 1c fa bc 61 df e5 bc 24 e0 5f be
       0.050458986 -0.030531373 -0.028060617 -0.21862847
000070 30 27 0d 3d 75 38 91 be c8 3e 49 be 71 b8 e5 bd
       0.0344612 -0.28363386 -0.19652855 -0.1121682
000080 89 ac 16 be 48 41 04 3d d8 e9 10 3e 8a 80 e0 bd
       -0.14714254 0.03228882 0.14151704 -0.10962017
000090 9f 81 4f be c2 cb 8c 3e 26 1a 73 3e e4 7d 8d 3e
       -0.2026429 0.27499205 0.23740444 0.2763511
0000a0 08 44 b8 3d 54 6b 3f 3e c3 f4 78 3e a3 4d 81 3e
       0.08997351 0.18693286 0.24312119 0.25254545
0000b0 dd 4c a4 3d b1 ce 84 be e9 e6 2d 3e 10 26 b7 bc
       0.08022473 -0.25938943 0.16982616 -0.022357017
0000c0 c4 bb 1d 3e 27 de 8b 3d
       0.15403658 0.068294816

thirdGCN.linearLayer.bias f4 [5]
000000 79 f8 32 3e f8 2e 7b be a0 ef 9d be 55 1f ec 3c
       0.17477597 -0.24529636 -0.30846882 0.028823534
000010 d6 86 47 3e
       0.1948503

ff4.weight f4 [5, 5]
000000 e1 a0 ba 3d a7 c0 eb bc 6a a0 df 3d e0 86 88 3d
       0.091127165 -0.028778387 0.109192684 0.0666635
000010 47 0b b0 be 4b 21 7f be e4 b0 9f 3e 25 19 5f be
       -0.34383604 -0.24915044 0.31189644 -0.21786936
000020 c3 45 d3 bd d7 e4 33 3e 7e 86 a4 be bb ea 81 be
       -0.1031604 0.17567764 -0.3213386 -0.25374398
000030 19 4b 3a 3e b6 17 8f 3d 7b e5 8a be 80 86 bb be
       0.1819271 0.069869444 -0.27128205 -0.36626053
000040 4c d7 e0 bc 23 90 71 bd a7 dc 2d 3d 1f 9f db 3e
       -0.027446412 -0.05897535 0.04244676 0.42894837
000050 61 b2 27 be b4 8b 2b 3c 7b 24 58 be 2a d2 19 3d
       -0.1637664 0.01047032 -0.21107666 0.037553944
000060 20 77 2f 3e
       0.17135286

ff4.bias f4 [5]
000000 be 32 93 3e 7b 4a 91 be 35 2c 4e be f1 eb c7 be
       0.2874965 -0.28377137 -0.20134051 -0.39047197
000010 f7 75 80 bc
       -0.01568125

ff5.weight f4 [5, 5]
000000 29 bd 77 3e 84 9a 12 be 25 61 4f be 89 56 18 be
       0.24193253 -0.14316756 -0.20251901 -0.1487676
000010 85 12 9d 3e d1 28 87 be a6 37 b3 3e b1 35 a7 3d
       0.30678192 -0.26398328 0.35003394 0.08164538
000020 3f dd 03 bd f0 27 cb be 4e 37 ef bd 2c 5c be 3e
       -0.03219342 -0.39678907 -0.116804704 0.37179697
000030 b8 30 18 3e bd 9f ab be dd d0 da be b2 93 97 3e
       0.14862335 -0.33520308 -0.42737475 0.2960487
000040 be cd 17 be 28 2e eb bd eb e4 c6 bd 8e 75 bc 3e
       -0.14824578 -0.11483413 -0.097116314 0.36808437
000050 f1 a1 07 3e c0 51 43 be 60 db dc be 91 0b ad be
       0.1324537 -0.19074154 -0.4313612 -0.33797887
000060 63 b2 b9 be
       -0.3626891

ff5.bias f4 [5]
000000 20 32 2e 3c 74 fc a0 be 2b 15 44 3e f2 5a ab be
       0.010632068 -0.31442606 0.191487 -0.33467823
000010 2a 99 16 bd
       -0.036767162

ff6.weight f4 [10, 5]
000000 08 b4 98 bd e2 48 e2 be fc e8 a9 3e d7 a5 8d 3d
       -0.07456213 -0.4419623 0.33185565 0.06916397
000010 49 72 9d be 06 fd c9 3d ff 8a d5 3d 93 64 8f be
       -0.30751255 0.098627135 0.10426902 -0.2800642
000020 d4 6d a9 be 4c 6f db 3e db 71 0d be 63 74 ca 3e
       -0.33091605 0.4285835 -0.13812964 0.3954192
000030 ef 72 5d be e2 6d e1 3e 3e 38 4a be 39 62 94 3e
       -0.21625875 0.44029146 -0.19748017 0.28981188
000040 09 c7 8f 3e 52 d2 77 3e 1b 98 ba 3e 6e 8c 60 3e
       0.2808154 0.24201325 0.36444172 0.2192857
000050 c1 7b dc 3e 6e 4b e4 be 28 73 27 3e 00 72 aa 3e
       0.43063167 -0.44588798 0.16352522 0.332901
000060 64 c1 e4 bc 16 a0 1e 3c 8c b4 c5 3e 1c 7d e2 be
       -0.027924247 0.009681722 0.3861431 -0.44236076
000070 05 a4 2a be 14 57 1f 3e f9 31 8f be 4c 2e 87 3e
       -0.16664131 0.15560561 -0.27967814 0.2640251
000080 b0 ee 47 be c1 e9 c8 3d c1 06 5f 3d aa a7 f1 3d
       -0.19524646 0.0981021 0.0544498 0.117995575
000090 52 04 ee bd c7 b6 bf bc 3d b0 4c be 51 ff 6d 3d
       -0.11621918 -0.023402585 -0.19989105 0.058104817
0000a0 f5 c5 d3 be e9 ee 40 be e0 bc 1d be b4 e2 e1 bd
       -0.41361967 -0.18841137 -0.15404081 -0.11029568
0000b0 4e 22 84 be 61 98 5d be e7 3a b8 be 11 22 c0 3e
       -0.25807422 -0.21640159 -0.3598244 0.3752599
0000c0 89 01 18 be c4 ea 0c 3d
       -0.14844336 0.034403577

ff6.bias f4 [10]
000000 1d e0 96 be 20 30 c2 3e 1f 59 74 be e8 94 26 be
       -0.2946786 0.3792734 -0.23862122 -0.1626774
000010 8c 78 b1 be ec a7 50 3d 30 ac 0b 3e 1a 2b 53 3e
       -0.34662282 0.050941393 0.13639903 0.2062191
000020 a8 a3 bf 3d 11 97 d6 be
       0.09357387 -0.4191213
