code/ml_model/model_weights_m8p8n20_lr0.100000_bs10_epochs20.pth (torch, 22066 bytes, 48 tensors)

ff1.weight f4 [5, 5]
000000 5d 50 e4 3e da 54 a5 3d 33 d6 e4 3e c8 3a 56 3e
       0.44592562 0.08072825 0.4469467 0.20920861
000010 ef a6 9e bc 75 e3 2c be de 11 a0 be ca f3 a6 3e
       -0.01936671 -0.16883643 -0.31263632 0.3260787
000020 d1 60 a5 3d 31 0f 85 3e eb 5a 87 bd f0 a1 be be
       0.08075107 0.25988153 -0.06609138 -0.37232924
000030 ea bf a9 be 4d 5a dc 3e 02 df cb be 96 d5 98 3e
       -0.3315423 0.43037644 -0.3981858 0.29850453
000040 3b 01 8d be 83 6b af be 24 e5 27 bd 7f eb 3d 3c
       -0.2754 -0.34261712 -0.04099001 0.011591791
000050 48 8c cf 3e 92 d0 38 be 49 13 be be c2 b6 5f be
       0.40536714 -0.18048313 -0.37124088 -0.2184706
000060 c8 92 9b 3e
       0.30385423

ff1.bias f4 [5]
000000 7b 02 99 be 1e 96 c3 be 60 61 86 bd 67 b8 cc 3d
       -0.29884705 -0.38200468 -0.065615416 0.099961095
000010 2c 29 a1 3e
       0.31476724

ff2.weight f4 [5, 5]
000000 0b b8 66 3e f8 44 96 3e d8 ce b7 be 1c 31 bc 3e
       0.22531144 0.29349494 -0.35899997 0.36756217
000010 3d eb 77 3e c5 86 32 be 0d 50 19 3e 6c 85 2f be
       0.2421083 -0.17434223 0.14971943 -0.1714074
000020 65 e8 45 be 58 2c e2 3e e2 b1 be 3e de 43 9e 3e
       -0.19326933 0.44174457 0.3724509 0.30911154
000030 be d5 e7 3d ea 29 9d 3e 02 7b 8e be 99 ea ac be
       0.11320065 0.3069604 -0.27828223 -0.33772734
000040 ba c4 06 be b0 9f c8 bc a2 3f 84 3c ad e8 ca 3e
       -0.13160983 -0.024490207 0.016143624 0.39630643
000050 f6 61 15 be fc 68 f4 3c ae ad 14 be 21 ea dd 3d
       -0.1458815 0.029835217 -0.14519379 0.10835672
000060 3e 92 8c be
       -0.27455324

ff2.bias f4 [5]
000000 7f 6d 01 3e 0e a2 36 3e 6f fe 93 3e 36 18 6f 3e
       0.12639426 0.17835256 0.28905055 0.2334908
000010 c0 bd 43 be
       -0.19115353

ff3.weight f4 [5, 5]
000000 3a 10 ee 3d 92 0c dd 3e e7 07 b3 bd bd 26 89 bb
       0.11624189 0.43173653 -0.087417416 -0.004185526
000010 f7 34 e5 3d 11 cf 78 be 59 64 8f 3e d1 ea a6 3e
       0.11191743 -0.2429774 0.28006247 0.32601026
000020 94 b9 ce 3e b1 ef 7b 3e b5 24 f8 bd 61 d7 60 be
       0.4037596 0.24603154 -0.12116376 -0.2195716
000030 f8 d8 55 be cf 46 da 3e 8b 62 ae 3e 2d 24 a8 3e
       -0.20883548 0.42632148 0.34059557 0.328401
000040 6b fe 35 be 83 70 bc bd 1c 01 af 3e 1e ec 86 3e
       -0.17772834 -0.092011474 0.34180534 0.26352018
000050 c0 45 01 3e 51 3a 2e 3e 64 7d 13 be 17 96 9a 3e
       0.12624264 0.17014433 -0.14403301 0.30192634
000060 18 a4 0e 3e
       0.13929784

ff3.bias f4 [5]
000000 c0 fe 49 3e d7 c7 cd 3e d1 8a c6 be b0 d5 96 be
       0.19726086 0.40191528 -0.38777784 -0.29459906
000010 f5 ab 9f 3e
       0.3118588

firstGCN.attentionLayer.linear.weight f4 [5, 10]
000000 b8 54 4b 3e 4c 32 52 be 1e 86 86 be a0 85 73 be
       0.19856536 -0.20526999 -0.26274198 -0.23781443
000010 3c 6d d2 bc 9a ce 92 be a7 11 8b bb c5 0e fc 3c
       -0.025686853 -0.2867325 -0.0042440477 0.030768761
000020 ed da 9f be ed 8e 72 be a2 a3 d9 bd d1 43 76 bd
       -0.31221715 -0.23687334 -0.106269136 -0.06012327
000030 b9 ed f6 3d e3 aa 1e 3d 7a 5e 98 be f1 64 a9 be
       0.12057061 0.03873719 -0.2975958 -0.33084825
000040 7c 32 9b bd 71 72 a3 be 61 49 1a 3e b3 27 c6 be
       -0.075779885 -0.3192325 0.15067054 -0.38702163
000050 6a 4c f8 3d ba 52 0e 3f ae b8 19 3f 19 8f 08 3f
       0.1212395 0.5559498 0.60047424 0.5334335
000060 ee 36 fc 3e c2 ca cd 3e d9 3b a6 bc d9 27 b0 3e
       0.49260658 0.40193754 -0.02029221 0.344054
000070 66 66 1d bd d4 a8 83 3e 91 6b 22 3e 1d dd 76 bd
       -0.038427733 0.25714743 0.15861346 -0.060269464
000080 d3 47 49 be fb a5 92 3e a0 28 74 be d4 4c 7e be
       -0.19656305 0.28642258 -0.23843622 -0.24833995
000090 b8 6c e7 bd 05 38 d9 3d 9f f7 5b be 87 c4 18 be
       -0.11300033 0.10606388 -0.21481179 -0.14918719
0000a0 c1 17 cb bd 7c e7 3b bd db 61 55 be e9 f1 06 be
       -0.0991664 -0.045875058 -0.2083811 -0.13178219
0000b0 c4 1f 5b be 24 30 c1 bd 85 27 ab be 56 07 69 be
       -0.21398836 -0.0943301 -0.33428589 -0.22756705
0000c0 ee 23 40 be 02 df d7 3b
       -0.18763706 0.006587864

firstGCN.attentionLayer.linear.bias f4 [5]
000000 6a 72 86 3c 31 cc e5 3d e4 1d 81 3e 53 41 4e be
       0.016411979 0.11220587 0.25218117 -0.20142107
000010 bd e6 31 be
       -0.17373176

firstGCN.attentionLayer.inAttention.W_sum f4 [5, 5]
000000 22 62 45 3f 77 29 5c 3e 4c 62 31 3f f4 02 23 3f
       0.77102864 0.21500193 0.69290614 0.6367638
000010 42 ba 72 3e e1 7e 78 3f 91 11 1d 3f 3a 76 1b 3e
       0.23703864 0.970686 0.6135493 0.15181819
000020 e1 75 6e 3f 46 3b 66 3f 5e ed 2a 3d 95 eb 3b 3f
       0.9314862 0.89934194 0.041730277 0.73406345
000030 49 90 6e 3f 36 91 83 3e 86 36 b1 3e 5e c8 db 3e
       0.9318891 0.25696725 0.3461191 0.42926306
000040 69 28 45 3f ef 9b 0c 3f cd 03 24 3f 29 56 94 3d
       0.77014786 0.54925436 0.640683 0.07242996
000050 06 18 42 3f cb 52 77 3d f7 f1 21 3e f8 4b 0b 3f
       0.75817907 0.060381692 0.15814959 0.54412794
000060 a7 0d 9c 3e
       0.30479166

firstGCN.attentionLayer.inAttention.W_alpha f4 [5, 5]
000000 f1 d5 49 3f 2e a1 6e 3f 71 04 06 3f be bf 18 3f
       0.78842074 0.9321469 0.5235053 0.59667575
000010 71 c4 bf 3d f2 1e e2 3d 83 df 48 3f 05 13 26 3f
       0.0936364 0.110410586 0.7846605 0.6487277
000020 cf 7d 10 3f 19 69 c1 3e 23 4c 30 3f f1 7e 5d 3f
       0.5644197 0.37775496 0.68866175 0.8652182
000030 48 52 7b 3f e1 51 48 3f ff 2b 02 3f 50 8a 35 3e
       0.98172426 0.7824994 0.5084838 0.17728543
000040 f4 a0 25 3f bf 10 68 3f 01 d5 d5 3c f3 b7 23 3f
       0.6469872 0.9065055 0.026102545 0.6395256
000050 eb fe 68 3f 23 c4 1a 3e 17 49 01 3f d6 93 06 3d
       0.91013974 0.15113883 0.5050215 0.03285583
000060 a4 f2 25 3f
       0.64823365

firstGCN.attentionLayer.inAttention.a_alpha f4 [5, 1]
000000 cc ae 80 3e 38 8a cd 3e 93 76 7a 3f 60 74 fc 3d
       0.2513336 0.40144515 0.9783718 0.12326884
000010 9c 0d 2d 3f
       0.6759889

firstGCN.attentionLayer.inAttention.b_alpha f4 [5, 1]
000000 bb 98 6e 3f e9 d0 70 3e ec b1 f5 3e b2 e3 68 3f
       0.932018 0.23517193 0.47987306 0.90972435
000010 3f 0a 5a 3f
       0.85171884

firstGCN.attentionLayer.outAttention.W_sum f4 [5, 5]
000000 42 aa 5a 3f f9 9c 0b 3f fa 0c f3 3d bd 90 5d 3e
       0.8541604 0.54536396 0.118677095 0.21637245
000010 ac f1 1f 3e 30 6b 12 3e 85 d4 6c 3f 63 2a 97 3e
       0.15619534 0.14298701 0.9251178 0.29524526
000020 dd 69 19 3e 37 0f 83 3f ec 13 04 3f 7d 75 b6 3e
       0.1498179 1.0239018 0.515929 0.3563651
000030 79 81 24 3e b8 f8 3c 3e 9a f3 b6 3e c2 05 71 3f
       0.16065015 0.18454254 0.35732728 0.9414941
000040 d7 6f 05 3f 96 a1 b4 3e 1f e7 bd 3e 90 f6 41 3e
       0.5212378 0.3527953 0.37090394 0.18941712
000050 84 86 5f 3f 86 e7 1c 3f 9a a2 90 3e fb 72 24 3f
       0.8731463 0.61290777 0.28249055 0.64237946
000060 9e 62 6f 3f
       0.9350985

firstGCN.attentionLayer.outAttention.W_alpha f4 [5, 5]
000000 8b 14 60 3f 62 79 55 3f 23 e4 10 3d 95 98 45 3f
       0.87531346 0.8338834 0.035373818 0.77185947
000010 51 6e c5 3e 56 05 6e 3f bf 0c 6f 3e 54 ab 29 3f
       0.38560727 0.9297689 0.23344706 0.6627705
000020 bd 5e 03 3f b3 cb 1a 3e a0 ed 50 3f 0f 48 1f 3f
       0.51316434 0.15116768 0.81612587 0.6221933
000030 d9 30 10 3f 75 e9 46 3f 50 5e 55 3d 81 3a 6b 3e
       0.56324536 0.7769998 0.052091897 0.22971536
000040 06 20 98 3b 1c 14 3e 3e d5 02 17 3f 3e ad ca 3e
       0.0046424894 0.18562359 0.58988696 0.39585298
000050 e3 6a 66 3b 84 8e fe 3e 1f 17 83 3e 7f 73 14 3e
       0.0035158924 0.49718106 0.25603577 0.14497183
000060 55 61 16 3e
       0.14685567

firstGCN.attentionLayer.outAttention.a_alpha f4 [5, 1]
000000 50 b4 57 3e b6 20 bb 3e ca 1c a4 3e 6c d0 9e 3e
       0.21064878 0.36548394 0.32053214 0.31018388
000010 c7 20 5c 3f
       0.85987514

firstGCN.attentionLayer.outAttention.b_alpha f4 [5, 1]
000000 e1 15 86 3e 60 8c 39 3f d8 e1 08 3f 26 75 b6 3e
       0.26188567 0.7247982 0.5346961 0.35636252
000010 a7 56 67 3e
       0.22591649

firstGCN.linearLayer.weight f4 [5, 10]
000000 d1 d5 7c 3e f5 e5 01 bd df c7 74 3e b6 e2 5f 3e
       0.2469094 -0.031713445 0.2390437 0.21863827
000010 3c 71 6f bd e9 dc 1d 3e 7d c4 20 bd 7c 0a 7b 3e
       -0.058457598 0.15416302 -0.039249886 0.24515718
000020 15 72 3b 3e 9a 8c 14 bc 39 2a bf bc b9 96 75 3e
       0.18305238 -0.009066725 -0.023335563 0.23983277
000030 61 64 d7 bd 9f 82 51 3e b1 f1 a3 3d 19 6e 19 bd
       -0.10517193 0.20459984 0.08005083 -0.037458513
000040 bd c6 88 3e 8f de 28 be 06 c1 7f 3d fd 12 2d 3c
       0.26714125 -0.1649115 0.06243994 0.010563609
000050 54 c3 27 bd e5 e1 bc bd ea 9b 33 3e 23 12 ad bd
       -0.040957764 -0.092227735 0.17539945 -0.08450725
000060 7d c8 24 3e 4f be 4e 3e 73 99 81 bd 62 ae 33 be
       0.16092105 0.20189784 -0.06328096 -0.1754699
000070 1d 59 7e be 2c 19 20 3e 28 0b b6 bd 5e d1 7c be
       -0.24838682 0.15634602 -0.08888847 -0.24689242
000080 b2 1f c0 3c 2e 01 86 3e d5 b2 8f 3e b1 01 e0 bd
       0.023452614 0.26172775 0.28066126 -0.109378226
000090 ef 96 23 be 4b 77 b7 3d cf de 99 3e 27 4a 91 3e
       -0.15975545 0.089583 0.30052802 0.28376886
0000a0 0f de 0a 3e dc 6c 71 be 20 c9 62 bd 27 67 d8 bd
       0.13561271 -0.23576683 -0.05536759 -0.1056655
0000b0 de 15 d9 bd 01 e0 3f be 0f b5 de bd c5 97 41 3e
       -0.10599874 -0.18737794 -0.10874378 0.18905552
0000c0 42 78 19 bd 9d 63 3b 3e
       -0.037468202 0.18299718

firstGCN.linearLayer.bias f4 [5]
000000 4c 7e c8 bd 44 c0 34 3d 80 1e a0 be d6 c2 87 3d
       -0.09789714 0.04412867 -0.3127327 0.06628959
000010 4c d3 fb bd
       -0.12296161

secondGCN.attentionLayer.linear.weight f4 [5, 10]
000000 75 4c 46 be ba af e8 bd 50 e1 36 be 5f 1b 4f be
       -0.19365104 -0.11361642 -0.17859387 -0.20225285
000010 9e 9c 81 be b1 28 2a 3e e4 87 65 be 0d f4 0b 3d
       -0.25314802 0.16617085 -0.2241512 0.03416829
000020 6e 64 64 be 4d b0 38 3e f0 fb 7f be 53 9b 27 bd
       -0.22303936 0.18036003 -0.2499845 -0.040919613
000030 e5 79 8c 3c df 0a 31 be ff f3 85 3d 19 c0 f6 3d
       0.017147968 -0.17289303 0.06540679 0.120483585
000040 27 32 68 3e d7 24 e8 bd 40 25 ad bc 60 63 98 be
       0.22675382 -0.11335152 -0.021135926 -0.29763317
000050 f7 11 66 3e a1 27 97 3e 74 0e 6f be bf 50 87 3e
       0.2246779 0.29522422 -0.23345357 0.26428792
000060 22 cd 01 be 83 4e 66 3e fc ef fc 3c 8a f1 39 3e
       -0.12675908 0.22490887 0.030876152 0.18158546
000070 f6 26 69 be 99 7d 27 3e 8a 17 5b bd 06 74 ec bd
       -0.22768769 0.16356505 -0.053489245 -0.11545567
000080 3e cb 0f bd b2 f7 f6 3d e1 82 19 be e0 30 e4 bd
       -0.035105936 0.12058963 -0.14991333 -0.11142135
000090 f9 9b a3 3d 80 7c 3f be 87 0c 12 be 13 4d a1 be
       0.07988734 -0.18699837 -0.14262591 -0.31504115
0000a0 7a 00 9f be 8f 43 95 3d 14 46 9d bd 3f f0 e0 3d
       -0.3105505 0.072882764 -0.07679382 0.10983323
0000b0 ce 6c bb 3d 82 40 4c 3e d0 25 20 3e 5d b8 82 3e
       0.09151612 0.19946483 0.15639424 0.25531283
0000c0 ea 40 e9 bd bd a6 8f bd
       -0.113893345 -0.07014225

secondGCN.attentionLayer.linear.bias f4 [5]
000000 88 9b 2a 3e 4d b4 06 be b0 da 90 3e cb 3f c0 3b
       0.16660893 -0.13154717 0.28291845 0.0058669797
000010 00 aa cc 3d
       0.099933624

secondGCN.attentionLayer.inAttention.W_sum f4 [5, 5]
000000 88 9e 30 3e b2 90 3d 3f 84 6d 24 3f 2a 08 fe 3e
       0.17247975 0.7404891 0.6422961 0.49615604
000010 ea 40 ff 3e 0a 32 cb 3e e9 96 16 3f f9 16 26 3f
       0.49854213 0.39686614 0.5882402 0.64878803
000020 65 ec 76 3f 70 ec 63 3f 04 90 10 3e 5a 4c be 3e
       0.9645446 0.8903265 0.14117438 0.37167627
000030 ec ec d2 3e ef 39 7e 3f 16 b8 84 3e a5 38 67 3f
       0.41196382 0.9930715 0.25921696 0.9032081
000040 94 f8 01 3f 83 99 12 3f d2 2a e5 3e de d3 73 3f
       0.50769925 0.5726549 0.44759232 0.9524516
000050 18 ad ca 3e 98 06 c7 3e 88 2a 6a 3f f6 42 f6 3e
       0.39585185 0.38872218 0.9147115 0.48097962
000060 18 e0 dd 3d
       0.10833758

secondGCN.attentionLayer.inAttention.W_alpha f4 [5, 5]
000000 d0 5e f9 3d 8c 2a 58 3f 58 f2 37 3e 96 ef 62 3f
       0.12176287 0.8443992 0.1796354 0.8864683
000010 84 04 61 3f ec 05 c6 3e 04 f7 aa 3e 00 11 88 3d
       0.87897515 0.38676393 0.33391583 0.066438675
000020 04 47 12 3e 00 ed fa 3b 74 85 6f 3f bc 51 c7 3e
       0.14284903 0.007657647 0.9356301 0.38929546
000030 4d c8 46 3f 28 5a 42 3e 32 ef f4 3e f0 6f 2f 3d
       0.77649385 0.18979704 0.47838742 0.04283136
000040 18 ba 1d 3e 26 35 20 3f 96 16 5e 3f 36 47 db 3e
       0.1540302 0.625811 0.86753213 0.42827767
000050 5a 40 88 3e b5 23 0b 3f bc 43 26 3f 3b 8c 32 3f
       0.26611596 0.5435136 0.64947104 0.69745225
000060 3e b7 d5 3e
       0.41741365

secondGCN.attentionLayer.inAttention.a_alpha f4 [5, 1]
000000 68 20 22 3f d7 1b 71 3f e2 49 ee 3e 68 f7 be 3d
       0.633307 0.94183105 0.46540743 0.09324533
000010 60 24 3a 3e
       0.18177938

secondGCN.attentionLayer.inAttention.b_alpha f4 [5, 1]
000000 b3 eb 43 3f 1a ac 21 3f a2 74 dc 3e 60 cf d6 3c
       0.76531523 0.6315323 0.43057734 0.026221931
000010 db 4c 7a 3f
       0.9777352

secondGCN.attentionLayer.outAttention.W_sum f4 [5, 5]
000000 2b e2 12 3f 16 e3 21 3f a0 ce 3e 3e b8 00 31 3f
       0.57376355 0.6323713 0.18633509 0.6914172
000010 a4 a6 74 3e 00 7c 1c 3f 40 5d 78 3c 43 7d 66 3f
       0.23891693 0.6112671 0.015158951 0.90034884
000020 7a 1a 92 3e 14 42 54 3e 68 29 c8 3d b8 54 15 3f
       0.28535825 0.20728332 0.097735226 0.58332396
000030 86 ee 18 3f 84 96 2e 3f 9d 7f 1b 3f 92 79 0f 3f
       0.5973896 0.6819842 0.607416 0.56044877
000040 88 ee 71 3f f8 6f 60 3f 44 d2 38 3e d9 94 7a 3f
       0.94504595 0.8767085 0.1804896 0.97883373
000050 b4 15 59 3f 2c 36 12 3f 51 2b 77 3f fb 7d 20 3f
       0.8479874 0.5711391 0.9655047 0.6269223
000060 d6 2d 6a 3f
       0.9147619

secondGCN.attentionLayer.outAttention.W_alpha f4 [5, 5]
000000 d7 a0 0b 3f 74 56 97 3e fa 8b b0 3e e0 1f a0 3d
       0.545423 0.29558146 0.34481794 0.0781858
000010 28 df f4 3d f8 ef 0c 3f 50 6e d4 3d 8d ad 2f 3f
       0.11956626 0.55053663 0.10372603 0.6862419
000020 50 ff c2 3e 7e d3 28 3f 96 ba 2f 3f 7b f2 0e 3f
       0.38085413 0.6594771 0.6864408 0.55838746
000030 dc ca 90 3e ea 0f dd 3e 84 ca b8 3e c7 0e 5d 3f
       0.2827977 0.43176204 0.36092007 0.86350673
000040 2e b5 1e 3f 0c 29 0c 3e 06 24 18 3f e7 fc 3e 3f
       0.6199521 0.13687533 0.5942997 0.7460465
000050 b7 02 0c 3f 3b bc 1d 3f 80 26 67 3c a2 8e e0 3e
       0.5469164 0.6161534 0.0141083 0.4385882
000060 3a f2 7a 3f
       0.9802586

secondGCN.attentionLayer.outAttention.a_alpha f4 [5, 1]
000000 85 c3 3d 3f 9c 3c 6e 3f ec 98 67 3f af a6 5c 3f
       0.74126464 0.9306123 0.90467715 0.8619184
000010 54 b4 36 3e
       0.17842227

secondGCN.attentionLayer.outAttention.b_alpha f4 [5, 1]
000000 84 d7 db 3e 83 bf 2d 3f 86 11 6f 3f 06 87 80 3e
       0.42937863 0.6787035 0.93386114 0.25103015
000010 8b 9f 52 3f
       0.82274693

secondGCN.linearLayer.weight f4 [5, 10]
000000 9f 94 9b be 27 be 5b 3d a3 28 0e bd 73 51 9e bd
       -0.30386826 0.05364814 -0.034706723 -0.07730379
000010 d6 b9 03 3e c7 ee 52 3d 2f ad 51 be cd 82 21 be
       0.1286386 0.051497247 -0.2047622 -0.15772553
000020 05 78 ed bd bb d7 97 3e c1 ab e5 bd 27 59 2d 3d
       -0.115951575 0.29656777 -0.112144 0.04232135
000030 43 6a 56 3d aa f9 20 3e 14 a0 81 3e 39 40 e3 3d
       0.052347433 0.1572024 0.25317442 0.11096234
000040 86 70 4f 3d 13 50 82 3e b6 2e 12 3c de 09 1d 3e
       0.05064442 0.25451717 0.00892227 0.15335795
000050 43 94 92 be f3 55 42 be 9c 26 26 3e 31 fc 41 3e
       -0.2862874 -0.189781 0.16225666 0.1894386
000060 cd d8 9d 3e 03 3a 16 3e 85 96 0b 3e e0 e8 8f 3e
       0.30829468 0.14670567 0.13631637 0.28107357
000070 48 f9 67 3e 3c 05 57 3e a3 05 38 be 6d 01 28 3e
       0.22653687 0.2099809 -0.179709 0.16406794
000080 53 a8 38 be d0 bb 82 be 2e 95 8a 3d fd e1 45 bd
       -0.1803296 -0.25533915 0.06766735 -0.048311222
000090 26 41 03 3e 56 0e b2 bc 74 56 42 3d f6 ce 31 3e
       0.12817821 -0.021735352 0.04744573 0.17364106
0000a0 ea 7e 4e be d0 ae 9b 3e 05 55 50 be 23 73 6e 3e
       -0.20165601 0.3040681 -0.20344932 0.23286109
0000b0 b3 90 a1 3e 5c d6 2d 3e 39 4f 1c 3d 3f cd 2d bc
       0.3155571 0.16976303 0.03816149 -0.0106080165
0000c0 3f c8 90 3d 55 6e 46 be
       0.07069444 -0.19378026

secondGCN.linearLayer.bias f4 [5]
000000 40 8f 0a 3e 2a ce 96 3e ce 9e 78 be 3d 19 80 3e
       0.13531208 0.29454166 -0.24279329 0.25019255
000010 41 1d 40 be
       -0.1876116

thirdGCN.attentionLayer.linear.weight f4 [5, 10]
000000 c6 6d 4b be 1d 64 6c 3d 7d 1b c4 3d 16 86 45 bd
       -0.19866094 0.057712663 0.095755555 -0.048223577
000010 17 aa 66 be 46 e4 71 bd 55 3c 53 3e 58 06 8f be
       -0.22525822 -0.05905559 0.20628484 -0.27934527
000020 51 37 90 3e 4b 28 33 3d 72 4c d7 3c e4 5e 5d be
       0.28167203 0.0437396 0.02628157 -0.21618229
000030 86 61 79 3d 74 04 99 3e 9e 9d 61 3d 01 6f 6b be
       0.06088402 0.2988621 0.055081956 -0.22991563
000040 77 87 94 3e 4a 85 9f be 2a 99 33 3e c1 40 8c 3e
       0.290096 -0.3115638 0.17538896 0.27393153
000050 25 13 33 be 53 de 8a be 7a da 10 be ee 0b 06 bc
       -0.17487772 -0.27122745 -0.14145842 -0.008181555
000060 93 6a 2d 3e 12 57 c6 3d 80 ed 13 bd d8 d3 86 3d
       0.16935186 0.09684576 -0.03611517 0.06583375
000070 d6 21 11 be 49 ca 97 3e a5 e0 ab bc c7 6b 03 be
       -0.14173064 0.2964652 -0.020981142 -0.12834083
000080 60 4d 41 bd a5 ac 7a be bb 55 96 3e 94 66 46 be
       -0.04719293 -0.24479921 0.29362282 -0.19375068
000090 58 5c 32 3e f1 17 84 be a1 0a 9a bd 21 07 67 3e
       0.17418039 -0.25799516 -0.075215586 0.22561313
0000a0 54 41 05 3e f7 1b de bd 49 0e 6c be fa 23 b2 3d
       0.13013202 -0.108451776 -0.23052324 0.08698268
0000b0 23 cd fc bd 0b 58 80 bd bc 82 80 3d 88 62 9f be
       -0.12343814 -0.06266793 0.062749356 -0.3112986
0000c0 1c ef 5d be 1d 9b 58 3e
       -0.21673244 0.21152921

thirdGCN.attentionLayer.linear.bias f4 [5]
000000 82 1b 3a 3e ea fe 5a 3d 8a 9e 36 be e0 73 27 bd
       0.18174556 0.05346576 -0.17833915 -0.04088199
000010 aa 6e 40 be
       -0.18792215

thirdGCN.attentionLayer.inAttention.W_sum f4 [5, 5]
000000 80 c0 74 3d 36 a3 ba 3e dc f6 20 3f c8 c6 cc 3d
       0.059753895 0.36452645 0.6287668 0.09998852
000010 96 a4 23 3f 03 2e 3b 3f 6c 5a 5e 3e 7a 8a 51 3f
       0.63923013 0.73117083 0.2171418 0.81851923
000020 fa 9e 26 3f 4e 1e d5 3e d2 db 76 3f 00 66 07 3e
       0.6508633 0.41624683 0.9642917 0.13222504
000030 88 b8 ab 3e 64 d5 ac 3e 14 34 6b 3e 18 af 6c 3f
       0.33539224 0.33756554 0.22969085 0.9245467
000040 a2 cc 03 3f f0 da 61 3e 0a 7f b9 3e e7 c0 37 3f
       0.5148412 0.22056174 0.36229736 0.7177872
000050 c8 0a 0a 3f dc a4 fc 3e d4 51 6b 3f 16 dd e4 3e
       0.539227 0.49344528 0.91921735 0.44699925
000060 e6 f8 25 3f
       0.64832914

thirdGCN.attentionLayer.inAttention.W_alpha f4 [5, 5]
000000 de 6d c0 3e 10 f3 b3 3d 00 f9 45 3c 78 9f bf 3e
       0.37583822 0.08786595 0.012083292 0.37426353
000010 52 10 be 3e 77 6f 3c 3f a6 90 0a 3f 70 ca 57 3f
       0.37121826 0.7360758 0.54126966 0.8429327
000020 63 7c 41 3f 4d 14 4d 3f 52 d2 a2 3e 20 62 4c 3e
       0.75580424 0.801091 0.31801087 0.19959307
000030 60 7b 8a 3e d0 e7 ac 3e 66 4b 7d 3f 19 c0 2f 3f
       0.27047253 0.3377061 0.98943174 0.6865249
000040 80 52 71 3c 8c 39 18 3e 5a c9 93 3e f0 86 30 3d
       0.014729142 0.14865702 0.28864557 0.043097436
000050 17 4d 30 3f 47 52 79 3f 1f e4 58 3f 76 6c dc 3e
       0.6886763 0.9739117 0.84723085 0.430515
000060 12 84 c2 3e
       0.37991387

thirdGCN.attentionLayer.inAttention.a_alpha f4 [5, 1]
000000 a2 1f 32 3f 2a 17 db 3e ba f5 f1 3e b4 5b 86 3e
       0.6957952 0.4279111 0.47257787 0.2624184
000010 ea 19 03 3f
       0.51211417

thirdGCN.attentionLayer.inAttention.b_alpha f4 [5, 1]
000000 e2 64 14 3f 74 0b 5d 3f ef ea 73 3f 2c b8 f8 3e
       0.57966435 0.863456 0.95280355 0.48578012
000010 04 64 a4 3e
       0.32107556

thirdGCN.attentionLayer.outAttention.W_sum f4 [5, 5]
000000 08 d1 a2 3e 73 e2 5f 3f 18 af 76 3f 14 75 79 3f
       0.31800103 0.8745491 0.9636092 0.9744427
000010 00 2a c8 3c 8c 5e 39 3e e4 5e 69 3e 9b 97 53 3f
       0.02443409 0.18102473 0.22790104 0.82653207
000020 d9 68 22 3f c8 04 ae 3e e0 e1 4e 3d d4 c8 18 3f
       0.63441235 0.33988023 0.05050838 0.5968144
000030 f0 c5 3d 3d 0c 99 77 3e 60 61 fb 3d c8 ec 55 3f
       0.046331346 0.24179476 0.12274432 0.83564425
000040 ba 96 7a 3f 60 29 45 3f ca 36 10 3f 53 e4 73 3f
       0.9788624 0.7701626 0.563336 0.9527027
000050 18 96 23 3f b9 b0 69 3f 8c f4 7e 3e d9 f4 39 3f
       0.639009 0.9128528 0.24897975 0.7263923
000060 c0 6c d0 3e
       0.4070797

thirdGCN.attentionLayer.outAttention.W_alpha f4 [5, 5]
000000 28 74 fd 3d 8a 9c 88 3e e8 cf 90 3e c8 c1 7f 3e
       0.12375671 0.2668193 0.2828362 0.24976265
000010 49 4c 49 3f 58 3f a9 3e 78 0c 02 3f 40 f4 ca 3e
       0.78632027 0.3305614 0.50800276 0.39639473
000020 78 31 30 3e 78 f6 1f 3f d5 e9 26 3f 4c c9 3f 3f
       0.17206371 0.62485456 0.6520055 0.7491653
000030 07 33 1b 3f bb 33 46 3f 65 c2 31 3f 60 e5 15 3d
       0.60624737 0.77422684 0.6943725 0.036595702
000040 36 70 1a 3f c0 c4 1c 3f 00 f7 e4 3d 12 c1 dc 3e
       0.6032747 0.61237717 0.11179924 0.4311605
000050 75 de 0f 3f fa f4 ce 3e 08 b4 8b 3e 38 01 25 3f
       0.5619882 0.40421277 0.2728579 0.64454985
000060 a0 90 a6 3d
       0.08133054

thirdGCN.attentionLayer.outAttention.a_alpha f4 [5, 1]
000000 58 b3 7b 3f 9a 00 d3 3e 4e ed 3a 3f 60 b8 94 3c
       0.9832053 0.41211396 0.7301835 0.018154323
000010 e7 f5 7e 3f
       0.9959397

thirdGCN.attentionLayer.outAttention.b_alpha f4 [5, 1]
000000 60 44 5c 3d 11 8a 3e 3f 4c 69 5f 3f fa 5c d7 3e
       0.053776145 0.7442942 0.87270045 0.42063123
000010 e9 bd 2d 3f
       0.67867905

thirdGCN.linearLayer.weight f4 [5, 10]
000000 2c 3c 8c be 8c 4d c3 bd b8 86 18 be 05 89 ad bc
       -0.27389657 -0.09536275 -0.14895141 -0.0211835
000010 94 00 ff bd aa 83 9f 3e 42 5a 81 3e 96 77 b6 3b
       -0.12451282 0.3115514 0.25264174 0.005568455
000020 35 4d d9 3b 33 29 46 3e 82 30 76 3c 80 09 a0 bd
       0.0066315182 0.19351654 0.015026214 -0.07814312
000030 5f aa 0e bd 97 e2 23 3e bd 81 05 3e 5b c0 d6 3c
       -0.034830447 0.16004406 0.13037772 0.02621477
000040 c9 63 7f be cf c6 9c 3e b0 a1 f4 3d 12 c3 97 be
       -0.24940409 0.3062043 0.11944902 -0.29641014
000050 f1 c6 87 3e 34 b3 63 3e 91 e2 98 3e ba 0c be bd
       0.26518968 0.2223633 0.29860356 -0.09279771
000060 ce 91 55 3e dc a4 98 bd d4 79 7d be 00 2f 96 3e
       0.20856401 -0.074533194 -0.24753505 0.29332733
000070 a3 09 19 be 5a 34 9b 3e 3c e9 6f 3e 83 89 d3 3d
       -0.14945082 0.3031338 0.23428816 0.10328963
000080 07 82 3c 3e 28 e9 2c 3e fb d2 f1 bd bf c8 50 3e
       0.18408976 0.16885817 -0.118078195 0.20389079
000090 90 3a de bc 92 95 a0 be 1c fa cd bc 53 3b b0 bd
       -0.027127534 -0.31364113 -0.025143676 -0.08605065
0000a0 5c 80 81 be a6 d5 83 3e 9d a4 8a 3c c7 62 0d be
       -0.25293243 0.25748938 0.016924197 -0.13807212
0000b0 c6 c3 92 bd d8 6e 1a be 78 6d fa bd 98 ce d4 bd
       -0.07166247 -0.15081346 -0.12227911 -0.10390967
0000c0 a2 f6 f7 bd b6 76 81 be
       -0.12107588 -0.25285882

thirdGCN.linearLayer.bias f4 [5]
000000 b5 7e 9a bd e7 d0 f7 bd 55 65 f5 3c 5d 24 86 3e
       -0.07543699 -0.12100392 0.029955545 0.26199618
000010 6b 0b 0d 3e
       0.13773887

ff4.weight f4 [5, 5]
000000 8c d5 14 bf f8 c8 57 be 0d 39 87 3f 75 30 3d bd
       -0.58138347 -0.21072757 1.0564286 -0.04618879
000010 ec f0 3c be 73 0d e9 3d 80 e7 e5 3e 33 27 25 3f
       -0.1845128 0.11379518 0.44903183 0.6451294
000020 f4 88 33 3e 91 1c 97 3e 80 5b 47 3d 03 7e 8e 3e
       0.17532712 0.29513982 0.048671246 0.27830514
000030 f4 83 14 be 2a 2f 82 be c2 94 13 3d 27 d3 8f 3e
       -0.14503461 -0.25426608 0.03603054 0.28090784
000040 be 4c 35 3d 90 d2 89 bc 97 50 0e be 62 25 b9 bd
       0.04426264 -0.016824037 -0.1389793 -0.09040333
000050 9a 26 0c bf 37 d9 21 bf 64 f0 04 3e e9 69 ae be
       -0.547464 -0.6322207 0.12982327 -0.34065178
000060 4d a9 14 bf
       -0.5807083

ff4.bias f4 [5]
000000 b8 38 21 3e 00 c3 cc bd 3f 40 1e 3e 97 6c c1 3d
       0.15744293 -0.09998131 0.15454195 0.0944454
000010 05 39 86 3e
       0.26215377

ff5.weight f4 [5, 5]
000000 7d 37 e4 3e 6a 64 29 be c5 33 22 3e 0d 18 de bc
       0.44573584 -0.16542211 0.15840061 -0.027111078
000010 e4 72 20 3e 57 c8 31 be 65 57 3a 3e 0e 55 a8 3e
       0.15668827 -0.1736158 0.18197401 0.32877392
000020 0e d7 1a 3e d2 e9 93 be 15 b6 5c bd 33 15 c1 be
       0.151211 -0.28889328 -0.053884584 -0.37711486
000030 dd c6 61 be 08 83 89 3d 44 be b9 3e 16 0a 17 bc
       -0.22048517 0.06714445 0.36277974 -0.009218713
000040 38 c0 03 be 6f 0c 79 3e de 89 a5 be 77 4a 22 3e
       -0.12866294 0.2432115 -0.32331747 0.15848719
000050 8b 65 26 3c 24 88 b7 be 77 e9 b7 3e f1 98 4c 3e
       0.010156046 -0.35846055 0.35920307 0.19980218
000060 8f a7 85 3d
       0.065261

ff5.bias f4 [5]
000000 26 18 c6 be 1e 33 cf 3e 68 6c 3e 3d 2d 2b 6f bd
       -0.386903 0.40468687 0.046490103 -0.058390785
000010 ec 01 ff 3d
       0.124515384

ff6.weight f4 [20, 5]
000000 74 1e c5 be 97 4a d7 3d ba 2e 31 3e 31 81 ad 3e
       -0.38499796 0.10512274 0.17302981 0.33887628
000010 30 bb d4 be bf 27 db be b6 f3 f0 3d a8 4d d5 3e
       -0.41549063 -0.4280376 0.11765234 0.4166081
000020 2c 82 ca 3e 2c 4c a3 be 3f e2 df be 69 d8 09 be
       0.39552438 -0.31894052 -0.437273 -0.1346146
000030 83 d2 69 3d ad 4b 9d be db d2 59 3e eb 95 2e be
       0.057085525 -0.307218 0.21271841 -0.17049377
000040 e8 bd cb be 5d 46 47 be 3a 2f c3 3d ba 55 69 be
       -0.39793324 -0.19460435 0.09530492 -0.22786608
000050 22 78 b3 be 74 89 03 3e 1f f5 01 3e 70 9b 4c be
       -0.35052592 0.12845403 0.12691163 -0.1998117
000060 2a 99 ad be 7f 02 de be e4 6d 54 be df 47 15 3e
       -0.33905917 -0.4336128 -0.20745045 0.14578198
000070 ed 8a e1 bd b4 15 98 3e 33 75 8d be 16 ef a7 be
       -0.11012826 0.29704058 -0.27628478 -0.32799596
000080 3b 52 ef 3d fe c8 b8 be 49 00 76 3e 7a 35 de be
       0.11685606 -0.36090845 0.24023546 -0.43400174
000090 e2 82 b1 3c 83 e6 fe bd 57 be 8e 3e 2b 30 46 3e
       0.021668855 -0.1244631 0.27879593 0.19354312
0000a0 cf e2 88 be df 54 51 be 0e 34 80 3e a9 55 86 be
       -0.2673554 -0.20442532 0.25039715 -0.2623723
0000b0 3e 55 12 bd dd ef 83 be fa c5 63 be ba fe 6d be
       -0.035725825 -0.2576894 -0.22243491 -0.23241702
0000c0 7a 7c 53 3d cc 3e a8 be b2 71 da bd 87 59 b3 be
       0.051632382 -0.3286041 -0.10666217 -0.3502924
0000d0 5f 4f b8 3c 7a 9b 4d 3e fb 97 a6 be 75 87 93 be
       0.022498785 0.20078841 -0.32537827 -0.28814283
0000e0 90 c0 89 be 0a 6c c8 be 55 1b 81 3e ba 77 4a be
       -0.26904726 -0.39144927 0.25216165 -0.19772235
0000f0 94 32 bf be ff 08 55 be ae 1f a4 3e 58 7c d0 3e
       -0.37343276 -0.20804213 0.3205542 0.40719867
000100 15 d9 9e 3c d3 12 8d be e8 0c 50 3e 68 04 d4 bd
       0.019390622 -0.27553424 0.20317423 -0.10352403
000110 24 2c 5b 3e f4 dc 01 bf ba ea 76 be 4e da f9 bd
       0.21403557 -0.5072777 -0.24112979 -0.121998414
000120 24 7f 82 be 15 9a 55 be 9a 56 0e be 1e 53 b2 bc
       -0.25487626 -0.20859559 -0.13900223 -0.021768149
000130 42 63 1f bf 9a c7 59 3e 62 59 19 be f4 f3 44 3f
       -0.6226083 0.21267548 -0.14975503 0.7693474
000140 fd ff 73 be 80 ab 53 be 4c 1c 55 be f2 22 ce 3d
       -0.2382812 -0.20670891 -0.20811576 0.10065259
000150 86 52 ca bd eb dd 8f be 1c 43 e0 3d f1 a9 8f 3d
       -0.09879021 -0.28098997 0.109503 0.070148356
000160 94 73 66 3e 4c 32 c4 be 25 d1 a6 be 27 b5 3a 3d
       0.22505027 -0.38319623 -0.3258144 0.045582917
000170 31 80 a6 be d0 ff 51 3c 03 71 50 be 0d 2a e8 be
       -0.32519677 0.012817338 -0.2035561 -0.45344582
000180 8d f9 8e bd 19 59 1d bd e7 b7 c6 3d 40 ed 9f 3e
       -0.06981192 -0.03841505 0.09703045 0.31235695

ff6.bias f4 [20]
000000 ff 07 5b 3e 6c 43 b7 3e be d2 cb be 7f b7 c1 3d
       0.21389769 0.35793626 -0.3980922 0.09458827
000010 36 d0 c0 3d 12 95 e9 3d 2c 05 c8 be c8 56 e8 be
       0.09414713 0.11405386 -0.39066446 -0.4537871
000020 93 00 0c be cc 5c 36 3e f2 f7 9e bd 83 2c 81 3e
       -0.13672094 0.17808837 -0.077621356 0.25229272
000030 7c c6 74 bd dc 29 54 be fc 04 f9 be be 16 07 3c
       -0.059759602 -0.20719093 -0.48636615 0.008245168
000040 83 d3 a9 be 61 f6 37 be b8 8f 73 bd 82 5d 58 be
       -0.33169183 -0.1796508 -0.059463233 -0.2112942
