code/ml_model/model_weights_m8p8n30_lr0.001000_bs250_epochs20.pth (torch, 22438 bytes, 48 tensors)

ff1.weight f4 [5, 5]
-0.4399139 -0.22948748 -0.2132947 0.09566015 -0.048045054 0.25577745 -0.069113426 0.3603185
-0.24955237 0.24858108 0.0323074 -0.049461342 0.0052045323 -0.017725552 -0.36616743 0.16734572
-0.26582345 -0.09949872 -0.037079252 0.42942485 -0.031036869 -0.41631016 0.3496996 -0.30833375
-0.05799441
00000000: 653c e1be c4fe 6abe ed69 5abe 78e9 c33d
00000010: e4ca 44bd 43f5 823e 578b 8dbd ab7b b83e
00000020: a88a 7fbe 0a8c 7e3e c454 043d fa97 4abd
00000030: c88a aa3b 2d35 91bc 4c7a bbbe ad5c 2b3e
00000040: 031a 88be fcc5 cbbd 6ae0 17bd 93dd db3e
00000050: 0841 febc 9b26 d5be d30b b33e ecdd 9dbe
00000060: 8c8b 6dbd

ff1.bias f4 [5]
-0.124546245 -0.28365228 -0.033389796 -0.21207663 -0.19066003
00000000: 1a12 ffbd df3a 91be bdc3 08bd 9e2a 59be
00000010: 623c 43be

ff2.weight f4 [5, 5]
0.37451684 -0.22913173 0.012282768 -0.27145508 0.17241095 -0.3269965 -0.35459912 -0.2713577
-0.36013386 0.38361695 0.33778316 -0.38185215 -0.089776956 0.30522078 -0.2666138 0.3542492
-0.07321883 0.34846327 -0.14902931 -0.13291597 -0.379167 0.4415812 0.035972174 0.029836176
0.04446878
00000000: acc0 bf3e 82a1 6abe aa3d 493c 29fc 8abe
00000010: 7f8c 303e 166c a7be 048e b5be 65ef 8abe
00000020: 7763 b8be 7169 c43e eaf1 ac3e 2082 c3be
00000030: fbdc b7bd e645 9c3e 9b81 88be 2760 b53e
00000040: c1f3 95bd c769 b23e 249b 18be 201b 08be
00000050: 2d22 c2be ee16 e23e 8f57 133d ff6a f43c
00000060: e524 363d

ff2.bias f4 [5]
-0.06657471 0.10027622 0.034047026 0.190436 -0.2522001
00000000: 5258 88bd 9e5d cd3d e574 0b3d a801 433e
00000010: 5f20 81be

ff3.weight f4 [5, 5]
0.2115344 -0.0027948823 -0.16865484 -0.11158711 0.30701616 0.13050157 0.26395658 -0.061827008
0.14106013 0.4037439 0.3235952 -0.008189525 -0.14805013 0.20670485 -0.2441605 -0.008837106
-0.21321245 0.042213306 0.0303396 -0.37996614 -0.12675582 0.42733136 0.013765162 -0.018262351
0.43234274
00000000: 799c 583e 582a 37bb dbb3 2cbe c887 e4bd
00000010: 3931 9d3e 34a2 053e 5125 873e 513e 7dbd
00000020: 1172 103e 85b7 ce3e 45ae a53e 5c2d 06bc
00000030: 749a 17be 70aa 533e 3605 7abe 82c9 10bc
00000040: 5d54 5abe dce7 2c3d c18a f83c ec8a c2be
00000050: 47cc 01be 2dcb da3e 4687 613c ed9a 95bc
00000060: 075c dd3e

ff3.bias f4 [5]
0.2549816 -0.2754222 0.1449654 -0.20038536 0.21071057
00000000: f38c 823e 2304 8dbe cf71 143e d231 4dbe
00000010: 83c4 573e

firstGCN.attentionLayer.linear.weight f4 [5, 10]
0.21468206 0.29821956 -0.23407304 -0.19632275 -0.20623553 0.04132222 0.27276728 0.14827721
0.13260362 0.29327697 0.19088712 -0.2871239 -0.1472732 -0.2718462 0.1308095 0.05755351
-0.090244055 -0.06938638 0.11231939 0.1659512 0.06786318 -0.23361422 0.11075889 0.033575717
0.18582423 -0.1831519 0.30751395 -0.28901225 -0.21804832 -0.18653025 0.11788448 0.28659055
0.21990111 0.1657649 0.2802374 -0.28847903 0.2706204 -0.24828632 0.22012413 0.13013613
0.28473675 0.21786544 0.12524468 -0.017852949 0.06848752 0.0524006 0.1673148 -0.15855831
-0.11344353 0.025221147
00000000: 9dd5 5b3e 3cb0 983e d8b0 6fbe d508 49be
00000010: 682f 53be 7d41 293d 27a8 8b3e fbd5 173e
00000020: 3ec9 073e 6628 963e ea77 433e e701 93be
00000030: c9ce 16be 6d2f 8bbe edf2 053e 3bbd 6b3d
00000040: e0d1 b8bd 721a 8ebd b507 e63d 1def 293e
00000050: dafb 8a3d 9138 6fbe 8fd5 e23d b186 093d
00000060: b548 3e3e 2c8c 3bbe 7872 9d3e 6af9 93be
00000070: 0f48 5fbe c901 3fbe 6b6d f13d ffbb 923e
00000080: c22d 613e 46be 293e 477b 8f3e 86b3 93be
00000090: c28e 8a3e c53e 7ebe 3868 613e 6842 053e
000000a0: 04c9 913e 1e18 5f3e 2440 003e 5940 92bc
000000b0: 2f43 8c3d 03a2 563d 9254 2b3e 1c5d 22be
000000c0: 1555 e8bd 949c ce3c

firstGCN.attentionLayer.linear.bias f4 [5]
-0.15473917 -0.15178286 0.06257707 -0.14924674 -0.03284788
00000000: f273 1ebe f76c 1bbe 6828 803d 23d4 18be
00000010: 808b 06bd

firstGCN.attentionLayer.inAttention.W_sum f4 [5, 5]
0.12295528 0.699889 0.6606557 0.8579023 0.8799435 0.2812563 0.7027879 0.106436804
0.003421391 0.34217715 0.5954629 0.33889452 0.5591602 0.57749665 0.7816396 0.35365447
0.23159748 0.818141 0.5407295 0.33440694 0.22943313 0.33340493 0.84919626 0.95802116
0.029546322
00000000: facf fb3d ed2b 333f bb20 293f 7c9f 5b3f
00000010: fa43 613f d300 903e e8e9 333f 8afb d93d
00000020: 6a39 603b d831 af3e 4270 183f 9583 ad3e
00000030: 1f25 0f3f d2d6 133f 8819 483f 3312 b53e
00000040: e427 6d3e b071 513f 406d 0a3f 6337 ab3e
00000050: 85f0 6a3e 0db4 aa3e ed64 593f e040 753f
00000060: 210b f23c

firstGCN.attentionLayer.inAttention.W_alpha f4 [5, 5]
0.36265504 0.44027963 0.99223477 0.3041188 0.12992 0.9129611 0.5125013 0.013804557
0.6633299 0.1665805 0.680787 0.5378037 0.075524114 0.067756526 0.18564045 0.43155867
0.15728265 0.21355617 0.69772774 0.26597327 0.13878405 0.09082947 0.21378845 0.8175958
0.3815084
00000000: ecad b93e 556c e13e 1903 7e3f 76b5 9b3e
00000010: c009 053e d2b7 693f 4933 033f 822c 623c
00000020: fdcf 293f 1494 2a3e 0f48 2e3f 81ad 093f
00000030: 63ac 9a3d efc3 8a3d 8818 3e3e 42f5 dc3e
00000040: b40e 213e 78ae 5a3e 499e 323f a62d 883e
00000050: 681d 0e3e cd04 ba3d 5ceb 5a3e f54d 513f
00000060: 1255 c33e

firstGCN.attentionLayer.inAttention.a_alpha f4 [5, 1]
0.9159192 0.58923227 0.20577157 0.32072914 0.90875375
00000000: ae79 6a3f edd7 163f c8b5 523e 9c36 a43e
00000010: 16a4 683f

firstGCN.attentionLayer.inAttention.b_alpha f4 [5, 1]
0.57820153 0.66713464 0.6958159 0.75488204 0.1975522
00000000: 0405 143f 56c9 2a3f fe20 323f f33f 413f
00000010: 204b 4a3e

firstGCN.attentionLayer.outAttention.W_sum f4 [5, 5]
0.3648765 0.77143794 0.041640125 0.9403066 0.010567078 0.43974632 0.12392458 0.068464
0.97846025 0.5208085 0.69247425 0.7672646 0.48501205 0.922586 0.7507263 0.44769636
0.90578467 0.17733198 0.6971933 0.4471782 0.015351352 0.40474966 0.6669906 0.8503884
0.23260224
00000000: 18d1 ba3e f57c 453f d68e 2a3d efb7 703f
00000010: 8a21 2d3c 6e26 e13e 2ccc fd3d db36 8c3d
00000020: 5f7c 7a3f b553 053f fe45 313f 746b 443f
00000030: 8053 f83e 992e 6c3f 992f 403f 7538 e53e
00000040: 81e1 673f 8496 353e 437b 323f 8bf4 e43e
00000050: 3d84 7b3c 593b cf3e e5bf 2a3f 0eb3 593f
00000060: 482f 6e3e

firstGCN.attentionLayer.outAttention.W_alpha f4 [5, 5]
0.848756 0.01456114 0.33980072 0.39612266 0.8106642 0.25041598 0.5994945 0.5589541
0.6283111 0.5344839 0.76949686 0.77808326 0.78472316 0.4912336 0.9721143 0.76664144
0.22891606 0.6487454 0.83070666 0.8467502 0.21279764 0.39402905 0.64795595 0.35409772
0.5208122
00000000: 1348 593f d991 6e3c 5cfa ad3e 97d0 ca3e
00000010: b087 4f3f 8636 803e 7978 193f 9e17 0f3f
00000020: ffd8 203f f0d3 083f bffd 443f 7730 473f
00000030: 9ee3 483f f882 fb3e 7cdc 783f 9d42 443f
00000040: f968 6a3e 2e14 263f 31a9 543f 9fc4 583f
00000050: a0e7 593e 2dbe c93e 71e0 253f 4c4c b53e
00000060: f353 053f

firstGCN.attentionLayer.outAttention.a_alpha f4 [5, 1]
0.56714743 0.7351152 0.8356515 0.33051366 0.31597328
00000000: 9330 113f 8230 3c3f 42ed 553f 1639 a93e
00000010: 40c7 a13e

firstGCN.attentionLayer.outAttention.b_alpha f4 [5, 1]
0.7438025 0.00870849 0.27987236 0.39262128 0.30475137
00000000: d769 3e3f 0eae 0e3c 6e4b 8f3e a805 c93e
00000010: 5f08 9c3e

firstGCN.linearLayer.weight f4 [5, 10]
0.10158224 -0.15998541 -0.10018533 -0.17710947 -0.23303777 0.07106225 0.22418483 0.28908724
-0.29535553 0.04495047 0.17543484 -0.018265354 -0.09701951 0.12198013 -0.20932584 -0.12002948
-0.18806419 -0.18994717 -0.17812797 -0.016990695 0.15737332 -0.10702908 -0.06005204 0.044957973
0.28212228 -0.28692615 0.28981715 0.11963189 -0.2955547 -0.032095846 -0.14298612 0.082553625
0.25606745 -0.11925642 -0.08669939 -0.21779585 -0.091645576 -0.26735982 -0.14754096 -0.21371882
-0.28870192 0.013764787 -0.22716732 -0.28770018 -0.22547482 0.1255512 -0.08601201 -0.03800196
-0.12056626 0.18096206
00000000: 590a d03d 37d3 23be f72d cdbd 2f5c 35be
00000010: 74a1 6ebe 1689 913d b590 653e 3e03 943e
00000020: d738 97be fc1d 383d 31a5 333e 39a1 95bc
00000030: 2ab2 c6bd b8d0 f93d 8359 56be 04d2 f5bd
00000040: e693 40be 8381 42be 2e67 36be 1230 8bbc
00000050: 7926 213e 1032 dbbd 21f9 75bd da25 383d
00000060: 5572 903e fce7 92be ea62 943e 9001 f53d
00000070: f252 97be ef76 03bd f46a 12be e011 a93d
00000080: 461b 833e b63c f4bd 738f b1bd e005 5fbe
00000090: adb0 bbbd 63e3 88be fa14 17be 1bd9 5abe
000000a0: bdd0 93be b485 613c 8d9e 68be 704d 93be
000000b0: dfe2 66be 7e90 003e 1127 b0bd f1a7 1bbd
000000c0: 71eb f6bd 1e4e 393e

firstGCN.linearLayer.bias f4 [5]
-0.13531943 -0.24695154 0.3113959 0.19312003 -0.2870992
00000000: 2d91 0abe dde0 7cbe 496f 9f3e 42c1 453e
00000010: abfe 92be

secondGCN.attentionLayer.linear.weight f4 [5, 10]
-0.29370043 0.21156825 -0.005239395 -0.070313014 -0.060562424 -0.08437912 -0.3055954 -0.2737025
-0.30797455 -0.14029403 0.054552045 0.022189038 -0.0059372475 -0.14952753 -0.08991252 -0.14558794
-0.06561036 0.18173979 -1.2628591e-05 -0.12041912 -0.21208173 -0.012114514 0.22140491 0.29281175
-0.2534613 0.057025667 0.12001957 0.15734327 0.28870657 -0.11239766 -0.20484853 0.18255122
-0.2845016 0.19906655 0.04295376 -0.30239245 -0.12336452 0.31602103 -0.26551557 -0.16197552
0.27273506 0.27838776 -0.10801758 -0.10327997 -0.04827424 0.16299516 -0.05216792 0.07500087
-0.14187774 0.1493559
00000000: e75f 96be 59a5 583e 3baf abbb 4500 90bd
00000010: 4e10 78bd f6ce acbd 0077 9cbe bc22 8cbe
00000020: d7ae 9dbe 3da9 0fbe f771 5f3d c9c5 b53c
00000030: 3e8d c2bb bf1d 19be 0e24 b8bd 0115 15be
00000040: b95e 86bd ff19 3a3e 63df 53b7 4d9e f6bd
00000050: f42b 59be f47b 46bc f8b7 623e 6ceb 953e
00000060: aec5 81be bf93 693d d2cc f53d 981e 213e
00000070: 59d1 933e bf30 e6bd d0c3 51be b5ee 3a3e
00000080: 32aa 91be 1ad8 4b3e 48f0 2f3d 2fd3 9abe
00000090: 8aa6 fcbd 82cd a13e a8f1 87be e9dc 25be
000000a0: eea3 8b3e d788 8e3e 5238 ddbd 7384 d3bd
000000b0: 36bb 45bd 34e8 263e 07ae 55bd 0e9a 993d
000000c0: 6648 11be c1f0 183e

secondGCN.attentionLayer.linear.bias f4 [5]
0.025623072 -0.115710616 0.2828232 0.21423885 0.15105914
00000000: 7ae7 d13c b0f9 ecbd 34ce 903e 6e61 5b3e
00000010: 3faf 1a3e

secondGCN.attentionLayer.inAttention.W_sum f4 [5, 5]
0.7146385 0.37664968 0.2546324 0.43210834 0.23662406 0.6598018 0.511078 0.32963216
0.97731316 0.662243 0.58867353 0.8973319 0.16589952 0.95640904 0.2922057 0.6464997
0.22172707 0.52087563 0.25441456 0.03341961 0.18970919 0.34210354 0.37739354 0.5369451
0.9985045
00000000: 8cf2 363f 3ad8 c03e 2e5f 823e 4e3d dd3e
00000010: 944d 723e c5e8 283f 02d6 023f 8cc5 a83e
00000020: 3231 7a3f c288 293f 4fb3 163f 8bb7 653f
00000030: 90e1 293e 39d7 743f fc9b 953e 0181 253f
00000040: 6c0c 633e 1b58 053f a042 823e 00e3 083d
00000050: 2043 423e 3228 af3e ba39 c13e 3c75 093f
00000060: fe9d 7f3f

secondGCN.attentionLayer.inAttention.W_alpha f4 [5, 5]
0.049866498 0.856526 0.3897524 0.54531604 0.42742294 0.8512762 0.16065967 0.7170238
0.9379947 0.83667684 0.0562374 0.29066575 0.07922852 0.212183 0.32171857 0.6767261
0.009653389 0.78290206 0.394485 0.6788073 0.89813817 0.9582457 0.44390917 0.9876076
0.5514888
00000000: d040 4c3d 4a45 5b3f a08d c73e d599 0b3f
00000010: 2ed7 da3e 3ded 593f f883 243e df8e 373f
00000020: 6c20 703f 7430 563f 3059 663d 24d2 943e
00000030: 9042 a23d 8046 593e 4cb8 a43e ec3d 2d3f
00000040: 4029 1e3c 456c 483f f0f9 c93e 51c6 2d3f
00000050: 62ec 653f 974f 753f 1048 e33e dad3 7c3f
00000060: 5f2e 0d3f

secondGCN.attentionLayer.inAttention.a_alpha f4 [5, 1]
0.40312338 0.39316273 0.76148456 0.1053676 0.4541698
00000000: 3066 ce3e a04c c93e a7f0 423f f8ca d73d
00000010: f288 e83e

secondGCN.attentionLayer.inAttention.b_alpha f4 [5, 1]
0.04667902 0.26920873 0.34910536 0.34968722 0.71161276
00000000: 8032 3f3d bad5 893e f0bd b23e 340a b33e
00000010: 412c 363f

secondGCN.attentionLayer.outAttention.W_sum f4 [5, 5]
0.5916392 0.25465047 0.6514161 0.11866701 0.54946756 0.94281566 0.1252585 0.27621692
0.7399604 0.5165754 0.043458045 0.48385453 0.70004016 0.54459494 0.94406766 0.11931509
0.95185137 0.99013245 0.39269334 0.82873297 0.6179571 0.4601543 0.5355251 0.33836567
0.2361803
00000000: ab75 173f 8c61 823e 35c3 263f b007 f33d
00000010: e8a9 0c3f 5e5c 713f c443 003e 4e6c 8d3e
00000020: 0b6e 3d3f 493e 043f 1001 323d c8bb f73e
00000030: d535 333f 936a 0b3f 6bae 713f 785b f43d
00000040: 88ac 733f 5279 7d3f 1a0f c93e d827 543f
00000050: 7032 1e3f 5899 eb3e 2c18 093f 443e ad3e
00000060: 40d9 713e

secondGCN.attentionLayer.outAttention.W_alpha f4 [5, 5]
0.32578212 0.35710043 0.32096648 0.88195515 0.8286666 0.31750524 0.70707625 0.70017207
0.8508743 0.2275526 0.319816 0.30811185 0.13118309 0.100507796 0.8699005 0.6629172
0.13195372 0.02604109 0.27071756 0.36066705 0.82682884 0.67037684 0.5226329 0.663491
0.38606203
00000000: eacc a63e ded5 b63e b855 a43e d0c7 613f
00000010: 7f23 543f 0c90 a23e f302 353f 7a3e 333f
00000020: e6d2 593f 8c03 693e ecbe a33e d6c0 9d3e
00000030: dc54 063e 08d7 cd3d cdb1 5e3f f1b4 293f
00000040: e01e 073e 2054 d53c 7e9b 8a3e 5aa9 b83e
00000050: 0eab 533f d19d 2b3f 45cb 053f 8cda 293f
00000060: eca9 c53e

secondGCN.attentionLayer.outAttention.a_alpha f4 [5, 1]
0.18846136 0.8294107 0.7528133 0.8817683 0.5119489
00000000: 04fc 403e 4254 543f 5fb8 403f 91bb 613f
00000010: 150f 033f

secondGCN.attentionLayer.outAttention.b_alpha f4 [5, 1]
0.031285346 0.25908893 0.83355325 0.2653883 0.728227
00000000: 1025 003d 4ea7 843e bf63 553f fae0 873e
00000010: 166d 3a3f

secondGCN.linearLayer.weight f4 [5, 10]
-0.14480881 -0.12653354 0.26970664 -0.28824386 0.2657949 -0.030218937 -0.009167942 -0.024748381
0.30297253 -0.04136527 0.05849028 -0.3018876 -0.0035606595 0.27146438 0.16831793 0.0028729856
-0.1363563 -0.15135895 0.10595739 -0.08417891 -0.24911729 0.24468796 -0.11920252 0.30663958
-0.20780969 0.23991744 -0.28727847 0.17052643 0.05659079 0.23636459 0.16398855 -0.022374697
-0.17483859 -0.24741724 0.31387156 -0.21773934 -0.22626017 0.122748666 -0.07050773 -0.05058271
0.031545654 -0.13500653 0.122260444 0.018758057 0.19555758 -0.013942869 -0.084745534 -0.30701652
0.13489081 -0.26152086
00000000: c348 14be 0292 01be fd16 8a3e b394 93be
00000010: 4516 883e b48d f7bc 2335 16bc 1ebd cabc
00000020: 371f 9b3e a16e 29bd 8193 6f3d 0391 9abe
00000030: f459 69bb 61fd 8a3e 895b 2c3e b348 3c3b
00000040: fca0 0bbe d7fd 1abe 3000 d93d fe65 acbd
00000050: 9a18 7fbe 7b8f 7a3e 7320 f4bd ddff 9c3e
00000060: 10cc 54be ebac 753e 2a16 93be 7b9e 2e3e
00000070: bfcb 673d 8f09 723e 9dec 273e 244b b7bc
00000080: e308 33be f25a 7dbe c6b3 a03e 10f7 5ebe
00000090: bfb0 67be a763 fb3d 5b66 90bd d12f 4fbd
000000a0: 0436 013d 273f 0abe af63 fa3d 7faa 993c
000000b0: 3f40 483e a270 64bc 118f adbd 4531 9dbe
000000c0: d120 0a3e 10e6 85be

secondGCN.linearLayer.bias f4 [5]
0.008024659 0.057748813 0.26653972 -0.054821845 0.11981857
00000000: dc79 033c 058a 6c3d e577 883e df8c 60bd
00000010: 7063 f53d

thirdGCN.attentionLayer.linear.weight f4 [5, 10]
-0.2304106 -0.15699273 0.0691516 -0.20165293 -0.19123024 -0.1687084 0.18086699 -0.18029353
-0.19602841 0.1846447 -0.0025102624 -0.27210498 -0.02479788 -0.17811388 -0.057179585 -0.10140178
0.18471783 0.05212702 0.16076687 -0.22987795 0.11119716 0.11560461 0.2968274 -0.21900457
-0.022262434 0.2782597 -0.28055972 -0.28437963 -0.0255614 0.30592686 -0.058616944 0.22948435
0.029249137 0.012688303 0.3137418 -0.15289666 0.094230704 0.1834751 -0.22464952 0.24705806
0.199379 -0.06087422 -0.18891615 0.045338865 0.025901165 -0.23040484 0.31415254 0.10077167
-0.26633337 -0.018943151
00000000: c2f0 6bbe b4c2 20be 5b9f 8d3d 1b7e 4ebe
00000010: dcd1 43be e5c1 2cbe 3235 393e de9e 38be
00000020: acbb 48be 8013 3d3e 3783 24bb 5851 8bbe
00000030: ec24 cbbc 7c63 36be 2435 6abd bdab cfbd
00000040: ac26 3d3e 2483 553d 12a0 243e 2065 6bbe
00000050: 56bb e33d 1cc2 ec3d c3f9 973e bc42 60be
00000060: b55f b6bc 0e78 8e3e 86a5 8fbe 359a 91be
00000070: 2466 d1bc 72a2 9c3e 5218 70bd f2fd 6a3e
00000080: e39b ef3c 9ae2 4f3c c4a2 a03e f190 1cbe
00000090: 07fc c03d e6e0 3b3e 860a 66be cafc 7c3e
000000a0: 022a 4c3e 3f57 79bd 3c73 41be 3fb5 393d
000000b0: ae2e d43c 3fef 6bbe 9ad8 a03e 6161 ce3d
000000c0: d95c 88be ab2e 9bbc

thirdGCN.attentionLayer.linear.bias f4 [5]
0.30255476 0.1890747 0.07651543 0.23410697 0.07622392
00000000: 75e8 9a3e cc9c 413e 1fb4 9c3d bdb9 6f3e
00000010: 491b 9c3d

thirdGCN.attentionLayer.inAttention.W_sum f4 [5, 5]
0.2085759 0.73439795 0.40209764 0.8977925 0.5523494 0.5108777 0.2968638 0.2878452
0.846117 0.99220896 0.7171318 0.6770116 0.33095312 0.94588286 0.12868339 0.7625559
0.3008089 0.4074037 0.9138999 0.6014544 0.11228478 0.9426514 0.9094419 0.25060105
0.51273096
00000000: ec94 553e 8101 3c3f bedf cd3e bbd5 653f
00000010: c566 0d3f e2c8 023f 88fe 973e 7260 933e
00000020: 209b 583f 6801 7e3f f395 373f a250 2d3f
00000030: b072 a93e 6125 723f 94c5 033e dd36 433f
00000040: a003 9a3e 3897 d03e 58f5 693f eaf8 193f
00000050: 90f5 e53d 9a51 713f 2fd1 683f c84e 803e
00000060: 5642 033f

thirdGCN.attentionLayer.inAttention.W_alpha f4 [5, 5]
0.5303999 0.9631276 0.4895019 0.9099715 0.59823465 0.6205413 0.04023838 0.2569664
0.6786601 0.63537055 0.5506673 0.12047815 0.7137594 0.7943688 0.88698417 0.052720487
0.31583333 0.9448999 0.71056825 0.11951482 0.18316823 0.6248489 0.2765063 0.07014334
0.8749132
00000000: 4ac8 073f 888f 763f fe9f fa3e e4f3 683f
00000010: e825 193f cbdb 1e3f 00d1 243d 1a91 833e
00000020: abbc 2d3f a5a7 223f 88f8 0c3f 40bd f63d
00000030: f0b8 363f c15b 4b3f 6511 633f 70f1 573d
00000040: e8b4 a13e f6e4 713f cde7 353f 30c4 f43d
00000050: 7490 3b3e 19f6 1f3f 3c92 8d3e 50a7 8f3d
00000060: 50fa 5f3f

thirdGCN.attentionLayer.inAttention.a_alpha f4 [5, 1]
0.09631699 0.012692034 0.64328355 0.47978258 0.1592778
00000000: d841 c53d 40f2 4f3c 3bae 243f 10a6 f53e
00000010: b819 233e

thirdGCN.attentionLayer.inAttention.b_alpha f4 [5, 1]
0.32065648 0.0559687 0.99492615 0.83512646 0.5369895
00000000: 162d a43e 703f 653d 7bb3 7e3f d9ca 553f
00000010: 2578 093f

thirdGCN.attentionLayer.outAttention.W_sum f4 [5, 5]
0.73048633 0.18086857 0.77313024 0.8609002 0.88176304 0.17581075 0.2615071 0.3677845
0.7680712 0.4047652 0.05722928 0.98236865 0.29152763 0.7492434 0.5719554 0.95653385
0.78479403 0.030535102 0.83113164 0.23726398 0.1911096 0.07994044 0.95534164 0.76564884
0.45565903
00000000: 2701 3b3f 9c35 393e ddeb 453f f563 5c3f
00000010: 39bb 613f bc07 343e 42e4 853e 404e bc3e
00000020: 50a0 443f 623d cf3e 4069 6a3d 837c 7b3f
00000030: 1c43 953e 6ace 3f3f ab6b 123f 67df 743f
00000040: 43e8 483f c024 fa3c 0bc5 543f 54f5 723e
00000050: 3cb2 433e d0b7 a33d 4591 743f 9001 443f
00000060: 244c e93e

thirdGCN.attentionLayer.outAttention.W_alpha f4 [5, 5]
0.043367505 0.6206516 0.08417684 0.5826458 0.86315286 0.059256196 0.31636852 0.6658615
0.46970117 0.07820445 0.06316179 0.662922 0.42709225 0.1680243 0.3641734 0.5913695
0.17710376 0.33507794 0.09978795 0.7032811 0.6018371 0.9747412 0.44998258 0.08359176
0.98608786
00000000: 20a2 313d 06e3 1e3f e864 ac3d 4628 153f
00000010: 96f7 5c3f a0b6 723d 0efb a13e e675 2a3f
00000020: ac7c f03e a829 a03d f85a 813d 42b5 293f
00000030: d6ab da3e 900e 2c3e f074 ba3e fe63 173f
00000040: b05a 353e 568f ab3e a05d cc3d 3b0a 343f
00000050: ff11 1a3f a488 793f 1e64 e63e 2832 ab3d
00000060: 4170 7c3f

thirdGCN.attentionLayer.outAttention.a_alpha f4 [5, 1]
0.8901886 0.8780571 0.89690644 0.67480683 0.15240532
00000000: 66e3 633f 5ac8 603f a99b 653f 24c0 2c3f
00000010: 2410 1c3e

thirdGCN.attentionLayer.outAttention.b_alpha f4 [5, 1]
0.69830126 0.36520404 0.68927616 0.36211002 0.55144674
00000000: dfc3 323f 06fc ba3e 6774 303f 7c66 b93e
00000010: 9d2b 0d3f

thirdGCN.linearLayer.weight f4 [5, 10]
0.10230022 -0.3147087 0.043266498 0.22411203 0.11839915 0.13698798 -0.14313893 0.020468835
-0.29693463 -0.1933213 0.026468396 -0.0021788278 -0.26321673 0.12826729 -0.1327193 -0.07684664
-0.13787752 0.0008525241 0.08948548 0.022354944 -0.12869315 0.21718343 0.12971553 0.12151268
0.06348491 0.26727822 0.11956181 -0.29822707 -0.029987287 -0.01791311 0.0686586 -0.064836584
0.14879258 -0.23843113 -0.033300765 0.23749083 0.26275578 -0.013476253 -0.12503779 0.03405505
-0.14719242 0.29792 0.25512028 0.012133174 0.2317443 -0.055452973 0.1434107 0.08391288
-0.117053054 0.20256467
00000000: c782 d13d 8021 a1be 3638 313d a07d 653e
00000010: 417b f23d 9446 0c3e 0393 12be 42ae a73c
00000020: d107 98be 05f6 45be 40d4 d83c aaca 0ebb
00000030: 58c4 86be 8058 033e 91e7 07be c561 9dbd
00000040: c42f 0dbe ed7b 5f3a 2a44 b73d b721 b73c
00000050: 23c8 03be 5565 5e3e 26d4 043e a4db f83d
00000060: 6004 823d b1d8 883e d2dc f43d 38b1 98be
00000070: e6a7 f5bc 84be 92bc e19c 8c3d 0bc9 84bd
00000080: 155d 183e 4a27 74be 6266 08bd cc30 733e
00000090: ed87 863e 80cb 5cbc e809 00be 4f7d 0b3d
000000a0: 9cb9 16be f888 983e 209f 823e 38ca 463c
000000b0: 614e 6d3e a822 63bd 41da 123e 84da ab3d
000000c0: 83b9 efbd 1d6d 4f3e

thirdGCN.linearLayer.bias f4 [5]
-0.11253315 -0.25234973 0.09113625 0.0049253767 0.060762297
00000000: c877 e6bd fc33 81be a4a5 ba3d 0e65 a13b
00000010: e3e1 783d

ff4.weight f4 [5, 5]
0.26945034 0.12905927 -0.33831796 0.26626888 -0.3056213 -0.01302999 -0.18858197 -0.09365481
-0.20401612 -0.08464695 0.21243265 0.21195056 -0.3759 -0.09892696 0.38052684 0.2594063
-0.30770677 0.066924095 0.38520423 -0.3955264 0.12753198 -0.01625008 -0.33937734 0.36363098
0.3784144
00000000: 65f5 893e 1d28 043e 0338 adbe 6554 883e
00000010: 657a 9cbe bd7b 55bc a21b 41be 18ce bfbd
00000020: 9ae9 50be 615b adbd f287 593e 9109 593e
00000030: f775 c0be 389a cabd 6ad4 c23e e7d0 843e
00000040: be8b 9dbe 800f 893d 7d39 c53e 7082 cabe
00000050: be97 023e e31e 85bc dec2 adbe d72d ba3e
00000060: 88bf c13e

ff4.bias f4 [5]
-0.3518981 -0.19833028 -0.40311775 -0.42168263 0.34951544
00000000: fd2b b4be 1817 4bbe 7365 cebe c9e6 d7be
00000010: b0f3 b23e

ff5.weight f4 [5, 5]
0.042832684 0.046582334 0.17676558 -0.20185997 -0.11414113 -0.33476326 -0.2967414 -0.17622063
-0.40062407 -0.01811505 0.443736 -0.14166915 0.3641692 0.41423798 -0.37301266 -0.04948016
-0.059948668 -0.25558868 -0.23828189 0.40504545 -0.3948041 0.06578841 -0.43582466 -0.25956437
0.06549306
00000000: 5371 2f3d 1ecd 3e3d 0902 353e 61b4 4ebe
00000010: d3c2 e9bd 1766 abbe 7dee 97be 2e73 34be
00000020: 991e cdbe 0366 94bc 5d31 e33e b811 11be
00000030: 6374 ba3e 0017 d43e 84fb bebe b5ab 4abd
00000040: bc8c 75bd 85dc 82be 2b00 74be 1e62 cf3e
00000050: c323 cabe 13bc 863d 6924 dfbe 9fe5 84be
00000060: 3a21 863d

ff5.bias f4 [5]
-0.2945475 0.188856 0.34393296 0.040933765 0.068798885
00000000: eece 96be 7863 413e fb17 b03e 2aaa 273d
00000010: 6ee6 8c3d

ff6.weight f4 [30, 5]
-0.21665905 -0.20037171 0.024755541 0.08788589 0.13296472 0.36550424 0.35611552 0.4393283
0.34904054 -0.4470108 -0.1849567 -0.09677437 0.35956696 -0.4147349 -0.077565506 0.18513301
-0.3610312 0.0055582137 0.10667111 -0.10561872 -0.36408553 -0.41395468 -0.37479407 0.1437014
-0.0010002202 0.3339282 -0.11345063 0.07246423 0.30027276 0.39300936 0.33323178 -0.2380326
-0.22032043 -0.15060173 -0.07536457 -0.23279296 -0.25805888 0.20404644 -0.37206098 0.12464461
-0.27315447 -0.39309454 0.11326326 0.004590315 -0.38650826 0.016678914 0.061379936 0.075963534
0.4420623 -0.16533084 -0.16789377 0.08615371 -0.065107234 0.020920401 -0.3258114 -0.3132225
0.20191723 -0.33518156 -0.0048170737 -0.37993115 0.06076095 -0.34532052 -0.23929079 0.1867407
0.22835258 0.4088234 0.13855739 -0.20123181 -0.35793668 -0.30902115 -0.1652472 0.44179964
-0.0935609 0.02963482 -0.20876473 -0.2848525 -0.44032013 0.36649388 0.0824538 0.22747993
-0.07355219 0.10710138 -0.12385276 0.022731317 -0.14801025 -0.01524617 0.009752846 -0.41501835
-0.20774834 0.18833551 0.20857158 -0.0115345875 0.054734148 0.15315144 0.29755852 0.31433815
-0.33729798 -0.33089092 0.2377459 0.22828136 -0.3523918 0.4061885 -0.42115778 -0.41925877
0.2254301 0.0749132 -0.033391286 0.23790783 -0.02374752 0.3649047 -0.05939412 0.4126615
-0.36254233 -0.18144965 0.36904013 -0.07646638 0.4070078 0.398023 0.3896693 -0.0405035
-0.14655164 -0.15864936 -0.005581288 -0.29047802 -0.08052578 0.09643626 -0.26007515 -0.32879934
0.22286505 0.24262261 -0.015551341 0.11670272 -0.43650225 0.1629176 -0.32625702 0.21340832
0.2733846 0.35911816 0.43679243 -0.08088239 0.23658487 0.29413566 0.10501282 0.4366062
-0.44385433 -0.14494349 -0.08160049 -0.2589968 -0.082354635 -0.40570974
00000000: dfdb 5dbe 3e2e 4dbe 22cc ca3c 84fd b33d
00000010: e727 083e 5f23 bb3e c654 b63e a4ef e03e
00000020: 71b5 b23e 99de e4be 4a65 3dbe a431 c6bd
00000030: 2919 b83e 2258 d4be aada 9ebd 8293 3d3e
00000040: 15d9 b8be ad21 b63b 6276 da3d a14e d8bd
00000050: 6b69 babe def1 d3be 02e5 bfbe 7626 133e
00000060: d219 83ba a3f8 aa3e ce58 e8bd 2068 943d
00000070: 5abd 993e 8638 c93e 5b9d aa3e d1be 73be
00000080: ae9b 61be 5737 1abe bd58 9abd 4761 6ebe
00000090: 4b20 84be 8df1 503e c77e bebe ac45 ff3d
000000a0: e7da 8bbe b043 c9be 91f6 e73d 5a6a 963b
000000b0: 69e4 c5be 38a2 883c 8769 7b3d c592 9b3d
000000c0: fd55 e23e 7d4c 29be 58ec 2bbe 5b71 b03d
000000d0: f156 85bd 4361 ab3c c0d0 a6be b35e a0be
000000e0: 64c3 4e3e eb9c abbe 8bd8 9dbb 5686 c2be
000000f0: 79e0 783d dacd b0be a508 75be f438 3f3e
00000100: 42d5 693e 4d51 d13e fde1 0d3e b60f 4ebe
00000110: 7a43 b7be 0538 9ebe 9036 29be 9033 e23e
00000120: db9c bfbd b9c4 f23c 6cc6 55be 30d8 91be
00000130: a471 e1be 16a5 bb3e 8add a83d 80f0 683e
00000140: 88a2 96bd f857 db3d 84a6 fdbd 0737 ba3c
00000150: 0090 17be 12cb 79bc 67ca 1f3c 497d d4be
00000160: fbbb 54be 06db 403e ca93 553e 91fb 3cbc
00000170: ea30 603d bbd3 1c3e 9759 983e eef0 a03e
00000180: 52b2 acbe 896a a9be a973 733e 97c2 693e
00000190: b36c b4be f0f7 cf3e fea1 d7be 16a9 d6be
000001a0: 26d7 663e 186c 993d 4dc5 08bd 1c9e 733e
000001b0: 298a c2bc cad4 ba3e 4047 73bd 5e48 d33e
000001c0: 269f b9be f0cd 39be d4f2 bc3e 689a 9cbd
000001d0: 5463 d03e acc9 cb3e bc82 c73e ffe6 25bd
000001e0: a211 16be fa74 22be 3de3 b6bb 89b9 94be
000001f0: b3ea a4bd 6080 c53d 9228 85be 6358 a8be
00000200: bc36 643e 1072 783e 0dcb 7ebc d601 ef3d
00000210: 397d dfbe dfd3 263e 290b a7be b687 5a3e
00000220: 11f9 8b3e 56de b73e 42a3 df3e aba5 a5bd
00000230: 4e43 723e f398 963e f610 d73d d98a df3e
00000240: e040 e3be 116c 14be 281e a7bd 3b9b 84be
00000250: 8ca9 a8bd 30b9 cfbe

ff6.bias f4 [30]
0.283938 0.436576 -0.12584549 0.14373715 -0.21842025 0.0038257276 0.21595536 -0.39331686
0.30298558 -0.40158495 -0.35284257 0.23028766 -0.2736099 0.20601295 0.0010915513 -0.021701045
0.3222623 0.15569232 0.06383175 0.17380859 -0.2826399 -0.12667695 0.279641 0.15749706
-0.18295781 -0.011588421 0.37207162 -0.15240332 0.047621015 -0.31203955
00000000: 5260 913e e486 df3e a4dd 00be d52f 133e
00000010: 8fa9 5fbe 0fb9 7a3b 6723 5d3e d460 c9be
00000020: ed20 9b3e 8b9c cdbe c8a7 b4be 87d0 6b3e
00000030: 9916 8cbe 0ff5 523e 6212 8f3a 64c6 b1bc
00000040: 90ff a43e cf6d 1f3e 38ba 823d e1fa 313e
00000050: 2db6 90be 9ab7 01be 1b2d 8f3e e946 213e
00000060: 4b59 3bbe 5cdd 3dbc 2c80 be3e 9e0f 1cbe
00000070: 410e 433d a6c3 9fbe
