code/ml_model/model_weights_m8p8n10_lr0.100000_bs10_epochs30.pth (torch, 21874 bytes, 48 tensors)

ff1.weight f4 [5, 5]
0	0x3e822436	0.25418252
1	0x3e97307c	0.29529178
2	0x3e9c72a7	0.30556223
3	0x3d948489	0.072518416
4	0x3ea7d250	0.32777643
5	0x3ccbb5ea	0.024867017
6	0x3ea65f68	0.32494664
7	0xbe4cad6e	-0.19988033
8	0x3dabcfd2	0.08389248
9	0x3e81eaed	0.25374547
10	0x3e3651cc	0.1780464
11	0xbe584b38	-0.21122444
12	0xbe45c14e	-0.19312021
13	0x3e87d849	0.265322
14	0x3dbbfff4	0.091796786
15	0xbe8883c0	-0.26663017
16	0xbdc2629a	-0.09491463
17	0xbded0154	-0.11572519
18	0xbe039261	-0.12848808
19	0xbec19764	-0.37810814
20	0x3c8f1ddd	0.017470295
21	0x3d75e501	0.06003285
22	0x3df767df	0.12080359
23	0x3ecf1b2b	0.40450415
24	0x3eabf25e	0.3358335

ff1.bias f4 [5]
0	0x3ea08311	0.31349996
1	0x3ebd6d80	0.36997604
2	0xbeaac989	-0.33356884
3	0xbeb93ab5	-0.36177602
4	0xbd50faef	-0.05102056

ff2.weight f4 [5, 5]
0	0x3ea45afb	0.32100663
1	0xbe89c5cf	-0.26908728
2	0x3e730e5a	0.23735943
3	0xbdc37954	-0.09544626
4	0xbdd246a7	-0.10267382
5	0x3e88d21c	0.267228
6	0x3e12e6c4	0.14345843
7	0x3ec79e4f	0.38987967
8	0xbe09a4fb	-0.13441841
9	0x3eb89c56	0.36056775
10	0x3e817c02	0.25289923
11	0x3ea4afa6	0.3216526
12	0x3df4bf28	0.11950523
13	0xbe9202aa	-0.28517658
14	0x3ddd5e0a	0.10808952
15	0x3ec40f8b	0.38293108
16	0xbeb92930	-0.36164236
17	0xbec9ea99	-0.39436796
18	0x3ceb4749	0.028720515
19	0x3ed4aca1	0.41537955
20	0xbed5b3f2	-0.4173885
21	0xbdd35820	-0.10319543
22	0xbcbd3643	-0.023097163
23	0x3e8edeb0	0.27904272
24	0x3e876751	0.26446012

ff2.bias f4 [5]
0	0x3df658f8	0.12028688
1	0xbd20b587	-0.039235618
2	0xbe77f7bc	-0.24215597
3	0x3ea86e4b	0.32896647
4	0x3c8851de	0.0166406

ff3.weight f4 [5, 5]
0	0x3eb651b8	0.3560922
1	0x3d338f4c	0.04383783
2	0xbe41f4fb	-0.18941109
3	0xbe5d7a82	-0.21628764
4	0xbe80b4bf	-0.25137898
5	0xbea6b957	-0.32563278
6	0xbd7dae92	-0.06193406
7	0xbd094d89	-0.03352121
8	0x3ea00994	0.31257308
9	0xbdd4b598	-0.10386199
10	0x3e8acbc7	0.27108595
11	0x3d959218	0.07303256
12	0x3edba64f	0.4290032
13	0xbc467d14	-0.012114782
14	0xbdf9710b	-0.12179764
15	0xbd1d4f95	-0.038405973
16	0xbed929a3	-0.4241458
17	0x3e4c3c7f	0.19944952
18	0x3e5f477d	0.21804614
19	0xbdd632ed	-0.10458932
20	0xbecc4192	-0.39893776
21	0xbdc4ae69	-0.096035786
22	0xbe867d9d	-0.2626771
23	0x3d93f4a5	0.072243966
24	0xbe82886e	-0.25494713

ff3.bias f4 [5]
0	0x3e46d923	0.19418769
1	0x3d62d236	0.055376254
2	0xbe848e7c	-0.25889957
3	0x3ca62fe0	0.0202865
4	0xbeb94e00	-0.36192322

firstGCN.attentionLayer.linear.weight f4 [5, 10]
0	0x3be01def	0.006839506
1	0xbea6f7ab	-0.3261083
2	0xbe0d2238	-0.13782585
3	0xbe188683	-0.14895062
4	0xbe4e1855	-0.2012647
5	0xbd9665c0	-0.07343626
6	0x3e306064	0.1722427
7	0x3e92ace7	0.2864754
8	0x3d95230a	0.07282074
9	0xbe3d9c78	-0.1851672
10	0x3ed76331	0.42067865
11	0x3d96d0a2	0.07364012
12	0x3ea3f82c	0.32025278
13	0x3c8d7f75	0.01727269
14	0x3eccc1b7	0.39991543
15	0x3ed60dc1	0.41807368
16	0x3e7167ad	0.23574705
17	0x3e5a5f58	0.21325433
18	0x3ec523e1	0.38503936
19	0x3ea0f2d7	0.31435272
20	0x3ebbf556	0.36710614
21	0x3f035376	0.51299226
22	0x3ea72e7f	0.3265266
23	0x3e436c67	0.19084321
24	0x3e016e81	0.1263981
25	0x3e8a0cf7	0.26963016
26	0x3e91a44c	0.2844566
27	0xbda5112f	-0.08059918
28	0xbc28f1c0	-0.010311544
29	0x3ed4d6d7	0.4157016
30	0xbe89d51f	-0.2692041
31	0xbe4ebba7	-0.20188771
32	0xbd102c7a	-0.035198666
33	0x3d95632e	0.07294308
34	0x3e15d239	0.14630975
35	0x3e668823	0.2251287
36	0xbe48d7ba	-0.19613543
37	0xbe2699f8	-0.16269672
38	0xbe26bf93	-0.16284017
39	0x3d83fd30	0.06444776
40	0xbf114fe4	-0.5676253
41	0x3dcf8f20	0.10134721
42	0x3f169a85	0.5882953
43	0x3dd71288	0.105015814
44	0xbf1749f8	-0.5909724
45	0x3e4055f0	0.18782783
46	0xbdaad9e0	-0.083423376
47	0x3e096645	0.13417919
48	0x3e4e6530	0.20155787
49	0xbe08cec6	-0.13360128

firstGCN.attentionLayer.linear.bias f4 [5]
0	0xbde16413	-0.11005416
1	0xbd7ba08a	-0.0614324
2	0x3e4d0d37	0.20024572
3	0x3e31cbd6	0.17362913
4	0xbe143684	-0.14473921

firstGCN.attentionLayer.inAttention.W_sum f4 [5, 5]
0	0x3f403572	0.7508155
1	0x3f52afb2	0.8229934
2	0x3de4e40b	0.11176308
3	0x3ed6d64c	0.4196037
4	0x3e7fe0f5	0.24988158
5	0xbe4d83ba	-0.20069781
6	0x3db8986b	0.090134464
7	0x3f86ff05	1.0546576
8	0x3cbb8796	0.0228918
9	0xbe88b13a	-0.26697713
10	0x3f481dc8	0.7817044
11	0x3f13cd0c	0.5773475
12	0x3f157995	0.58388644
13	0x3e59b61d	0.21260877
14	0x3f408b52	0.75212586
15	0xbd49a6ad	-0.04923122
16	0x3f42208d	0.7583092
17	0x3f82df23	1.0224346
18	0x3f7b8da2	0.9826299
19	0x3ea759d5	0.32685724
20	0x3ee62689	0.44951275
21	0x3f397383	0.7244188
22	0x3f508035	0.8144563
23	0x3e975504	0.2955705
24	0x3eb989ad	0.3623785

firstGCN.attentionLayer.inAttention.W_alpha f4 [5, 5]
0	0x3eb0f51a	0.34561998
1	0x3e5a5202	0.21320346
2	0x3e562595	0.20912774
3	0x3f552a7e	0.8326796
4	0x3d5fefa7	0.05467191
5	0x3f29bf6b	0.66307706
6	0x3f231fb0	0.63720226
7	0x3ae7df77	0.0017690499
8	0x3eaf5f0c	0.34252203
9	0x3f4b6568	0.7945161
10	0x3cb8dc2a	0.02256592
11	0x3f2ab31f	0.6667957
12	0x3efc7976	0.49311417
13	0x3f36d2fb	0.7141568
14	0x3effe5c5	0.49979988
15	0x3eef13db	0.46694836
16	0x3d59f5ee	0.053213052
17	0x3efb61b3	0.49097976
18	0x3f3e44b5	0.7432359
19	0x3eb49859	0.35272482
20	0x3f299877	0.6624827
21	0x3e1efac1	0.15525343
22	0x3f5c019c	0.85939956
23	0x3f528d50	0.82246876
24	0x3dd900a4	0.10595825

firstGCN.attentionLayer.inAttention.a_alpha f4 [5, 1]
0	0x3f5850a4	0.8449805
1	0x3f08eb25	0.534838
2	0x3eadce2a	0.33946353
3	0x3e8a9a2c	0.2707075
4	0x3f679747	0.90465206

firstGCN.attentionLayer.inAttention.b_alpha f4 [5, 1]
0	0x3f75eefe	0.960678
1	0x3e8870c3	0.2664853
2	0x3f1f3baa	0.62200415
3	0x3f5c0e6f	0.85959524
4	0x3e00711b	0.12543146

firstGCN.attentionLayer.outAttention.W_sum f4 [5, 5]
0	0x3ed30c21	0.4122019
1	0x3eb571ca	0.35438377
2	0x3f7236cd	0.9461487
3	0x3ec0f0ce	0.3768372
4	0x3f125e07	0.57174724
5	0x3e85bd2d	0.26120892
6	0x3e555fe2	0.20837358
7	0x3e48c4ec	0.1960637
8	0x3ee947cf	0.45562598
9	0x3eb21d47	0.34787962
10	0x3f3a8215	0.7285474
11	0x3ef2941e	0.4737863
12	0x3dd491cd	0.10379372
13	0x3ed4cc12	0.41561943
14	0x3f77aab2	0.96744835
15	0x3f620627	0.8829064
16	0x3f27bc70	0.6552191
17	0x3de7453c	0.11292502
18	0x3f4b0456	0.7930349
19	0x3f26c65b	0.65146416
20	0x3f242413	0.64117545
21	0x3dc6616d	0.09686551
22	0x3f5d0981	0.86342627
23	0x3ecd159c	0.4005555
24	0x3f236446	0.6382488

firstGCN.attentionLayer.outAttention.W_alpha f4 [5, 5]
0	0x3f16e4d2	0.589429
1	0x3dce08f9	0.10060305
2	0x3eff9d36	0.4992463
3	0x3a9a83a3	0.0011788498
4	0x3eda0c83	0.4258767
5	0x3dc0bf0f	0.094114415
6	0x3f3a397b	0.7274396
7	0x3e8e666e	0.27812523
8	0x3f3065aa	0.6890513
9	0x3e248678	0.16066921
10	0x3eb7823b	0.35841545
11	0x3f340b56	0.703298
12	0x3d7e9f18	0.062163442
13	0x3f732a5b	0.94986504
14	0x3eb5b5ce	0.35490268
15	0x3f240fe9	0.64086777
16	0x3f439066	0.7639221
17	0x3e06a694	0.13149482
18	0x3f5f8ef9	0.87327534
19	0x3f1a587a	0.60291255
20	0x3f701dc7	0.93795437
21	0x3f5fa926	0.87367475
22	0x3f7695a6	0.96322095
23	0x3ebfd38c	0.37466085
24	0x3f40ea44	0.7535746

firstGCN.attentionLayer.outAttention.a_alpha f4 [5, 1]
0	0x3f3b2755	0.7310689
1	0x3f1d14f3	0.6136009
2	0x3da25298	0.0792591
3	0x3ef510d2	0.47864395
4	0x3f264381	0.6494675

firstGCN.attentionLayer.outAttention.b_alpha f4 [5, 1]
0	0x3f5e6c8c	0.8688438
1	0x3f3ee5ae	0.74569213
2	0x3ebc431d	0.36769953
3	0x3e5ede23	0.21764426
4	0x3f28859f	0.6582889

firstGCN.linearLayer.weight f4 [5, 10]
0	0xbdf57d30	-0.11986768
1	0xbde8622c	-0.1134685
2	0xbe94280c	-0.28936803
3	0x3e7e104e	0.24810907
4	0xbe5df202	-0.2167435
5	0xbe070d59	-0.13188685
6	0x3d54e766	0.05197849
7	0xbdfe0efb	-0.12405201
8	0x3e9f7e74	0.31151164
9	0x3db9ad01	0.09066201
10	0x3e8f4023	0.2797862
11	0xbe830f0d	-0.2559742
12	0x3e1ee53d	0.15517135
13	0x3d090d09	0.033459697
14	0xbdb5c249	-0.088749476
15	0x3ce29a2a	0.027661402
16	0xbdc21f55	-0.09478632
17	0xbde93522	-0.113870874
18	0xbe3dc1d5	-0.18530972
19	0xbe0b6586	-0.13612947
20	0x3e85eef8	0.2615888
21	0x3e0d208c	0.13781947
22	0x3d4e5d90	0.050382197
23	0xbe6dc813	-0.23220854
24	0xbdb0c3cc	-0.08631095
25	0xbd0cd49d	-0.03438245
26	0x3d7cf9ab	0.06176154
27	0x3e894cb6	0.26816338
28	0xbd7aa4d4	-0.06119235
29	0x3e407236	0.18793568
30	0xbe69df44	-0.22839075
31	0x3dbfd6c9	0.09367139
32	0xbe1f43ae	-0.15553162
33	0xbe52f668	-0.20601809
34	0x3e8e9c40	0.27853584
35	0xbe2411f4	-0.16022474
36	0xbdeb1451	-0.114784844
37	0xbe95cd17	-0.29258034
38	0xbe9db1cf	-0.3079972
39	0x3db0c31b	0.086309634
40	0xbe962a5d	-0.29329196
41	0xbe823992	-0.25434548
42	0x3e9bd1b5	0.3043343
43	0xbe10e69b	-0.14150469
44	0xbe9ba4e2	-0.30399233
45	0xbe2a0986	-0.16605195
46	0x3e52c129	0.20581497
47	0xbe96030a	-0.29299194
48	0x3e8ad6a6	0.2711689
49	0xbe77b8cf	-0.24191593

firstGCN.linearLayer.bias f4 [5]
0	0xbe980b91	-0.29696324
1	0x3e6727d4	0.22573787
2	0xbe900321	-0.28127387
3	0x3e12e21c	0.14344066
4	0xbe613745	-0.2199374

secondGCN.attentionLayer.linear.weight f4 [5, 10]
0	0xbe590cf4	-0.21196347
1	0x3e13dd69	0.1443993
2	0xbe04466e	-0.12917492
3	0xbdb4c3aa	-0.088263825
4	0xbe04c27b	-0.12964813
5	0x3e4e61ce	0.20154497
6	0xbe477efb	-0.19482033
7	0xbe6495fd	-0.22322841
8	0x3e1726c4	0.14760882
9	0xbe469bd0	-0.19395375
10	0x3e4e2109	0.2012979
11	0xbe9ba77a	-0.30401212
12	0xbe63fd98	-0.22264707
13	0x3e910c41	0.2832966
14	0xbe87c219	-0.26515272
15	0xbe9340e2	-0.2876044
16	0x3d1d99e1	0.03847683
17	0x3e80f52d	0.25187054
18	0x3d27fc35	0.041012008
19	0xbe0c79cc	-0.13718337
20	0x3c00127f	0.00781691
21	0xbe448b65	-0.191938
22	0x3e3d833d	0.18507095
23	0x3d82a139	0.06378407
24	0x3a800ff7	0.0009770383
25	0x3e4a998e	0.19785139
26	0xbd8d594a	-0.06901796
27	0xbdfd7b2a	-0.12377007
28	0xbe813684	-0.25236905
29	0x3c7796f4	0.015111674
30	0xbe64ed6a	-0.22356191
31	0x3e806ba4	0.25082123
32	0xbdecfd25	-0.11571721
33	0x3e196ffa	0.14984122
34	0xbe111a44	-0.14170176
35	0xbddfddf0	-0.10931003
36	0x3cf56f88	0.029960409
37	0x3e72b31e	0.2370114
38	0x3d4ed6eb	0.05049793
39	0x3e4d95c9	0.2007667
40	0x3dd7ddbb	0.105403386
41	0xbd944194	-0.072390705
42	0x3e25a187	0.16174899
43	0x3c999d4b	0.018751761
44	0x3e3f71e3	0.18695788
45	0x3d960e8a	0.07326992
46	0xbe93a8be	-0.28839678
47	0x3d15887a	0.036507107
48	0xbe1adef0	-0.15124106
49	0xbe92f64a	-0.2870353

secondGCN.attentionLayer.linear.bias f4 [5]
0	0xbdee7fc6	-0.116454646
1	0xbcc40a9c	-0.02393084
2	0x3e525bc5	0.2054282
3	0xbcb3bf18	-0.021941707
4	0x3e8a506c	0.27014482

secondGCN.attentionLayer.inAttention.W_sum f4 [5, 5]
0	0x3f3a34f6	0.7273706
1	0x3f5a4374	0.85259175
2	0x3ec7de24	0.39036667
3	0x3f1dbb1f	0.6161365
4	0x3f58c084	0.84668756
5	0x3ea80472	0.32815892
6	0x3e645148	0.22296631
7	0x3e6fe2d8	0.23426378
8	0x3d1dc680	0.038519382
9	0x3f526c68	0.82196665
10	0x3f5491bd	0.8303488
11	0x3f6b0d85	0.91817504
12	0x3ea7bbd2	0.32760483
13	0x3e3ba770	0.18325591
14	0x3e6a93e8	0.22907984
15	0x3e9b1d12	0.30295616
16	0x3f0eef4c	0.5583389
17	0x3f4bc2bf	0.79594034
18	0x3eb8e31c	0.3611077
19	0x3f5e6b96	0.86882913
20	0x3eaa1ed4	0.33226645
21	0x3cff0b20	0.031133235
22	0x3f2462eb	0.64213437
23	0x3d1df5f0	0.038564622
24	0x3ecfa738	0.40557265

secondGCN.attentionLayer.inAttention.W_alpha f4 [5, 5]
0	0x3ed55cc0	0.41672325
1	0x3ee88f1a	0.45421678
2	0x3ed3d438	0.41372848
3	0x3dfda360	0.12384677
4	0x3f4b135f	0.7932643
5	0x3f4ccac3	0.7999689
6	0x3f38f26f	0.72244924
7	0x3f57c5f8	0.8428645
8	0x3f5e0ae1	0.8673535
9	0x3f44d9b6	0.768947
10	0x3e652438	0.22377098
11	0x3e927254	0.2860285
12	0x3f3a3def	0.72750753
13	0x3f304d93	0.6886837
14	0x3bad8d80	0.005296409
15	0x3ddbe400	0.10736847
16	0x3e445d90	0.19176316
17	0x3f419b0d	0.75627214
18	0x3f0cf3b8	0.55059385
19	0x3ec25bca	0.37960654
20	0x3ee649be	0.44978136
21	0x3f5eb5e3	0.8699629
22	0x3f7ba804	0.98303246
23	0x3d2f2870	0.042763174
24	0x3f3df66d	0.7420414

secondGCN.attentionLayer.inAttention.a_alpha f4 [5, 1]
0	0x3f659c7f	0.8969192
1	0x3df5aa28	0.11995345
2	0x3f6fd5db	0.9368569
3	0x3f524f90	0.8215265
4	0x3e017dd0	0.1264565

secondGCN.attentionLayer.inAttention.b_alpha f4 [5, 1]
0	0x3d98c0a0	0.07458615
1	0x3f53e517	0.8277144
2	0x3efb4c7e	0.49081796
3	0x3e94ed6c	0.2908739
4	0x3ed01b0e	0.4064564

secondGCN.attentionLayer.outAttention.W_sum f4 [5, 5]
0	0x3ea318c4	0.31854832
1	0x3ece67e8	0.4031365
2	0x3f06fc28	0.5272851
3	0x3d772cd0	0.06034547
4	0x3f1828d3	0.5943729
5	0x3f639da2	0.88912404
6	0x3e2bcb9c	0.1677689
7	0x3c5dc400	0.0135355
8	0x3f1368f4	0.5758202
9	0x3f4024cd	0.75056154
10	0x3e3f8f98	0.1870712
11	0x3f6720bc	0.90284324
12	0x3e3cd8b8	0.18442047
13	0x3f48d1bd	0.78445035
14	0x3ebfb3c4	0.37441838
15	0x3f6edb67	0.9330353
16	0x3f0ad004	0.54223657
17	0x3edc00e4	0.4296943
18	0x3eddbe34	0.43309176
19	0x3d2fd3d0	0.04292661
20	0x3e8ec868	0.27887273
21	0x3f7ddf4e	0.9916886
22	0x3f2259f4	0.6341851
23	0x3f53ffe1	0.82812315
24	0x3dc2cbe8	0.09511548

secondGCN.attentionLayer.outAttention.W_alpha f4 [5, 5]
0	0x3f25167e	0.64487445
1	0x3d95e710	0.07319462
2	0x3f4081e7	0.75198215
3	0x3d88ab40	0.06673288
4	0x3f3a7181	0.72829443
5	0x3cded260	0.027199924
6	0x3f5ccf69	0.8625398
7	0x3f473ec3	0.7783014
8	0x3d459bc0	0.048244238
9	0x3ea47bba	0.32125646
10	0x3efc043e	0.49221987
11	0x3f464d27	0.77461475
12	0x3f2cbbb5	0.6747392
13	0x3f442aba	0.76627696
14	0x3f0030e5	0.5007461
15	0x3f2c3808	0.67272997
16	0x3eaf0dac	0.34190118
17	0x3ef4955e	0.47770208
18	0x3f147409	0.57989556
19	0x3f03f8f9	0.5155178
20	0x3f03b0fd	0.5144194
21	0x3f2faa9e	0.68619716
22	0x3f020aa5	0.5079749
23	0x3f42eb6c	0.76140475
24	0x3f12b331	0.57304674

secondGCN.attentionLayer.outAttention.a_alpha f4 [5, 1]
0	0x3e60da34	0.21958238
1	0x3e8c1de0	0.27366543
2	0x3eaf139c	0.34194648
3	0x3f10b45b	0.565252
4	0x3f286bb8	0.65789366

secondGCN.attentionLayer.outAttention.b_alpha f4 [5, 1]
0	0x3e34d678	0.17659938
1	0x3ef5b12c	0.47986734
2	0x3f7fafbd	0.9987753
3	0x3d746b30	0.059672534
4	0x3ee83afe	0.45357507

secondGCN.linearLayer.weight f4 [5, 10]
0	0xbe1d21f1	-0.15344979
1	0xbe1134cb	-0.14180295
2	0xbe5c50e4	-0.21515232
3	0xbe52d23a	-0.20588008
4	0x3df5013f	0.11963128
5	0x3d0244c9	0.03180388
6	0xbe9ac426	-0.30227774
7	0xbd6efb5c	-0.058345184
8	0xbe88ec57	-0.26742813
9	0xbe8cf150	-0.27527857
10	0x3d4c872d	0.0499336
11	0x3daf6f7f	0.08566188
12	0x3dba10e0	0.0908525
13	0x3dc8e7c7	0.09809833
14	0x3dbe47e2	0.09291054
15	0xbe52fbaa	-0.20603815
16	0xbd8d5cc0	-0.06902456
17	0x3e05e221	0.13074543
18	0xbd0afb89	-0.03393129
19	0x3cd325d7	0.02577488
20	0xbe2be026	-0.16784725
21	0xbd8c7814	-0.068588406
22	0xbe0d845e	-0.13820025
23	0x3e6c1e41	0.23058416
24	0x3d4b3dd3	0.049619507
25	0x3e944c4b	0.28964457
26	0xbe10c837	-0.14138876
27	0xbd9f50ce	-0.07779084
28	0x3e6763e7	0.22596703
29	0xbdf64a11	-0.12025846
30	0x3caba1f3	0.020951247
31	0x3e7ee699	0.24892654
32	0x3e48338c	0.19550914
33	0x3e664bf4	0.22489911
34	0xbe2f59ea	-0.17124143
35	0xbdf6d84f	-0.12052976
36	0x3dd81350	0.105505586
37	0x3d2d25a5	0.04227223
38	0x3e69bf35	0.22826846
39	0xbe974da1	-0.29551414
40	0x3db0580b	0.08610543
41	0xbe15de5d	-0.14635606
42	0xbddf64fb	-0.10907932
43	0xbe99a300	-0.30007172
44	0x3df50ed3	0.11965718
45	0xbe4676ec	-0.19381303
46	0xbe9082d3	-0.2822481
47	0xbe97fcdb	-0.296851
48	0x3d6d1659	0.05788264
49	0xbd0a7862	-0.033806212

secondGCN.linearLayer.bias f4 [5]
0	0x3d4f592a	0.050622143
1	0x3e67cea1	0.22637416
2	0x3dd39828	0.10331756
3	0xbddc1f46	-0.107481524
4	0x3e8fe2a3	0.28102598

thirdGCN.attentionLayer.linear.weight f4 [5, 10]
0	0x3e9d32f1	0.30702928
1	0xbe1901ed	-0.14942141
2	0x3dad81b5	0.08472005
3	0x3ea0a315	0.31374422
4	0xbe78cf0a	-0.24297729
5	0x3e1b3a6d	0.15159006
6	0xbe509a41	-0.20371343
7	0x3e860a94	0.26179945
8	0x3da47d7b	0.08031746
9	0xbe86d78d	-0.26336327
10	0x3d8501fc	0.06494519
11	0x3cdb1836	0.026744943
12	0x3dfc7c43	0.123283885
13	0xbd59d92d	-0.05318563
14	0x3d2b9784	0.041892543
15	0x3d4ae3db	0.049533706
16	0xbd2c503b	-0.0420687
17	0x3e85b12d	0.26111737
18	0x3dbf6fb7	0.0934748
19	0xbe60ca36	-0.21952137
20	0xbe3caddd	-0.18425699
21	0xbcfb2652	-0.030657921
22	0x3d5730ef	0.0525369
23	0xbe97552b	-0.29557166
24	0x3e71bef8	0.23608005
25	0xbe21f317	-0.15815388
26	0x3dfeb231	0.12436331
27	0x3d9743c5	0.07385973
28	0xbdc16b52	-0.09444298
29	0x3e3e926f	0.18610547
30	0x3e81f2d7	0.25380585
31	0xbe9ecacb	-0.31014094
32	0x3e32cc5e	0.17460772
33	0xbe6df44f	-0.23237728
34	0xbe7d0afb	-0.2471122
35	0xbe220583	-0.15822415
36	0x3df8d690	0.121502995
37	0x3e26a8f0	0.16275382
38	0x3e927f4e	0.2861275
39	0x3e1213c0	0.14265347
40	0x3c3d1f1a	0.01154306
41	0x3e5df41f	0.21675156
42	0xbd1f61cd	-0.03891163
43	0xbd42d640	-0.047567606
44	0xbe75bc2d	-0.23997565
45	0x3e354bcd	0.17704697
46	0x3df34169	0.1187771
47	0xbdbec7fa	-0.09315486
48	0xbb00f813	-0.0019679114
49	0xbe04d7e3	-0.12972979

thirdGCN.attentionLayer.linear.bias f4 [5]
0	0x3e56e317	0.20985065
1	0x3e804862	0.25055224
2	0x3e271d7f	0.16319846
3	0xbe08529c	-0.13312763
4	0x3e6efce9	0.23338665

thirdGCN.attentionLayer.inAttention.W_sum f4 [5, 5]
0	0x3ec71f08	0.38890862
1	0x3deef968	0.11668664
2	0x3edb4e70	0.4283328
3	0x3e794d68	0.24345934
4	0x3f31230e	0.69194114
5	0x3e9235fe	0.28556818
6	0x3f33b32a	0.7019526
7	0x3ee10566	0.4394943
8	0x3e85fea0	0.26170826
9	0x3efdf62a	0.4960187
10	0x3f09b347	0.5378918
11	0x3f760afa	0.961105
12	0x3f00629a	0.50150454
13	0x3e814a24	0.25251877
14	0x3eb417ec	0.351745
15	0x3ee4c3a2	0.44680506
16	0x3f17b31f	0.5925769
17	0x3f53c7c0	0.8272667
18	0x3f10f8af	0.5662946
19	0x3db3d030	0.08779943
20	0x3c0a6600	0.00844717
21	0x3f13747e	0.5759963
22	0x3d9a3d80	0.075312614
23	0x3ec48628	0.38383603
24	0x3db1e188	0.08685595

thirdGCN.attentionLayer.inAttention.W_alpha f4 [5, 5]
0	0x3e53fbc8	0.20701516
1	0x3ef5be3e	0.47996706
2	0x3cf96de0	0.0304479
3	0x3f5b2a34	0.8561127
4	0x3d4928c0	0.049111128
5	0x3f2753d0	0.6536226
6	0x3e8a8e96	0.2706191
7	0x3f7dba0e	0.9911202
8	0x3f549605	0.8304141
9	0x3f6684a6	0.90046155
10	0x3ed200f8	0.41016364
11	0x3ee90726	0.45513266
12	0x3e72de44	0.237176
13	0x3e7f8cf8	0.24956119
14	0x3f519beb	0.81878537
15	0x3f58f0a3	0.8474218
16	0x3f772ef8	0.96556044
17	0x3e59b240	0.21259403
18	0x3f24b8c2	0.6434442
19	0x3f55248a	0.8325888
20	0x3f47458c	0.77840495
21	0x3f2763d0	0.65386677
22	0x3f1efb15	0.6210187
23	0x3f398e0e	0.72482383
24	0x3ebec2a4	0.37257874

thirdGCN.attentionLayer.inAttention.a_alpha f4 [5, 1]
0	0x3e44e63c	0.19228452
1	0x3f7c73ee	0.98614395
2	0x3e48de20	0.19615984
3	0x3e90fff2	0.2832027
4	0x3ecdd362	0.40200335

thirdGCN.attentionLayer.inAttention.b_alpha f4 [5, 1]
0	0x3f3d6a78	0.73990583
1	0x3f5b0dd2	0.85567963
2	0x3e72e218	0.2371906
3	0x3f7c530d	0.98564225
4	0x3eae936a	0.34096843

thirdGCN.attentionLayer.outAttention.W_sum f4 [5, 5]
0	0x3dac7df8	0.08422464
1	0x3e9d9324	0.30776322
2	0x3f727acc	0.94718623
3	0x3f33750a	0.7010046
4	0x3f2562ed	0.64604074
5	0x3e974f12	0.29552513
6	0x3f788e89	0.9709249
7	0x3e909c28	0.28244138
8	0x3f21afef	0.6315908
9	0x3f3e585a	0.74353564
10	0x3ef2bfde	0.47412008
11	0x3d364610	0.04450041
12	0x3f02855d	0.50984746
13	0x3f55ffeb	0.83593625
14	0x3f38143a	0.71905863
15	0x3f28ab5c	0.65886474
16	0x3cfe9d60	0.031080902
17	0x3f00bcf8	0.50288343
18	0x3ebf3780	0.3734703
19	0x3f3da743	0.74083346
20	0x3ec5cc08	0.38632226
21	0x3e42fd48	0.19041932
22	0x3f32851e	0.6973437
23	0x3d1e2340	0.038607836
24	0x3e3812e0	0.1797595

thirdGCN.attentionLayer.outAttention.W_alpha f4 [5, 5]
0	0x3ed66e6a	0.41881114
1	0x3f307f69	0.6894441
2	0x3e39edb0	0.18157077
3	0x3e13daa0	0.14438868
4	0x3f36ec3e	0.71454227
5	0x3f6a3a03	0.9149477
6	0x3d64caf0	0.0558576
7	0x3f28f29b	0.65995187
8	0x3edb8436	0.42874306
9	0x3f7f0433	0.9961578
10	0x3d17cac0	0.03705859
11	0x3e28ef40	0.16497517
12	0x3ee3d022	0.4449473
13	0x3f599aa2	0.85001576
14	0x3e8b575a	0.2721508
15	0x3f62aa1a	0.88540804
16	0x3e93131e	0.28725523
17	0x3e84e630	0.2595687
18	0x3da8c298	0.08240241
19	0x3e3e8a7c	0.18607515
20	0x3ecf1818	0.4044807
21	0x3eb95eda	0.36205178
22	0x3f0e9587	0.5569691
23	0x3f67152e	0.9026669
24	0x3eff9ec8	0.49925828

thirdGCN.attentionLayer.outAttention.a_alpha f4 [5, 1]
0	0x3ee8573e	0.4537906
1	0x3f436673	0.763282
2	0x3f0c1a49	0.5472761
3	0x3f71f514	0.94514585
4	0x3f02248a	0.50837004

thirdGCN.attentionLayer.outAttention.b_alpha f4 [5, 1]
0	0x3d72be00	0.05926323
1	0x3f760d2c	0.9611385
2	0x3ec93b4a	0.39303046
3	0x3f6c05e3	0.9219648
4	0x3ef064c4	0.46951878

thirdGCN.linearLayer.weight f4 [5, 10]
0	0x3e6a6720	0.22890902
1	0xbdc79f1e	-0.09747146
2	0xbdb2b432	-0.08725776
3	0x3e76f80a	0.24118057
4	0x3dcc68d1	0.0998093
5	0x3e3f34fa	0.18672553
6	0x3e382f75	0.17986853
7	0x3e010b17	0.12601887
8	0xbe970304	-0.29494488
9	0xbd5f710f	-0.05455118
10	0x3ce7c78e	0.028293397
11	0xbdd16819	-0.10224933
12	0x3ea1a5a0	0.31571674
13	0x3bb09b66	0.0053896187
14	0xbe3019c7	-0.17197333
15	0xbd544480	-0.05182314
16	0xbca317de	-0.019908842
17	0x3e859cc3	0.26096162
18	0xbda8dcc5	-0.082452334
19	0x3dc127c9	0.094314165
20	0xbc88ce4e	-0.016699936
21	0xbe9fd766	-0.31219023
22	0xbcd28ec3	-0.02570284
23	0xbe76e3a7	-0.2411028
24	0xbe3da1da	-0.18518773
25	0x3e4ee597	0.20204769
26	0x3e8c10db	0.2735661
27	0x3e9bf5b9	0.3046091
28	0x3e882f83	0.2659875
29	0xbda4a7d6	-0.08039825
30	0xbe992ac8	-0.29915452
31	0xbe40a902	-0.18814471
32	0x3dd47e69	0.10375673
33	0xbe098d0a	-0.13432708
34	0x3e8a5e12	0.27024895
35	0xbe2523fc	-0.16127008
36	0x3e24bc13	0.1608737
37	0xbe301376	-0.17194924
38	0xbe3d8f26	-0.18511638
39	0x3e5b72da	0.21430531
40	0xbdf96ef7	-0.12179368
41	0xbe64455c	-0.22292084
42	0xbe0a8644	-0.13527781
43	0x3e806dfe	0.25083917
44	0xbe921505	-0.28531662
45	0x3e2cad9c	0.16863102
46	0xbe4bb797	-0.19894253
47	0x3e79bb76	0.24387917
48	0x3e8dd952	0.27704865
49	0xbda15ec5	-0.07879404

thirdGCN.linearLayer.bias f4 [5]
0	0x3d0f2d68	0.034955412
1	0x3d063ba4	0.03277172
2	0xbdec113e	-0.11526726
3	0xbdd5bb45	-0.104361095
4	0x3dd25e6b	0.10271915

ff4.weight f4 [5, 5]
0	0x3e32b324	0.17451149
1	0xbec11693	-0.37712535
2	0x3d3262d3	0.043551277
3	0xbea99b45	-0.33126274
4	0xbebdbe74	-0.37059367
5	0xbe1a91cc	-0.1509468
6	0x3f359932	0.7093688
7	0x3f4a9a42	0.7914163
8	0xbda8de47	-0.08245521
9	0xbf1f358d	-0.62191087
10	0xbec47535	-0.38370672
11	0xbe376767	-0.17910539
12	0xbebc762f	-0.36808917
13	0xbdc3420b	-0.09534081
14	0xbec4f080	-0.38464737
15	0xbe6a286b	-0.2286698
16	0x3f13f1f2	0.57791054
17	0x3e5efca7	0.21776067
18	0xbe79b6fa	-0.24386206
19	0x3f565c43	0.8373453
20	0xbd015442	-0.031574495
21	0x3efc7de1	0.49314788
22	0x3e386986	0.18009004
23	0x3d79a537	0.060948577
24	0xbf07607c	-0.528816

ff4.bias f4 [5]
0	0xbdd4abb3	-0.103843115
1	0x3dc98f02	0.0984173
2	0x3ec344e1	0.38138488
3	0x3d9dd9f8	0.0770759
4	0x3e0c0570	0.13673949

ff5.weight f4 [5, 5]
0	0x3e96d925	0.29462543
1	0xbda2c5af	-0.079478614
2	0x3ecc53ab	0.39907584
3	0xbd2fa073	-0.042877626
4	0x3d9a0fd3	0.075225495
5	0xbeaa9311	-0.33315328
6	0x3eaba9a0	0.3352785
7	0xbe7124f9	-0.2354926
8	0xbe5d4dd8	-0.21611726
9	0xbe3ea7ca	-0.18618694
10	0xbe49ea78	-0.19718349
11	0x3e93d9bc	0.28877056
12	0xbdda56d3	-0.10661092
13	0x3ea4d740	0.32195473
14	0x3dd88b65	0.105734624
15	0x3df5f16a	0.12008937
16	0xbcef112e	-0.029182997
17	0xbd14b2b6	-0.036303245
18	0x3ec4112e	0.38294357
19	0x3a7fd1f5	0.0009758764
20	0xbe349877	-0.17636286
21	0xbdb443bf	-0.08801984
22	0x3d55dee8	0.052214533
23	0xbe7b78dc	-0.24557823
24	0xbe9b3210	-0.30311632

ff5.bias f4 [5]
0	0x3e3ef21f	0.1864705
1	0x3db5b598	0.08872527
2	0x3ec0b53a	0.37638265
3	0x3e224fbc	0.15850729
4	0xbebc3b45	-0.3676397

ff6.weight f4 [10, 5]
0	0x3c2c63b5	0.010521819
1	0xbf0240f8	-0.50880384
2	0x3e7f38bb	0.24923985
3	0xbd3760c7	-0.04477003
4	0xbeb4a095	-0.35278764
5	0xbecb9436	-0.39761513
6	0xbdf1f42e	-0.11814152
7	0x3c3a3afb	0.011366601
8	0xbf0d74ff	-0.55256647
9	0x3e533b15	0.20628007
10	0x3e8fa340	0.28054237
11	0xbf287d97	-0.65816635
12	0xbecc5881	-0.39911273
13	0x3d00026c	0.03125231
14	0xbeab9da3	-0.33518705
15	0xbe3e96b2	-0.18612173
16	0xbec2355b	-0.37931332
17	0x3e819004	0.25305188
18	0xbe99801c	-0.29980552
19	0x3c7cc69e	0.015428213
20	0x3e681c35	0.2266701
21	0xbe9592c2	-0.2921353
22	0x3e5b6229	0.21424164
23	0xbe748f14	-0.23882705
24	0xbe2f23fa	-0.17103568
25	0xbec4b332	-0.38417965
26	0xbea2d35d	-0.31801882
27	0x3ea34fd5	0.31896845
28	0xbe8a3369	-0.26992348
29	0xbdd312d9	-0.10306329
30	0xbe27737e	-0.1635265
31	0xbd6cc4b7	-0.05780479
32	0xbdc34704	-0.095350295
33	0xbee74286	-0.4516794
34	0xbeaabdd1	-0.33347943
35	0x3eb1e580	0.34745407
36	0xbea95dc5	-0.33079353
37	0xbe619119	-0.22028007
38	0xbe57f886	-0.21090898
39	0x3e522365	0.20521314
40	0x3e69b9da	0.22824803
41	0xbe62b400	-0.22138977
42	0x3edb1c0d	0.4279484
43	0xbe21f3f5	-0.15815718
44	0xbed7248b	-0.42020068
45	0xbedf69e9	-0.4363549
46	0xbf1492ac	-0.58036304
47	0x3da2ebc8	0.07955128
48	0x3f25b88a	0.6473471
49	0xbed20bb4	-0.41024554

ff6.bias f4 [10]
0	0xbe880f92	-0.2657438
1	0xbf0332ef	-0.51249593
2	0xbd825760	-0.06364322
3	0xbe0daf19	-0.13836326
4	0xbe8150d4	-0.2525698
5	0xbd804368	-0.06262857
6	0xbe93039b	-0.28713688
7	0xbeed23d8	-0.4631641
8	0xbeab40fa	-0.3344801
9	0xbea8a5f5	-0.32939115
