code/ml_model/model_weights_m6p8n10_lr0.001000_bs250_epochs10.pth (torch, 21926 bytes, 48 tensors)

ff1.weight f4 [5, 5]
00000000: 4071 b3be df8e b03e 81ea 9f3e 25ce a0be
00000010: 8608 2fbe 610d 423d 319e 6f3e c24a 513d
00000020: 77b8 cf3e dce1 b93e 8ea2 4bbe ea8a e4bd
00000030: 073f c63e 605c e43d e603 bb3e d6dc e03e
00000040: da7e 45be 44ed 4abe 77f3 de3d d47f d63e
00000050: a344 0b3e f3a7 68be 2ab9 833d 20a1 4fbe
00000060: e164 683e
-0.3504734 0.34484002 0.312336 -0.31407276 -0.17093095 0.04737604 0.23400189 0.051096685
0.40570423 0.3630513 -0.19886228 -0.11159308 0.3871996 0.11150432 0.36526412 0.43918484
-0.19286671 -0.19817072 0.10886281 0.418944 0.13600402 -0.22720318 0.064318016 -0.20276308
0.22694732

ff1.bias f4 [5]
00000000: 1ba2 133e 326d 81be a63d 493e 42da cdbe
00000010: 5761 c4be
0.14417307 -0.25278622 0.19652423 -0.4020558 -0.38355514

ff2.weight f4 [5, 5]
00000000: ccc0 7f3e c7b1 ea3d f9a8 dcbd 1ac8 bcbe
00000010: da10 9fbe e853 dcbe 195b afbe a4d6 77bd
00000020: 0f50 0dbd 1606 3b3e 06ac 20bd 43c9 753e
00000030: d661 cb3e 67b8 a93e 6706 1a3e d5f0 f83b
00000040: bb88 b53e 78bd 1b3e 71ea bd3e a26f f33d
00000050: 595e 023e 8d13 73be de07 463e e05e 87be
00000060: 5c7c 33be
0.2497589 0.114596896 -0.107744165 -0.36871415 -0.31067544 -0.43032765 -0.3424919 -0.06050743
-0.034500178 0.1826404 -0.039226554 0.24002557 0.3972308 0.331485 0.15041505 0.007597069
0.3545588 0.15208995 0.37092927 0.11886527 0.12731303 -0.23737927 0.19338939 -0.2643957
-0.17527908

ff2.bias f4 [5]
00000000: fdd7 babe f650 bbbe 4bb4 7abe df0d cabd
00000010: 88a8 eeba
-0.3649291 -0.36585206 -0.24482839 -0.09865927 -0.0018208185

ff3.weight f4 [5, 5]
00000000: 29c0 c53e 961d afbd 2715 15be e29f d4be
00000010: cee5 b83e 5ece 703e 751f 4d3e d87c 8ebe
00000020: 5cc2 83be 34ca 24be 77a4 df3e 9c50 56be
00000030: 5d60 83bc eb53 45be 497e dcbe ab77 eabd
00000040: f783 c4be 58b9 b93e adab 473e b571 8c3e
00000050: 338e 73be 5a85 a4be 4851 e53c fbaa 93be
00000060: 3a9e 553d
0.3862317 -0.08550565 -0.1455885 -0.4152823 0.36112827 0.23516223 0.20031531 -0.27829623
-0.25734222 -0.1609276 0.43680164 -0.20929188 -0.01603716 -0.19270293 -0.43065098 -0.11448606
-0.3838193 0.3627422 0.19499083 0.27430502 -0.23784713 -0.3213299 0.02799286 -0.28841385
0.05215285

ff3.bias f4 [5]
00000000: cf90 a63d f55a ab3c f12f b2be 0a59 7d3d
00000010: 920e a53e
0.08133089 0.020917395 -0.348022 0.061852492 0.3223768

firstGCN.attentionLayer.linear.weight f4 [5, 10]
00000000: dd45 963e 7cd0 92bd 6c57 6cbd e099 9fbd
00000010: 95d4 4cbd b9e4 21bd c6c5 a0bd 688d 9abe
00000020: 97ea bd3d 26ed 14bd a193 603e 7d10 413e
00000030: 3fed 90be 9448 bdbc a1d5 e4bc f283 123e
00000040: 06fc 093e 0598 eb3d baa5 1bbe aab9 21be
00000050: 79e3 86be 4217 d03a e6ae 09be cbbf 5d3e
00000060: 8f9e 2fbe e189 443e 3d6d 463e bfed f6bd
00000070: eead 1dbe afda e33c 4118 01bd b51a 6a3d
00000080: 237b 6b3e 8987 733d e160 313e ed62 703d
00000090: 187c 083e f294 7e3e 62a8 0dbe 7bb8 f8bd
000000a0: 1e66 33be 62ac 6ebe 9097 763e 05f0 86be
000000b0: cf08 97be 7214 093e 5b32 3b3e bf79 bc3c
000000c0: dd07 883e 8fba 97be
0.29350176 -0.071686715 -0.05770056 -0.07793021 -0.05000742 -0.039524768 -0.07850222 -0.3018601
0.0927326 -0.036358975 0.21931316 0.18853946 -0.28306004 -0.023105897 -0.027933897 0.14308146
0.13475046 0.11503605 -0.15199938 -0.15793481 -0.26345423 0.0015876072 -0.13445625 0.21655194
-0.17150329 0.19193222 0.19377609 -0.12057065 -0.1539838 0.027814237 -0.03151727 0.057154376
0.22996192 0.05945543 0.17322113 0.058688093 0.13328588 0.24861506 -0.13833764 -0.12144562
-0.17519423 -0.23307946 0.24081254 -0.26354995 -0.29498908 0.13386706 0.18280928 0.023007272
0.265685 -0.2963452

firstGCN.attentionLayer.linear.bias f4 [5]
00000000: e90c 203d aba1 153e 82ed 723e dd1c 2a3d
00000010: 197c 75be
0.039074812 0.14612453 0.23723415 0.041531432 -0.23973121

firstGCN.attentionLayer.inAttention.W_sum f4 [5, 5]
00000000: 0af4 173f fe36 3d3f ed05 b33e d802 413e
00000010: 53aa 4d3f fa28 633c 32d7 a33e 4e1b 633f
00000020: 479d 223f d25e 8c3e b5e9 6a3f 5eb8 443f
00000030: aba0 903e c40a 053f 9b54 953e ec1c 843e
00000040: 452f bb3e 6277 3c3e 6056 293f 12da 403f
00000050: 9599 553f 925b f13e 701a 633f cb6a ee3d
00000060: aec6 743f
0.5935675 0.73912036 0.3496546 0.18848741 0.8033802 0.01386475 0.32000118 0.8871354
0.63521236 0.27416092 0.9176286 0.7684382 0.2824758 0.5196955 0.2916611 0.25803316
0.365595 0.18404916 0.6614742 0.7533275 0.8343747 0.47140175 0.88712215 0.11641463
0.9561566

firstGCN.attentionLayer.inAttention.W_alpha f4 [5, 5]
00000000: e684 e13e 74dd 693e 264e 423e dd8b 143e
00000010: ca60 5a3f 56f2 503f f430 623f 2c5d 743f
00000020: 60e5 613e 1499 483f 9ecf 2a3f 4541 323d
00000030: 3cbc 473f 5559 7a3f 8307 a53e 6612 353e
00000040: 432f 513d f525 243f ff35 353f b94b d83e
00000050: e85f e43e bdd8 fa3e 5da2 1f3f 9a52 6d3c
00000060: 1d41 3a3f
0.44046706 0.22838384 0.18975124 0.14506479 0.8530394 0.81619775 0.88355947 0.9545467
0.22060156 0.7835858 0.6672305 0.043519277 0.780216 0.9779256 0.32232293 0.176828
0.051070463 0.6412042 0.70785517 0.42245272 0.4460442 0.48993483 0.6235712 0.014485026
0.72755605

firstGCN.attentionLayer.inAttention.a_alpha f4 [5, 1]
00000000: 70c1 303d c7b9 143f e196 153f b563 783f
00000010: 14e9 933e
0.043153226 0.58095974 0.5843335 0.9702714 0.28888762

firstGCN.attentionLayer.inAttention.b_alpha f4 [5, 1]
00000000: 2bdc 483f 7947 e63c 7fb6 0b3f d34c 2b3f
00000010: 71df 563e
0.7846095 0.028110253 0.5457534 0.669141 0.20983674

firstGCN.attentionLayer.outAttention.W_sum f4 [5, 5]
00000000: b44f e23e dd87 383f 4e06 ee3e 2419 103f
00000010: 0d53 433f 723d 3e3f 81af 7f3f 43e9 793f
00000020: 22e7 0a3f a973 393f 544b 523f e8c8 473e
00000030: ccb1 3d3f 29cc 013f 7004 3d3f 1960 5a3f
00000040: feb2 5d3d f245 443f 7448 243e b8a3 743f
00000050: 59ed 863e ddc2 1b3f 4d6d e83d 0565 a53d
00000060: f52c 263f
0.44201434 0.7208231 0.46489185 0.5628836 0.762986 0.7431251 0.9987717 0.97621554
0.5425893 0.7244211 0.8214619 0.19510233 0.7409942 0.5070215 0.73834896 0.85302883
0.05412578 0.7666923 0.16043264 0.95562315 0.26352957 0.6084421 0.113489725 0.080759086
0.6491235

firstGCN.attentionLayer.outAttention.W_alpha f4 [5, 5]
00000000: 68f1 193f 04ac f03d 14a3 873e 4f85 663f
00000010: d580 653f 1ebd a83e 461b e93e 9a27 3b3f
00000020: 42a0 5f3f bc0f de3e f5b8 433f 2b8e 053f
00000030: 274d 033f 5b43 773f e258 8c3e 9c58 d23e
00000040: 6b1e e73e 89e3 7f3f 59e3 6c3f 9e85 983e
00000050: 6847 d83d 8621 2e3f cefe ce3e 3370 063f
00000060: 314f 7f3f
0.6013398 0.117515594 0.26491606 0.9004716 0.8964971 0.32956785 0.4552862 0.731073
0.8735391 0.4337138 0.764541 0.52170056 0.512896 0.9658715 0.27411562 0.4108323
0.45140395 0.99956566 0.92534405 0.29789442 0.10560495 0.680199 0.40428776 0.5251495
0.9973021

firstGCN.attentionLayer.outAttention.a_alpha f4 [5, 1]
00000000: 7be9 023f 226b 903e ab97 683f b979 5c3f
00000010: cc40 043f
0.5113751 0.28206736 0.90856427 0.86123234 0.5166137

firstGCN.attentionLayer.outAttention.b_alpha f4 [5, 1]
00000000: e56d 7f3f 868a ec3d 2d02 7b3f e8cf 403f
00000010: 3a0a 283f
0.9977706 0.11549859 0.98050195 0.7531724 0.65640604

firstGCN.linearLayer.weight f4 [5, 10]
00000000: ed0c 263e ee4c f9bc 1b9b 92be 5525 853e
00000010: a5f4 9b3e d8eb 86be 37f3 5fbe 2306 703e
00000020: 6b85 4b3e df93 9abe 6b0e 46be 055d 14be
00000030: dd63 ddbd bf79 73be 5341 06be 64f8 9f3e
00000040: 9fd8 4dbe 76d8 983e 9847 053d 7107 d3bd
00000050: a4ab 963e f64c 51be 61d6 9bbe f4b6 9abe
00000060: 4e87 14be 25f7 6abe ef55 19be 9172 8fbe
00000070: 4a6e 5f3d 5ca1 10be 48f0 afbd 68ec 1d3e
00000080: 6ec7 98be c4f5 9a3d 2ea9 97bc 7d94 95be
00000090: 0416 9ebe 4ee0 04be bb18 f93d 6a39 1cbe
000000a0: a3af 96be 06f3 e8bd a4ce 813e 4911 963e
000000b0: dc1d 3fbe 7dea a2bc e629 293e 1346 5e3e
000000c0: 32c0 8fbe 4af4 0b3c
0.16215868 -0.03043219 -0.2863396 0.26005045 0.30460086 -0.2635181 -0.21870123 0.23439841
0.19875114 -0.30190942 -0.19341438 -0.14488609 -0.10810063 -0.23776911 -0.13110857 0.31244195
-0.20102166 0.29852647 0.03253898 -0.10304154 0.29427826 -0.20439515 -0.30436996 -0.30217707
-0.1450474 -0.2294584 -0.14974187 -0.28017095 0.05454854 -0.14124054 -0.08590752 0.15422213
-0.29839653 0.07566407 -0.018513288 -0.2921485 -0.30876172 -0.1297619 0.1216292 -0.15256277
-0.29430875 -0.11374478 0.25352967 0.29310063 -0.18663734 -0.019887203 0.16519889 0.21706419
-0.2807632 0.00854213

firstGCN.linearLayer.bias f4 [5]
00000000: 2e03 79be 0d08 69bc c7e5 37bd e0fe ea3d
00000010: a633 203e
-0.24317619 -0.014223111 -0.044896867 0.11474395 0.15644702

secondGCN.attentionLayer.linear.weight f4 [5, 10]
00000000: e8d6 89be f365 a5bc cbb4 73be fb47 9c3e
00000010: 4aa3 863e cc73 47bd 51d7 52be e8e5 97be
00000020: bc4e 773d 2aab 0dbe 3a7a 13be 992d 72be
00000030: cc72 773e 0de2 32bd 1017 a4bd 8833 c23d
00000040: d089 123e 427c 6ebe bebd 03be f48d 02be
00000050: 3912 8c3e 785d 923e d88d 5abe e9dc 4abe
00000060: fad9 643d a369 83be 8500 103e c5a9 9cbe
00000070: f7b8 01be d832 4bbe 986b 6ebe 4655 863d
00000080: 92cd c8bd ede8 483e 358b 12bc 0846 c2bd
00000090: 61e0 dabd f023 883d 5d05 693d f1b5 973e
000000a0: 9233 12bd d4f1 43be 73f8 503d 7793 953c
000000b0: 920a 613e 6b97 0b3e 6f0a 6bbe 56f9 7dbd
000000c0: 5b26 873e ea09 403e
-0.26921773 -0.020190215 -0.23799436 0.30523667 0.26296455 -0.048694417 -0.20589949 -0.29667592
0.06037782 -0.13834825 -0.14402094 -0.23650207 0.24164885 -0.04367261 -0.08012211 0.09482485
0.14310384 -0.23289588 -0.1286535 -0.12749463 0.27357653 0.28586936 -0.21343172 -0.19810833
0.05587194 -0.25666532 0.14062698 -0.30598274 -0.12668215 -0.19843614 -0.23283231 0.06559233
-0.098048344 0.19620104 -0.008944322 -0.09486014 -0.10687328 0.066474795 0.05688988 0.29630998
-0.035693713 -0.19135219 0.05101819 0.018258793 0.21976689 0.1363198 -0.22953199 -0.062005363
0.2639645 0.18753782

secondGCN.attentionLayer.linear.bias f4 [5]
00000000: 209d 663e d7dc ddbd 53c4 0abe 1305 f43d
00000010: 2f00 52bd
0.22520876 -0.108331375 -0.13551454 0.1191503 -0.051269706

secondGCN.attentionLayer.inAttention.W_sum f4 [5, 5]
00000000: 757e 303f 5da6 423f d83a b13d dc5f 633f
00000010: 2842 2a3f f538 5c3f 747a 9b3e a002 873c
00000020: c478 983e a2a3 a23e 2ffc 1e3f 807c 5e3d
00000030: 6a35 d13e 408f b63d 66d9 d93e f061 7a3d
00000040: 5c32 4c3e b46c 9a3e 18eb cc3e 2e85 5a3f
00000050: f41a 673f d85f 143e 9c40 783e dac3 c63e
00000060: b52d 453f
0.6894296 0.760351 0.08653802 0.88818145 0.66507196 0.8602441 0.30366862 0.016480744
0.29779637 0.31765467 0.6210355 0.05431795 0.40861064 0.089140415 0.42548674 0.061128557
0.19941086 0.3016106 0.40023112 0.85359466 0.902755 0.14489686 0.24243397 0.38821298
0.7702287

secondGCN.attentionLayer.inAttention.W_alpha f4 [5, 5]
00000000: 6024 0f3f 206d 1b3e c42b f83e e913 7d3f
00000010: 0a9a 873e 0c1c 173f 99ad 0d3f 92e2 1e3f
00000020: 0f8a 533f 7d1f 2d3f 42e6 2f3f 56b3 0b3f
00000030: f828 803d fdec 1c3f 7734 493f d1ec 053f
00000040: 8181 253f 181b eb3d 9fe6 2d3f 33c4 6d3f
00000050: f4fb a83e 2745 033f 4964 5f3f c6c3 ea3e
00000060: 4802 b23d
0.5591488 0.15178347 0.4847089 0.98858505 0.2648471 0.5902717 0.55343014 0.6206447
0.82632536 0.6762617 0.6871072 0.5457052 0.06257814 0.61299115 0.7859568 0.5231448
0.6465073 0.11479777 0.67930025 0.928775 0.33004725 0.51277393 0.872624 0.45852488
0.08691841

secondGCN.attentionLayer.inAttention.a_alpha f4 [5, 1]
00000000: ee77 073f 587b 9e3d c7dd 2f3f 18d9 153f
00000010: 9892 cb3d
0.52917373 0.0773837 0.6869778 0.58534384 0.0994007

secondGCN.attentionLayer.inAttention.b_alpha f4 [5, 1]
00000000: 18db f13e c0eb 243d a0d2 db3e 463b 883e
00000010: 5972 653f
0.47237468 0.04026389 0.42934132 0.26607722 0.89627606

secondGCN.attentionLayer.outAttention.W_sum f4 [5, 5]
00000000: 907b c13e 8e1e e23e e181 483f 10b9 893e
00000010: 6cae a23e 471e 313f f1a1 2f3f e00d 463f
00000020: 1ae6 953e ae13 653f 1dad 5c3f 9061 a13e
00000030: 9b35 4a3f df77 7d3f 0861 a63e e07c 863d
00000040: 442c 363e bcc4 b43e b3d9 3b3f 10a8 493d
00000050: 440b 573e 90ac 283e 3a62 2e3f 8048 8f3c
00000060: 3188 473f
0.37789583 0.44163936 0.7832318 0.26899004 0.31773698 0.69186825 0.6860648 0.7736492
0.29277116 0.89483154 0.8620165 0.31519747 0.78988045 0.99011034 0.32495904 0.06566787
0.17790323 0.35306346 0.7337906 0.049232543 0.21000391 0.16472077 0.6811863 0.017490625
0.77942187

secondGCN.attentionLayer.outAttention.W_alpha f4 [5, 5]
00000000: 6a04 3d3f 6fa6 383f 74a0 623e 0023 3e3e
00000010: 0852 dd3d 6079 b13c 9252 343f 60f9 793f
00000020: 30b6 023e c81f 8c3e 36bc 9f3e a65b c33e
00000030: 686f 9b3e 92c0 e83e 2850 393e 073c 293f
00000040: 78eb 913d 0579 6a3f ac75 263e 6679 e53e
00000050: d887 673f d016 5a3e af77 1b3f 3f15 4c3f
00000060: 714a 593f
0.7383486 0.7212896 0.2213152 0.18568039 0.10806662 0.021664321 0.7043849 0.9764614
0.12764812 0.27367997 0.3119828 0.3815586 0.30358434 0.4545942 0.18096983 0.6610722
0.0712499 0.9159091 0.16255826 0.44819182 0.90441656 0.21297765 0.607295 0.7971992
0.84879214

secondGCN.attentionLayer.outAttention.a_alpha f4 [5, 1]
00000000: 1285 a33e acd6 1f3e ab0a 1b3f a4e0 553f
00000010: e8d6 713f
0.31937462 0.15609235 0.60563153 0.835459 0.94468546

secondGCN.attentionLayer.outAttention.b_alpha f4 [5, 1]
00000000: 1499 c93e 7880 a43d 04fd 8b3e 5022 463f
00000010: 82e9 ef3e
0.39374602 0.08032316 0.27341473 0.77396107 0.4685784

secondGCN.linearLayer.weight f4 [5, 10]
00000000: d2af 9a3e 5af3 203e b48a 443e 4820 42be
00000010: c116 473e f139 60be 1d44 4fbe 7280 973e
00000020: d16d 00be 662f 5fbd 8069 94be 228c 35be
00000030: 1008 8a3e ec35 a8bc f747 723c 066a 4cbe
00000040: 951c c8bd 4998 9bbe a504 8dbe e55b 883e
00000050: cfbd 8bbe 3181 65be 952e 41bd 59ea 333e
00000060: a119 1b3e 14a0 0abe eb26 9f3e ea68 79bb
00000070: a111 0c3e 0691 f73d 7594 66bd 2207 86be
00000080: 5a84 7dbe 7a5c debc c3f7 0f3e ac1f 53be
00000090: 0a3f 403e 2b3d 8d3e af16 cabd a987 863e
000000a0: a7ca 0c3e 3bce 9cbd 70ae 373b cc96 7fbe
000000b0: 2e83 9b3b 5076 67be b157 3c3e e2d2 9bbe
000000c0: 0930 513e 494f 293e
0.30212265 0.15717831 0.19193536 -0.18957627 0.19442274 -0.21897103 -0.20240827 0.29590183
-0.12541892 -0.054488562 -0.2898674 -0.17729238 0.26959276 -0.020533524 0.014787666 -0.1996232
-0.097710766 -0.30389622 -0.27542606 0.2663261 -0.2729325 -0.22412564 -0.047163565 0.17569865
0.15146495 -0.13537627 0.3108438 -0.0038056918 0.136786 0.12088208 -0.056293923 -0.26177317
-0.2475752 -0.027143706 0.14059357 -0.2061755 0.18774047 0.2758573 -0.09867608 0.26275375
0.1374918 -0.07656523 0.0028027557 -0.24959868 0.0047458624 -0.22603726 0.18392827 -0.30434328
0.2042848 0.16534151

secondGCN.linearLayer.bias f4 [5]
00000000: 74e6 f2bd 6e43 80be 761e 9dbe 1bdf 8d3e
00000010: 255a 413e
-0.11860362 -0.25051445 -0.30687302 0.27709278 0.18882044

thirdGCN.attentionLayer.linear.weight f4 [5, 10]
00000000: a5a5 ebbd 1e02 9e3c 42ee 70be 4406 f83c
00000010: 24ad 69be 538f ddbc 6157 5b3d 4f38 87bd
00000020: a76f 773e 4479 60be 5b86 54ba cd9d f53d
00000030: 541b 65be 1a2e 70be 0700 393e 0af5 be3d
00000040: 47de 213e 020d 08bc d83d 813e c950 76be
00000050: 5415 553e b735 843e 2fcf 643e 42a0 8cbe
00000060: 17e0 e5bc d3c1 803d e747 88be 9f8d 493d
00000070: c244 deba 8add 8f3e 3a22 8d3e 5e0c eabd
00000080: 5811 333e 187e 34bd 8d61 a1be 1110 febc
00000090: f055 283d 1cdd 823d fd3b 6abe 69bf 4a3c
000000a0: 7abf 16be fd55 913e dfab 943d 9431 9c3d
000000b0: 4e7c 823d 479d 833c 9b92 ca3d 43e0 9f3e
000000c0: 71ba 8bbd 2bce b2bd
-0.115062036 0.019288119 -0.23528388 0.030276425 -0.22819954 -0.027045881 0.053550128 -0.06602537
0.24163686 -0.21921259 -0.0008107179 0.11992989 -0.22373706 -0.23455086 0.18066417 0.09324081
0.15807448 -0.008303883 0.25242496 -0.24054255 0.20808917 0.2582223 0.2234466 -0.27466017
-0.028060956 0.06286969 -0.26617357 0.049207326 -0.0016957747 0.28098708 0.27565175 -0.1142814
0.17487085 -0.044065565 -0.31519738 -0.03101352 0.04109758 0.063898295 -0.22874446 0.012374737
-0.1472148 0.28385916 0.07259344 0.07626644 0.063713655 0.016066207 0.09891244 0.31225786
-0.0682267 -0.0873073

thirdGCN.attentionLayer.linear.bias f4 [5]
00000000: 152e 863d 0d1e 9bbe d68f 1bbe ee7e c2bd
00000010: 624e d4bd
0.06551758 -0.30296364 -0.15191588 -0.09496866 -0.10366513

thirdGCN.attentionLayer.inAttention.W_sum f4 [5, 5]
00000000: 7c2f 773e a904 703f e521 223f e5c2 353f
00000010: 5b08 2b3f accc d23e 1d5a 633f 0806 943d
00000020: a026 f03e 73dd 7b3f 6a9c 9c3e 984c f83d
00000030: cab5 5f3f 64d5 1e3e 8e04 a23e d56c 6f3f
00000040: d7cc 413f f0ce 3e3d 54bc 813e 2e24 953e
00000050: 008c e43d 2d3d 6d3f f090 6c3e 5f87 393f
00000060: 106b c63e
0.24139208 0.9375711 0.6333297 0.7100051 0.66809624 0.41171777 0.88809377 0.07227713
0.4690447 0.9838478 0.30588084 0.12123984 0.87386763 0.1551109 0.316441 0.9352544
0.75703186 0.04658407 0.25338995 0.29129165 0.111595154 0.9267147 0.23102164 0.72472185
0.38753557

thirdGCN.attentionLayer.inAttention.W_alpha f4 [5, 5]
00000000: f0f8 e63d 50e4 ff3d 90bd 093f 3132 2c3f
00000010: 2d83 003f 0677 a23e 3ae2 993e 8040 8b3c
00000020: 70ea 393f 16f3 083f 7002 3e3d 96ba 153f
00000030: 0ee1 6f3f 50c2 383d dc67 983e 050c 733f
00000040: f45f 993e d81f f73d 04f2 9d3e e141 343f
00000050: c9ad 183f 2a14 133f 1487 5a3e ffd2 6c3f
00000060: a674 013f
0.1127795 0.12494719 0.53804874 0.67264086 0.5020016 0.31731433 0.3005541 0.01699853
0.7262335 0.5349592 0.046389043 0.5848783 0.9370278 0.045107186 0.29766738 0.94940215
0.2995602 0.120666206 0.30848706 0.70413023 0.59640175 0.5745264 0.2134059 0.92509454
0.50568616

thirdGCN.attentionLayer.inAttention.a_alpha f4 [5, 1]
00000000: 0bd0 173f b782 2d3f 5640 353f 8a22 d43e
00000010: 23a0 303f
0.59301823 0.6777758 0.70801294 0.414326 0.6899435

thirdGCN.attentionLayer.inAttention.b_alpha f4 [5, 1]
00000000: ba96 203f 30ab e23d 8730 093f 49b6 773f
00000010: 9965 623f
0.6272999 0.11067808 0.5358967 0.9676252 0.88436276

thirdGCN.attentionLayer.outAttention.W_sum f4 [5, 5]
00000000: e03a 633e 3922 483f 36d2 643f 40bc 1f3e
00000010: 8738 163f e015 d83c 66e9 a33e 7e62 793f
00000020: 0167 553f f601 d43e 30b8 4e3d c01b 553e
00000030: fa91 1d3f d62f f23e 3431 2b3f 54e6 c03e
00000040: 3cf6 933e a0be bc3d dbe3 0f3f 7064 653d
00000050: e971 113f cc67 a03e 88c3 0f3e c579 2e3f
00000060: ea35 743f
0.22190428 0.7817722 0.89383256 0.15599155 0.58680004 0.026377618 0.32014006 0.9741591
0.83360296 0.41407746 0.050468624 0.20811367 0.6155087 0.4730212 0.66871953 0.37675726
0.288988 0.09216046 0.56207055 0.056003988 0.5681444 0.3132919 0.14039433 0.68154556
0.95394766

thirdGCN.attentionLayer.outAttention.W_alpha f4 [5, 5]
00000000: 34e9 423f b7b8 0b3f 0f40 0c3f 6ade 8c3e
00000010: 756a 683f d064 ca3d a3e6 643f a8f4 a73e
00000020: df45 1f3f f4af 3a3f d8da 2f3e 80f4 573f
00000030: 2758 373f e085 c93c aec1 2c3f be87 123f
00000040: 8139 513f defe f63e 6983 543f 9056 6b3e
00000050: 4a19 413f e89b 793f 9c7a 393e f648 c83e
00000060: 0a7e bf3e
0.7613709 0.5457873 0.54785246 0.27513438 0.9078744 0.0988251 0.89414424 0.32803845
0.6221599 0.72924733 0.17173326 0.8435745 0.71618885 0.02459997 0.6748303 0.57238376
0.8172837 0.48241323 0.83013016 0.2298224 0.75429213 0.9750352 0.18113178 0.39118165
0.37400848

thirdGCN.attentionLayer.outAttention.a_alpha f4 [5, 1]
00000000: 0410 423f f6eb c23e 8812 223f 9c95 1b3e
00000010: a0dd 2c3d
0.7580569 0.3807065 0.63309526 0.1519379 0.042203546

thirdGCN.attentionLayer.outAttention.b_alpha f4 [5, 1]
00000000: 9058 3a3d c083 4b3f b549 523f d69d 943e
00000010: b0e6 7c3d
0.045494616 0.7949791 0.8214372 0.2902667 0.06174344

thirdGCN.linearLayer.weight f4 [5, 10]
00000000: aefa 213e 58d3 cfbd 9e3e 99be dc78 40be
00000010: 53df af3d 0889 323c 2ba3 f43c 52f3 70be
00000020: 416f 36be 4ed6 3e3e 13bb 4cbd 7ac9 d83d
00000030: c2a5 90bd 6ec5 933e c102 ccbd 5f23 283e
00000040: ec7b 833e 4517 933e 6b17 74be 7875 9cbd
00000050: a69e abbd 0e41 703e 651a 093e f3c2 89be
00000060: f8e5 853e c5e1 ae3d 3f6b 743e 0521 42be
00000070: d629 c7bd a7df 19be b9e2 953d 84c7 9a3e
00000080: 9e82 cdbd 65c7 903d 3ad2 903e 863b a0bd
00000090: 06f4 673e 2930 a03e f1da 5abd 30cc 80be
000000a0: 9d4e 263e 1e4b 00be a821 0a3d fa64 8d3e
000000b0: 76ad 0cbe feb5 0b3b 42d6 00be 64c7 9c3d
000000c0: a385 993d c93c 2e3e
0.15818283 -0.101477325 -0.29930586 -0.18796104 0.085875176 0.010896929 0.02986296 -0.2353032
-0.17815877 0.18636438 -0.049983095 0.105853036 -0.07062866 0.28861564 -0.09961463 0.16419743
0.25680482 0.2872869 -0.23837058 -0.07639593 -0.08379869 0.23462316 0.13388975 -0.26906547
0.26152015 0.08539156 0.23869036 -0.18957908 -0.097247764 -0.15026723 0.073186345 0.30230343
-0.10034679 0.070692815 0.2828539 -0.07823853 0.22651681 0.31286743 -0.053431455 -0.25155783
0.16240926 -0.12528655 0.033723503 0.27616102 -0.13738045 0.0021318193 -0.12581733 0.07655218
0.07496192 0.17015375

thirdGCN.linearLayer.bias f4 [5]
00000000: f4ca 9f3e b20d 5e3e a11b ebbc 047d 843e
00000010: b762 13be
0.31209528 0.21684912 -0.028699698 0.2587663 -0.14393125

ff4.weight f4 [5, 5]
00000000: 9393 f03d d44d fcbd cc59 c6be 33e5 c7bc
00000010: 1b27 8b3e 1948 ac3e 3926 d9be ed29 db3e
00000020: 2f6b dd3e fa7d ddbe 81d7 bd3e 2b35 94be
00000030: d897 33be 8a45 663e d0f5 7ebe 568d 16be
00000040: 3c7a 623d d937 433d 41b1 db3e 35d9 903e
00000050: 7543 373e da0d a2be 342f d73d ab43 a0bd
00000060: 50de ddbe
0.117468975 -0.12319532 -0.38740385 -0.024401283 0.27178273 0.33648756 -0.42411974 0.42805424
0.43245837 -0.43260175 0.3707848 -0.28946814 -0.17538393 0.22487465 -0.24898458 -0.14702353
0.055292353 0.047660682 0.42908671 0.28290716 0.17896827 -0.31651193 0.1050705 -0.07825407
-0.43333673

ff4.bias f4 [5]
00000000: 9a45 6fbe e32e 893e 98e2 9c3e 9899 86be
00000010: 90d8 d73e
-0.23366395 0.26793584 0.30641627 -0.26289058 0.42157412

ff5.weight f4 [5, 5]
00000000: d871 a53e afab eb3d 1efb 3cbd a94c 7e3d
00000010: ad7e d7bd 9b27 993d 6471 433e 00cd 3dbe
00000020: 2e90 a13e 7000 a7be 79e3 ac3e 9bf6 92be
00000030: e648 393e 20b1 373e ed4a 873e fdeb e43e
00000040: 8e60 45be e17c b93e 6a75 423d cfce c3be
00000050: f419 023d 6616 bdbe f1b7 bebe e3d5 92be
00000060: 6dc8 143e
0.32313418 0.115073554 -0.04613792 0.062084828 -0.10522208 0.07478257 0.19086224 -0.18535233
0.31555313 -0.3261752 0.33767298 -0.2870377 0.18094215 0.17938662 0.2642435 0.44711295
-0.19275114 0.36228088 0.047475256 -0.3824372 0.031763032 -0.3693115 -0.3724971 -0.28678808
0.14529581

ff5.bias f4 [5]
00000000: ff61 c7be fa7a d2bb f61d abbe a3bf d83e
00000010: 959e df3c
-0.38941953 -0.0064233514 -0.33421296 0.42333707 0.027297297

ff6.weight f4 [10, 5]
00000000: dcf1 66be ea73 4fbe e65e 803e cc0f e6bd
00000010: e186 713d 4a97 f03d 84c4 45be 51f2 67be
00000020: 5e6f 97be 88cf 1cbe 4e29 96bd 9454 623e
00000030: bbd3 d33d 2a27 04bd 02c1 ae3b b48f c6be
00000040: 3f73 e33e 1a78 893e b46e e13e bc1e 1abe
00000050: 7e66 1fbe d9b2 8e3e 3f62 d63e ef70 083e
00000060: 64ca be3e 0ffe 0a3e 6270 da3c 361c 1d3e
00000070: d0e7 c0be 2fa7 ab3e a8a7 94be 9d1c b2bc
00000080: 82a7 aa3e 1ad8 9bbe 32bd ecbd 1708 98be
00000090: 6759 a6be 4b10 72be cae8 cbbe 5e6f 3ebe
000000a0: feb1 303e 3f6b a23c ee66 52bd 2a2b 2a3d
000000b0: 5386 b5be 603b 9dbe b788 61be b41e a5be
000000c0: be8a c63e 6258 a43e
-0.225532 -0.20259061 0.25072402 -0.11233482 0.05896652 0.11747606 -0.19313246 -0.2265103
-0.29577154 -0.15313542 -0.07332097 0.22102576 0.10343119 -0.032263912 0.005333067 -0.38781512
0.44423863 0.26849443 0.44029772 -0.15050787 -0.15566441 0.27870825 0.4187183 0.13324331
0.37263787 0.13573478 0.026664916 0.15342793 -0.3767686 0.33525988 -0.29034162 -0.02174216
0.33330923 -0.3043831 -0.11559524 -0.29693672 -0.32490084 -0.23639028 -0.3982604 -0.1859717
0.17255399 0.01982653 -0.051367693 0.04154507 -0.35454044 -0.30709362 -0.22024809 -0.32249987
0.38777727 0.3209868

ff6.bias f4 [10]
00000000: 8a36 be3e d37e 313d 84a0 e0be 18af acbe
00000010: 72fc d33e 3ea5 87be c425 da3e 7645 81be
00000020: 8d5e 8abd 20ba b03d
0.37150985 0.04333384 -0.43872464 -0.33727336 0.41403538 -0.26493257 0.42606938 -0.25248307
-0.067563154 0.086292505
