code/ml_model/model_weights_m6p8n10_lr0.001000_bs250_epochs30.pth (torch, 21926 bytes, 48 tensors)

ff1.weight f4 [5, 5]
-0.056154557 -0.018197203 -0.3232366 0.33599022 -0.16675295 0.09660366 -0.43038362 0.08535126
0.022378411 0.30822542 0.064178176 0.3062671 -0.35958907 0.081913695 -0.39007467 -0.16111834
0.024640813 -0.2831949 0.15755086 0.005815701 0.34497747 0.3959382 0.2930211 -0.0866132
0.17608985
00000000: 5202 66bd 4d12 95bc 457f a5be e906 ac3e
00000010: 49c1 2abe 24d8 c53d 3e5b dcbe a4cc ae3d
00000020: ee52 b73c b9cf 9d3e d96f 833d 0bcf 9c3e
00000030: 0f1c b8be 5ec2 a73d deb7 c7be 35fc 24be
00000040: 88db c93c ecfe 90be 0355 213e a391 be3b
00000050: e3a0 b03e 69b8 ca3e dd06 963e 4362 b1bd
00000060: e650 343e

ff1.bias f4 [5]
0.4338592 -0.34523106 0.027162205 0.24951889 0.049087998
00000000: cb22 de3e 20c2 b0be 4683 de3c e181 7f3e
00000010: 7f10 493d

ff2.weight f4 [5, 5]
-0.035745014 0.20565104 0.43467653 0.42799523 -0.31728554 -0.31409526 0.23056155 -0.12174934
-0.16689539 0.23944873 -0.10528019 -0.08617898 0.12915124 -0.34477547 -0.21477668 0.20094892
0.3202722 0.0076599238 -0.31381062 0.27869585 -0.38678256 -0.40281507 -0.07746081 0.22108199
0.14559895
00000000: 5d69 12bd 3096 523e ec8d de3e 3122 db3e
00000010: 4073 a2be 18d1 a0be 5418 6c3e b857 f9bd
00000020: a0e6 2abe 0c32 753e 249d d7bd 9b7e b0bd
00000030: 3940 043e 6986 b0be 6bee 5bbe 8ec5 4d3e
00000040: b8fa a33e 1900 fb3b c9ab a0be 39b1 8e3e
00000050: 5d08 c6be c73d cebe c6a3 9ebd 5163 623e
00000060: e417 153e

ff2.bias f4 [5]
0.34277168 0.2741843 0.34483063 -0.07687283 0.18565424
00000000: c57f af3e e261 8c3e a48d b03e 816f 9dbd
00000010: 251c 3e3e

ff3.weight f4 [5, 5]
-0.36973557 -0.37068194 0.0055109696 -0.2003145 -0.0386285 0.17027798 0.075629435 -0.28706062
0.38090572 0.36804342 0.117130175 0.43569025 0.2993372 0.19653378 -0.39583457 0.37847137
0.023214078 0.17478898 0.19014838 -0.282563 -0.41616338 0.010548955 0.20597614 -0.30301338
0.24727792
00000000: fb4d bdbe 06ca bdbe 5d95 b43b 3f1f 4dbe
00000010: eb38 1ebd 5a5d 2e3e 9be3 9a3d 9cf9 92be
00000020: 1306 c33e 3070 bc3e f2e1 ef3d cb12 df3e
00000030: ba42 993e 2740 493e d4aa cabe 00c7 c13e
00000040: 732b be3c e2fb 323e 42b6 423e 19ac 90be
00000050: 5e13 d5be 86d5 2c3c 69eb 523e 9224 9bbe
00000060: 6c36 7d3e

ff3.bias f4 [5]
0.27623606 -0.054911323 0.42963287 0.036445905 -0.096767224
00000000: d06e 8d3e b2ea 60bd d7f8 db3e 4d48 153d
00000010: e52d c6bd

firstGCN.attentionLayer.linear.weight f4 [5, 10]
0.019613048 -0.2826252 -0.106949605 -0.16568121 0.19339246 -0.20297183 -0.24702723 0.29143506
-0.0074674105 -0.036476918 -0.28723195 -0.094465256 -0.24384826 0.020817135 0.14808896 -0.22799084
0.0488822 0.085793816 0.03837277 0.17075479 -0.2907191 -0.09191397 -0.29072112 -0.065117314
-0.010957734 -0.030485572 0.010114336 -0.24696007 -0.16148317 0.064915955 -0.021659922 0.16359818
-0.024210306 0.24497966 -0.05901652 -0.2141772 -0.28541887 -0.076586194 0.1521297 -0.042620774
0.064864 0.021387128 0.1539697 0.2592088 0.023044689 0.17429064 -0.010939628 0.0398729
0.14252293 -0.29049826
00000000: 8bab a03c 40b4 90be 6508 dbbd 56a8 29be
00000010: ac08 463e d9d7 4fbe b5f4 7cbe fa36 953e
00000020: 2eb1 f4bb d268 15bd 1110 93be 0077 c1bd
00000030: 5cb3 79be b288 aa3c a2a4 173e 6e76 69be
00000040: b438 483d abb4 af3d c42c 1d3d 58da 2e3e
00000050: 22d9 94be 643d bcbd 66d9 94be 3a5c 85bd
00000060: 1188 33bc e1bc f9bc 9ab6 253c 1ae3 7cbe
00000070: d85b 25be a8f2 843d 2670 b1bc 4886 273e
00000080: b154 c6bc f3db 7a3e 4ebb 71bd 4551 5bbe
00000090: 6c22 92be 39d9 9cbd e3c7 1b3e 1f93 2ebd
000000a0: 6bd7 843d 0f34 af3c 3caa 1d3e 04b7 843e
000000b0: 37c8 bc3c 3f79 323e 203c 33bc c451 233d
000000c0: 88f1 113e 30bc 94be

firstGCN.attentionLayer.linear.bias f4 [5]
0.22697867 -0.059862122 -0.13440916 0.22073631 -0.30286655
00000000: 196d 683e fc31 75bd 8ea2 09be b308 623e
00000010: 5311 9bbe

firstGCN.attentionLayer.inAttention.W_sum f4 [5, 5]
0.75156146 0.782269 0.4711154 0.42993504 0.94349355 0.6663651 0.69314903 0.80517316
0.16025239 0.70894444 0.22981241 0.31091693 0.048262164 0.22466756 0.49532196 0.9964662
0.14225544 0.10304901 0.8978344 0.8068243 0.568281 0.061793674 0.2658887 0.0027799038
0.4871339
00000000: 5566 403f c842 483f 0a36 f13e 7220 dc3e
00000010: cb88 713f e796 2a3f 3772 313f d41f 4e3f
00000020: 3419 243e 627d 353f f253 6b3e 8130 9f3e
00000030: 8cae 453d 410f 663e d79a fd3e 6918 7f3f
00000040: 69ab 113e 5c0b d33d 7ad8 653f 0a8c 4e3f
00000050: dd7a 113f 5d1b 7d3d 9022 883e 0c2f 363b
00000060: 9d69 f93e

firstGCN.attentionLayer.inAttention.W_alpha f4 [5, 5]
0.5041784 0.58518416 0.20078784 0.8829908 0.1923136 0.44755596 0.8243251 0.68415624
0.6488711 0.64955956 0.71832496 0.6707448 0.47856787 0.89248896 0.9054269 0.17206621
0.24012944 0.95703644 0.26975143 0.29469734 0.18906188 0.54019684 0.8639509 0.52924645
0.011565526
00000000: d611 013f a1ce 153f 549b 4d3e af0b 623f
00000010: dbed 443e 0e26 e53e f806 533f dd24 2f3f
00000020: 6b1c 263f 8949 263f 25e4 373f eeb5 2b3f
00000030: d906 f53e 287a 643f 0fca 673f 2032 303e
00000040: 7ee4 753e 5700 753f dc1c 8a3e 92e2 963e
00000050: 7099 413e 574a 0a3f e32b 5d3f b27c 073f
00000060: 557d 3d3c

firstGCN.attentionLayer.inAttention.a_alpha f4 [5, 1]
0.31322783 0.60716563 0.5715398 0.39243084 0.30945218
00000000: 665f a03e 356f 1b3f 6f50 123f b2ec c83e
00000010: 8470 9e3e

firstGCN.attentionLayer.inAttention.b_alpha f4 [5, 1]
0.73786134 0.7213696 0.993734 0.41194922 0.901752
00000000: 7be4 3c3f aeab 383f 5a65 7e3f 02eb d23e
00000010: 38d9 663f

firstGCN.attentionLayer.outAttention.W_sum f4 [5, 5]
0.5236875 0.046092335 0.5154357 0.23549269 0.8352396 0.5341309 0.8338685 0.72105175
0.43135196 0.6473559 0.70732117 0.30901986 0.18630192 0.63204384 0.32435393 0.81826514
0.7117774 0.40504345 0.69420844 0.009428797 0.91290987 0.5568808 0.96746033 0.5907019
0.17704286
00000000: 6210 063f 51cb 3c3d 98f3 033f ff24 713e
00000010: 43d2 553f cdbc 083f 6878 553f d996 383f
00000020: 2ada dc3e 1eb9 253f 0013 353f da37 9e3e
00000030: eec5 3e3e a0cd 213f b811 a63e d379 513f
00000040: 0b37 363f db61 cf3e a5b7 313f 3e7b 1a3c
00000050: 76b4 693f bd8f 0e3f 7bab 773f 3d38 173f
00000060: b94a 353e

firstGCN.attentionLayer.outAttention.W_alpha f4 [5, 5]
0.54466337 0.7727508 0.59717786 0.6887665 0.8321653 0.06961435 0.15987468 0.6967111
0.97664535 0.516141 0.83985066 0.33065945 0.83716834 0.9896493 0.27074358 0.83389914
0.014500626 0.83658946 0.8126235 0.12878355 0.91614145 0.56952906 0.7284077 0.29872772
0.51096237
00000000: 0f6f 0b3f ffd2 453f a6e0 183f 0053 303f
00000010: c908 553f f891 8e3d 30b6 233e a95b 323f
00000020: 6e05 7a3f d121 043f 7400 573f 324c a93e
00000030: aa50 563f a859 7d3f e79e 8a3e 6a7a 553f
00000040: 0994 6d3c ba2a 563f 1808 503f d6df 033e
00000050: 3f88 6a3f a8cc 113f ed78 3a3f d7f2 983e
00000060: 6ece 023f

firstGCN.attentionLayer.outAttention.a_alpha f4 [5, 1]
0.5876721 0.5348833 0.8905196 0.88178855 0.12343478
00000000: ae71 163f 1dee 083f 18f9 633f e5bc 613f
00000010: 60cb fc3d

firstGCN.attentionLayer.outAttention.b_alpha f4 [5, 1]
0.19013393 0.60937333 0.8404097 0.5438017 0.9336125
00000000: 78b2 423e e4ff 1b3f 1725 573f 9736 0b3f
00000010: 3b01 6f3f

firstGCN.linearLayer.weight f4 [5, 10]
-0.16639458 -0.23016463 0.050856505 -0.25969985 -0.10939768 -0.10510373 0.22558038 -0.11141011
0.13601604 0.27067658 -0.20918292 -0.18745066 -0.13561788 -0.029142378 -0.043095313 0.25305334
0.17866972 0.30284545 0.25143892 -0.301139 0.27132216 0.19358549 -0.095904276 -0.11532893
0.15787318 -0.21087712 0.24744858 0.260369 -0.24056411 0.026182689 -0.17368048 0.09089668
-0.099750265 0.31416008 0.25063378 0.29598948 -0.23989491 0.27132246 0.17532967 -0.24149692
0.27291968 -0.12630838 0.136782 0.24095239 0.028885772 -0.19536649 -0.09492173 -0.11938614
0.27509606 0.2636857
00000000: 5763 2abe 47b0 6bbe e94e 503d 61f7 84be
00000010: e40b e0bd a040 d7bd 8bfe 663e fc2a e4bd
00000020: ca47 0b3e 1f96 8a3e 0c34 56be 11f3 3fbe
00000030: 6adf 0abe ffbb eebc b684 30bd 3590 813e
00000040: 32f5 363e 8f0e 9b3e 9abc 803e e42e 9abe
00000050: bdea 8a3e 463b 463e 7669 c4bd 9331 ecbd
00000060: 82a9 213e 2cf0 57be 2963 7d3e 164f 853e
00000070: 7056 76be 147d d63c 4cd9 31be 0a28 ba3d
00000080: de49 ccbd 97d9 a03e 1253 803e ef8b 973e
00000090: 03a7 75be c7ea 8a3e 9f89 333e f84a 77be
000000a0: 21bc 8b3e fc56 01be 9510 0c3e 39bc 763e
000000b0: dba1 ec3c 270e 48be 5366 c2bd b880 f4bd
000000c0: 64d9 8c3e d001 873e

firstGCN.linearLayer.bias f4 [5]
-0.072083995 -0.25276124 -0.22985272 -0.15253714 0.18231384
00000000: c6a0 93bd ec69 81be 835e 6bbe b232 1cbe
00000010: 7bb0 3a3e

secondGCN.attentionLayer.linear.weight f4 [5, 10]
0.16360027 -0.14696811 -0.2955577 -0.2474194 -0.28487685 0.16657239 -0.15915196 0.107986934
0.3133314 -0.18603596 0.048271112 -0.2719762 -0.20899451 0.14080551 0.00063459616 0.14183879
-0.25649995 -0.088295035 -0.28172284 0.05187761 0.31555566 0.037515663 -0.29087016 0.087877996
0.096782096 -0.2916406 -0.13324197 -0.072071746 0.31324944 -0.03034247 0.082899086 0.16834402
0.03167752 -0.24373803 -0.2854357 0.0018102237 0.26942164 0.2770143 0.18943954 -0.22407614
-0.1064027 -0.26782376 0.29189444 0.089755245 -0.11600119 0.21269488 -0.29450628 -0.07668337
0.0070213834 -0.039340172
00000000: d486 273e cf7e 16be 5753 97be 835b 7dbe
00000010: 61db 91be f491 2a3e bbf8 22be 4128 dd3d
00000020: f96c a03e 3680 3ebe eeb7 453d 7740 8bbe
00000030: a802 56be 522f 103e 075b 263a 303e 113e
00000040: f653 83be 07d4 b4bd fa3d 90be 9e7d 543d
00000050: 8390 a13e 06aa 193d efec 94be 61f9 b33d
00000060: b135 c63d eb51 95be 9570 08be 5a9a 93bd
00000070: 3b62 a03e c690 f8bc ffc6 a93d 6062 2c3e
00000080: 4ac0 013d 7696 79be a124 92be 0745 ed3a
00000090: a2f1 893e d1d4 8d3e 70fc 413e 3774 65be
000000a0: a9e9 d9bd 3220 89be 3073 953e 99d1 b73d
000000b0: 0892 edbd b0cc 593e 87c9 96be 2c0c 9dbd
000000c0: a213 e63b 2923 21bd

secondGCN.attentionLayer.linear.bias f4 [5]
0.11862145 -0.24612328 -0.13838366 0.039453756 0.056269873
00000000: ceef f23d be07 7cbe 72b4 0dbe 439a 213d
00000010: 3d7b 663d

secondGCN.attentionLayer.inAttention.W_sum f4 [5, 5]
0.3587489 0.94489044 0.98158884 0.29934573 0.014259696 0.13996446 0.6843448 0.8067075
0.98214465 0.7374369 0.13792604 0.46276623 0.7860029 0.79529774 0.8985682 0.7240798
0.9793279 0.23546457 0.058502495 0.6089696 0.73987 0.6805962 0.13549721 0.65815204
0.89187694
00000000: f0ad b73e 57e4 713f 6849 7b3f d843 993e
00000010: 80a1 693c d852 0f3e 3931 2f3f 6284 4e3f
00000020: d56d 7b3f aac8 3c3f 7c3c 0d3e b2ef ec3e
00000030: 7c37 493f a298 4b3f 9108 663f 4b5d 393f
00000040: 3cb5 7a3f a01d 713e 50a0 6f3d 6fe5 1b3f
00000050: 1f68 3d3f 8d3b 2e3f c8bf 0a3e a77c 283f
00000060: 0c52 643f

secondGCN.attentionLayer.inAttention.W_alpha f4 [5, 5]
0.08582091 0.6417011 0.70491797 0.828672 0.7400675 0.56627876 0.78408355 0.7073028
0.101263106 0.27533704 0.25107956 0.52650887 0.6500763 0.9059991 0.2781037 0.27261937
0.50230646 0.60578674 0.29958743 0.9759437 0.7673977 0.81144667 0.018119574 0.47711092
0.38728178
00000000: e0c2 af3d 8646 243f 8175 343f d923 543f
00000010: 1075 3d3f a5f7 103f b3b9 483f cc11 353f
00000020: 0863 cf3d faf8 8c3e 808d 803e 49c9 063f
00000030: 676b 263f 8fef 673f 9c63 8e3e c494 8b3e
00000040: 2897 003f d714 1b3f 8663 993e 72d7 793f
00000050: 2d74 443f f8ba 4f3f 806f 943c e247 f43e
00000060: cc49 c63e

secondGCN.attentionLayer.inAttention.a_alpha f4 [5, 1]
0.74897325 0.85600656 0.27325642 0.74428344 0.48630828
00000000: b6bc 3f3f 3f23 5b3f 44e8 8b3e 5c89 3e3f
00000010: 66fd f83e

secondGCN.attentionLayer.inAttention.b_alpha f4 [5, 1]
0.10915959 0.9586888 0.7254436 0.07645106 0.88675463
00000000: 108f df3d a16c 753f acb6 393f 6092 9c3d
00000010: 5a02 633f

secondGCN.attentionLayer.outAttention.W_sum f4 [5, 5]
0.5079211 0.9958654 0.2270394 0.004860759 0.20002437 0.8550997 0.49687368 0.9684835
0.6427552 0.5319546 0.42018592 0.15625548 0.97979105 0.23672915 0.53211075 0.8252467
0.9369515 0.92921525 0.8804186 0.70790696 0.32882154 0.43869704 0.9203713 0.3157848
0.8420514
00000000: 1e07 023f 09f1 7e3f 047d 683e 0047 9f3b
00000010: 30d3 4c3e d0e7 5a3f 3a66 fe3e 89ee 773f
00000020: 9b8b 243f 2d2e 083f 9c22 d73e 7001 203e
00000030: 96d3 7a3f 2069 723e 6938 083f 5e43 533f
00000040: 0edc 6f3f 0de1 6d3f 1d63 613f 6439 353f
00000050: 4c5b a83e e69c e03e 749d 6b3f 8cae a13e
00000060: ae90 573f

secondGCN.attentionLayer.outAttention.W_alpha f4 [5, 5]
0.9581025 0.46814162 0.50036156 0.34427553 0.53711534 0.12685609 0.08987856 0.9245453
0.24021167 0.057181716 0.6781912 0.42134047 0.18541789 0.68107164 0.103686154 0.54893035
0.96832746 0.61890936 0.47946048 0.19962865 0.68314457 0.20947278 0.9682923 0.35626048
0.30811065
00000000: 3546 753f 42b0 ef3e b217 003f e244 b03e
00000010: 6480 093f 90e6 013e 4012 b83d 00af 6c3f
00000020: 0cfa 753e 6037 6a3d f09d 2d3f f0b9 d73e
00000030: 30de 3d3e b65a 2e3f 6859 d43d b386 0c3f
00000040: 4fe4 773f d870 1e3f d87b f53e 746b 4c3e
00000050: 90e2 2e3f 0880 563e 01e2 773f c667 b63e
00000060: aec0 9d3e

secondGCN.attentionLayer.outAttention.a_alpha f4 [5, 1]
0.13733375 0.7664869 0.47098094 0.8835729 0.5877038
00000000: 38a1 0c3e 7c38 443f 6a24 f13e d531 623f
00000010: c273 163f

secondGCN.attentionLayer.outAttention.b_alpha f4 [5, 1]
0.41385472 0.71339816 0.19887125 0.33667237 0.2625988
00000000: c4e4 d33e 43a1 363f e8a4 4b3e 5260 ac3e
00000010: 5a73 863e

secondGCN.linearLayer.weight f4 [5, 10]
-0.3161265 0.2662414 0.25330612 0.27928 0.05688125 0.22529082 0.14336622 0.017222872
0.30245477 -0.21918277 0.1435984 -0.23770013 0.13851766 -0.0075329733 -0.15420218 0.20429434
-0.30590805 0.07519821 -0.28761974 0.052023426 0.20840368 0.27805606 -0.13573237 -0.30131483
-0.00022067993 0.107916705 -0.21143836 -0.07557081 0.14091231 -0.16612768 0.2567085 -0.031465285
-0.22432765 -0.10355577 -0.11927961 0.11494736 -0.06519154 -0.1078951 0.2822676 -0.047540992
-0.15640767 -0.051786233 0.2176322 0.10377965 -0.16856693 0.15939736 -0.18964046 -0.0204815
-0.11232016 0.18238619
00000000: 55db a1be cb50 883e 57b1 813e cafd 8e3e
00000010: 50fc 683d a3b2 663e 98ce 123e fb16 8d3c
00000020: 5adb 9a3e 7371 60be 750b 133e aa67 73be
00000030: 93d7 0d3e 29d7 f6bb 2de7 1dbe 8932 513e
00000040: fb9f 9cbe 8501 9a3d e542 93be 8416 553d
00000050: c667 553e 5d5d 8e3e 6dfd 0abe f045 9abe
00000060: 5166 67b9 6f03 dd3d 4c83 58be dec4 9abd
00000070: 514b 103e 601d 2abe 4c6f 833e bee1 00bd
00000080: 26b6 65be 0c15 d4bd de48 f4bd 8569 eb3d
00000090: 2483 85bd 1bf8 dcbd 6185 903e 58ba 42bd
000000a0: 5529 20be cd1d 54bd fada 5e3e 6d8a d43d
000000b0: cf9c 2cbe 1039 233e 1c31 42be d2c8 a7bc
000000c0: 1d08 e6bd 72c3 3a3e

secondGCN.linearLayer.bias f4 [5]
-0.13877517 0.20748979 0.04824687 0.24077559 -0.0667634
00000000: 141b 0ebe 3478 543e 839e 453d e08d 763e
00000010: 40bb 88bd

thirdGCN.attentionLayer.linear.weight f4 [5, 10]
-0.27832812 0.2265181 -0.303585 0.1636926 0.15672368 0.060211312 0.25674534 0.09826156
-0.1475896 0.26114815 -0.049887724 -0.16856575 0.18765487 0.20466012 -0.0061806585 0.29998684
0.100298494 -0.028372336 -0.1468535 0.010456586 -0.314901 -0.304157 -0.11620765 -0.08610464
0.009903228 -0.0043077446 -0.017705511 0.21218838 0.18688253 0.2659243 0.2999325 -0.0060626287
0.018046446 -0.2403483 -0.24777639 -0.3094793 -0.17568357 -0.19610687 0.055597804 0.23913877
0.2663785 0.25769982 -0.10567579 0.043276675 -0.23545066 0.24963999 0.25786912 -0.24674876
-0.29729825 -0.22924195
00000000: 0681 8ebe 5cf4 673e 7e6f 9bbe 089f 273e
00000010: 2c7c 203e 23a0 763d 2074 833e 5b3d c93d
00000020: ba21 17be 36b5 853e 1257 4cbd 809c 2cbe
00000030: 9928 403e 6c92 513e 1f87 cabb e097 993e
00000040: 4c69 cd3d 1a6d e8bc c460 16be 1a52 2b3c
00000050: b43a a1be 77ba 9bbe 47fe edbd a157 b0bd
00000060: 2641 223c fb27 8dbb 260b 91bc e947 593e
00000070: 225e 3f3e 3b27 883e c190 993e 04a9 c6bb
00000080: 24d6 933c dd1d 76be 18b9 7dbe 1274 9ebe
00000090: 65e6 33be 3dd0 48be 86ba 633d cbe0 743e
000000a0: c362 883e 3bf1 833e 8c6c d8bd e242 313d
000000b0: fa19 71be a0a1 7f3e 6c07 843e b5ab 7cbe
000000c0: 7a37 98be 67be 6abe

thirdGCN.attentionLayer.linear.bias f4 [5]
0.064347155 -0.12353461 0.29231286 0.21647151 0.22686781
00000000: 71c8 833d b7ff fcbd 08aa 953e b5aa 5d3e
00000010: 0950 683e

thirdGCN.attentionLayer.inAttention.W_sum f4 [5, 5]
0.648144 0.6301303 0.002974093 0.19859308 0.72248495 0.20632726 0.5558439 0.1950342
0.88841844 0.21327734 0.89594585 0.6423658 0.58882517 0.5129817 0.80908346 0.05756104
0.6549333 0.5564227 0.99376875 0.5598322 0.79027647 0.031240523 0.5697587 0.31036967
0.5781725
00000000: c4ec 253f 3850 213f 00e9 423b fc5b 4b3e
00000010: c6f4 383f 7447 533e c94b 0e3f 0cb7 473e
00000020: 646f 633f 6065 5a3e b55c 653f 1672 243f
00000030: 3fbd 163f c552 033f 1820 4f3f 20c5 6b3d
00000040: b5a9 273f b871 0e3f a167 7e3f 2a51 0f3f
00000050: 8f4f 4a3f 20ec ff3c b5db 113f c6e8 9e3e
00000060: 1d03 143f

thirdGCN.attentionLayer.inAttention.W_alpha f4 [5, 5]
0.38489187 0.24826908 0.25619859 0.79803264 0.7610164 0.4533773 0.5900465 0.50801855
0.2743013 0.4842832 0.55483884 0.7758239 0.09087694 0.21968758 0.010378957 0.8151338
0.7512214 0.026222944 0.3007149 0.37100148 0.31729466 0.45298892 0.6678487 0.2631594
0.71815705
00000000: 8c10 c53e 403a 7e3e 762c 833e de4b 4c3f
00000010: f9d1 423f 1221 e83e 4a0d 173f 810d 023f
00000020: 3871 8c3e f8f3 f73e eb09 0e3f 659c 463f
00000030: b01d ba3d c8f5 603e 800c 2a3c 9cac 503f
00000040: 0c50 403f 80d1 d63c 4ef7 993e e8f3 bd3e
00000050: 7274 a23e 2aee e73e 22f8 2a3f d4bc 863e
00000060: 24d9 373f

thirdGCN.attentionLayer.inAttention.a_alpha f4 [5, 1]
0.7456885 0.3208415 0.22716022 0.6536094 0.5545556
00000000: 71e5 3e3f 5645 a43e b09c 683e f252 273f
00000010: 5bf7 0d3f

thirdGCN.attentionLayer.inAttention.b_alpha f4 [5, 1]
0.0972206 0.8304461 0.7349572 0.65375376 0.77332634
00000000: 981b c73d 1e98 543f 2826 3c3f 685c 273f
00000010: b7f8 453f

thirdGCN.attentionLayer.outAttention.W_sum f4 [5, 5]
0.20714343 0.013531625 0.121746 0.61273545 0.4640991 0.77255744 0.93173456 0.99646425
0.4324627 0.18675327 0.3260224 0.7366192 0.7508739 0.9405482 0.19980973 0.21231961
0.021801949 0.20939994 0.6299163 0.60497713 0.5886464 0.9589073 0.09386355 0.22746748
0.18706644
00000000: 681d 543e c0b3 5d3c f855 f93d 3bdc 1c3f
00000010: 669e ed3e 53c6 453f 2886 6e3f 4818 7f3f
00000020: c06b dd3e 403c 3f3e 68ec a63e 1393 3c3f
00000030: 4639 403f c4c7 703f ec9a 4c3e 506a 593e
00000040: 009a b23c f06c 563e 3242 213f c8df 1a3f
00000050: 88b1 163f f37a 753f 883b c03d 3ced 683e
00000060: 588e 3f3e

thirdGCN.attentionLayer.outAttention.W_alpha f4 [5, 5]
0.24984354 0.49956214 0.822144 0.8796586 0.5297098 0.2610582 0.9906895 0.08496952
0.49373037 0.04157132 0.41775882 0.31207585 0.9399409 0.12529743 0.45486277 0.30420303
0.68855 0.23412085 0.13407338 0.32600254 0.6495347 0.0088713765 0.51181924 0.41237754
0.5588855
00000000: fcd6 7f3e 9cc6 ff3e 0778 523f 4e31 613f
00000010: 109b 073f 6ca9 853e d49d 7d3f 8004 ae3d
00000020: 3aca fc3e b046 2a3d 7ce4 d53e 68c8 9f3e
00000030: f89f 703f f84d 003e c6e3 e83e 80c0 9b3e
00000040: d044 303f 60bd 6f3e 884a 093e cee9 a63e
00000050: e847 263f 4059 113c 9606 033f 2623 d33e
00000060: 1f13 0f3f

thirdGCN.attentionLayer.outAttention.a_alpha f4 [5, 1]
0.7972213 0.53485304 0.5690452 0.81393516 0.40059245
00000000: b216 4c3f 21ec 083f f2ac 113f 0e5e 503f
00000010: 741a cd3e

thirdGCN.attentionLayer.outAttention.b_alpha f4 [5, 1]
0.35757947 0.588864 0.15888691 0.01644224 0.3241223
00000000: a814 b73e cbbf 163f 40b3 223e e0b1 863c
00000010: 5cf3 a53e

thirdGCN.linearLayer.weight f4 [5, 10]
0.2609063 -0.22944446 -0.034056183 -0.2743284 0.08739649 0.17022191 0.24926642 0.27047744
0.07301621 -0.016708493 0.21776727 -0.23759368 0.18856104 0.035300907 -0.24018778 0.1295275
-0.18491481 -0.249213 -0.3087572 -0.1428354 -0.0015216509 -0.1001062 0.11274105 -0.21203925
-0.17161305 -0.11676863 0.17022583 0.050102558 -0.09919234 -0.24276382 0.06756157 0.28250876
0.24208896 0.27512503 0.15381673 -0.08140706 -0.18645859 0.20536709 -0.06439662 0.2783796
0.018410299 0.29626897 -0.10324567 -0.22657499 0.24294153 0.17923872 0.20173334 -0.038976055
0.16750816 0.08172964
00000000: 8395 853e 7df3 6abe 7f7e 0bbd c674 8cbe
00000010: eefc b23d a74e 2e3e b23f 7f3e 057c 8a3e
00000020: 8689 953d 40e0 88bc 62fe 5e3e c24b 73be
00000030: 2516 413e af97 103d c9f3 75be dba2 043e
00000040: 4f5a 3dbe b131 7fbe 6c15 9ebe 7143 12be
00000050: 2272 c7ba 7b04 cdbd c8e4 e63d d120 59be
00000060: 55bb 2fbe 6424 efbd ae4f 2e3e 5738 4d3d
00000070: 5b25 cbbd 1497 78be b85d 8a3d fda4 903e
00000080: 2be6 773e 30dd 8c3e 2282 1d3e bfb8 a6bd
00000090: 00ef 3ebe c04b 523e 60e2 83bd c587 8e3e
000000a0: 32d1 963c 91b0 973e 7772 d3bd 4603 68be
000000b0: aac5 783e 5b8a 373e 2f93 4e3e 5ba5 1fbd
000000c0: 4287 2b3e df61 a73d

thirdGCN.linearLayer.bias f4 [5]
-0.29285997 0.3067684 0.18889767 -0.0003263831 0.313273
00000000: bef1 95be bf10 9d3e 646e 413e 661e abb9
00000010: 5265 a03e

ff4.weight f4 [5, 5]
-0.018895894 -0.42548376 0.17870626 0.03264585 -0.3532807 -0.026093064 0.042712294 -0.2026358
0.012340038 0.21875612 0.30247062 0.36831287 0.13459556 0.197618 -0.40232503 -0.014259092
0.064652584 -0.39302874 -0.011695636 0.040804327 0.15667062 -0.27390796 0.22115813 -0.32666945
0.34279206
00000000: 90cb 9abc 02d9 d9be c6fe 363e a8b7 053d
00000010: 35e1 b4be 1fc1 d5bc 16f3 2e3d c27f 4fbe
00000020: df2d 4a3c 9b01 603e 6edd 9a3e 8193 bc3e
00000030: 6bd3 093e 5f5c 4a3e 8cfd cdbe f79e 69bc
00000040: 9368 843d 103b c9be 0e9f 3fbc 7022 273d
00000050: 436e 203e aa3d 8cbe 4777 623e 3841 a7be
00000060: 7182 af3e

ff4.bias f4 [5]
0.2647312 0.1787449 -0.3178149 -0.27729392 -0.24563327
00000000: d98a 873e e708 373e a2b8 a2be 78f9 8dbe
00000010: 4a87 7bbe

ff5.weight f4 [5, 5]
0.2001076 0.3979075 -0.13622531 0.21292467 -0.3595194 0.22730888 0.3812435 -0.05528701
-0.2956132 0.26245803 0.11516653 -0.34499478 -0.14432506 0.048822824 -0.3577524 -0.18234564
-0.32829523 0.17528719 0.43077093 0.23369065 -0.10489192 0.1441534 0.42052054 -0.0100930305
-0.12546545
00000000: 02e9 4c3e 88ba cb3e a67e 0bbe ed08 5a3e
00000010: ed12 b8be a9c3 683e 5932 c33e a274 62bd
00000020: 9d5a 97be e660 863e 6edc eb3d 28a3 b0be
00000030: f3c9 13be 71fa 473d 532b b7be d1b8 3abe
00000040: 5016 a8be 7c7e 333e 028e dc3e 9a4c 6f3e
00000050: 93d1 d6bd f39c 133e 784e d73e 3d5d 25bc
00000060: 047a 00be

ff5.bias f4 [5]
-0.3125978 0.37548527 0.14786983 -0.10049533 0.20497905
00000000: d20c a0be 9b3f c03e 306b 173e 7fd0 cdbd
00000010: 07e6 513e

ff6.weight f4 [10, 5]
0.31261578 0.04376624 -0.1467355 0.44471583 -0.28677127 0.29768324 -0.104697846 -0.14894173
0.11547449 0.011918502 0.40289724 0.07494093 0.2284972 -0.06123172 0.16632183 0.13494878
-0.19679447 -0.3932992 0.34561196 0.27502283 -0.011543549 0.33382672 0.04255253 0.26202056
0.13534515 -0.1150195 -0.12163172 0.06904748 0.3679937 0.22495559 -0.07280175 0.09462574
0.19037907 0.014984824 0.31461078 0.3066526 -0.44601092 -0.049361754 -0.018208742 0.068933174
0.073473796 -0.08860601 0.39534095 -0.12781455 0.31951317 0.16759126 -0.2171342 -0.33143353
-0.2727225 0.37056938
00000000: 2d0f a03e 3b44 333d d541 16be cbb1 e33e
00000010: afd3 92be f069 983e d36b d6bd 2e84 18be
00000020: e47d ec3d d245 433c 8c48 ce3e a17a 993d
00000030: 2cfb 693e 1dce 7abd 4550 2a3e 0330 0a3e
00000040: 7d84 49be 835e c9be 0df4 b03e cbcf 8c3e
00000050: 2721 3dbc 56eb aa3e 904b 2e3d 8f27 863e
00000060: eb97 0a3e 588f ebbd 0d1a f9bd c468 8d3d
00000070: ac69 bc3e c25a 663e 1519 95bd 24cb c13d
00000080: bbf2 423e e882 753c aa14 a13e 9201 9d3e
00000090: 8b5b e4be 8d2f 4abd 802a 95bc d62c 8d3d
000000a0: 6e79 963d 1177 b5bd 216a ca3e d1e1 02be
000000b0: 3b97 a33e 0b9d 2b3e 6d58 5ebe a8b1 a9be
000000c0: 49a2 8bbe 45bb bd3e

ff6.bias f4 [10]
-0.1602208 0.003445393 -0.28662202 -0.13156022 0.42848846 -0.3734557 -0.3472111 0.09789206
-0.0065430813 0.38178453
00000000: ec10 24be 1acc 613b 1fc0 92be b9b7 06be
00000010: d762 db3e 9635 bfbe a7c5 b1be a27b c83d
00000020: 5867 d6bb 4379 c33e
