code/ml_model/model_weights_m7p8n10_lr0.001000_bs250_epochs30.pth (torch, 21926 bytes, 48 tensors)

ff1.weight f4 [5, 5]
0	0x3e5a4f11	0.21319224
1	0x3edf28fe	0.43585962
2	0x3e8dbd99	0.27683714
3	0xbe5272f1	-0.20551659
4	0x3e2dc803	0.1697083
5	0xbe9eacd3	-0.3099123
6	0x3ec20029	0.37890747
7	0x3e6d0350	0.23145795
8	0x3e972660	0.29521465
9	0xbeca531b	-0.3951653
10	0x3ec8a2e1	0.39186767
11	0xbeb5ab44	-0.35482228
12	0x3ed0143a	0.40640432
13	0x3e4850fa	0.1956214
14	0x3e84a836	0.25909585
15	0x3eac33eb	0.3363336
16	0x3b95a536	0.004566814
17	0xbe3c0a0f	-0.18363212
18	0xbe0b59a8	-0.1360842
19	0xbe38d5ba	-0.1805028
20	0xbe6c3436	-0.23066792
21	0xbed87fe8	-0.42285085
22	0xbeb5607a	-0.35425168
23	0xbd9ded89	-0.07711322
24	0x3e88dafa	0.26729566

ff1.bias f4 [5]
0	0x3da1448d	0.07874403
1	0xbeddd045	-0.4332296
2	0x3eb0f793	0.34563884
3	0x3eb7e7d8	0.3591907
4	0x3e01bed5	0.12670453

ff2.weight f4 [5, 5]
0	0x3c03bf49	0.008041211
1	0xbe4bfc00	-0.19920349
2	0x3ea9a86d	0.3313631
3	0xbddda982	-0.10823347
4	0xbea6c23e	-0.3257007
5	0x3eaa1353	0.33217868
6	0xbebed7ef	-0.3727412
7	0x3e66eb67	0.22550736
8	0xbeadb51e	-0.33927244
9	0xbe99e6e0	-0.30058956
10	0x3dcf4b58	0.101217926
11	0x3e293864	0.16525418
12	0xbeba91c5	-0.36439338
13	0x3e18f5f0	0.14937568
14	0x3e71bc57	0.23607002
15	0x3ec7bd42	0.3901158
16	0xbe6d9769	-0.2320229
17	0x3edb3225	0.42811695
18	0x3c94fd2c	0.018187128
19	0xbe10a6e8	-0.1412617
20	0xbecd6403	-0.40115365
21	0xbee1a703	-0.44072732
22	0xbec23424	-0.37930405
23	0x3e50a23e	0.2037439
24	0x3bbec17d	0.0058214054

ff2.bias f4 [5]
0	0xbe9a73cc	-0.3016647
1	0xbe782bd9	-0.24235477
2	0x3e825a38	0.25459456
3	0x3d83f0d0	0.06442416
4	0xbe98543a	-0.2975176

ff3.weight f4 [5, 5]
0	0x3d2160a4	0.039398804
1	0xbe4fb298	-0.20282972
2	0xbebbad5c	-0.366557
3	0xbd35f71c	-0.044425115
4	0xbe93e126	-0.28882712
5	0xbe5b1c9e	-0.21397635
6	0xbe7c9fb6	-0.246703
7	0xbd7aeed2	-0.061262913
8	0xbcd4ab39	-0.025960552
9	0xbe875b77	-0.2643697
10	0xbe999449	-0.29995945
11	0x3ec65ea9	0.38744095
12	0xbec2675c	-0.37969482
13	0xbe731325	-0.23737772
14	0xbed93877	-0.42425892
15	0xbc05bfca	-0.008163402
16	0xbdded40d	-0.10880289
17	0x3e8e8093	0.2783247
18	0x3d5f4ea4	0.054518357
19	0xbdd2a7ba	-0.102858976
20	0x3d7db868	0.06194344
21	0xbde51d7d	-0.11187265
22	0x3ee1edac	0.44126642
23	0x3da82b28	0.082113564
24	0xbe1f92ec	-0.1558339

ff3.bias f4 [5]
0	0xbc9c4e36	-0.019080263
1	0xbe45675c	-0.1927771
2	0x3ede9251	0.43471006
3	0x3e82dcbc	0.25559032
4	0xbe117dab	-0.14208095

firstGCN.attentionLayer.linear.weight f4 [5, 10]
0	0x3dd36032	0.10321082
1	0x3e96b465	0.29434505
2	0x3e173c8c	0.1476919
3	0x3e814b37	0.25252697
4	0x3e863f43	0.2622014
5	0xbd85078b	-0.06495579
6	0x3d543ba0	0.051814675
7	0xbd5fdd10	-0.05465418
8	0xbdf37848	-0.11888176
9	0x3dc65ad9	0.096852966
10	0x3e92d043	0.28674516
11	0x3e4f7f2a	0.20263353
12	0x3e868367	0.26272127
13	0x3e90ba79	0.28267267
14	0x3def616d	0.11688504
15	0x3dc343f2	0.09534444
16	0xbe8f9675	-0.28044477
17	0xbe4ba453	-0.19886903
18	0xbe95a32e	-0.2922606
19	0x3e34a610	0.17641473
20	0xbe752f64	-0.2394386
21	0x3e11167d	0.14168735
22	0xbe963913	-0.2934042
23	0xbd9e6498	-0.077340305
24	0x3e366c92	0.17814854
25	0x3d3e99ec	0.04653351
26	0x3e98e88a	0.29864913
27	0xbe4ee821	-0.20205738
28	0xbe3fa5bd	-0.18715568
29	0xbe5b7328	-0.21430647
30	0xbe353920	-0.17697573
31	0xbe2fcbff	-0.17167662
32	0xbe9b1c66	-0.30295104
33	0x3ea0eac1	0.31429103
34	0x3ccaa7b4	0.02473817
35	0xbe65e027	-0.22448789
36	0xbe28b9dc	-0.1647715
37	0x3e811202	0.2520905
38	0x3dcaf312	0.09909643
39	0x3d1e7490	0.03868538
40	0xbdadf78e	-0.08494483
41	0x3cb026e4	0.02150292
42	0xbe589ab7	-0.21152769
43	0x3df44491	0.119271405
44	0xbe8e6bb8	-0.27816558
45	0x3cb14f89	0.02164437
46	0x3dd449cb	0.103656374
47	0xbca62d15	-0.020285169
48	0x3dc065e1	0.09394432
49	0xbd69b010	-0.057052672

firstGCN.attentionLayer.linear.bias f4 [5]
0	0x3dbc9225	0.09207562
1	0x3e3716d4	0.17879802
2	0x3e12ae17	0.14324223
3	0xbe3a9d19	-0.1822399
4	0xbe81d42e	-0.25357193

firstGCN.attentionLayer.inAttention.W_sum f4 [5, 5]
0	0x3f3b663d	0.7320288
1	0x3f662ef6	0.89915407
2	0x3f35f5b5	0.71078044
3	0x3f74aba5	0.9557441
4	0x3f174c3e	0.5910071
5	0x3f67ca7b	0.90543336
6	0x3e7df9b5	0.24802287
7	0x3f2003f8	0.62506056
8	0x3eb879bb	0.36030373
9	0x3f782762	0.96935093
10	0x3f3b17e0	0.73083305
11	0x3ea29b79	0.3175924
12	0x3ef62764	0.48076928
13	0x3e9735ad	0.2953314
14	0x3e1340c6	0.14380178
15	0x3f144ee4	0.5793288
16	0x3e92a6e9	0.28642967
17	0x3ee85293	0.453755
18	0x3e34d056	0.17657599
19	0x3f22c539	0.6358219
20	0x3ec2dd1e	0.38059324
21	0x3ec58551	0.38578275
22	0x3f6141b3	0.87990874
23	0x3f786b2e	0.97038543
24	0x3e9f2e08	0.31089807

firstGCN.attentionLayer.inAttention.W_alpha f4 [5, 5]
0	0x3f0852c3	0.53251284
1	0x3eff95a2	0.49918848
2	0x3f753039	0.95776707
3	0x3f4eba28	0.807528
4	0x3e3c5bbc	0.18394369
5	0x3f5321be	0.8247336
6	0x3ef1ad2a	0.47202426
7	0x3f4faabb	0.8111989
8	0x3f46f4f6	0.7771753
9	0x3e2d2132	0.16907194
10	0x3dc30505	0.09522442
11	0x3f610042	0.8789102
12	0x3ef66b8c	0.48128927
13	0x3f135a3f	0.5755958
14	0x3eabaf2c	0.33532083
15	0x3eafb030	0.34314108
16	0x3df4d038	0.11953777
17	0x3ed68b89	0.41903332
18	0x3ef7b1c8	0.48377824
19	0x3f49510f	0.7863931
20	0x3e418600	0.18898773
21	0x3f5f9c2c	0.87347674
22	0x3eeeda64	0.46650994
23	0x3d06b350	0.03288585
24	0x3ed6e45c	0.419711

firstGCN.attentionLayer.inAttention.a_alpha f4 [5, 1]
0	0x3f10172b	0.5628535
1	0x3f5c28f5	0.85999995
2	0x3f088c9c	0.5333955
3	0x3f42977e	0.7601241
4	0x3f56c2f1	0.83891207

firstGCN.attentionLayer.inAttention.b_alpha f4 [5, 1]
0	0x3efe7593	0.49699077
1	0x3f74a5f7	0.9556574
2	0x3f7e7c54	0.9940846
3	0x3ec3b13e	0.38221163
4	0x3b4b3700	0.0031008124

firstGCN.attentionLayer.outAttention.W_sum f4 [5, 5]
0	0x3f476ec6	0.779034
1	0x3f7990c4	0.9748652
2	0x3f10acf6	0.5651392
3	0x3e015137	0.12628637
4	0x3f67588f	0.90369505
5	0x3f09a582	0.5376817
6	0x3ddbb24c	0.10727367
7	0x3f5fb30b	0.8738257
8	0x3f5fd323	0.87431544
9	0x3f0421b1	0.5161391
10	0x3f1cba5f	0.6122188
11	0x3ee2a06b	0.44263014
12	0x3f68fc97	0.9101042
13	0x3f47ff8f	0.78124326
14	0x3e7d9909	0.2476541
15	0x3c1fe678	0.009759538
16	0x3f3dc043	0.74121493
17	0x3e9431ff	0.28944394
18	0x3e47af83	0.19500546
19	0x3f7c8533	0.98640746
20	0x3f182304	0.5942843
21	0x3e2933eb	0.16523711
22	0x3f275f90	0.6538019
23	0x3f4e1dad	0.8051403
24	0x3f66623c	0.89993644

firstGCN.attentionLayer.outAttention.W_alpha f4 [5, 5]
0	0x3e4772d4	0.19477397
1	0x3da39ae8	0.079885304
2	0x3f4f8b45	0.81071883
3	0x3e7cdd00	0.2469368
4	0x3c9a5d1d	0.018843228
5	0x3e86d7ee	0.26336616
6	0x3da9c641	0.08289767
7	0x3f3583f3	0.70904464
8	0x3ec9f7e6	0.39446944
9	0x3ed3ecc2	0.4139157
10	0x3f5925c4	0.8482325
11	0x3f79d64b	0.9759261
12	0x3ed19951	0.40937284
13	0x3f47648b	0.7788779
14	0x3d25f510	0.040516913
15	0x3e3c4c04	0.18388373
16	0x3f36b523	0.7137014
17	0x3f40629f	0.75150484
18	0x3e763a64	0.24045712
19	0x3e356acb	0.1771652
20	0x3f1f323f	0.62186044
21	0x3f235b5e	0.6381129
22	0x3f58e00c	0.8471687
23	0x3ef66249	0.4812186
24	0x3ead5a74	0.33858073

firstGCN.attentionLayer.outAttention.a_alpha f4 [5, 1]
0	0x3f199dd5	0.6000646
1	0x3f497417	0.78692764
2	0x3f7c876b	0.9864413
3	0x3eefc5a8	0.46830487
4	0x3e55c864	0.20877224

firstGCN.attentionLayer.outAttention.b_alpha f4 [5, 1]
0	0x3f5b534c	0.85673976
1	0x3f61b5ec	0.88168216
2	0x3f035363	0.51299113
3	0x3d804c53	0.06264558
4	0x3f19284a	0.598271

firstGCN.linearLayer.weight f4 [5, 10]
0	0x3ce7a761	0.028278055
1	0x3dceb8cc	0.10093841
2	0xbd4422f6	-0.047884904
3	0x3e71bc25	0.23606928
4	0xbd1ae812	-0.037818976
5	0x3ea01ca9	0.31271866
6	0x3e97900a	0.2960208
7	0xbc626b71	-0.013819561
8	0x3d9773e5	0.07395152
9	0x3e56d408	0.20979321
10	0xbe8ec5d9	-0.2788532
11	0x3e720e8f	0.23638366
12	0xbd56f84a	-0.05248288
13	0xbdbde3db	-0.092719756
14	0xbd5acad1	-0.053416077
15	0xbca64d59	-0.020300554
16	0x3e05f659	0.13082255
17	0xbea0e52c	-0.31424844
18	0x3e962c5d	0.29330721
19	0xbe43af7d	-0.19109912
20	0xbe32b6e7	-0.17452584
21	0xbcf7d35a	-0.030252147
22	0x3de116d8	0.10990685
23	0xbe937ad5	-0.2880465
24	0x3d39d2e5	0.04536714
25	0x3dc49db7	0.09600394
26	0x3ea18e45	0.31553856
27	0x3d990559	0.07471723
28	0xbe8c8421	-0.27444556
29	0xbd96d1ed	-0.07364259
30	0xbe79a9e1	-0.2438121
31	0x3e6da23f	0.23206423
32	0xbdf25581	-0.11832715
33	0x3e815eb1	0.25267556
34	0x3d6b6467	0.057468798
35	0x3e67ac38	0.2262429
36	0xbd9b7308	-0.075903
37	0xbe995c2d	-0.29953137
38	0x3da78340	0.08179331
39	0xbc59c287	-0.013291008
40	0xbe484a19	-0.19559516
41	0x3e465d98	0.1937164
42	0x3e93ec5c	0.28891265
43	0x3d072b25	0.03300013
44	0x3c232369	0.009957173
45	0xba12e347	-0.0005603325
46	0x3d11d2ed	0.035601545
47	0xbe4b51fe	-0.19855496
48	0xbe1ac62a	-0.15114656
49	0xbd96d378	-0.07364553

firstGCN.linearLayer.bias f4 [5]
0	0xbc72a842	-0.014810624
1	0x3d19f66e	0.03758853
2	0x3e373c4a	0.17894092
3	0xbe98db76	-0.29854935
4	0x3e89380a	0.26800567

secondGCN.attentionLayer.linear.weight f4 [5, 10]
0	0x3e9354a5	0.28775516
1	0x39a0f5be	0.0003070067
2	0x3cda30bc	0.026634566
3	0xbe787b89	-0.24265875
4	0xbe45271b	-0.19253199
5	0xbce13131	-0.027489277
6	0xbe6d3c02	-0.23167422
7	0xbdea0948	-0.114275515
8	0x3e15bb8f	0.14622329
9	0xbe9a763a	-0.30168325
10	0x3d91d06a	0.0711983
11	0xbe695d28	-0.22789443
12	0x3db67eae	0.08910881
13	0xbd0dfd3c	-0.03466533
14	0x3e875dde	0.26438802
15	0xbca8f019	-0.0206223
16	0xbe2b8b85	-0.16752441
17	0xbdf03685	-0.11729149
18	0xbdfd8640	-0.12379122
19	0xbe8e3509	-0.27774838
20	0xbe4ee6f4	-0.20205289
21	0x3dc0004a	0.09375055
22	0x3b8fdc34	0.004390264
23	0x3e50826d	0.20362253
24	0xbe864cce	-0.26230472
25	0xbe5e0ac0	-0.21683788
26	0x3e959b72	0.29220158
27	0x3e81b8ef	0.25336406
28	0x3e960341	0.29299358
29	0xbe3ce1ef	-0.18445562
30	0xbd85430c	-0.06506929
31	0xbc40068e	-0.011720313
32	0x3d8523cd	0.06500969
33	0x3e8c034c	0.27346265
34	0x3e97c608	0.29643273
35	0xbe874152	-0.26417023
36	0xbe84b39a	-0.25918275
37	0x3dcb97a7	0.09941035
38	0x3e5b578e	0.21420118
39	0xbe64ee2d	-0.22356482
40	0xbe9f6e92	-0.31139046
41	0xbcb203be	-0.0217303
42	0x3d686022	0.056732304
43	0xbe96ec9c	-0.29477394
44	0x3d11de27	0.03561225
45	0x3dba9917	0.09111231
46	0x3e2c0f8b	0.16802804
47	0xbe20f2ab	-0.1571757
48	0xbe8228a7	-0.2542164
49	0x3e784109	0.24243559

secondGCN.attentionLayer.linear.bias f4 [5]
0	0x3d443450	0.04790145
1	0x3e0d51be	0.13800713
2	0xbe530d5d	-0.20610566
3	0xbdec2d90	-0.11532128
4	0x3e0dfe48	0.13866532

secondGCN.attentionLayer.inAttention.W_sum f4 [5, 5]
0	0x3f282e3d	0.65695554
1	0x3f164567	0.5869965
2	0x3f04ff14	0.5195172
3	0x3ee53362	0.44765764
4	0x3e3390e0	0.17535734
5	0x3e16cf8c	0.1472761
6	0x3f65f04d	0.89819795
7	0x3ea1ef8e	0.31628078
8	0x3e97d2a8	0.29652905
9	0x3f168416	0.587953
10	0x3e98e8f0	0.29865217
11	0x3ea84948	0.3286841
12	0x3f047e22	0.51754963
13	0x3e9d7c12	0.3075872
14	0x3f44b73c	0.76842093
15	0x3deefc50	0.116692185
16	0x3f0fb701	0.56138617
17	0x3e8209e2	0.25398165
18	0x3ed0dac4	0.40791905
19	0x3db489e8	0.08815366
20	0x3f5e4351	0.86821467
21	0x3e4dbcb4	0.20091516
22	0x3ec06c32	0.37582546
23	0x3f55f400	0.8357544
24	0x3e553bb4	0.20823556

secondGCN.attentionLayer.inAttention.W_alpha f4 [5, 5]
0	0x3c46e740	0.012140095
1	0x3f2fe5e4	0.6871016
2	0x3f64b89c	0.8934419
3	0x3f0de278	0.5542369
4	0x3f44bab7	0.76847404
5	0x3ec8f7b4	0.39251482
6	0x3f20cff1	0.62817293
7	0x3f1930df	0.59840196
8	0x3d3301c0	0.04370284
9	0x3e8db452	0.27676636
10	0x3f686196	0.90773904
11	0x3ea155a4	0.3151065
12	0x3f7ef759	0.9959617
13	0x3f1ee632	0.6207
14	0x3efa4d96	0.48887318
15	0x3e91a266	0.28444213
16	0x3f49a1ae	0.7876233
17	0x3f26cbaa	0.65154517
18	0x3ebfc5fe	0.37455744
19	0x3e4b20d8	0.19836748
20	0x3f3ac006	0.72949255
21	0x3f2b7284	0.6697161
22	0x3f0a06ab	0.53916425
23	0x3f3446be	0.70420444
24	0x3e80e83a	0.25177175

secondGCN.attentionLayer.inAttention.a_alpha f4 [5, 1]
0	0x3e7f5318	0.24934042
1	0x3f6f5fbb	0.9350545
2	0x3e85b5ba	0.2611521
3	0x3e122d48	0.14275086
4	0x3f43d9c2	0.7650415

secondGCN.attentionLayer.inAttention.b_alpha f4 [5, 1]
0	0x3f2fbd5c	0.68648314
1	0x3e8e90ca	0.2784484
2	0x3ec2cec4	0.38048375
3	0x3ecc63e6	0.39919966
4	0x3e71c830	0.23611522

secondGCN.attentionLayer.outAttention.W_sum f4 [5, 5]
0	0x3e162e68	0.1466614
1	0x3f17e492	0.59333146
2	0x3e4e98f0	0.20175529
3	0x3ef70876	0.48248643
4	0x3f7ea1fc	0.9946592
5	0x3ead37d2	0.3383165
6	0x3dec85d0	0.1154896
7	0x3f47f55a	0.7810875
8	0x3f2135a8	0.629725
9	0x3f73791c	0.95106673
10	0x3ea88ac2	0.32918364
11	0x3ee4adf4	0.44663966
12	0x3f042c59	0.5163017
13	0x3daaf2f8	0.08347124
14	0x3f64a3c7	0.89312404
15	0x3e737244	0.23774058
16	0x3ce80560	0.028322875
17	0x3f6b0330	0.9180174
18	0x3f4e1996	0.8050779
19	0x3f3d7e7c	0.74021125
20	0x3f3ac10f	0.72950834
21	0x3e313e68	0.17308962
22	0x3f4eebc8	0.80828524
23	0x3f4266de	0.7593821
24	0x3ea0f4de	0.3143682

secondGCN.attentionLayer.outAttention.W_alpha f4 [5, 5]
0	0x3f2d4357	0.6768088
1	0x3e972d38	0.29526687
2	0x3ef8c882	0.48590475
3	0x3ebc9244	0.36830342
4	0x3f72cc01	0.94842535
5	0x3f430693	0.76181906
6	0x3efe6fd4	0.49694693
7	0x3f206ca2	0.6266576
8	0x3eb8b67e	0.3607673
9	0x3f0cf368	0.5505891
10	0x3f64b079	0.89331776
11	0x3f53aa64	0.8268187
12	0x3f6de104	0.9292147
13	0x3e8b94b8	0.272619
14	0x3f00b237	0.50271934
15	0x3f778aa6	0.96695936
16	0x3ce132e0	0.02749008
17	0x3f3325c2	0.6997949
18	0x3ea0aaea	0.31380397
19	0x3e61dc70	0.22056746
20	0x3def7240	0.11691713
21	0x3f2409cb	0.6407744
22	0x3f4a52cd	0.79032594
23	0x3f0ed6fb	0.55796784
24	0x3f283e7c	0.65720344

secondGCN.attentionLayer.outAttention.a_alpha f4 [5, 1]
0	0x3ef48da8	0.47764325
1	0x3e9dc338	0.30813003
2	0x3ee3d806	0.4450075
3	0x3f6304bf	0.88679117
4	0x3f738f99	0.9514099

secondGCN.attentionLayer.outAttention.b_alpha f4 [5, 1]
0	0x3e54995c	0.20761627
1	0x3e9ebcb6	0.3100335
2	0x3f76c122	0.9638845
3	0x3f6803c4	0.90630746
4	0x3f71a1e1	0.9438763

secondGCN.linearLayer.weight f4 [5, 10]
0	0xbe87906e	-0.2647738
1	0xbc3573a5	-0.011074935
2	0x3e8e7812	0.2782598
3	0xbe24af77	-0.1608256
4	0x3d6c12af	0.057635006
5	0xbd682cc9	-0.056683335
6	0x3e8faaf0	0.28060102
7	0x3ce0730f	0.027398614
8	0xbe509eca	-0.20373073
9	0x3dc53f9b	0.096312724
10	0xbd063945	-0.03276946
11	0x3e9b97cd	0.30389252
12	0xbe6bc764	-0.2302528
13	0xbe69448f	-0.2278006
14	0xbe759881	-0.23983957
15	0x3d0710fa	0.032975174
16	0xbdf31cc4	-0.11870721
17	0xbd78206f	-0.060577806
18	0xbddc9248	-0.107700884
19	0xbe64b0a1	-0.22333004
20	0x3d1eafd8	0.038741916
21	0xbe208db7	-0.1567906
22	0x3e094b32	0.13407591
23	0xbe93cdec	-0.28868043
24	0x3e2cd7f4	0.16879255
25	0xbafc85cf	-0.0019265952
26	0x3e58567d	0.21126743
27	0xbe3fc583	-0.18727688
28	0x3d8052ba	0.06265779
29	0xbe93f8fa	-0.28900892
30	0xbe941222	-0.28920084
31	0xbc2a7ae9	-0.010405281
32	0xbe168d26	-0.14702281
33	0x3e0e1b49	0.13877596
34	0x3e09ec69	0.1346909
35	0xbe863f7d	-0.26220313
36	0xbe8fa0a7	-0.28052256
37	0xbe51cf8d	-0.2048933
38	0xbe28395c	-0.16428131
39	0xbe986a7e	-0.29768747
40	0x3e778d01	0.24174882
41	0x3d72e633	0.059301566
42	0x3df52b1c	0.11971113
43	0x3dec311a	0.11532803
44	0xbe8ffd6a	-0.28123027
45	0x3e9d6c8a	0.3074687
46	0xbe40051d	-0.1875195
47	0xbe093d29	-0.13402237
48	0x3e11b75d	0.14230104
49	0x3e5f0f5d	0.21783204

secondGCN.linearLayer.bias f4 [5]
0	0x3e4488ce	0.19192812
1	0xbdaae0ef	-0.08343684
2	0x3e9266cd	0.28594056
3	0x3da3e06a	0.08001788
4	0xbe487c96	-0.19578776

thirdGCN.attentionLayer.linear.weight f4 [5, 10]
0	0x3e28cf34	0.16485292
1	0x3d2fc944	0.04291655
2	0xbe1019ed	-0.1407239
3	0xbe8ae90c	-0.27130926
4	0x3e4f158f	0.20223068
5	0x3d8636f0	0.06553447
6	0xbe7eb16c	-0.24872369
7	0x3e69f7c1	0.22848417
8	0xbe0524cc	-0.13002318
9	0xbe69c7ef	-0.22830175
10	0xbe7c0d35	-0.24614413
11	0xbe919e50	-0.28441095
12	0x3c0b06cd	0.008485508
13	0x3e366bce	0.17814562
14	0xbe444244	-0.19165903
15	0x3e959a23	0.2921916
16	0xbdb98450	-0.0905844
17	0xbea0b036	-0.31384438
18	0xbe32c479	-0.17457761
19	0xbe3d2af6	-0.1847342
20	0xbe3b4f07	-0.18291865
21	0x3e51b20b	0.20478074
22	0xbda2e476	-0.07953732
23	0x3e333f08	0.17504513
24	0xbdadbed7	-0.084836654
25	0xbd4f14b3	-0.05055685
26	0x3ea0e61b	0.31425557
27	0xbbdb3fe6	-0.006690967
28	0x3e024823	0.1272283
29	0xbe0c3fe1	-0.13696243
30	0xbe0fa218	-0.14026678
31	0x3dfcfcb1	0.123528846
32	0x3e896e91	0.26842168
33	0xbea027ed	-0.3128046
34	0x3e151497	0.14558636
35	0x3ea1086d	0.3145174
36	0x3e2bb6b9	0.16768922
37	0x3e1d05a3	0.15334181
38	0x3d5e9b72	0.054347463
39	0xbe5852e7	-0.21125375
40	0x3e201ebd	0.15636726
41	0xbe0ec934	-0.1394394
42	0xbd69bbab	-0.05706374
43	0x3e9a7001	0.30163577
44	0xbdce2f60	-0.1006763
45	0xbe7050e5	-0.23468359
46	0x3decfd6c	0.11571774
47	0xbe930b53	-0.28719577
48	0x3de916a3	0.11381271
49	0xbe4eb279	-0.2018527

thirdGCN.attentionLayer.linear.bias f4 [5]
0	0x3e94429a	0.28957063
1	0xbe9c2fbb	-0.30505165
2	0xbe9091a1	-0.28236106
3	0x3df99225	0.12186078
4	0xbe7e3d86	-0.24828157

thirdGCN.attentionLayer.inAttention.W_sum f4 [5, 5]
0	0x3e64d618	0.22347295
1	0x3ecc59b6	0.39912194
2	0x3ea5b344	0.3236333
3	0x3f3ac67b	0.7295911
4	0x3e3944d8	0.18092668
5	0x3f62618a	0.8843008
6	0x3f4614f4	0.7737572
7	0x3f584651	0.84482294
8	0x3f1ffaa1	0.62491804
9	0x3f5c1dd0	0.8598299
10	0x3f6528a7	0.89515156
11	0x3f2ea57a	0.6822125
12	0x3eac6630	0.33671713
13	0x3f1db93f	0.6161079
14	0x3f4169ee	0.7555226
15	0x3d2f10b0	0.042740524
16	0x3f61c547	0.88191646
17	0x3ee262ca	0.44215995
18	0x3d369690	0.04457718
19	0x3f766f49	0.9626356
20	0x3ede122a	0.43373233
21	0x3ef681c0	0.48145866
22	0x3e244a88	0.16044056
23	0x3f255460	0.6458187
24	0x3ec3ef9c	0.38268745

thirdGCN.attentionLayer.inAttention.W_alpha f4 [5, 5]
0	0x3eecca2a	0.4624799
1	0x3e3f157c	0.1866054
2	0x3de53cc0	0.11193228
3	0x3f545f47	0.8295788
4	0x3d417aa0	0.047236085
5	0x3edb97bc	0.42889202
6	0x3f002132	0.5005065
7	0x3f29ee3d	0.6637915
8	0x3f3947e9	0.7237535
9	0x3f44a5a1	0.7681523
10	0x3f62826d	0.88480264
11	0x3d4b8280	0.049685
12	0x3e95413e	0.29151338
13	0x3f4cb2ce	0.79960334
14	0x3c73c3c0	0.014878213
15	0x3f2ceafa	0.67546046
16	0x3e893bd2	0.26803452
17	0x3eb749a8	0.35798383
18	0x3f4531b5	0.7702897
19	0x3f15bd95	0.58492404
20	0x3efef0d8	0.49793124
21	0x3f6bdaf5	0.92130977
22	0x3f6a96ad	0.91636163
23	0x3dd0ae70	0.10189521
24	0x3f467f55	0.77538043

thirdGCN.attentionLayer.inAttention.a_alpha f4 [5, 1]
0	0x3f43d48b	0.7649619
1	0x3f0ceafd	0.55046064
2	0x3f47d3d5	0.78057605
3	0x3f440a6b	0.76578397
4	0x3f4a7319	0.79081875

thirdGCN.attentionLayer.inAttention.b_alpha f4 [5, 1]
0	0x3f75ed27	0.9606499
1	0x3f227929	0.63466126
2	0x3eb3340e	0.35000652
3	0x3f4f1b0f	0.80900663
4	0x3ea7f01a	0.3280037

thirdGCN.attentionLayer.outAttention.W_sum f4 [5, 5]
0	0x3f5b8116	0.85743845
1	0x3d22b000	0.039718628
2	0x3ec113d8	0.37710452
3	0x3f34b44a	0.705876
4	0x3ed113a8	0.4083531
5	0x3f693264	0.91092515
6	0x3f123231	0.57107836
7	0x3ef3e00c	0.47631872
8	0x3d99b5d0	0.07505381
9	0x3f46bb28	0.7762933
10	0x3d749b80	0.05971861
11	0x3d26e4d0	0.040745556
12	0x3f0e1108	0.5549474
13	0x3f4b4dde	0.7941569
14	0x3efc7bea	0.4931329
15	0x3e9ef01a	0.31042558
16	0x3f5a502d	0.8527859
17	0x3f13a659	0.576757
18	0x3f7763b3	0.96636504
19	0x3d57bbf0	0.052669466
20	0x3eaf96a6	0.34294623
21	0x3ec630a0	0.38708973
22	0x3f1b1dad	0.60592157
23	0x3e25b550	0.16182446
24	0x3e6d7590	0.23189378

thirdGCN.attentionLayer.outAttention.W_alpha f4 [5, 5]
0	0x3e797204	0.243599
1	0x3f2b02db	0.6680123
2	0x3f252013	0.64502066
3	0x3ebd625a	0.369891
4	0x3e970286	0.29494113
5	0x3dd50ca8	0.104028046
6	0x3eedfa1e	0.46479887
7	0x3ef6ef82	0.48229605
8	0x3f4e2281	0.805214
9	0x3dad4fd8	0.084624946
10	0x3e792868	0.2433182
11	0x3d678d70	0.05653137
12	0x3cbdb720	0.02315861
13	0x3f50be88	0.8154073
14	0x3efe18ca	0.49628288
15	0x3f2f184a	0.6839644
16	0x3f4a7391	0.7908259
17	0x3ee5baf2	0.4486919
18	0x3e1a20d8	0.15051591
19	0x3f1c6b69	0.61101395
20	0x3c80ec60	0.015737712
21	0x3f54f247	0.83182186
22	0x3f52101f	0.8205585
23	0x3e3437ec	0.17599458
24	0x3e80e3fc	0.25173938

thirdGCN.attentionLayer.outAttention.a_alpha f4 [5, 1]
0	0x3f17b571	0.5926123
1	0x3efe8c24	0.49716294
2	0x3f58a80b	0.84631413
3	0x3f0f102c	0.5588405
4	0x3e9f9cb0	0.3117423

thirdGCN.attentionLayer.outAttention.b_alpha f4 [5, 1]
0	0x3f065b18	0.5248275
1	0x3e1ebe34	0.15502244
2	0x3dcd2a00	0.100177765
3	0x3f1c2fbc	0.61010337
4	0x3e95f524	0.2928859

thirdGCN.linearLayer.weight f4 [5, 10]
0	0xbc76d8be	-0.015066324
1	0x3d75d8e0	0.06002128
2	0x3e295c93	0.1653922
3	0x3d73d65f	0.059530612
4	0x3b8da4e4	0.004322635
5	0xbe3afe09	-0.18260969
6	0xbdb50367	-0.088385396
7	0x3d9bfa14	0.07616058
8	0x3ea1334c	0.3148445
9	0xbe6483f1	-0.22315957
10	0x3e9bde3e	0.30442995
11	0x3e68f9dc	0.22751564
12	0xbc4c9ab4	-0.012488056
13	0xbe990126	-0.2988369
14	0xbdc7daf2	-0.097585574
15	0x3cd50946	0.026005398
16	0xbe78fcfc	-0.24315256
17	0x3d9c96bb	0.07645937
18	0xbdf80b0d	-0.12111483
19	0xbe49e31f	-0.19715546
20	0x3e971980	0.29511642
21	0xbd6628d2	-0.056191273
22	0xbd1cb933	-0.038262557
23	0x3e4950b5	0.19659694
24	0x3e6e8e8c	0.23296565
25	0xbe938f31	-0.28820184
26	0x3e296a52	0.16544464
27	0x3e1d1d00	0.15343094
28	0x3e1f26b5	0.1554211
29	0x3e368c75	0.17827018
30	0xbe62ac57	-0.22136055
31	0xbde9c43f	-0.11414384
32	0xbd1826cd	-0.03714638
33	0x3e3b831c	0.18311733
34	0xbe9c9893	-0.30585155
35	0xbd398464	-0.045292273
36	0xbdaef50f	-0.08542835
37	0xbcfcc6e0	-0.03085655
38	0x3e5aed8f	0.21379684
39	0xbc1151ab	-0.008869569
40	0xbe99c1e1	-0.3003073
41	0x3e29b899	0.16574325
42	0x3e95be4d	0.2924675
43	0xbe0756df	-0.13216732
44	0x3e05934d	0.13044472
45	0xbe072d75	-0.13200934
46	0x3e0f484c	0.13992423
47	0xbe923a7b	-0.28560242
48	0x3e55d693	0.20882635
49	0x3da65889	0.081223555

thirdGCN.linearLayer.bias f4 [5]
0	0x3e4ddefe	0.20104596
1	0x3bfbba7a	0.007682142
2	0x3e8751dd	0.26429644
3	0x3dd4436f	0.103644244
4	0xbe891953	-0.26777133

ff4.weight f4 [5, 5]
0	0xbdf1dd73	-0.11809816
1	0xbda3fcd6	-0.08007209
2	0x3ecc0185	0.3984491
3	0x3e5708ab	0.209994
4	0x3e82c76a	0.25542766
5	0xbe86f57d	-0.26359168
6	0xbe65f5c4	-0.22457033
7	0xbd88af06	-0.06674008
8	0xbed08f32	-0.4073425
9	0x3d4e6dfd	0.05039786
10	0xbe1084c8	-0.14113152
11	0x3d6c247c	0.05765198
12	0x3bc4e25f	0.006008431
13	0xbe9eec5a	-0.31039697
14	0x3b8f8326	0.004379648
15	0x3e69e66d	0.22841807
16	0x3e18ebd4	0.14933711
17	0x3e8fd196	0.2808959
18	0x3e9b6d2f	0.30356738
19	0x3eb1eca0	0.34750843
20	0xbdbf491d	-0.09340117
21	0x3eea423b	0.45753655
22	0xbe428c1b	-0.18998758
23	0x3e8203ea	0.2539361
24	0x3ebe9f3b	0.37230858

ff4.bias f4 [5]
0	0xbe348429	-0.1762854
1	0x3df13aca	0.11778791
2	0x3dfc20fe	0.1231098
3	0xbeac9e2e	-0.33714432
4	0x3bb6e40e	0.0055813855

ff5.weight f4 [5, 5]
0	0x3dcd2b24	0.10017994
1	0xbe0f4d44	-0.13994318
2	0xbe6fb26e	-0.2340791
3	0xbe3ebf73	-0.1862772
4	0xbe8f0ebd	-0.27940932
5	0x3e82862e	0.25492996
6	0xbe205b3f	-0.15659808
7	0x3d9c052d	0.07618175
8	0xbe44b0c5	-0.19208057
9	0xbd066c4e	-0.03281813
10	0x3edef24f	0.43544242
11	0xbd6cc4df	-0.05780494
12	0xbcc0de48	-0.023543492
13	0x3e13d040	0.1443491
14	0xbe3171bc	-0.17328542
15	0x3e988f87	0.29797003
16	0x3e79fd3b	0.24413006
17	0xbe34b3b4	-0.17646676
18	0xbe5df940	-0.21677113
19	0xbe63634b	-0.22205846
20	0x3e98725e	0.29774755
21	0xbe01cc59	-0.12675609
22	0x3d7d91ab	0.061906498
23	0x3a37d19a	0.0007012129
24	0xbd8ca0c0	-0.06866598

ff5.bias f4 [5]
0	0x3e64876f	0.22317289
1	0xbe9c0a9f	-0.30476853
2	0xbe19ec1a	-0.15031472
3	0x3c6d97bb	0.014501507
4	0x3e385689	0.1800176

ff6.weight f4 [10, 5]
0	0xbeb8779a	-0.3602875
1	0xbeacabd6	-0.3372485
2	0x3d7fe254	0.062471703
3	0xbee0ee41	-0.43931773
4	0xbea7de2c	-0.3278669
5	0xbe9080e1	-0.28223327
6	0xbe9a0ffd	-0.30090323
7	0xbe5b34ff	-0.21406935
8	0xbed7c7f8	-0.42144752
9	0xbe46933a	-0.193921
10	0x3e8f3eed	0.27977696
11	0xbe3a25f7	-0.18178545
12	0x3e1ac887	0.15115558
13	0xbd9af99f	-0.07567143
14	0x3e8e128b	0.27748522
15	0xbe61f078	-0.22064388
16	0x3e992a80	0.29915237
17	0xbeacbf2d	-0.33739606
18	0x3ebb1217	0.3653724
19	0xbdd3dc5a	-0.10344763
20	0x3e786a0a	0.242592
21	0x3eb952e1	0.36196044
22	0xbe9206be	-0.2852077
23	0xbe67d645	-0.22640331
24	0xbe9adfc0	-0.30248833
25	0x3e2efba0	0.17088175
26	0x3e3df169	0.18549122
27	0x3ed5df4f	0.41771933
28	0xbc2fdc45	-0.010733669
29	0xbe3baa4c	-0.18326682
30	0xbe0f73da	-0.14009038
31	0x3e84d325	0.2594234
32	0x3e58116e	0.21100399
33	0xbe855f67	-0.2604935
34	0xbe0affe2	-0.13574174
35	0xbedd46c3	-0.4321805
36	0x3e3dd4f4	0.18538266
37	0xbe111d96	-0.14171442
38	0x3ebfc530	0.3745513
39	0xbe70463b	-0.23464291
40	0x3ed8e83f	0.4236469
41	0xbdac90fa	-0.084260896
42	0xbe55b401	-0.20869447
43	0xbcb213b1	-0.021737905
44	0x3c98b955	0.01864306
45	0xbee05e69	-0.4382203
46	0xbecc3a26	-0.39888114
47	0x3ea6dba9	0.32589462
48	0x3ed191f8	0.40931678
49	0xbd25dff1	-0.04049677

ff6.bias f4 [10]
0	0x3e4f7c9b	0.20262377
1	0xbe8175e3	-0.25285253
2	0xbe2ede5f	-0.17077015
3	0x3ec5ace9	0.38608482
4	0x3d69a221	0.057039384
5	0x3e513fd9	0.20434512
6	0xbe64a1e4	-0.22327381
7	0x3ea703a7	0.32619974
8	0xbeb3b12f	-0.35096118
9	0x3b1b5ff9	0.0023708327
