code/ml_model/model_weights_m8p8n30_lr0.100000_bs10_epochs10.pth (torch, 22322 bytes, 48 tensors)

ff1.weight f4 [5, 5]
000000 d4 ae 35 3e 0d 7c e3 be 42 14 70 be 14 8a 57 be
       0.17742473 -0.4443058 -0.23445228 -0.21048766
000010 12 a5 cd be 50 ec 22 bd 6d 64 d4 be 6f f0 a0 be
       -0.40165 -0.039776146 -0.4148287 -0.31433436
000020 dc 5d 8a 3e e6 ce b3 3e 5f 5d ce 3e 18 44 58 bd
       0.27024734 0.35118788 0.40305611 -0.052799314
000030 b2 19 cb 3e 15 c9 83 3e 08 82 d8 bd 4f ff 49 bc
       0.3966804 0.2573935 -0.105716765 -0.012328937
000040 d2 18 a8 3d a8 e1 ae bc cd a0 28 bd f8 76 3c bd
       0.08207859 -0.021347836 -0.041168977 -0.046011895
000050 cc 91 cd be 3f c8 49 bd c5 df 3d be 1c 40 b6 3e
       -0.40150297 -0.049263235 -0.18542393 0.35595787
000060 e2 4e 91 be
       -0.28380495

ff1.bias f4 [5]
000000 45 6d 8a 3e 4a 7d d9 3e 74 ef c5 3d d7 f0 ad 3e
       0.2703649 0.424784 0.09664813 0.3397281
000010 63 13 23 3e
       0.15925364

ff2.weight f4 [5, 5]
000000 fd cd 67 3e 6d fd b2 3e 91 7a 30 be 38 be be 3d
       0.22637172 0.34958974 -0.17234255 0.09313625
000010 f7 73 8c 3e 91 95 5e 3e 16 46 75 3e 98 af da 3e
       0.27432224 0.21736743 0.23952517 0.42712092
000020 6a aa dd be 24 5c b4 3e 5d 18 b3 3e 6b f1 3a be
       -0.43294078 0.35226548 0.34979525 -0.18256156
000030 af 45 19 be f8 ee 77 3e e2 9d 97 3e a4 b0 61 3c
       -0.14967988 0.24212253 0.29612643 0.013775025
000040 6e de 36 3d cf a5 89 3e 35 ea b8 3e 1c 2a 95 3e
       0.04464572 0.26884314 0.36116186 0.2913369
000050 3c 80 8a be 08 40 96 3d e9 36 b4 3e 95 19 e1 be
       -0.2705096 0.07336432 0.35198143 -0.4396483
000060 ee e5 49 bd
       -0.049291544

ff2.bias f4 [5]
000000 6a f3 ee 3d 58 7d 45 3e 43 df a3 be 78 32 40 be
       0.11667521 0.19286096 -0.32006273 -0.18769252
000010 fa ba 99 3e
       0.30025464

ff3.weight f4 [5, 5]
000000 3f df 38 3e 48 45 fe 3b b1 e3 d7 be 3b 88 64 be
       0.18053912 0.007759724 -0.42165902 -0.22317593
000010 2b 10 ae 3e 9f 76 c2 3e da 5e 03 bd 65 10 b1 3d
       0.3399671 0.37981126 -0.03207288 0.08645705
000020 17 9d 95 3e c6 d8 91 3d 76 8a e0 3d c2 d7 9b 3d
       0.29221413 0.071214244 0.10963909 0.07609512
000030 6c fb b9 bd fa 41 d9 3e dd 45 a0 3d d7 22 b6 be
       -0.09081158 0.4243315 0.07825825 -0.35573456
000040 14 7b 73 3e 48 9f 9b be 1b b7 09 3e 34 9a 3e be
       0.2377742 -0.3039496 0.13448755 -0.18613511
000050 55 1b 2d be 51 8d 0f 3e 7e 4a b2 3e 26 50 19 3e
       -0.16904958 0.14018752 0.34822458 0.1497198
000060 37 fe c7 3e
       0.39061138

ff3.bias f4 [5]
000000 5f 83 0b bc 16 53 db 3e bc c7 cc 3e 9c c0 19 bd
       -0.008515208 0.42836827 0.39996135 -0.037537202
000010 bd 3c b0 be
       -0.3442134

firstGCN.attentionLayer.linear.weight f4 [5, 10]
000000 82 6c 73 3e 23 c0 1c be b8 d6 9f be ac f5 27 3e
       0.23771861 -0.1530767 -0.31218505 0.1640231
000010 7b 82 47 be 37 97 d9 3c 42 49 68 3e d4 ad 43 3e
       -0.19483368 0.026561363 0.22684196 0.19109279
000020 d9 25 66 3e 97 8f c3 be f8 dc 2a be 68 e9 8b 3d
       0.22475375 -0.38195488 -0.16685855 0.06831628
000030 0d 6e 3c bd e1 be 0f be 73 f3 02 3d f6 d5 07 be
       -0.04600339 -0.14037658 0.031970453 -0.13265213
000040 8e c6 2f 3e 3e 41 74 3d 72 23 85 3e 01 fa 62 bc
       0.17165586 0.059632532 0.26003605 -0.013853551
000050 19 25 82 3e cd 1e 32 bd 65 68 7a be 5f e6 8c 3e
       0.25418928 -0.043486405 -0.24453886 0.2751951
000060 fd bd cb bd f8 3a e2 bd 8f 33 94 3e 38 59 58 be
       -0.09948347 -0.11046404 0.28945586 -0.21127784
000070 06 c7 a5 3d d0 e0 92 be b0 4d 53 3d fb c3 1b 3f
       0.08094601 -0.28687143 0.05158776 0.6084592
000080 52 f3 dd 3e 0f 50 7e 3d 94 ca ee 3e 7d 1c 9b 3e
       0.433497 0.06208807 0.4663893 0.30295172
000090 16 72 63 3e 36 46 f7 3e b8 64 bc 3e 3b a1 7a 3e
       0.22211489 0.48295754 0.36795592 0.24475567
0000a0 60 a6 9f 3e 56 ba fe bc c5 94 d7 3d 0b 48 47 be
       0.31181622 -0.031094711 0.105264224 -0.19461076
0000b0 6b d2 91 be 3f f9 2f be a0 d3 14 3e 30 6d 91 3e
       -0.2848085 -0.17184924 0.14533854 0.28403616
0000c0 4d b3 82 be 31 b5 39 3e
       -0.2552742 0.18135525

firstGCN.attentionLayer.linear.bias f4 [5]
000000 4c fc 89 3e 77 4d fe 3d a9 1a 33 3e c3 c2 49 be
       0.269503 0.12417119 0.17490639 -0.19703202
000010 4a 8d 64 be
       -0.22319523

firstGCN.attentionLayer.inAttention.W_sum f4 [5, 5]
000000 3b ab e0 3e 18 1b 26 3f 39 dd f0 3e 4c d8 ea 3e
       0.43880638 0.6488509 0.4704378 0.45868146
000010 a6 78 3d 3f 6c 86 d6 bb aa e8 17 3f 2b f6 82 3f
       0.7401222 -0.006546786 0.5933939 1.0231375
000020 b0 66 15 3d fe c9 b1 3e d2 ae 65 3e b6 46 6d 3f
       0.036474884 0.3472442 0.2242997 0.9268602
000030 1f 8d 09 3f 77 3a 39 3d c1 aa 8e 3e 1d d4 4a 3f
       0.5373096 0.045221772 0.2786465 0.7922991
000040 a8 83 4f 3f 01 ba cc 3e 45 87 2b 3e 48 39 69 3e
       0.81060266 0.3998566 0.1675082 0.22775757
000050 71 0c 41 3f 40 4e 48 3f 72 d9 66 3f 08 c4 05 3f
       0.7540961 0.782444 0.90175545 0.52252245
000060 a9 c2 7c 3f
       0.9873453

firstGCN.attentionLayer.inAttention.W_alpha f4 [5, 5]
000000 a2 e5 36 3e 2b ff 80 3e f9 a8 87 3e 82 e5 25 3f
       0.17861035 0.25194678 0.26496103 0.64803326
000010 9c 62 7e 3f 26 23 b5 3e c7 1b 25 3f 4f 09 d6 3e
       0.99369216 0.3537838 0.6449551 0.41803977
000020 62 4b e4 3e be e7 3d 3e 8c f6 94 3e 5f 87 15 3f
       0.44588763 0.18545434 0.2909435 0.58409685
000030 a9 5c 4d 3f 51 42 b6 3d 18 73 53 3f 2c 8a 2f 3e
       0.80219513 0.088993676 0.82597494 0.17142552
000040 42 e0 7c 3e c1 2b 17 3f 8f 83 a7 3e 53 f2 07 3f
       0.24694923 0.5905114 0.3271756 0.5310413
000050 48 e8 54 3f 36 10 2a 3f 30 c5 4d 3f 05 34 64 3f
       0.83166933 0.66430986 0.8037901 0.89141876
000060 10 ea 1d 3f
       0.61685276

firstGCN.attentionLayer.inAttention.a_alpha f4 [5, 1]
000000 f8 fb 25 3e 92 52 12 3f 43 65 1c 3f 1f a5 43 3f
       0.162094 0.5715724 0.61092013 0.7642383
000010 95 c0 60 3f
       0.87793857

firstGCN.attentionLayer.inAttention.b_alpha f4 [5, 1]
000000 36 16 a3 3e 51 f7 06 3f 15 12 78 3f be b8 31 3f
       0.31852883 0.52721125 0.9690259 0.6942252
000010 ed 43 fa 3e
       0.48879948

firstGCN.attentionLayer.outAttention.W_sum f4 [5, 5]
000000 64 90 e0 3c 76 48 41 3e 96 36 0c 3f 28 ca 7c 3f
       0.0274126 0.18875298 0.5477079 0.98745966
000010 cf f3 75 3f 6d 82 a4 3e 09 2f b4 3d 4d e4 3a 3f
       0.9607515 0.32130757 0.08798034 0.7300461
000020 7e d6 19 3e 3b e7 43 3f 68 2e 9c 3e 87 44 9d 3e
       0.15023229 0.76524705 0.30504155 0.30716345
000030 a3 5c b0 3e 55 f8 da 3e ec ed 13 3f c4 23 4d 3f
       0.34445676 0.42767587 0.57784915 0.801327
000040 28 7d 18 3f f4 d9 81 3d f2 ef 39 3f 81 32 27 3f
       0.59565973 0.063403994 0.7263175 0.6531144
000050 76 ba 1c 3f 1e 10 be 3d 14 1c 3b 3f 9d 50 1a 3d
       0.61222017 0.09280418 0.7308972 0.037674535
000060 e4 4a b1 3e
       0.3462745

firstGCN.attentionLayer.outAttention.W_alpha f4 [5, 5]
000000 67 15 52 3f dc 9e 3e 3f da 17 62 3f 0f 57 bc 3e
       0.8206391 0.7446115 0.88317645 0.3678517
000010 c2 22 7b 3f 28 aa 0f 3d 07 ca 27 3f 8b 99 5d 3f
       0.9809991 0.035074383 0.65542644 0.8656241
000020 5d 1d 33 3f 74 e0 39 3e fb d6 09 3e 72 d4 d1 3e
       0.6996668 0.18152028 0.13460915 0.40982395
000030 6a 8e 5a 3f d0 33 4e 3f d3 eb ba 3d 0b 01 68 3f
       0.85373557 0.8054781 0.09127011 0.9062659
000040 a5 f6 8c 3e e8 54 89 3e d3 06 e0 3e 9f df 62 3f
       0.27531925 0.2682259 0.43755206 0.8862247
000050 66 92 74 3d 9a 7f 20 3e 99 a4 0e 3f 88 28 8f 3e
       0.05970993 0.15673676 0.55719906 0.2796061
000060 9f 4a 62 3f
       0.8839511

firstGCN.attentionLayer.outAttention.a_alpha f4 [5, 1]
000000 8c 41 7d 3e 0f d3 60 3f 66 9f 96 3e f7 58 7f 3f
       0.24732035 0.8782205 0.29418486 0.99745125
000010 ed 53 28 3f
       0.6575306

firstGCN.attentionLayer.outAttention.b_alpha f4 [5, 1]
000000 ea 3f 09 3e b0 83 19 3d 1e 44 74 3f 08 7b 54 3e
       0.13403288 0.037479103 0.9541644 0.20750058
000010 12 89 86 3e
       0.2627645

firstGCN.linearLayer.weight f4 [5, 10]
000000 67 a4 8e 3b 54 cd 24 be 5a 0a 64 3e 79 78 87 3e
       0.0043530944 -0.16093951 0.22269574 0.264591
000010 7d 2f 6a 3e 51 c2 5f 3e bb 1b 4b 3e 66 e5 4d 3e
       0.22869678 0.2185147 0.19834797 0.2010704
000020 7e 81 54 3d 2d 20 6b be ff 51 42 3e 84 8d 86 be
       0.051881306 -0.22961493 0.18976592 -0.26279843
000030 c3 af e1 3b fe 80 6d 3e 07 bd e2 3d d4 42 81 3e
       0.0068874075 0.23193738 0.1107121 0.25246298
000040 78 d0 7f 3e 3b 42 94 3e 32 d4 44 be 0e ee 90 3d
       0.24981868 0.2895678 -0.19221571 0.07076655
000050 ad 3d 72 3e a2 4d 87 3d b8 bf 95 3e 24 64 8d be
       0.2365634 0.06606604 0.29247832 -0.27615464
000060 aa 88 47 3d 42 39 78 be 87 1d 70 be 94 ec d1 3d
       0.048714317 -0.24240592 -0.23448764 0.10250202
000070 42 ea 92 3e b7 6e 4f be 16 cc 9c 3e 24 f7 59 3e
       0.2869435 -0.20257078 0.30624455 0.21285683
000080 57 2a 91 3e 99 ec 81 3e e2 f2 7b 3e 9a b8 94 3e
       0.28352615 0.25375822 0.24604371 0.2904709
000090 78 de f2 3d cc 59 47 be 81 c5 58 bd 19 cc fa 3d
       0.11858839 -0.19467849 -0.05292273 0.1224596
0000a0 b9 7d 26 be 31 e7 49 bd 19 68 9d 3e a3 36 7b be
       -0.16258897 -0.049292747 0.30743483 -0.24532561
0000b0 58 3b a9 bd c6 b5 40 3e 1c 01 92 be 82 57 8c bc
       -0.08263272 0.18819341 -0.2851647 -0.01713157
0000c0 96 02 1f be 6e 70 04 be
       -0.1552833 -0.12933514

firstGCN.linearLayer.bias f4 [5]
000000 52 8d 85 be 4d fb 0f be 7c ea 9a 3e d2 2f 04 be
       -0.2608438 -0.14060707 0.30257022 -0.12908867
000010 03 21 0d 3e
       0.13782124

secondGCN.attentionLayer.linear.weight f4 [5, 10]
000000 5e 40 05 be 08 4a bd 3d 4e 2c 01 be 1f cf 99 3d
       -0.13012835 0.09242636 -0.12614557 0.07510208
000010 6a 27 42 3b 3a 28 05 be 38 3b df 3d 3a 6e 90 be
       0.0029625543 -0.13003626 0.10899967 -0.28209096
000020 82 d8 19 3d 41 cf 94 3e 22 00 0d bb 97 70 2d bc
       0.037559994 0.29064372 -0.0021514972 -0.010585926
000030 ef 22 43 be 79 3b 78 3d 92 42 08 3e d4 6d 5e 3e
       -0.19056295 0.060603593 0.13306645 0.21721584
000040 90 21 60 be eb 00 36 3d 46 bc eb 3d 0c d6 1e 3e
       -0.21887803 0.04443447 0.1151052 0.1551134
000050 90 7d 50 be 1f 30 1d 3e 34 3f 87 3e f3 30 0e 3e
       -0.20360398 0.15350388 0.26415408 0.1388586
000060 27 66 6b be 94 2c 73 3e f2 b8 36 3e 41 11 88 be
       -0.22988187 0.23747474 0.17843989 -0.26575664
000070 62 0c 73 be 59 5f d2 bd aa 6c cb 3d aa 29 85 be
       -0.23735192 -0.10272092 0.099328354 -0.2600835
000080 6c fc b3 3d 7f d0 88 be 17 a9 61 be 36 ac 15 bd
       0.0878838 -0.2672157 -0.22037159 -0.036541186
000090 33 a4 9a 3e b0 dd 03 3e 24 a5 b9 bd 58 ee 67 be
       0.302034 0.12877536 -0.09064701 -0.22649515
0000a0 26 36 90 bd 9b b8 82 be 80 a3 b9 3d 61 b4 e3 3d
       -0.07041578 -0.25531468 0.09064388 0.11118389
0000b0 06 ac ca 3d d1 2d 68 3d 5d d0 02 3e a4 84 ab bd
       0.09896092 0.05668432 0.12774797 -0.083749086
0000c0 01 1c 44 3d a7 0c 45 bc
       0.04787827 -0.012026942

secondGCN.attentionLayer.linear.bias f4 [5]
000000 5b cf 34 3e 51 7d 2e be 38 2d d4 bd f6 2c 44 3e
       0.17657225 -0.17039992 -0.10360187 0.19157776
000010 28 96 99 be
       -0.29997373

secondGCN.attentionLayer.inAttention.W_sum f4 [5, 5]
000000 d4 e7 2f 3f 90 9f a0 3e 92 44 3a 3f 72 b5 95 3e
       0.68713117 0.31371737 0.7276088 0.29239994
000010 56 4c 02 3f c8 c3 89 3e d4 e8 3e 3f 36 aa 97 3e
       0.5089773 0.26907182 0.7457402 0.29622048
000020 58 de a6 3d a8 23 d8 3d 7c cd a0 3e 14 42 54 3e
       0.081478775 0.10553676 0.31406772 0.20728332
000030 a2 81 89 3e 68 b4 09 3f c5 8b 07 3f 74 61 31 3e
       0.26856714 0.53790903 0.52947646 0.17322332
000040 32 91 b0 3e 48 44 a6 3e 0c f5 21 3f d6 a7 d3 3e
       0.34485775 0.3247397 0.63264537 0.41338986
000050 5d 1f 50 3f 00 9f e3 3d 88 06 b2 3e 4c 7e 6d 3e
       0.81297857 0.11114311 0.34770608 0.2319271
000060 c8 46 f5 3d
       0.11976391

secondGCN.attentionLayer.inAttention.W_alpha f4 [5, 5]
000000 c2 d4 f0 3e c3 02 27 3f a2 e4 15 3f 80 5d 2b 3e
       0.4703732 0.6523859 0.5855199 0.16734886
000010 11 6b 4b 3f 00 07 12 3d 56 82 f4 3e e8 c5 b4 3d
       0.79460245 0.035651207 0.47755688 0.0882681
000020 c6 82 96 3e 70 ec 63 3f a4 c5 1e 3f 73 1d 17 3f
       0.29396647 0.8903265 0.62020326 0.5902931
000030 80 d4 3d 3d 29 0b 52 3f 72 87 62 3f 63 df 78 3f
       0.046345234 0.8204828 0.88487923 0.9721586
000040 de 87 f1 3e 10 35 69 3d 66 bc d5 3e 90 1d e5 3d
       0.4717397 0.05693537 0.417453 0.11187279
000050 20 ec a4 3e a0 44 e6 3c 11 eb 75 3f 24 4c 03 3f
       0.322114 0.028108895 0.9606181 0.51288056
000060 a2 9d e0 3e
       0.43870264

secondGCN.attentionLayer.inAttention.a_alpha f4 [5, 1]
000000 94 ec b2 3e 48 74 b1 3e a7 42 56 3f 27 70 31 3f
       0.3494612 0.34659028 0.83695453 0.69311756
000010 bd 29 19 3f
       0.5982931

secondGCN.attentionLayer.inAttention.b_alpha f4 [5, 1]
000000 52 e0 f7 3e 9e 1d 77 3f 8b bc 37 3f f2 c5 0b 3f
       0.4841333 0.9652957 0.7177207 0.54598916
000010 0b d4 12 3f
       0.573548

secondGCN.attentionLayer.outAttention.W_sum f4 [5, 5]
000000 f4 99 ac 3e a9 4b 21 3f 00 b3 7b 3e 0d 55 6a 3f
       0.33711207 0.63006073 0.24580002 0.9153603
000010 00 c9 cc 3e 24 3b 1d 3e 28 bd 98 3d 5d d8 55 3f
       0.399971 0.15354592 0.07457954 0.8353327
000020 06 40 59 3f 93 53 10 3f d3 f2 22 3f b4 c2 79 3e
       0.84863317 0.56377524 0.6365177 0.2439068
000030 56 63 26 3f 40 e7 f1 3e e8 5b f2 3e 04 f1 d8 3e
       0.64995325 0.47246742 0.47335744 0.4237138
000040 68 a6 67 3e 3a d3 7a 3f f5 28 59 3f f4 78 d1 3e
       0.22622073 0.97978556 0.8482812 0.40912592
000050 e2 29 db 3e de 5b 82 3e 13 c8 28 3f c1 6e 46 3f
       0.42805392 0.25460714 0.6593029 0.7751275
000060 83 c6 6b 3f
       0.9209978

secondGCN.attentionLayer.outAttention.W_alpha f4 [5, 5]
000000 f8 76 4c 3e c0 04 85 3c d0 76 11 3e b2 e2 f6 3e
       0.19967258 0.016237617 0.1420548 0.4821983
000010 97 d0 72 3f 9c f6 35 3e 00 df ee 3d 78 17 0e 3f
       0.9484953 0.17769855 0.116636276 0.5550456
000020 4e 23 4c 3f 24 b2 35 3e 3e 7e 7b 3f 8c 8e ac 3e
       0.7974137 0.17743737 0.98239505 0.33702505
000030 8f fc 4a 3f 3a 57 cd 3e 60 1c fe 3d f0 51 83 3e
       0.79291624 0.4010561 0.12407756 0.2564845
000040 31 79 05 3f a4 73 1e 3e 90 c5 ea 3e fc 59 a3 3e
       0.5213805 0.15473801 0.45853853 0.3190459
000050 b1 b9 6e 3f c8 0d cf 3d d0 b1 e1 3e 41 9a 56 3f
       0.9325209 0.101100504 0.44080973 0.8382912
000060 f6 7a db 3e
       0.4286725

secondGCN.attentionLayer.outAttention.a_alpha f4 [5, 1]
000000 9c 3b b1 3e 23 f5 49 3f 79 3e 21 3f 0b 85 01 3f
       0.3461579 0.78889674 0.6298595 0.5059363
000010 f0 bf 32 3e
       0.17456031

secondGCN.attentionLayer.outAttention.b_alpha f4 [5, 1]
000000 d8 2a 79 3e 51 6b 18 3f 82 ef 88 3e ee 1d 50 3f
       0.2433275 0.5953875 0.2674523 0.8129567
000010 6f 0c 46 3f
       0.7736272

secondGCN.linearLayer.weight f4 [5, 10]
000000 54 87 3b 3d f0 6c ba bd 91 5a 02 bd 93 f8 9f 3e
       0.045783356 -0.091028094 -0.031824652 0.31244335
000010 cf 2b d3 bd 03 d7 aa bd ad 8e 8d bc 73 29 18 3e
       -0.1031109 -0.083417915 -0.017279947 0.14859562
000020 44 fe ee 3d 5a 9a 03 bd ca d8 83 bd 10 d9 3b 3e
       0.11669591 -0.032129623 -0.064378336 0.18344522
000030 ff 15 84 be 96 05 83 3e 77 66 c9 3d ba 01 87 3e
       -0.25798032 0.255902 0.09833997 0.26368505
000040 d5 fb f1 3c 60 db 13 be 9c 02 91 b9 42 63 01 3e
       0.029539028 -0.14439154 -0.000276585 0.1263552
000050 89 fb e4 3d a8 31 d6 3d 99 03 c8 ba bc d2 8c 3d
       0.11180789 0.1045869 -0.0015259861 0.06876132
000060 55 72 32 be b2 d6 2f 3e 53 2b 89 be f4 8d 8d be
       -0.17426427 0.17171744 -0.26790866 -0.27647364
000070 1c a4 8f 3d 38 28 79 3e 69 4c 70 be b0 59 32 be
       0.07013723 0.24331748 -0.23466648 -0.17417026
000080 cd 93 c2 bd e6 ba 2a be b1 ae 3a be 2f 16 bc bc
       -0.09500847 -0.16672859 -0.18230702 -0.022959797
000090 44 3e 8f be 9d 3d 41 3e 88 50 b6 bd e7 24 1b 3e
       -0.27977192 0.1887116 -0.08902079 0.15150796
0000a0 11 2e 90 3e 09 8d 96 3e 5c 5c 8e 3d cf c6 96 be
       0.28160146 0.29404476 0.0695121 -0.29448554
0000b0 50 f7 3d be db 22 29 bc 2a 6e 0c be c8 84 18 be
       -0.18551373 -0.010323252 -0.13713899 -0.14894402
0000c0 59 bb 3b 3c 62 7e 91 3e
       0.011458241 0.28416735

secondGCN.linearLayer.bias f4 [5]
000000 97 60 7a be 6f ff 43 3e 5a 74 63 3e dc 18 9f 3e
       -0.24450909 0.19140409 0.22212353 0.31073654
000010 27 ec 9c 3c
       0.019155575

thirdGCN.attentionLayer.linear.weight f4 [5, 10]
000000 54 cc e2 bd ba 14 6d 3d 0e 59 f1 3d 84 f1 f4 3d
       -0.11074129 0.057881095 0.11784564 0.11960128
000010 28 0c a1 3d 89 e5 bd 3c a7 d5 06 be 75 4a d2 3d
       0.07863647 0.02318074 -0.1316744 0.10268108
000020 de 6f 8d be 0a 7d 1c 3e 97 f7 5d be f6 a7 57 3e
       -0.2762441 0.15282074 -0.2167648 0.21060166
000030 3f 10 89 3e d5 c4 8d be ce 3a d2 bc 80 f3 6a 3e
       0.26770207 -0.27689233 -0.025662806 0.2294445
000040 c0 38 ac bd 00 c0 70 be 95 6c 71 be 5a cc 09 3d
       -0.08409262 -0.23510742 -0.23576577 0.03364215
000050 88 03 40 be d1 90 e2 3d af c7 92 3d 1e 6d db 3c
       -0.18751347 0.11062778 0.07166993 0.02678543
000060 74 5b 6f bb f1 10 40 be 7e f6 93 bd e7 27 b4 3d
       -0.0036523016 -0.18756463 -0.07224749 0.08796673
000070 95 45 9d 3e f6 7d 88 3e 62 13 00 be 28 7c 66 be
       0.3071715 0.266586 -0.12507394 -0.225083
000080 21 9e f7 3d 10 49 a1 be 5d 6b 52 be 56 ef 82 be
       0.120907076 -0.31501055 -0.20548768 -0.25573224
000090 f3 d0 7d be 35 3c 81 3e 24 a0 36 3e df 95 21 3e
       -0.24786739 0.25241247 0.17834526 0.15779828
0000a0 6a 1d d2 3d b6 6c 9c bd 4f c9 83 be fe 3c 6b be
       0.102595165 -0.076379225 -0.25739524 -0.22972485
0000b0 b3 5b 96 be 4e a8 0b 3e 7a bc 5f bd 03 9c 94 3e
       -0.29366836 0.13638422 -0.054623105 0.29025277
0000c0 88 c5 0f be 02 22 ad bc
       -0.14040196 -0.02113438

thirdGCN.attentionLayer.linear.bias f4 [5]
000000 77 c9 a9 3d ba 99 33 be b7 a7 80 be 0e f8 72 be
       0.082903795 -0.17539111 -0.25127956 -0.23727438
000010 de c7 d6 3d
       0.104873404

thirdGCN.attentionLayer.inAttention.W_sum f4 [5, 5]
000000 18 95 70 3f c6 46 33 3f c2 df bb 3e ea 06 ec 3e
       0.939775 0.70029867 0.3669415 0.46099025
000010 a6 1b 10 3f 20 20 1b 3d ed 86 73 3f ea f1 36 3f
       0.5629219 0.037872434 0.95127755 0.7146288
000020 7c 62 65 3e 85 a6 17 3f 78 41 e1 3d 8a c8 e1 3e
       0.2240085 0.59238464 0.10998815 0.44098312
000030 90 19 9b 3d 07 d9 10 3f de 24 66 3f f7 82 48 3f
       0.07573235 0.5658116 0.89900005 0.78324836
000040 64 f4 6e 3f 80 17 ca 3b ec 93 c1 3e b7 85 2f 3f
       0.9334166 0.006167352 0.37808168 0.6856341
000050 f4 43 45 3e 2b 94 54 3f 04 d3 a2 3e 1f 35 7a 3f
       0.19264203 0.83038586 0.31801617 0.97737306
000060 14 df f4 3e
       0.47826445

thirdGCN.attentionLayer.inAttention.W_alpha f4 [5, 5]
000000 2e 1c 88 3e 70 5f a5 3e 90 1e 50 3e e0 72 00 3f
       0.26584 0.32299376 0.20324159 0.50175285
000010 b3 59 12 3f 94 5b 59 3e 6c fe 63 3e 9e 07 ec 3e
       0.5716812 0.2122634 0.22265023 0.4609956
000020 bc 0b 5f 3f 00 df 9b 3e 3f 24 32 3f 62 22 47 3f
       0.8712728 0.30443573 0.6958656 0.7778684
000030 a4 8b 9b 3e 15 7c 04 3f 70 a5 d9 3d 9c ff a9 3e
       0.30379975 0.51751834 0.10627258 0.33202827
000040 6a 5f 11 3f 64 dc 13 3e 68 b1 28 3e a4 ba 60 3f
       0.56786215 0.14439541 0.16473925 0.8778479
000050 c8 04 24 3e 64 e3 14 3f 34 09 d0 3e b5 f7 51 3f
       0.16017449 0.5815947 0.4063202 0.82018596
000060 c4 40 4b 3e
       0.19848925

thirdGCN.attentionLayer.inAttention.a_alpha f4 [5, 1]
000000 07 1a 7d 3f cf 33 6b 3f bc b7 37 3f 4a 3b 97 3e
       0.9886784 0.9187593 0.7176473 0.2953742
000010 86 ea d6 3e
       0.41975802

thirdGCN.attentionLayer.inAttention.b_alpha f4 [5, 1]
000000 c0 0a 6f 3c 78 a5 4a 3f e8 3c 68 3f dc 2b 8c 3e
       0.014589965 0.79158735 0.90717936 0.27377212
000010 fc 1c 13 3e
       0.14366525

thirdGCN.attentionLayer.outAttention.W_sum f4 [5, 5]
000000 f5 49 7f 3f 88 68 dc 3d c0 91 85 3d 8a 55 69 3f
       0.99722224 0.10762125 0.0652194 0.9114615
000010 d0 36 47 3e 3a 0f 82 3e 2e c1 95 3e ec e7 54 3e
       0.19454503 0.25402242 0.29248947 0.20791596
000020 60 e5 c9 3d 29 85 32 3f af c7 52 3f 20 39 0e 3f
       0.09858203 0.69734436 0.82335943 0.55555916
000030 d7 77 09 3f d0 fe 09 3f 2f dd 38 3f f1 3d 49 3f
       0.53698486 0.5390444 0.722125 0.7861014
000040 01 69 79 3f 4c 5c dc 3e ae 59 c2 3e a0 27 c4 3e
       0.9742585 0.43039167 0.37959045 0.3831148
000050 fb 7a 53 3f b0 b9 e1 3d 85 ba 66 3f b6 eb 3e 3f
       0.8260953 0.11021745 0.90128356 0.74578416
000060 20 5b 67 3e
       0.22593355

thirdGCN.attentionLayer.outAttention.W_alpha f4 [5, 5]
000000 64 b1 73 3e ec 45 ad 3e e4 dd cf 3e 93 ea 6c 3f
       0.23798138 0.3384241 0.40598977 0.9254543
000010 00 94 58 3e 70 21 0b 3d 86 29 00 3f 54 1c 35 3e
       0.21150208 0.033967435 0.5006336 0.17686588
000020 6f f0 46 3f 85 d7 22 3f 8a 22 7a 3f bc b9 38 3f
       0.7771062 0.63610107 0.9770895 0.7215841
000030 19 98 54 3f 72 3e f7 3e 31 ce 6c 3f c6 b4 63 3f
       0.8304458 0.4828983 0.92502123 0.88947713
000040 3a 15 d5 3e f0 e9 61 3f c1 8e 4a 3f ad 17 64 3f
       0.41617757 0.88247585 0.79124075 0.89098626
000050 d9 9e 4a 3f f2 83 d8 3e 9c d2 4c 3f c6 a1 b2 3e
       0.7914863 0.42288166 0.80008864 0.34889048
000060 99 18 3c 3f
       0.73475033

thirdGCN.attentionLayer.outAttention.a_alpha f4 [5, 1]
000000 b3 36 42 3f 34 ba b8 3e 38 d1 82 3d 77 f2 64 3f
       0.75864714 0.36079562 0.063875616 0.8943247
000010 0a 45 5c 3f
       0.86042845

thirdGCN.attentionLayer.outAttention.b_alpha f4 [5, 1]
000000 50 f0 0a 3e b3 ee 0c 3f 44 ea 0a 3f a8 8c 30 3f
       0.13568234 0.55051726 0.5426371 0.68964624
000010 f3 da 41 3f
       0.75724715

thirdGCN.linearLayer.weight f4 [5, 10]
000000 18 49 54 be c7 3b 58 3e 25 4e 34 be d0 40 96 3e
       -0.20731008 0.21116553 -0.17607935 0.29346323
000010 1a cc 61 3d 8a 33 33 be 51 db f0 3d ce e4 6a 3d
       0.055126287 -0.1750013 0.11760581 0.05734711
000020 7f f8 01 3e 1f 7d ed 3d 93 5a 99 3e 93 34 ae 3d
       0.1269245 0.115961306 0.29951915 0.085061215
000030 d6 3d 9b be 16 7c df bc 30 21 9a 3e 82 8e 3c bd
       -0.30320615 -0.027280848 0.30103445 -0.046034344
000040 47 1e 86 3e fe 0e 2e 3e 03 8a 47 3d fb 6c 49 3e
       0.26194975 0.16997907 0.048715603 0.19670479
000050 0e 6a a0 be 22 e8 4b 3e b0 12 2b be 41 37 9f be
       -0.31330913 0.1991277 -0.16706347 -0.31096843
000060 e3 c9 95 3e 5b ef 50 bd 51 4b 15 3e e7 0e 93 be
       0.2925559 -0.051009517 0.14579512 -0.28722307
000070 d8 d1 cc bd 73 f4 32 3e 18 3b a0 be 29 15 6a bc
       -0.10000962 0.17476062 -0.31295085 -0.014287272
000080 96 56 e1 3c 30 4e cb bd 57 d3 0c be fe 33 03 be
       0.027507108 -0.099270225 -0.13752495 -0.12812802
000090 52 ea 00 bc fb 5d 9a be 54 9f 9f be 6b 30 52 3e
       -0.007868366 -0.30149826 -0.31176245 0.20526282
0000a0 9e 88 85 be e4 26 8f be 2a 2b ee bc e8 51 c5 bc
       -0.26080793 -0.2795936 -0.029073317 -0.024086908
0000b0 2a 00 9e 3e 35 0c 94 be 34 01 2a 3d d4 20 fe bc
       0.308595 -0.28915563 0.041505054 -0.031021513
0000c0 7e 35 96 3e 7b ec 89 3e
       0.29337686 0.26938233

thirdGCN.linearLayer.bias f4 [5]
000000 dc 54 8a 3e 10 21 e7 bc 70 a0 63 bd a8 6b 1e bd
       0.27017868 -0.028214008 -0.055572927 -0.038676888
000010 1b dc 98 3e
       0.29855427

ff4.weight f4 [5, 5]
000000 2e b8 39 3e a8 56 f6 3d 97 9c 82 3e 0b 76 a1 be
       0.18136665 0.12028247 0.25510094 -0.31535372
000010 ee 6f 00 be 18 1e 01 bf a6 0a 42 3e f4 94 1a bf
       -0.12542698 -0.50436544 0.18949375 -0.60383534
000020 4a 01 8a 3f f9 eb be 3c c2 47 73 3e 5d 46 0a be
       1.0781643 0.02330588 0.23757842 -0.13503404
000030 0e 23 74 3e 19 05 b3 be 06 c8 5e be 9c 57 be 3e
       0.23841497 -0.34964827 -0.2175599 0.37176216
000040 be 36 87 3e 36 38 b6 be e3 c3 49 bb e7 72 a4 be
       0.26408952 -0.3558976 -0.0030786924 -0.32118914
000050 bb 77 87 bd c9 7b c9 3e 62 24 69 3e 9e 1d ad be
       -0.06614634 0.39352253 0.22767785 -0.3381166
000060 fe da cc 3d
       0.10002707

ff4.bias f4 [5]
000000 38 d5 ad be 2c 02 12 3e 45 76 80 be c9 12 6d bc
       -0.33951735 0.14258641 -0.25090232 -0.014469811
000010 21 dd d9 3e
       0.4255152

ff5.weight f4 [5, 5]
000000 74 d8 aa be 05 da 97 be 0e 8e 95 be f0 7e 84 be
       -0.33368266 -0.29658523 -0.29209942 -0.25878096
000010 41 3c 2b be de 2f 92 3e e7 32 6f 3e 71 c7 dc bd
       -0.16722204 0.28552145 0.23359261 -0.10780228
000020 1f 99 8d 3e bd e6 2a 3d e7 fc 31 be 4a eb b7 3d
       0.27655885 0.041723955 -0.17381631 0.08980425
000030 b6 b0 dd 3e d9 0f d5 3e 15 56 a5 3e 4a 18 c3 3e
       0.43298882 0.41613653 0.32292238 0.3810447
000040 5b 6f 36 3e 07 53 7c be ca 41 81 be d2 4f 52 be
       0.17815916 -0.24641047 -0.25245506 -0.20538262
000050 cb f5 2b be d9 9d 9d 3b 1d 3e a5 3e 82 fa be bd
       -0.16792981 0.0048100767 0.3227395 -0.09325124
000060 31 55 d4 bd
       -0.103678115

ff5.bias f4 [5]
000000 c7 ce 3d be e9 26 c9 bd 04 19 3e be 56 8d a2 bd
       -0.1853591 -0.09821875 -0.1856423 -0.07937114
000010 87 9c 29 bd
       -0.04140904

ff6.weight f4 [30, 5]
000000 0f cb 74 3e 4f 90 cd be 5a ca 53 bd 88 98 a3 3e
       0.23905586 -0.4014916 -0.05170665 0.3195231
000010 f2 55 0b be 3d 98 1c 3d 2e 5a b7 be b0 c5 73 3e
       -0.13607004 0.038231123 -0.3581099 0.2380588
000020 a5 3b 4b be ee e4 39 3c 87 f3 9a 3e b7 dd 6c be
       -0.19846971 0.011346085 0.30263922 -0.23131453
000030 ef 0d ae be f6 9d c3 3c 20 9d 9b 3d 88 8b d3 3d
       -0.33995005 0.023879033 0.075983286 0.10329348
000040 0a de 5e be 28 9e ec bd f8 13 4b bd 47 79 a9 be
       -0.21764389 -0.115536034 -0.04957959 -0.3310034
000050 31 72 6d 3e b8 ab 78 be 0b 95 87 be d6 20 ca 3e
       0.23188092 -0.24284256 -0.26480898 0.39478177
000060 d0 4c af be 09 5c 01 be 49 dd 71 be 0f cb 94 3d
       -0.3423829 -0.12632765 -0.2361957 0.07265293
000070 2b b2 8a 3e 8f 44 a7 be de 0c d1 be fb 13 05 bf
       0.27089056 -0.32669494 -0.4083013 -0.5198361
000080 8a d4 b9 3e e7 7d f6 bd f8 a8 9a be 58 e6 9b bd
       0.36294967 -0.12035733 -0.30207038 -0.07612294
000090 a5 d7 66 be f4 9f 10 3e 76 d5 26 3d 99 c3 4c be
       -0.225432 0.14123517 0.040730916 -0.1999649
0000a0 d3 8b ae 3e 91 8f 82 be 05 89 0d be 41 eb 91 bd
       0.34091052 -0.25500157 -0.138218 -0.07124949
0000b0 af 3a df 3e 65 12 8c be 08 02 f0 be 26 93 90 be
       0.4359946 -0.27357784 -0.4687655 -0.28237265
0000c0 09 7e 62 be fa 8b 43 3e 8f 3f b6 be c6 19 81 be
       -0.22118391 0.19096366 -0.35595366 -0.25214976
0000d0 b6 c1 8c bd 70 ab a6 bd 39 57 dc be fd 64 5b 3d
       -0.06872885 -0.08138168 -0.43035296 0.053563107
0000e0 4a e5 a0 be 04 f3 cb 3e d6 dd 18 be ec 8e af 3e
       -0.31424934 0.39833844 -0.14928374 0.34288728
0000f0 85 c0 75 be ee 78 85 be e6 e7 c5 3e f6 6c 84 3e
       -0.23999222 -0.26068825 0.38653487 0.2586438
000100 72 c3 db 3d aa 18 e3 3e 2d 25 0d bf 11 e3 5c be
       0.107306376 0.44354755 -0.5513485 -0.21570994
000110 6d 1b de be 0d 08 74 bd 0d 8f 8b be 02 36 d1 bd
       -0.433803 -0.05957799 -0.27257577 -0.10215379
000120 b8 4c 78 b9 3f f1 75 bd 80 d5 b2 3e ad e5 f4 bd
       -0.00023679703 -0.060044523 0.34928513 -0.1195787
000130 5a bd 95 be 5d 4d c7 be 68 9a 1b 3e 4e 11 38 3d
       -0.29246026 -0.3892621 0.1519562 0.044938378
000140 7e 01 d2 be 15 c6 b9 be 7e f2 b0 bc b4 43 24 be
       -0.41016763 -0.36283937 -0.021600004 -0.16041452
000150 af 47 d6 be b9 fd 4f 3e ac c9 aa be a8 88 da 3e
       -0.41851565 0.20311631 -0.33356988 0.42682385
000160 32 c0 af 3e 6c ea 82 3e cf 11 da bc 42 1e d4 be
       0.3432632 0.25569475 -0.02661982 -0.41429335
000170 95 47 79 be d6 d8 d6 be be 73 4f 3d d3 65 da be
       -0.24343713 -0.41962308 0.05064749 -0.4265581
000180 b3 ef a4 be 86 2c 94 be 44 8c b2 3e 6f d9 ca 3e
       -0.32214126 -0.2894022 0.3487264 0.39619014
000190 9f 3e 30 be 3d 2c 8a be 14 ce ba bd 97 25 a6 3e
       -0.17211388 -0.26986876 -0.091213375 0.32450554
0001a0 36 32 0f be 14 df d1 bc ff d3 a7 be aa b5 90 bc
       -0.13983998 -0.025619067 -0.32778928 -0.01766475
0001b0 18 1c 83 be 73 7b d9 3e a9 85 87 3d 81 54 e2 be
       -0.2560737 0.42476997 0.066172905 -0.44205096
0001c0 ff 61 e3 bd 89 db d3 3e d0 04 89 be dc 72 de 3e
       -0.11102676 0.4137843 -0.26761484 0.43447006
0001d0 ea 83 bd be 80 8a b6 3e 5f 55 13 bd 6b e5 98 3e
       -0.37014705 0.35652542 -0.035970088 0.29862532
0001e0 2f 84 d7 be 6f 4d a1 be 22 36 b0 be b8 44 9f be
       -0.42093036 -0.3150439 -0.344163 -0.31107116
0001f0 fc e5 cb 3e ab 8a b1 3e 72 c3 6b be 8c a1 9e 3d
       0.39823902 0.34676108 -0.23023775 0.07745656
000200 30 45 35 be 5e e4 27 3d 88 46 b2 be 99 fc f7 be
       -0.17702174 0.040989272 -0.34819436 -0.48434904
000210 f1 cc cf 3e ab bd 16 3d b0 9b de be 54 b8 5b 3e
       0.40586045 0.036801975 -0.43478155 0.21457034
000220 c9 04 b0 be d6 76 2a 3e 00 83 86 be 53 0a bb be
       -0.3437865 0.16646895 -0.2627182 -0.36531314
000230 c3 14 81 bd 70 cb d3 be 80 bc d1 3e 9f b7 ce 3e
       -0.06302788 -0.41366148 0.40964127 0.40374467
000240 71 59 b6 3e ea 1a ac 3d d6 2f 6c be 2c 36 a8 be
       0.35615113 0.08403571 -0.23065123 -0.3285383
000250 a7 6d 7c bd 45 b6 c9 3e
       -0.06162801 0.39396873

ff6.bias f4 [30]
000000 f3 2b f4 be 86 e2 cb bd a5 a2 ee 3d bd b0 33 bf
       -0.4768978 -0.09955315 0.11652116 -0.70191556
000010 78 75 c5 be a6 a9 06 bf 7c 32 48 be 44 a5 18 bf
       -0.38566184 -0.5260261 -0.19550508 -0.59627175
000020 d9 7f 65 be 56 8c 2f be 5f dc 03 bf 7d d9 f2 be
       -0.22412051 -0.17143378 -0.51508135 -0.47431555
000030 23 fb ce be 35 0d 00 3e 44 e3 d0 3e 12 0a 79 be
       -0.40425977 0.12505038 0.4079839 -0.24320248
000040 b8 59 b1 bd cd 08 8b 3d 4b 05 5c be ce b7 79 3d
       -0.086596906 0.06788788 -0.21486394 0.060966305
000050 a9 bf 65 be 09 bb 9d ba de c3 86 be 90 ab 89 bd
       -0.22436394 -0.001203389 -0.2632131 -0.06722176
000060 a9 27 c5 3d 9d 91 06 bf 1b d1 b7 bd a6 10 a0 be
       0.09626705 -0.5256594 -0.089754306 -0.31262702
000070 f3 f9 fb be c2 ba 0c bf
       -0.49214134 -0.5497247
