code/ml_model/model_weights_m8p8n20_lr0.001000_bs250_epochs10.pth (torch, 22118 bytes, 48 tensors)

ff1.weight f4 [5, 5]
000000 45 af 51 be 37 b0 3e 3e d8 4b b7 3e 98 2a a2 be
       -0.20477016 0.18621908 0.35800052 -0.3167312
000010 3b 9d f9 bc 01 de e4 3e 4f ab d1 3e a2 19 e3 be
       -0.030470481 0.44700626 0.4095101 -0.44355494
000020 41 d4 25 3e ae 55 83 be 3d 4a 09 3e 31 d3 1e be
       0.1619425 -0.25651306 0.13407226 -0.1551025
000030 e1 b2 b0 3e 4a e3 61 bd c1 e6 52 be 7c 78 41 3e
       0.34511474 -0.0551484 -0.20595838 0.18893617
000040 7d 06 2b be 82 d3 e8 bd 75 58 ff bd d4 33 0d bd
       -0.16701694 -0.11368467 -0.12468044 -0.034473255
000050 7f 47 f4 bd ba 2e 3c 3e 44 d1 20 3e 8e 84 ae be
       -0.11927699 0.183772 0.15704829 -0.34085506
000060 e2 43 13 bc
       -0.0089883525

ff1.bias f4 [5]
000000 ce 96 a6 3e f7 80 09 3d e5 8a c6 3e 9f 7e db be
       0.3253693 0.033570256 0.38777843 -0.42870042
000010 4f 9c b4 be
       -0.35275504

ff2.weight f4 [5, 5]
000000 30 e3 1b be 91 a7 02 be c6 31 a9 3e ca 39 db be
       -0.15223384 -0.12759234 0.33045787 -0.42817527
000010 5c 7e 0e be 2c f6 06 3e b0 2d cc 3e 18 6c 92 be
       -0.1391539 0.13179845 0.39878607 -0.28598094
000020 0c ea 6c be 6b 0c d6 3e fa d3 26 be 42 b0 55 be
       -0.23136157 0.4180635 -0.162918 -0.20868018
000030 8c c4 87 be a7 69 a7 3d eb c6 86 be 5e 98 b8 be
       -0.2651714 0.081744485 -0.26323637 -0.36053747
000040 c9 3c da 3e 3e 27 d6 3e c6 4c b3 3d 53 b2 dc 3e
       0.426245 0.41826814 0.08754878 0.431048
000050 d8 ac 45 3e e2 3e 15 be b5 98 e3 3e f4 17 ba be
       0.19304216 -0.14574769 0.44452444 -0.363464
000060 53 ac 1d 3d
       0.03849442

ff2.bias f4 [5]
000000 4c 61 09 3e 36 a8 67 3e d6 f5 1e be 5a 05 10 3e
       0.13416022 0.22622761 -0.15523466 0.14064541
000010 bb b9 c2 3e
       0.38032326

ff3.weight f4 [5, 5]
000000 4c 0c 1f 3e 49 1d cd 3e f4 f6 79 3e 0c 77 9c bd
       0.15532035 0.40061405 0.24410611 -0.07639894
000010 5d 06 cd be be f5 d4 3e 7c 5b 8a be a2 59 3d be
       -0.40043917 0.41593736 -0.27022922 -0.18491223
000020 76 b0 06 be d8 92 9a be 28 d6 16 be 6e 01 d8 be
       -0.13153252 -0.30190158 -0.14730132 -0.4218859
000030 a7 69 74 be b0 aa 1c 3e 21 71 aa be 33 f7 c1 3e
       -0.23868428 0.15299487 -0.33289436 0.3788391
000040 84 3b ac 3e 62 c9 3d 3e 9b 46 b9 be f0 f3 a7 3e
       0.33639157 0.18533853 -0.3618668 0.32803297
000050 c7 f7 91 be 8b 3c d3 3e 0d 23 38 bd 47 55 be 3e
       -0.28509352 0.41257128 -0.044955302 0.37174436
000060 78 42 40 be
       -0.18775356

ff3.bias f4 [5]
000000 dc 8a a5 be 3b 66 a9 be 28 68 a6 be c7 0b db 3d
       -0.32332504 -0.33085808 -0.3250134 0.10695606
000010 d1 a8 82 3e
       0.25519422

firstGCN.attentionLayer.linear.weight f4 [5, 10]
000000 69 69 7b be c5 09 47 bd fc 83 94 be 94 82 54 bd
       -0.2455193 -0.0485933 -0.29006946 -0.05188234
000010 f7 43 53 3c 6d 60 8c be 89 b8 8d bd a4 d5 85 3d
       0.012894622 -0.27417317 -0.06919963 0.06534889
000020 7a 4c 18 be ae 54 9e 3e 8c 33 87 3e cf c5 79 3e
       -0.14872923 0.3092398 0.26406515 0.24391864
000030 c5 78 af 3d be 92 84 be 61 6f a0 3e 9f 2a 9e 3d
       0.08567957 -0.25893205 0.31334975 0.07722973
000040 40 6e af bd 43 fe 48 be 7f f9 94 3e dd ae 5d be
       -0.085659504 -0.19628243 0.290966 -0.21648736
000050 17 57 9d be d2 86 29 3e 70 85 95 be 25 2d 99 be
       -0.30730507 0.16555336 -0.29203367 -0.29917255
000060 b6 0e 60 3e 44 b3 7b be 3a 26 87 3e 42 5d 9d 3e
       0.21880612 -0.24580103 0.26396352 0.30735213
000070 44 be 21 3e 67 74 dd 3b db 18 97 be b7 32 81 be
       0.15795237 0.006758261 -0.2951115 -0.25234005
000080 be fa 95 3e 21 f1 38 3e 66 04 fb bd 81 54 40 be
       0.29292864 0.18060733 -0.12256698 -0.18782236
000090 f0 62 22 be be 5f 19 bd 84 06 62 3e dd c5 f7 bd
       -0.15858054 -0.037444822 0.22072798 -0.12098286
0000a0 1b b8 9d be 58 9f 41 3d d1 31 5a 3e 0b 20 83 3e
       -0.30804524 0.047271103 0.21308066 0.25610384
0000b0 fa b5 54 3e a1 0e c0 3d 5f 1c 90 be cb 95 84 3e
       0.20772544 0.0937779 -0.28146645 0.25895533
0000c0 43 74 a1 3e 1e 9b 40 3e
       0.31534013 0.18809173

firstGCN.attentionLayer.linear.bias f4 [5]
000000 80 a7 1e 3c f0 08 95 bd 5d f5 67 3e 99 d4 40 be
       0.00968349 -0.07277095 0.22652192 -0.188311
000010 8c df bb 3d
       0.091734976

firstGCN.attentionLayer.inAttention.W_sum f4 [5, 5]
000000 54 66 26 3f 22 ef 40 3e a4 3f d4 3e 68 74 8b 3e
       0.6499989 0.18841222 0.41454804 0.27237248
000010 16 22 42 3f ce b0 73 3f 8b 36 12 3f e9 32 07 3e
       0.7583326 0.9519166 0.57114476 0.13203014
000020 8a 01 f0 3e e6 5b 0c 3e 05 db 11 3d 6f 40 5d 3f
       0.46876174 0.13706931 0.035609264 0.8642644
000030 2d 8b 20 3f 9e 03 63 3f a8 69 ee 3d aa 6f 24 3f
       0.62712365 0.88677394 0.11641246 0.64232886
000040 6f 0c 51 3f 26 50 0e 3e 43 d4 05 3f 0b 88 4c 3f
       0.816596 0.13897762 0.5227701 0.79895085
000050 5f 0c d4 3e ad ed 65 3f 2c 4b 25 3f 4e 9f 6e 3f
       0.41415688 0.8981579 0.6456783 0.9321183
000060 73 55 66 3f
       0.89974135

firstGCN.attentionLayer.inAttention.W_alpha f4 [5, 5]
000000 31 e1 0e 3f 6d a3 1c 3f 9b 15 33 3f a9 0c 44 3f
       0.55812365 0.6118687 0.6995484 0.7658182
000010 d1 b7 0f 3f 98 78 89 3d 9f 92 4f 3f 1c 62 03 3f
       0.56139857 0.067124546 0.810831 0.5132158
000020 8e 43 37 3f b2 df d8 3e 52 bb 44 3f 77 4b 74 3f
       0.71587455 0.42358166 0.7684833 0.9542765
000030 66 9a 5d 3f 03 e7 69 3f db 35 3c 3f 3f d0 7f 3f
       0.8656372 0.9136812 0.73519677 0.99927133
000040 d6 6b 43 3f 3a 66 04 3f 4c c8 36 3e d7 cd 13 3f
       0.7633642 0.51718485 0.17849845 0.5773596
000050 00 2e bf 3d 86 df 6e 3e 39 27 29 3f c4 a2 94 3e
       0.09334946 0.23327455 0.66075474 0.2903043
000060 20 f8 02 3e
       0.12789965

firstGCN.attentionLayer.inAttention.a_alpha f4 [5, 1]
000000 d8 ef b9 3d 5e 9a 37 3f 70 01 7e 3e b0 c8 12 3f
       0.0907895 0.7171992 0.24805236 0.57337475
000010 38 8c be 3e
       0.37216353

firstGCN.attentionLayer.inAttention.b_alpha f4 [5, 1]
000000 c6 ae 4c 3f a6 3b 80 3c 53 a0 c3 3e b4 9f 53 3f
       0.79954183 0.015653443 0.38208255 0.8266556
000010 16 2d 66 3e
       0.22478136

firstGCN.attentionLayer.outAttention.W_sum f4 [5, 5]
000000 3a 04 81 3e 50 e1 cb 3d 16 e2 8c 3e c6 fd 12 3d
       0.25198537 0.09955084 0.2751624 0.03588655
000010 09 db 5b 3f 87 b4 18 3f e6 aa c5 3e e5 86 5c 3f
       0.85881096 0.5965046 0.38606948 0.8614333
000020 27 27 b1 3e 74 89 e8 3d 31 0b 00 3f 3a 16 7f 3f
       0.34600183 0.11354342 0.50017077 0.9964329
000030 06 a8 96 3e 93 06 a9 3c 10 0b 00 3f e3 7c a1 3e
       0.29425067 0.020633018 0.5001688 0.31540594
000040 56 87 c8 3e c7 1d 32 3f 85 1c c3 3d 84 20 23 3f
       0.39165753 0.69576687 0.09526924 0.6372149
000050 91 1e 5e 3f 14 ec b0 3c fb 55 ea 3e 18 aa 71 3f
       0.8676539 0.021596946 0.45768723 0.9440017
000060 73 10 78 3f
       0.969001

firstGCN.attentionLayer.outAttention.W_alpha f4 [5, 5]
000000 26 c1 62 3f f9 32 b1 3d 0b ef 34 3f b9 56 68 3f
       0.8857597 0.086523004 0.7067725 0.9075733
000010 8a f1 22 3d 80 f0 09 3f e9 ed 4d 3f be 67 3f 3f
       0.03978113 0.538826 0.8044115 0.74767673
000020 56 c5 36 3f 7e f8 a5 3e 66 86 9c 3e 2e 2a 2d 3f
       0.7139486 0.32416147 0.30571288 0.67642486
000030 f4 e1 42 3f d9 7b 6d 3f db 5b 82 3e 1e ee 01 3f
       0.7612603 0.927671 0.25460705 0.50753963
000040 c5 94 75 3f d3 1f 69 3f b6 d7 47 3f 0e d7 63 3f
       0.9593013 0.91064185 0.78063524 0.8900002
000050 80 dc c1 3e 74 5a 9c 3e ba 8e 42 3f 6d 0e 40 3f
       0.3786354 0.3053776 0.75999033 0.7502201
000060 fa ef 3f 3f
       0.7497555

firstGCN.attentionLayer.outAttention.a_alpha f4 [5, 1]
000000 a0 a9 a8 3c 60 cc 3b 3f c8 1c 04 3f fc e7 5f 3f
       0.020588696 0.73358727 0.51606417 0.87463355
000010 ec 08 6d 3e
       0.23147935

firstGCN.attentionLayer.outAttention.b_alpha f4 [5, 1]
000000 b0 07 20 3f c5 8d 73 3f 68 1b 3b 3f 35 db 5c 3f
       0.6251173 0.951382 0.73088694 0.86271983
000010 80 89 07 3f
       0.52944183

firstGCN.linearLayer.weight f4 [5, 10]
000000 52 2c 2e 3e 27 6c 8b bc ec 5e a1 3e dd 4e e2 3d
       0.17009094 -0.017019344 0.31517732 0.11050198
000010 48 6f 27 3e 41 f1 4d 3e ee f4 1e be dc 07 da 3d
       0.16351044 0.20111562 -0.15523121 0.1064603
000020 42 79 90 be 5b 9d a3 bd c9 7c 06 bd 25 09 86 be
       -0.28217512 -0.079889975 -0.03283385 -0.26178852
000030 f5 f5 21 be 19 56 c5 3c b7 0c 4c 3d 90 c5 ee 3b
       -0.15816481 0.024088906 0.049816813 0.007286735
000040 3b 45 90 3d a2 53 e0 bd 95 c9 2f 3e 45 37 1f bd
       0.07044455 -0.10953452 0.17166741 -0.03887107
000050 31 cc e9 3c fb 98 b2 bd 40 72 97 3e 7c c8 90 bd
       0.028539749 -0.08720585 0.29579353 -0.07069489
000060 d8 8b 60 3e 75 76 e3 bd 57 6e ca bd 5a 22 8a 3e
       0.21928346 -0.11106578 -0.09884327 0.26979333
000070 a6 80 8a 3e 9d 7d 2e be db 4c ea bd 99 05 67 be
       0.27051276 -0.17040105 -0.1144044 -0.22560729
000080 bf 87 92 be 42 8c 88 3e a4 6d 7b 3e 32 eb ae bd
       -0.2861919 0.26669508 0.24553543 -0.08540954
000090 f9 ab 06 be 4b 1c f0 3d cf 6e 16 be 98 cd 9f 3d
       -0.1315154 0.117241465 -0.14690708 0.07802886
0000a0 9e aa 3d 3e c7 e4 ec 3d 50 c8 70 3e 29 f2 3e 3e
       0.18522117 0.11567073 0.23513913 0.18647064
0000b0 7b eb 91 be c4 ca ef 3c 69 94 46 3e 31 2a 5f be
       -0.2849997 0.02927149 0.19392551 -0.21793438
0000c0 7c 53 91 3e a1 76 50 3e
       0.28384006 0.20357753

firstGCN.linearLayer.bias f4 [5]
000000 43 69 b7 bc db 93 86 3e 53 6b 28 3e 38 fc b2 bc
       -0.02238906 0.2628468 0.16447191 -0.021848783
000010 f4 a9 be bd
       -0.0930976

secondGCN.attentionLayer.linear.weight f4 [5, 10]
000000 10 19 0e bd 32 b2 85 3e 36 48 d3 3d 2c 98 6c 3e
       -0.03469187 0.26112515 0.103165075 0.23104924
000010 54 d1 64 be 0c d4 e1 3d 72 e3 d1 3c 8f 8e 3e bb
       -0.22345477 0.11026773 0.02562115 -0.002907667
000020 61 a4 26 be 71 e1 96 3d 7f d3 5e 3d f7 30 8f 3e
       -0.16273643 0.07367218 0.054400917 0.27967045
000030 39 9b 80 bd 48 7e 5c 3e fa 75 9f 3e b5 68 81 be
       -0.06279606 0.21532547 0.31144696 -0.25275198
000040 d1 77 8d 3e 4f f5 9d 3e 41 00 27 3d 5f 32 9f 3e
       0.27630475 0.30851218 0.040771727 0.31093118
000050 b6 4f 72 be 04 94 84 bd c9 47 2b 3e 7f 93 83 be
       -0.2366322 -0.06473544 0.16726603 -0.25698468
000060 37 3b d8 bd 0d 9b 6b be f3 34 f8 bd f3 af 92 be
       -0.10558169 -0.23008366 -0.12119474 -0.28649864
000070 e1 05 c9 3d 3d f8 6e 3d d6 0f 15 be 12 6d 68 3e
       0.098155744 0.058342207 -0.14556822 0.22697857
000080 4c 12 8d 3e 65 7f 83 bc 58 0b 93 be bc e0 22 3e
       0.27553022 -0.016051957 -0.28719592 0.15906042
000090 9d 5b 85 3e 58 ba bf 3c 9e c8 50 3e 4b f4 9f 3d
       0.26046458 0.023404285 0.2038903 0.07810267
0000a0 86 b4 37 3d 89 a4 ce 3d d5 c7 42 be d9 c9 83 3d
       0.044849895 0.10089976 -0.19021542 0.06434984
0000b0 d6 a4 2e 3e 63 16 8e 3e 87 38 cb bb fd 74 18 bc
       0.17055067 0.27751455 -0.006201807 -0.009305236
0000c0 54 ee 70 bd e5 9e 8b 3e
       -0.058821037 0.27269664

secondGCN.attentionLayer.linear.bias f4 [5]
000000 c1 12 61 3d 7a 5d 70 3e e1 50 d2 bd 36 19 8c be
       0.054949526 0.23473158 -0.10269333 -0.27362984
000010 7b 73 59 3e
       0.21235459

secondGCN.attentionLayer.inAttention.W_sum f4 [5, 5]
000000 31 a7 36 3f e0 7a 9c 3d 1c af 61 3f ea aa e4 3e
       0.71348864 0.07640624 0.8815782 0.44661647
000010 a0 2e a6 3e 6f 77 59 3f 65 30 67 3f fb c5 29 3f
       0.32457447 0.84947866 0.9030822 0.6631772
000020 24 91 ba 3e 94 a0 73 3e 72 2c 17 3f 4b 22 21 3f
       0.36438859 0.23791724 0.59052193 0.6294295
000030 16 e9 26 3f 30 20 39 3f 78 85 6e 3f ec 26 4e 3f
       0.6519941 0.7231474 0.9317241 0.8052814
000040 c6 80 56 3f 32 cc ea 3e 4e 57 7f 3f 30 1b 1f 3d
       0.8379024 0.45858914 0.9974259 0.038844287
000050 5c 22 61 3f 6c c9 26 3e b2 96 da 3e fa 1a a8 3e
       0.87943053 0.16287774 0.42693096 0.3283308
000060 90 0a 35 3d
       0.044199526

secondGCN.attentionLayer.inAttention.W_alpha f4 [5, 5]
000000 5d 95 21 3f 90 20 3b 3e 9c 1d 74 3f 70 68 df 3e
       0.63118535 0.1827414 0.9535768 0.43634367
000010 96 1e c6 3e 36 d7 9b 3e e0 b6 a4 3d 72 32 71 3f
       0.3869521 0.3043763 0.08042693 0.942176
000020 51 50 2d 3f e4 80 ae 3e 84 d0 66 3f 40 5d c8 3e
       0.6770068 0.3408271 0.9016192 0.39133644
000030 d0 82 be 3e 5d d0 59 3f 5a 84 20 3f 51 ee 6c 3f
       0.37209177 0.8508356 0.6270195 0.9255114
000040 66 d3 d3 3e 08 6f ae 3d 07 75 31 3f 60 05 61 3f
       0.41372222 0.08517271 0.69319195 0.87898827
000050 9a 61 e1 3e c0 72 69 3d 80 68 b7 3e cc e5 4d 3e
       0.44019777 0.0569942 0.35821915 0.20107192
000060 a4 45 c3 3e
       0.3813907

secondGCN.attentionLayer.inAttention.a_alpha f4 [5, 1]
000000 90 07 df 3e ed e2 78 3f 00 d7 27 3e 59 e4 30 3f
       0.43560457 0.9722126 0.1639061 0.6909843
000010 f8 b5 0a 3f
       0.5418391

secondGCN.attentionLayer.inAttention.b_alpha f4 [5, 1]
000000 77 6d 75 3f e7 1a 1c 3f 66 d3 4d 3f 6e 09 ee 3e
       0.95870155 0.6097855 0.80400693 0.4649157
000010 84 07 65 3f
       0.8946459

secondGCN.attentionLayer.outAttention.W_sum f4 [5, 5]
000000 47 ba 61 3f 70 af 26 3e fc 8c 50 3f f8 8f 8f 3d
       0.8817486 0.16277862 0.81465125 0.07009882
000010 a9 40 5e 3f ae a6 e6 3e 67 4a 00 3f d6 2b f6 3e
       0.86817414 0.45049042 0.5011353 0.4808032
000020 20 84 69 3f ed 45 36 3f 90 7b 80 3d 18 bf 98 3e
       0.9121723 0.7120045 0.06273568 0.29833293
000030 dc 8d 14 3f 40 88 91 3c 7c 0a 52 3e 43 ed 09 3f
       0.5802896 0.017765164 0.20511812 0.5387766
000040 25 46 60 3f fc 60 3a 3f 0c 8e d2 3e 14 bf 3d 3e
       0.8760703 0.72804236 0.41123998 0.18529922
000050 5b 12 0f 3f 20 ee 3a 3d e2 de 60 3f 23 87 48 3f
       0.55887383 0.04563725 0.8784009 0.783312
000060 b3 49 36 3f
       0.71206206

secondGCN.attentionLayer.outAttention.W_alpha f4 [5, 5]
000000 34 15 1b 3e a0 aa ea 3e 78 03 72 3f 1e e3 31 3f
       0.15144807 0.45833302 0.9453654 0.6948718
000010 a8 0e 31 3f 6c b3 0e 3e 76 a8 95 3e 44 e6 78 3e
       0.6916299 0.13935632 0.29230088 0.2430659
000020 00 79 70 3f 30 c8 f6 3d 8a c2 62 3f 21 43 77 3f
       0.9393463 0.120499015 0.88578093 0.96586806
000030 0f 6e 59 3f 0c d7 e1 3e e8 5d a4 3d c0 c4 54 3f
       0.8493356 0.4410938 0.08025724 0.83112717
000040 62 07 8b 3e e0 af 2b 3d 28 79 b9 3d 26 c7 43 3f
       0.2715407 0.041915774 0.09056312 0.7647575
000050 c4 85 16 3e ae b7 f0 3e 5a 60 05 3f 86 9f ad 3e
       0.14699465 0.47015136 0.52100146 0.3391077
000060 6e d5 e2 3e
       0.4430346

secondGCN.attentionLayer.outAttention.a_alpha f4 [5, 1]
000000 b8 e6 1c 3f b8 43 12 3e a4 77 67 3e e5 e8 50 3f
       0.6128955 0.14283645 0.22604233 0.8160537
000010 d9 6d 3d 3f
       0.7399574

secondGCN.attentionLayer.outAttention.b_alpha f4 [5, 1]
000000 58 b6 d7 3e 40 8b 26 3d 5b 33 7a 3f 22 94 f4 3e
       0.42131305 0.040660143 0.9773461 0.47769266
000010 0f 11 3a 3f
       0.7268228

secondGCN.linearLayer.weight f4 [5, 10]
000000 c3 0f f6 3d 44 69 95 be ec 06 00 3e 2a 71 ad bd
       0.12014725 -0.29181874 0.1250264 -0.0846885
000010 1e ff 63 be b0 d9 df bd ff 11 c3 bd 70 cd 9a 3e
       -0.22265288 -0.109301925 -0.09524917 0.3023486
000020 23 9c 7b 3e 16 96 64 be 53 76 2a be dc 27 28 3e
       0.2457128 -0.22322878 -0.166467 0.16421455
000030 fa 85 90 be fd 1c 7c 3e c9 04 86 be 8f d9 9b be
       -0.28227216 0.24620433 -0.26175526 -0.30439422
000040 46 45 2e 3e b7 f2 14 be c9 d1 97 3e bf cc a9 3c
       0.17018613 -0.14545713 0.2965224 0.020727513
000050 b5 78 74 3e 69 0a 2d 3e cf 96 0a 3e 67 62 59 be
       0.23874171 0.16898502 0.13534091 -0.21228944
000060 77 a9 59 3d 02 2f 79 3e 1a ac 9b be b9 c2 90 3e
       0.05314013 0.24334338 -0.3040474 0.28273562
000070 c0 a8 26 3e 7b 88 56 3e b8 ad 95 3e 49 4f a1 3e
       0.1627531 0.209505 0.292341 0.31505802
000080 75 38 1c bd 2e f7 93 3e 13 be 72 be 80 0b ba bd
       -0.03813978 0.2889952 -0.2370532 -0.09084225
000090 b0 0d 6d 3c 5f a9 d0 bd 91 a5 68 3e c0 1f 73 3d
       0.014468595 -0.10188555 0.22719409 0.05935645
0000a0 94 cf 15 be 21 7e 5d 3d 89 ab e5 bd 6b 48 30 be
       -0.14629966 0.054075364 -0.11214358 -0.17215125
0000b0 7f 84 34 be 28 e3 2f be db 77 45 bd 3f 75 81 3e
       -0.17628668 -0.17176497 -0.048210006 0.25284764
0000c0 69 8c 18 3e 5c e2 17 be
       0.14897312 -0.14832443

secondGCN.linearLayer.bias f4 [5]
000000 39 aa 9a be b8 fa 17 3e 7a 59 2d 3e f9 e8 9a 3e
       -0.30207995 0.14841735 0.16928664 0.3025587
000010 cf bf d4 bd
       -0.10388147

thirdGCN.attentionLayer.linear.weight f4 [5, 10]
000000 b4 29 86 be 9d 22 7e 3e 26 f0 52 be df dc ef bd
       -0.26203692 0.24817891 -0.20599422 -0.1171205
000010 2e 86 21 be bb 29 88 3e 48 7b 13 3e 81 a0 29 3e
       -0.15773842 0.26594338 0.14402497 0.16565134
000020 d0 f6 1d 3e 76 2d f5 3d 3e 6d bf 3d 29 88 91 3e
       0.15426183 0.119715616 0.09347008 0.28424194
000030 99 12 66 be ea 82 42 be 42 41 74 bd bc d4 cd 3d
       -0.22468032 -0.18995252 -0.059632547 0.100503415
000040 79 a7 46 bd 09 f3 cd bd 0a 91 93 be 93 9b 2c be
       -0.048499558 -0.10056121 -0.28821594 -0.16856222
000050 11 7f d5 3d d4 c6 96 3e 81 9b 54 bd 0b e6 59 be
       0.104246266 0.2944857 -0.051906113 -0.2127916
000060 ff 3a 36 be 57 81 1b be dd c2 37 be f4 fa 9a be
       -0.17795943 -0.15186058 -0.17945428 -0.30269587
000070 c1 69 25 be 0a 70 27 be 70 ee 96 be bd f9 8f be
       -0.16153623 -0.16351333 -0.29478788 -0.28120223
000080 a0 07 3d bd f1 04 91 3d 05 a1 9e 3c b6 a7 a1 3e
       -0.04614985 0.070810206 0.01936389 0.31573266
000090 66 a9 a1 3e 47 d0 95 3e f3 f5 7f 3e cd 44 6b be
       0.31574553 0.29260466 0.24996166 -0.22975464
0000a0 96 5d 28 be 02 7d fe bd 17 ed f1 3d 9f e2 25 bd
       -0.1644195 -0.12426187 0.118127994 -0.040499326
0000b0 14 e1 0e 3d 13 48 6a bc 39 30 8f 3e e1 0a 4c 3e
       0.03488262 -0.01429941 0.27966478 0.19926025
0000c0 73 f2 d8 3c 35 78 92 3e
       0.026482796 0.28607336

thirdGCN.attentionLayer.linear.bias f4 [5]
000000 f3 d4 56 3d d6 85 98 be 75 24 9a be bb 44 c6 bd
       0.052449178 -0.2978961 -0.3010594 -0.09681078
000010 76 19 5a be
       -0.21298775

thirdGCN.attentionLayer.inAttention.W_sum f4 [5, 5]
000000 7a da 66 3f 1b 81 1d 3f 22 3b 73 3f 97 57 3e 3f
       0.9017712 0.61525124 0.95012105 0.743524
000010 a8 26 c6 3d 4c f1 bd 3e ba cd f3 3e c8 dc 57 3e
       0.09675342 0.37098157 0.47617894 0.21080315
000020 da 41 82 3e 34 7d 0d 3f ab 22 42 3f 57 b5 1f 3f
       0.25440866 0.5526917 0.7583415 0.6238608
000030 f0 cf f8 3d 57 a3 04 3f 18 10 8d 3d 4e bc 49 3f
       0.12149036 0.51811737 0.06887835 0.78802955
000040 9e 58 20 3f a0 fc 56 3d ef bb 1e 3f f8 e1 91 3d
       0.6263522 0.052487016 0.62005514 0.07123178
000050 3c 93 ba 3e ee ba 41 3f 33 d0 42 3f 22 1b 55 3f
       0.36440456 0.7567586 0.76098937 0.83244526
000060 9c 83 4e 3e
       0.20167392

thirdGCN.attentionLayer.inAttention.W_alpha f4 [5, 5]
000000 08 ef 2c 3f 32 cf ee 3e 92 7e 9b 3e d4 cd 89 3e
       0.6755223 0.46642452 0.30370003 0.26914847
000010 c5 0d 70 3f 5d c3 69 3f e4 7b 10 3e e2 f5 ef 3e
       0.9377101 0.91313726 0.1410976 0.4686728
000020 c5 7e 6c 3f 73 ba 64 3f e0 9e 4d 3e c3 6a 3a 3f
       0.92380935 0.89347 0.20080137 0.72819155
000030 36 09 d2 3e 12 51 c6 3e 48 03 8c 3d b4 f2 62 3e
       0.41022652 0.38733727 0.06836563 0.22162896
000040 fa 9b 39 3f c0 f1 0c 3f 98 eb ea 3e 00 60 06 3a
       0.72503626 0.5505638 0.4588287 0.00051259995
000050 0d 63 0c 3f 12 82 a3 3e d0 b8 b8 3e 10 42 34 3f
       0.5483864 0.31935173 0.360785 0.70413303
000060 3c f8 0f 3e
       0.14059538

thirdGCN.attentionLayer.inAttention.a_alpha f4 [5, 1]
000000 81 42 5f 3f 7a b5 48 3f b1 c4 1c 3f 04 6d 45 3f
       0.8721085 0.7840191 0.6123763 0.7711947
000010 3f 42 3d 3f
       0.7392921

thirdGCN.attentionLayer.inAttention.b_alpha f4 [5, 1]
000000 48 5d d2 3d ba f2 19 3f 00 5e ef 3c d0 20 ac 3e
       0.10271698 0.60135996 0.029219627 0.33618784
000010 00 79 7a 3b
       0.0038219094

thirdGCN.attentionLayer.outAttention.W_sum f4 [5, 5]
000000 f5 ea 22 3f 5e 86 5e 3f 22 db 8f 3e 80 be a9 3d
       0.63639766 0.8692378 0.28096873 0.08288288
000010 a0 af 72 3e 7c d3 3c 3e a0 8d 4f 3d 14 d5 7b 3f
       0.23699808 0.1844005 0.050672174 0.98372006
000020 d3 dd 11 3f a3 55 51 3f dd 5f 6b 3f 2a e0 24 3f
       0.569791 0.81771296 0.9194315 0.6440455
000030 e2 2c 5e 3f b6 0b e8 3e 2e 33 87 3e 60 c0 89 3c
       0.86787236 0.45321435 0.26406235 0.016815364
000040 db c3 3f 3f 94 ad 44 3e f0 f2 0c 3f 48 fa 1b 3f
       0.74908227 0.1920684 0.55058193 0.60928774
000050 80 d2 72 3d e7 9c 30 3f 54 35 51 3e d0 6a bf 3d
       0.05928278 0.68989414 0.204305 0.09346545
000060 26 59 42 3f
       0.7591728

thirdGCN.attentionLayer.outAttention.W_alpha f4 [5, 5]
000000 24 a0 d5 3e 3e 66 11 3f b4 30 73 3e 9c d1 51 3f
       0.4172374 0.56796634 0.23749048 0.81960464
000010 fc bd 6d 3e e0 46 2d 3e 64 55 13 3f 70 de 09 3e
       0.23217005 0.16921568 0.5755217 0.1346376
000020 ce cb 2e 3f dc 95 10 3f 97 74 62 3f 54 cd 44 3f
       0.6827973 0.5647867 0.8845915 0.76875806
000030 11 91 35 3f b0 09 bc 3e 14 61 93 3e 36 c1 91 3e
       0.7092448 0.3672614 0.28785002 0.2846772
000040 0c 03 3d 3f c0 62 d4 3e 64 6b 3b 3e 27 1a 50 3f
       0.73832774 0.4148159 0.18302685 0.81289905
000050 d6 a1 05 3f d8 cc f4 3e 60 9b 69 3d f8 28 bb 3d
       0.5220007 0.47812533 0.057032943 0.091386735
000060 96 76 b6 3e
       0.3563735

thirdGCN.attentionLayer.outAttention.a_alpha f4 [5, 1]
000000 a8 eb 6e 3f f5 6f 2c 3f a6 6e 01 3f 00 7c 34 3e
       0.9332833 0.6735833 0.5055946 0.17625427
000010 2a 07 05 3f
       0.51964056

thirdGCN.attentionLayer.outAttention.b_alpha f4 [5, 1]
000000 06 c3 ce 3e 98 01 5b 3e 1c f5 9a 3e 43 f3 1a 3f
       0.40383166 0.21387327 0.3026513 0.6052744
000010 74 24 67 3f
       0.9029

thirdGCN.linearLayer.weight f4 [5, 10]
000000 f7 97 b4 3d a8 3b 2c 3e 63 af 21 3e e9 78 8a be
       0.088180475 0.16819632 0.15789561 -0.27045372
000010 83 83 94 bd c1 fe 90 3e e5 d5 5f be a1 d8 50 bb
       -0.07251646 0.28319362 -0.21858938 -0.0031867402
000020 5a aa e5 bd bf 61 33 3e 48 b0 9b be b8 66 23 3e
       -0.112141326 0.17517756 -0.3040793 0.15957153
000030 0d 75 93 be 99 78 1a 3e b8 58 00 be f3 1a 60 3e
       -0.2880024 0.15085067 -0.12533844 0.2188528
000040 db 78 51 be 4f 59 6a be 45 7a 1f bb c4 df b7 3b
       -0.20456259 -0.22885631 -0.0024334353 0.0056113917
000050 6b 1d 39 bc ea e3 9b 3e 4c 29 98 be d2 22 57 bd
       -0.011298518 0.30447322 -0.29719007 -0.05252344
000060 67 47 30 be 87 4a 64 bd 19 7c 9e 3e af a2 28 be
       -0.17214738 -0.055735137 0.30954054 -0.16468309
000070 af 87 91 bd 7b f0 21 3e bc 7d 5a bd e0 7e af 3c
       -0.07105958 0.15814392 -0.053342566 0.021422803
000080 b8 0c 21 be 91 9f 11 be 93 f1 e1 3d d4 c5 dc 3d
       -0.15727508 -0.14221026 0.11032405 0.1077992
000090 37 85 d5 3d 52 d7 bc 3d bb 8d 81 be 81 bd 20 3e
       0.10425799 0.092207566 -0.25303444 0.1569729
0000a0 12 a4 39 3e 83 19 79 3e b0 28 20 be b2 2f 38 bd
       0.18128994 0.24326138 -0.15640521 -0.04496736
0000b0 8d 49 9c be 60 9d 70 be ce 36 0c be c5 6b 81 be
       -0.30524865 -0.23497534 -0.13692781 -0.25277534
0000c0 d5 39 03 3e 43 01 82 3e
       0.1281503 0.25391588

thirdGCN.linearLayer.bias f4 [5]
000000 43 70 2e 3e d1 a0 a0 3e 9f 95 8e 3e 6b e4 93 be
       0.17035012 0.31372693 0.27848527 -0.28885207
000010 69 32 68 3e
       0.2267548

ff4.weight f4 [5, 5]
000000 77 29 d2 3e 0c 84 e4 3e 39 09 df be d1 1f 53 be
       0.4104726 0.44631994 -0.43561724 -0.20617606
000010 06 ef 66 be f6 a4 e4 be 8b f0 93 3d c4 a1 8e 3d
       -0.22552118 -0.44657105 0.07223614 0.06964448
000020 e4 90 c4 be 32 c4 db 3e 1f 96 8a 3e ae 48 94 3e
       -0.38391793 0.42923123 0.27067658 0.289617
000030 93 b6 b6 bd 7f 8f c3 3e 18 51 9c be 05 98 b2 be
       -0.08921542 0.38195416 -0.3053062 -0.34881607
000040 01 ee bc 3e 0a 29 5d be f6 29 85 be 02 47 53 3e
       0.36900333 -0.21597686 -0.26008576 0.20632556
000050 dc 2b 7f 3e f0 e3 d5 3b 2b f7 09 3e 5b a2 21 3e
       0.24919075 0.0065274164 0.13473193 0.1578459
000060 2f 2a 9b be
       -0.3030562

ff4.bias f4 [5]
000000 04 30 c9 3e a7 e4 bf bd 1f 3b ba bd 41 75 c8 bd
       0.39294446 -0.09369784 -0.09093308 -0.097879894
000010 22 2a 6b 3e
       0.22965291

ff5.weight f4 [5, 5]
000000 f4 09 58 bd eb 9e 84 3e 4e b5 4f be a6 4b 11 be
       -0.052743867 0.25902495 -0.20284006 -0.14189014
000010 dd 05 a1 3e a6 6d e4 be e6 da e3 be 35 79 ce 3e
       0.31449786 -0.44614905 -0.44502944 0.4032685
000020 5a 7a 4d 3e a9 16 23 3e 64 45 cb be 3b b7 99 3e
       0.20066205 0.15926613 -0.39701378 0.30022606
000030 cd ba 78 be 12 d1 b7 be ce 66 47 3e 66 82 db 3c
       -0.24290009 -0.35901695 0.1947281 0.026795577
000040 c7 f3 70 bd 6d a7 2f 3e 28 e1 84 be 49 ee 0c 3c
       -0.058826234 0.17153712 -0.2595303 0.0086017335
000050 c6 12 a3 3d 87 38 d7 be 45 9e a4 3e f6 01 2b bd
       0.07962565 -0.42035314 0.32152 -0.041749917
000060 a1 69 9a be
       -0.30158713

ff5.bias f4 [5]
000000 5b 51 b2 bd 9f e0 78 3d 5d 83 5b 3e 3e c5 14 be
       -0.087069236 0.06076109 0.2143683 -0.14528367
000010 fe f7 6b bd
       -0.05760955

ff6.weight f4 [20, 5]
000000 c6 01 4b be b4 b0 24 3e b9 68 a5 3e 59 09 df be
       -0.19824895 0.16083032 0.3230646 -0.4356182
000010 4b 39 8d 3e f4 bc e6 3d 57 d0 6f bd 22 d4 b5 3d
       0.27582774 0.11266509 -0.058548298 0.08878352
000020 e9 a1 af be 5a ed c3 be 2d 25 be 3e bb 38 5a bd
       -0.34303215 -0.38267022 0.37137738 -0.05327676
000030 ac 96 8a be 06 30 24 be 6f 74 85 be 1e 62 cc 3e
       -0.2706808 -0.16033944 -0.26065394 0.39918607
000040 9a 34 5c 3e 9b 02 b8 bd 7e 34 cb 3e da a4 c6 3e
       0.21504441 -0.08984872 0.39688486 0.38797647
000050 38 22 b5 be 6e cd 89 3e 4b ea cb be c3 9e 42 3e
       -0.3537767 0.26914543 -0.3982719 0.19005875
000060 e1 dc 8f be fd 50 04 3e e1 35 80 3e f5 93 95 be
       -0.28098205 0.1292152 0.25041106 -0.29214445
000070 43 b7 85 be a8 c0 84 bd e4 36 91 be fd 30 d9 be
       -0.2611638 -0.06482059 -0.2836219 -0.42420188
000080 45 99 2b 3e ff fa 66 be 79 91 40 bd ff df 8e 3e
       0.16757686 -0.22556685 -0.047013734 0.2790527
000090 0e 35 4c be ca e2 e9 bd 40 75 9c 3e b0 ba c9 3e
       -0.19942114 -0.1142021 0.30558205 0.39400244
0000a0 41 ce 87 3e 5d ca 95 be fd a1 e4 3e 5e 50 77 be
       0.26524547 -0.29255953 0.44654837 -0.24151751
0000b0 4d 85 b1 3e d9 2f 92 bd 8f fd 39 3e c7 93 81 3e
       0.34672013 -0.071380325 0.18163131 0.25308058
0000c0 71 7d 45 bd ac 73 dc 3c ef dc 40 3e 8b 77 c2 3e
       -0.048215333 0.026910625 0.1883428 0.3798183
0000d0 5c c2 56 3e 7e b4 c3 3d 25 a9 38 be 17 44 99 be
       0.2097258 0.095559105 -0.18033274 -0.2993476
0000e0 ae 46 ce 3d f9 21 59 3e b0 4d 15 3e d7 ce cd 3e
       0.10072075 0.21204366 0.14580417 0.4019687
0000f0 5a db 82 3e 2e 36 78 3e 93 d6 fe 3d 60 91 94 bd
       0.25557977 0.24239418 0.124432705 -0.072542906
000100 f3 19 90 be 5e 87 46 3d 0e a9 b4 be 6e 41 4e be
       -0.28144798 0.04846894 -0.35285228 -0.20142147
000110 67 ee b8 be fa 39 af 3e 47 87 55 3e 9f 52 dd be
       -0.36119387 0.3422392 0.20852385 -0.43227097
000120 50 44 dc be 42 ca a0 3e 6c b0 bd 3e 09 c8 88 be
       -0.43020868 0.3140431 0.37048662 -0.26715115
000130 c9 7f 97 3e 27 12 7c be cd fd 95 3e 1e 3b 6e 3e
       0.2958968 -0.246163 0.29295197 0.23264739
000140 9e 5c f5 3c 19 6e d5 be 8f 95 d8 3e 24 fe df 3e
       0.02995139 -0.4168556 0.42301604 0.4374858
000150 3f 68 ee bc b2 f2 31 3e ac 04 3e 3e 5d e9 1a bd
       -0.029102443 0.17377737 0.1855647 -0.03782021
000160 78 fb 2f 3e 97 ba 05 bd 0b 45 62 be 05 9c 94 be
       0.17185771 -0.03264865 -0.2209665 -0.29025283
000170 d4 d9 2c be 0a 10 a0 3a 1f 0e 05 3e f6 ce 74 3e
       -0.1687997 0.0012211811 0.12993668 0.23907074
000180 7e c0 84 be 2f e8 99 be 15 79 b7 3d 1b ee 34 3e
       -0.2592811 -0.30059955 0.089586414 0.17668955

ff6.bias f4 [20]
000000 40 c5 3d bd e4 b4 cd be 85 c0 92 bd b5 61 ad be
       -0.04633069 -0.4017707 -0.071656264 -0.33863607
000010 cb 42 b8 3e 75 bb c8 bc a1 25 23 3e 8b 42 ca 3d
       0.3598846 -0.024503449 0.15932323 0.09875973
000020 7e fd 22 3e 28 e3 02 3e 5b ba 79 3e 92 41 38 3c
       0.15917012 0.12781966 0.24387495 0.011246102
000030 2c 6d 93 3e 22 ce 5c be 21 fb f5 bd b5 9e a0 3e
       0.2879423 -0.21563008 -0.1201079 0.31371084
000040 3b b0 9d 3e 30 ec b7 3c 38 5c db 3e 22 5c b6 be
       0.30798516 0.02245149 0.42843795 -0.35617167
