code/ml_model/model_weights_m7p8n10_lr0.001000_bs250_epochs40.pth (torch, 21926 bytes, 48 tensors)

ff1.weight f4 [5, 5]
00000000: ff3f b43e 9c43 4d3e 9c79 0ebe 96b5 c93e
00000010: 9ded c83c 85df 633e cc14 e3be 62b1 8abe
00000020: 6057 c8be fe62 b23e fa3d e33e d996 81be
00000030: fffe 743e ab3e 13be a07c 903e 8720 f03d
00000040: 9ef5 823d 74fb 92be 13fc bfbd 38b4 99be
00000050: 236c 8b3e 5cd2 99be 6dca 88be ad2f 593e
00000060: c451 7abe
0.35205075 0.20045322 -0.13913578 0.39396352 0.024527365 0.22253235 -0.44351804 -0.27088457
-0.39129162 0.3484115 0.44383222 -0.253104 0.23925398 -0.14379375 0.2822008 0.11724954
0.06394504 -0.28707469 -0.09374251 -0.30020308 0.2723094 -0.30043304 -0.2671694 0.21209593
-0.24445254

ff1.bias f4 [5]
00000000: 5919 a53d 4d88 9bbe 6504 85be 3ad3 0bbe
00000010: 63d7 a7be
0.08061475 -0.30377427 -0.25979915 -0.13654795 -0.32781515

ff2.weight f4 [5, 5]
00000000: 0548 b2be 45b1 d23e 7dc4 6abe 7f8c 283e
00000010: f7de 993e d7fd 683e 0468 543e f0e4 9fbe
00000020: cd8b c23d d0a7 b43c c3c1 9cbd 6d16 003d
00000030: fd4c aabe 2797 3c3e 6837 bcbd de59 593c
00000040: 9563 9d3e 71eb 6cbe 275e 023d ab28 553e
00000050: 1a12 77be 9b75 b03d 6400 d53e 7ca6 bcbe
00000060: a077 a23e
-0.34820572 0.4115087 -0.22926517 0.16459845 0.3005292 0.22753082 0.20742804 -0.31229353
0.09499321 0.022052675 -0.076541446 0.031271387 -0.33261862 0.18417035 -0.091902554 0.013266055
0.30740038 -0.23136689 0.031828072 0.20816295 -0.24127999 0.086161815 0.4160186 -0.36845767
0.31731892

ff2.bias f4 [5]
00000000: 08a9 4dbe 277b b5be 4333 89bd 149b c3be
00000010: 00c1 a0be
-0.20084012 -0.3544552 -0.066992305 -0.38204253 -0.31397247

ff3.weight f4 [5, 5]
00000000: 69d0 ad3c 306b b5bd 6cb4 de3e 9dd3 7bbe
00000010: 8513 6bbd 1e52 c6be a8c6 9ebe 29cd 743c
00000020: 2ed3 cd3d c922 203d c71f 89be fdf4 75be
00000030: 39d7 cbbe 315e 453e 6216 e2bd 6cdf 813d
00000040: d43d 663e 7f01 30be 7ab6 debc 9675 273e
00000050: 2f77 b8bc ea8f a9be 3216 92be 6ca3 ce3e
00000060: bef5 45bd
0.021217542 -0.08858335 0.43497026 -0.24592443 -0.057391662 -0.38734525 -0.31010938 0.014941492
0.10050045 0.039095674 -0.26782057 -0.24019237 -0.3981264 0.19274212 -0.110394254 0.063414425
0.22484523 -0.1718807 -0.027186621 0.16353449 -0.022517769 -0.3311761 -0.2853256 0.40359056
-0.04833006

ff3.bias f4 [5]
00000000: fa91 db3e bb9f ef3c 4c26 d93d a20c acbe
00000010: dd91 dfbe
0.4288481 0.02925097 0.10603008 -0.33603388 -0.43665972

firstGCN.attentionLayer.linear.weight f4 [5, 10]
00000000: cec5 3bbe 3498 7fbe 0b23 8a3d bdbb edbd
00000010: 4c7f 95bd 418b 07be 0f1a 65be bd8b 353e
00000020: 759e 1abe d540 68be 9948 263e 10d1 843e
00000030: 545b 80be bbab 0ebe 4f3f 333e cbf8 5e3e
00000040: 5c05 38be bf8b 073e 2580 ee3a a4c2 25be
00000050: f36b 99be 9478 763e 282a 1f3e 3441 8a3e
00000060: 92ee 423e 48e4 513e 49dd 11be 4b9c 71be
00000070: 9aea 7e3e ce99 aa3c 2b58 8ebe 3f5a 99be
00000080: fb6f 173d 2180 f6bc c2b4 6c3e 30f5 893d
00000090: 369f 35bd 1042 b33d 3f89 893e 0501 20bd
000000a0: 0ae1 9dbe 1dbb 853e 9868 bfbc 2133 1ebe
000000b0: 096a 4fbe 02a5 d83d 4db2 873e a3b6 80bd
000000c0: e12c 253d 3ff4 f73d
-0.18337175 -0.24960405 0.06744965 -0.11608074 -0.072996706 -0.13236715 -0.22373222 0.17729087
-0.15099509 -0.22680981 0.16238631 0.25940752 -0.25069678 -0.13932697 0.17504619 0.21774594
-0.17970794 0.13236903 0.0018196149 -0.16187531 -0.2996517 0.24069434 0.15543425 0.2700287
0.1903632 0.20497239 -0.1424457 -0.23594777 0.24894181 0.020825293 -0.27801642 -0.29951665
0.036972027 -0.030090393 0.23115829 0.06736219 -0.04434129 0.08752835 0.26862523 -0.039063472
-0.30835754 0.2611932 -0.023365304 -0.15449192 -0.20255293 0.10578348 0.2650322 -0.06284835
0.040326003 0.12107133

firstGCN.attentionLayer.linear.bias f4 [5]
00000000: 17b0 d8bd d613 9d3e 5961 2cbe 0d61 4a3e
00000010: 2592 593e
-0.105804615 0.30679196 -0.1683401 0.19763584 0.21247156

firstGCN.attentionLayer.inAttention.W_sum f4 [5, 5]
00000000: d6f2 fd3e a55f 3c3f 4423 5a3e 8d2b 6f3f
00000010: 5100 533e fd72 863d fff8 3a3f 20fa 3f3f
00000020: aa04 703e 054d ff3e 5743 663f 6085 3e3e
00000030: 963b 7e3f e7d1 193e 99d7 213f 613b 3d3f
00000040: 0ab2 dc3d bda9 6a3f bebe c73e a378 273e
00000050: edeb 3b3e ff63 063f 03e2 ea3d 2aae 733f
00000060: 46fe 213f
0.49599332 0.7358344 0.21302515 0.9342583 0.2060559 0.06564901 0.7303619 0.74991035
0.23439279 0.4986345 0.899465 0.18605566 0.9930967 0.15021478 0.632196 0.7391873
0.10776146 0.9166525 0.39012712 0.16354613 0.18351717 0.5249633 0.114688896 0.9518763
0.63278615

firstGCN.attentionLayer.inAttention.W_alpha f4 [5, 5]
00000000: 78c7 6b3e ddf5 573f e49e 633f e62b 763f
00000010: 7048 623e 79f7 4d3f 312e 293f c6ef 5f3e
00000020: 3f01 c13e 78a8 7a3f a46a 753e 0a2d 6b3f
00000030: 0ae8 db3e 2052 843e 6c9c c23e 6784 413f
00000040: 1848 383e 3fef 2a3e dcea cb3e 0485 353f
00000050: 0516 4d3c a802 963d c908 693f 33c4 353f
00000060: 4a8b 2e3f
0.2302531 0.8435953 0.8891432 0.96160734 0.22097945 0.8045574 0.6608611 0.2186881
0.37696263 0.9791331 0.23966461 0.918656 0.4295047 0.25843906 0.38009965 0.75592655
0.17996252 0.16692828 0.3982762 0.7090609 0.012517457 0.073247254 0.9102903 0.710025
0.6818129

firstGCN.attentionLayer.inAttention.a_alpha f4 [5, 1]
00000000: 9e02 4d3f 56b4 1c3f 8623 b03e 188a 6c3f
00000010: 10bf eb3d
0.8008212 0.6121267 0.34402102 0.92398214 0.11511052

firstGCN.attentionLayer.inAttention.b_alpha f4 [5, 1]
00000000: c42c e23d 315d 783f d6aa bb3d 4e84 183f
00000010: 9555 613e
0.110436946 0.970172 0.09163444 0.5957688 0.22005303

firstGCN.attentionLayer.outAttention.W_sum f4 [5, 5]
00000000: f85f fd3e 96ec c83e 4d6d 0b3f 8e9a 453f
00000010: 0e7e 193f 06d6 653f 2e2e 2c3f c803 4d3d
00000020: c750 523f 4a6b 683f 1511 473d 2431 eb3e
00000030: 8166 b13d 27ad 573f ee77 c83c 5d38 753e
00000040: 35cc 463f 5def 473d 13a4 2b3f 16d5 b13e
00000050: ab38 413f 6d62 653f 0327 3d3f 6790 6a3f
00000060: 04d6 0e3f
0.4948728 0.39243 0.54463655 0.77188957 0.5995797 0.897797 0.67257965 0.050052434
0.82154506 0.9078871 0.048600275 0.4593593 0.08662129 0.84248585 0.02447125 0.23947282
0.77655345 0.04881226 0.6704723 0.34732884 0.75477093 0.8960331 0.7388765 0.9162659
0.5579531

firstGCN.attentionLayer.outAttention.W_alpha f4 [5, 5]
00000000: 9ad3 033f 36a4 4a3f 587d 7b3f 45fd 1e3f
00000010: 354e 0b3f d0e6 033f 88e0 9d3e 32f9 953b
00000020: 4450 3f3f 77ee 043f 7e46 c33e 50be 0b3e
00000030: de31 8b3e d433 703e 7c62 403f 3b7f 5b3f
00000040: c98b 593f 79c4 a93e 2018 413f fe75 e63e
00000050: 7c7b 9e3e d2be 4b3f a4e6 2d3f 5e9d 703f
00000060: 3849 873e
0.51494753 0.79156816 0.98238134 0.6210521 0.5441621 0.51524067 0.30835366 0.0045768255
0.7473185 0.5192637 0.3813972 0.13646817 0.27186483 0.23457271 0.75150275 0.85741013
0.8497892 0.3315771 0.75427437 0.45011896 0.30953586 0.79588044 0.67930055 0.93990123
0.2642305

firstGCN.attentionLayer.outAttention.a_alpha f4 [5, 1]
00000000: 268b 5d3f ea59 b83e 7031 3e3e f174 1f3f
00000010: d0f2 cf3d
0.8654045 0.360061 0.18573546 0.62287813 0.10153735

firstGCN.attentionLayer.outAttention.b_alpha f4 [5, 1]
00000000: 4f0a 2a3f 9920 2c3f 3173 b83d f175 123f
00000010: bc23 813c
0.6642198 0.6723724 0.09006346 0.57211214 0.01576411

firstGCN.linearLayer.weight f4 [5, 10]
00000000: 017e 0fbe 44c3 1d3e 846a 5abe 349d 373e
00000010: 034e 783e e0e0 9abd 452b 033e 8749 80be
00000020: 2ca9 f63d 093b 273e ef62 84be 31ce 9cbe
00000030: 9a68 663e 4f9b 84be a50b 6d3e 3dae 343d
00000040: 2587 a73d dde5 92bd a423 64be 7e10 983e
00000050: a839 b8bc f141 86be 4371 963e d1d0 ccbd
00000060: 8e21 f4bd 5adb 54be 7e8c 8f3d 2f2a c23d
00000070: 4d1a 253e a9ea ae3d 7acc 25be 477b c9bd
00000080: 9863 19be 1589 d13a dce2 5abe 120a fd3d
00000090: 144c 12bd fdaa 54be 719c 41be 37c3 b53d
000000a0: 56e0 4bbe 1dce 8bbe 54d6 fc3d ace5 91be
000000b0: 7aec 9ebe 4364 493e 9f2c 9d3e 501a e93d
000000c0: 60b8 55be cb96 a63b
-0.1401291 0.15406519 -0.21329695 0.17931062 0.24248509 -0.07562423 0.12809475 -0.25056097
0.12043986 0.16331114 -0.2585673 -0.30626062 0.2250084 -0.2589974 0.23148973 0.04411148
0.08180074 -0.07172749 -0.22279221 0.29700083 -0.02248843 -0.26222184 0.29383287 -0.10000766
-0.119204625 -0.20786801 0.07009219 0.09480702 0.16123314 0.085408516 -0.16191283 -0.098379664
-0.14979398 0.0015986288 -0.21375602 0.123554364 -0.035717085 -0.20768352 -0.18907334 0.08875125
-0.19909796 -0.2730569 0.12345567 -0.28495538 -0.31039792 0.19667153 0.30698106 0.11381972
-0.20871115 0.005083894

firstGCN.linearLayer.bias f4 [5]
00000000: 1cf3 97be 391a 923e 184e 42be 1a5f 0dbe
00000010: 8dfd 2abe
-0.29677665 0.2853563 -0.18975103 -0.1380581 -0.16698284

secondGCN.attentionLayer.linear.weight f4 [5, 10]
00000000: 61d3 3bbc f4b7 513e 0b06 f7bd 45a5 ce3c
00000010: 094a 8b3e 6c8b a1be 99f2 4d3d 3d88 983d
00000020: d8f7 66be 2134 63bd c8cb 87be 4e0e 91be
00000030: b662 d93d 3180 aebd a9d8 8c3e f970 893e
00000040: ab24 853d 5396 12be 8304 77be fdf0 103e
00000050: 2c1c 543e c902 e1bb 17ad 4abe 0170 3bbe
00000060: 0686 363e e8fd 833e 0a89 353e 306a 10be
00000070: 71ce 323e 69e8 d8bd 6667 fd3d 247e 1abe
00000080: 1105 273e f73f 8f3e dd4c 4b3e 44ce 59be
00000090: a7f2 1dbe 52b2 763e 13a1 6a3e 419a 97be
000000a0: 9175 88be 44af 3439 e478 7fbe 63a6 e33d
000000b0: e2bd 413e 62e7 8fbe 8f9d f1bd 90fc 993e
000000c0: a331 143e 8c14 b03d
-0.011463971 0.20480329 -0.120616995 0.025225291 0.27204922 -0.31551683 0.050280187 0.074478604
-0.22555482 -0.055469636 -0.2652266 -0.28331226 0.10614531 -0.08520544 0.2750905 0.26844004
0.065011345 -0.14315157 -0.24122815 0.1415443 0.20713872 -0.006866787 -0.19792591 -0.18304445
0.17824563 0.25779653 0.17728058 -0.14103007 0.17461564 -0.10591204 0.12373237 -0.15087181
0.16310526 0.2797849 0.1985354 -0.2127009 -0.15424596 0.24091461 0.22913007 -0.29609874
-0.26652196 0.00017231429 -0.2494846 0.1111572 0.18920091 -0.2810622 -0.1179763 0.30075502
0.1447206 0.08597669

secondGCN.attentionLayer.linear.bias f4 [5]
00000000: 06a5 a3bd dfc5 95be c498 0a3e 1277 f3bc
00000010: 958c a13c
-0.0799046 -0.29252526 0.13534838 -0.029719863 0.019720355

secondGCN.attentionLayer.inAttention.W_sum f4 [5, 5]
00000000: 49e9 293f 9403 923e 905b 0d3e 8d9b 733f
00000010: dc82 823e 6df1 013f 75f9 0d3f 405c b03d
00000020: 6c73 2f3e f082 693f 46f6 f13e 3a68 623f
00000030: 4e43 f13e 5ac2 833e 0474 303f cc06 0c3f
00000040: f0d2 703f 9a30 2f3f 8a45 253f 8012 fb3b
00000050: 86bf a83e 2c6d 903e 04a5 403e 55da 643f
00000060: bc6e 603e
0.6637159 0.28518355 0.1380446 0.95159227 0.25490463 0.5075901 0.55458766 0.08611345
0.17133874 0.9121542 0.47258204 0.8844029 0.47121662 0.25734216 0.68927026 0.5469787
0.94071865 0.68433535 0.64559233 0.0076621175 0.3295862 0.28208292 0.18812948 0.8939565
0.21917242

secondGCN.attentionLayer.inAttention.W_alpha f4 [5, 5]
00000000: e0a6 fc3d f19a 2a3f 046c 003f c851 d33d
00000010: 765a bc3e e6e8 383f d21d ce3e 9ac6 7f3f
00000020: 2cb4 953e 000c ef3c 836c 643f 287c bb3d
00000030: ec48 433e 01d1 553f 911c 453f 4833 863d
00000040: 0800 e63e 3303 513f a64d b83e d25a b03e
00000050: e5d3 323f 3d74 3f3f 4b29 583f 4528 793f
00000060: a4fb b63e
0.123365164 0.6664267 0.5016482 0.10318333 0.36787766 0.72230375 0.40257126 0.99912417
0.29239023 0.029180527 0.89228076 0.0915454 0.19070786 0.8352204 0.76996714 0.0655275
0.449219 0.81645507 0.3599674 0.3444429 0.69854575 0.7478674 0.8443801 0.9732707
0.35738862

secondGCN.attentionLayer.inAttention.a_alpha f4 [5, 1]
00000000: 5051 123e 6888 a63d dc4f 773f 1af3 5f3f
00000010: 8224 023f
0.14288831 0.08131486 0.9660623 0.8748032 0.50836957

secondGCN.attentionLayer.inAttention.b_alpha f4 [5, 1]
00000000: 204d 543d 987b f73d 140a 753f 1e44 9e3e
00000010: d158 733f
0.051831365 0.120841205 0.95718503 0.30911344 0.950574

secondGCN.attentionLayer.outAttention.W_sum f4 [5, 5]
00000000: 78ff 023e 16c5 c43e f0b4 793d 6577 4d3f
00000010: c4f8 283f f892 a13e 9491 3c3f 0493 f23e
00000020: 38c2 ac3d c8d9 883e 46eb 433f 220a f13e
00000030: 443f 543e 2472 723e fa90 ed3e 688b fa3e
00000040: e8b5 f73e 50ac 243e 158f 613f a883 613f
00000050: 7285 9b3e a46b d53e 0a82 013f f09a 393d
00000060: da23 143f
0.12792766 0.38431615 0.06096357 0.80260307 0.66004586 0.3155744 0.73659635 0.4737779
0.08435482 0.26728654 0.76530874 0.47078043 0.20727259 0.23676354 0.4639967 0.48934484
0.4838097 0.16081357 0.8810895 0.88091516 0.30375248 0.41683686 0.5058905 0.045313776
0.57867205

secondGCN.attentionLayer.outAttention.W_alpha f4 [5, 5]
00000000: 7375 183f 683c 683f c06d 0f3d 889a e73e
00000010: c04a 513c cf0d 383f 025d 013f 44da 1e3f
00000020: 1e2c ff3e 00bc f13e 9c4b 0e3e a39c 0d3f
00000030: bf4e 443f dbea 0c3f 6124 483f 9292 973e
00000040: 8050 ea3d 089a 883e 7662 fe3e 14ff 213f
00000050: 38f0 e33d 20ec 6d3d 15be 113f 7aca 093f
00000060: 26d6 2b3f
0.59554213 0.9071717 0.035016775 0.45235085 0.012774169 0.7189607 0.50532544 0.62051797
0.49838346 0.47213745 0.1389603 0.55317134 0.76682657 0.5504586 0.7818051 0.29604012
0.114411354 0.26680017 0.49684495 0.63279843 0.111298025 0.058086514 0.5693067 0.5382458
0.6712364

secondGCN.attentionLayer.outAttention.a_alpha f4 [5, 1]
00000000: 70c2 ea3e b077 fc3d 629f 1c3f 2612 2a3f
00000010: f4db 073e
0.4585147 0.12327516 0.611807 0.6643394 0.13267499

secondGCN.attentionLayer.outAttention.b_alpha f4 [5, 1]
00000000: b89d a83d 1665 173f c8fb 793f 4453 c23e
00000010: 7e32 9f3e
0.082332075 0.5913862 0.9764981 0.37954152 0.3109321

secondGCN.linearLayer.weight f4 [5, 10]
00000000: d419 64bc 1dd4 d83d a33f f73d 43ac 693e
00000010: dde0 ef3d 5c01 273d 9ef5 9fbe aff6 8e3e
00000020: 6b53 da3d 026a 5abe aef1 e23c f3dd 9a3d
00000030: 7e8e 7a3e e8f5 a13d 8933 e03d 18f9 323e
00000040: 9c40 73be 637d 553e 8575 ebbc 3e6d 3abe
00000050: 0424 dfbc 17f9 82be 74ba 82be bf0f 10bd
00000060: 216a da3d b3ae a5bd 0536 8e3e a155 243e
00000070: b3e0 0f3e ba89 14be 5178 8ebe 9e73 3c3e
00000080: fd77 60be 86f8 713e be41 51be b83b 16be
00000090: c58b 27be 7f40 98bd fd79 203e 94e9 88bc
000000a0: a1dd 723e 4389 f13d 5cc6 32be a5d3 98be
000000b0: ccbd 75bd 6ae2 67be 376a 8ebd cd03 94be
000000c0: ec02 eebd 78a7 90be
-0.0139221735 0.105873324 0.120726846 0.22819619 0.11712811 0.04077278 -0.3124208 0.2792258
0.10660442 -0.21329501 0.027703132 0.07561865 0.24468419 0.07908231 0.109473296 0.17477834
-0.23755115 0.20848612 -0.028742561 -0.18205735 -0.027238853 -0.25580665 -0.25532877 -0.035171267
0.10664774 -0.08089962 0.2777559 0.1604829 0.1405056 -0.14505664 -0.2782617 0.1840348
-0.21920772 0.2362996 -0.20435235 -0.14671218 -0.16361912 -0.07434177 0.15671535 -0.016712941
0.23717357 0.11793759 -0.1745848 -0.29848972 -0.059995458 -0.22644964 -0.069538526 -0.2890915
-0.11621651 -0.2825277

secondGCN.linearLayer.bias f4 [5]
00000000: d75d 5b3e f690 01be c603 27bd aed6 1ebe
00000010: 49f5 16be
0.21422516 -0.12652954 -0.040775083 -0.15511581 -0.14742006

thirdGCN.attentionLayer.linear.weight f4 [5, 10]
00000000: 48cf e7bd 0756 adbb 1f2c 6c3e f456 0cbd
00000010: 58ea 91be 888e a93c 7910 5bbe 2517 043d
00000020: 2968 183e 6cbc 80be 356f 8a3e d78e 8b3e
00000030: dc91 d1bc 5877 763e 9024 76be 33c4 8fbe
00000040: 5cb0 0e3e f45d 15be 3b03 463e 52d9 1e3e
00000050: 2a39 df3d 4ab0 b6bd 144b fabd 2a45 113e
00000060: e34d 8e3e 9f92 e63d c61d dc3d aab5 43bd
00000070: ea2b 9c3e 2804 08bd d89b 8e3e 83bf 543d
00000080: f8e2 c73d 64eb 4ebd 7557 9ebe 2536 98be
00000090: 6ae2 64be b37e 88be 1557 463e 3c45 563e
000000a0: d463 8b3e 567c 213e 268f 8e3e 38c2 5fbe
000000b0: 40ba 5dbb 10bd 4e3e 20b5 fc3d 25c2 7bbe
000000c0: 2eec 493e a561 393e
-0.11318833 -0.0052897963 0.23063706 -0.034262612 -0.28499103 0.020697847 -0.21393003 0.032248635
0.14883484 -0.25143754 0.2703797 0.27257416 -0.025582246 0.24068964 -0.24037385 -0.28079376
0.13934463 -0.14586622 0.1933717 0.15512589 0.10899575 -0.08920343 -0.12221351 0.1418654
0.27793798 0.112584345 0.10747866 -0.04778067 0.30502254 -0.03320709 0.27853274 0.051940452
0.09760088 -0.050517455 -0.309261 -0.2972881 -0.22351995 -0.26659164 0.19369157 0.20924848
0.272246 0.15770087 0.2784359 -0.21851432 -0.0033832937 0.20189309 0.12339234 -0.24585779
0.19719002 0.18103655

thirdGCN.attentionLayer.linear.bias f4 [5]
00000000: c463 713e 96b0 d0bd 9615 0b3e 2638 c4b9
00000010: d440 e83d
0.23573214 -0.10189931 0.13582453 -0.00037425867 0.1134049

thirdGCN.attentionLayer.inAttention.W_sum f4 [5, 5]
00000000: 5050 7e3f b271 d23e b1d7 763f e8b0 a13d
00000010: 080d 183f ecb4 5d3e 7899 d33d 082a ee3e
00000020: d897 d73d f873 a63d f870 773f 647b 0a3e
00000030: 5edb 443f 784d 4e3e 943e 563f 3655 053f
00000040: dbaf 0c3f 1089 543f 44a0 583f ff42 323f
00000050: 2495 783e 799c 2a3f 4297 533f a405 a53e
00000060: 7a48 d33e
0.993413 0.41102368 0.9642287 0.0789507 0.59394884 0.21651047 0.10332006 0.46516442
0.10527009 0.08127588 0.9665675 0.13523632 0.7689723 0.2014674 0.83689237 0.52083147
0.54955834 0.8302164 0.84619546 0.6963348 0.24275643 0.6664501 0.82652676 0.32230866
0.41266233

thirdGCN.attentionLayer.inAttention.W_alpha f4 [5, 5]
00000000: ec67 f43e d407 9f3e a666 ba3e 3242 2f3f
00000010: fe0f 133f 571c 743f b4de 563e 40b1 fb3c
00000020: 12f5 dd3e b44e d63e 40e4 783e 9376 683f
00000030: a764 433f 9873 783e 3020 e53d 8129 1d3f
00000040: e809 b03e 28aa c63d 7012 d33d 8072 c93e
00000050: c8a9 103f 08f8 a93e 6867 213e 54eb dd3e
00000060: ca41 bd3e
0.47735536 0.3106066 0.3640644 0.6846038 0.5744628 0.95355743 0.20983392 0.030724168
0.43351036 0.4185692 0.2430582 0.9080593 0.7632546 0.24262846 0.1118778 0.61391455
0.34382558 0.097004235 0.10306251 0.3934517 0.56509066 0.33197045 0.15762103 0.43343604
0.36964256

thirdGCN.attentionLayer.inAttention.a_alpha f4 [5, 1]
00000000: 466c 9a3e cca6 503f 84f1 6a3f 742d a23e
00000010: 74c5 5d3e
0.3016073 0.8150451 0.91774774 0.31675303 0.21657354

thirdGCN.attentionLayer.inAttention.b_alpha f4 [5, 1]
00000000: e03d 633d de95 173f 7f7b 6b3f 3e70 673f
00000010: 602a e93c
0.05547893 0.59213054 0.91985315 0.90405643 0.028462589

thirdGCN.attentionLayer.outAttention.W_sum f4 [5, 5]
00000000: d8c9 183f 8731 073f 742b 163f c9ff 233f
00000010: c09d 893e 05c5 753f 8091 1b3c 0c0d 9a3e
00000020: 72fe 753f b0eb 323f 4c19 8d3e 2ca9 e13e
00000030: 95bb 693f 16fc 1f3f 3d24 173f 48a5 393e
00000040: a515 273f 0e44 2a3f 063b 153f 367c 973e
00000050: ea00 da3e c824 663f 659a 5e3f f6a3 523f
00000060: 1125 043f
0.5968299 0.5280995 0.58660054 0.6406217 0.26878166 0.9600375 0.009495139 0.3008808
0.9609138 0.6989088 0.27558362 0.4407438 0.9130185 0.6249403 0.5903967 0.18129456
0.652674 0.66510093 0.5829319 0.29586953 0.42578822 0.89899874 0.8695434 0.82281435
0.5161906

thirdGCN.attentionLayer.outAttention.W_alpha f4 [5, 5]
00000000: 28ee 703e 9c1e 303f 963e 0c3f d484 083f
00000010: d24e 5a3f c619 1b3f 288d 373e 3800 5e3e
00000020: fe9a 413f b010 c53e 8a2b 533f 70f9 973e
00000030: 96a9 363f 7545 3e3f fe2b c83e 6c31 a23e
00000040: 5e1a d83e 1080 603e d06b f13d 347a 943e
00000050: 441d a73e e47e dc3e 64aa 8f3e 0f16 7d3f
00000060: 6005 743f
0.2352835 0.68796706 0.54783 0.5332768 0.8527652 0.605862 0.1792494 0.21679771
0.75627124 0.38489294 0.8248831 0.29682493 0.7135252 0.74324733 0.39096063 0.3167833
0.42207617 0.21923852 0.11788142 0.28999484 0.32639515 0.4306556 0.28059685 0.98861784
0.953207

thirdGCN.attentionLayer.outAttention.a_alpha f4 [5, 1]
00000000: fcb2 053f 16a7 f53e 72e0 073f bcd7 393f
00000010: 5cd3 3f3e
0.52226233 0.4797904 0.5307685 0.7259481 0.18732971

thirdGCN.attentionLayer.outAttention.b_alpha f4 [5, 1]
00000000: c60c 053f 4a82 823e 1ab0 153f 40de 663e
00000010: fafd 573f
0.51972616 0.25490028 0.58471835 0.22545719 0.8437191

thirdGCN.linearLayer.weight f4 [5, 10]
00000000: b8a3 703e 039f 123d b618 80be a75f 923e
00000010: 9b56 9abd 9e54 743e 91c0 7abe bb1c 87be
00000020: aa79 103e 36e8 95be 4e93 1b3d 4905 bcbd
00000030: 6eaa 203e fb8d f43c 6eef fc3b 8f93 73be
00000040: ddf5 74bc a0cd a73d 3982 8cbe 50ae a93a
00000050: 2449 55be 0ee1 97be ba41 6bbe 8a6d 7f3e
00000060: 39d4 4fbe e7bf 46be 25b0 a53d b8f9 123e
00000070: d69c 273e 9c7b b8bd d701 b83c 8b18 a03e
00000080: 2bdf 633e 6419 133d a71e 92be d63d eabd
00000090: 9ad0 60be 2bbc 503c db30 923e 63a6 683e
000000a0: 0f5f 23be 7330 0abe 041e 65be 60cd 67be
000000b0: edac 9dbe 7701 9f3e 0828 80be 6b72 8bbe
000000c0: 8a91 57bc 1ea5 5cbd
0.23499954 0.035796177 -0.25018853 0.28588602 -0.0753605 0.23860404 -0.24487521 -0.26389107
0.14108911 -0.29278725 0.037982278 -0.091806956 0.15690014 0.029852858 0.007718972 -0.23786758
-0.0149511965 0.08193517 -0.27443102 0.0012945626 -0.20828682 -0.2966389 -0.22974291 0.2494413
-0.202958 -0.19409142 0.080902375 0.14353073 0.16368422 -0.090079516 0.022461815 0.31268725
0.222531 0.035912886 -0.2853901 -0.114375755 -0.21954575 0.012740175 0.285529 0.22719721
-0.1595423 -0.13495044 -0.22374731 -0.22636938 -0.30795994 0.31055805 -0.2503054 -0.2723573
-0.013157258 -0.053868406

thirdGCN.linearLayer.bias f4 [5]
00000000: f72e dcbd d683 993c 132f 823e 1023 88be
00000010: 7618 40bd
-0.10751145 0.018739622 0.2542654 -0.2658925 -0.046898328

ff4.weight f4 [5, 5]
00000000: 42aa 8dbe 3632 a8be 934d d83e 47d7 1cbe
00000010: 9ecb 953e 21b4 5cbe b6f3 e03c 0519 61be
00000020: 38a2 cf3e 8020 923d 0dab dd3e 54b3 6dbe
00000030: 99df 293e e4ae 3f3e 04fa 143e 764d f23d
00000040: a7bb b6be a1e5 ecbb f5aa 953e 6a74 90bd
00000050: 4685 dfbd 090a 8bbe c79a cc3e 99fb 703e
00000060: 22c4 de3d
-0.2766896 -0.32850808 0.42246684 -0.15316497 0.2925691 -0.21553089 0.02745996 -0.219822
0.4055345 0.07135105 0.43294564 -0.2321294 0.16589202 0.18719059 0.14548498 0.11831181
-0.35690042 -0.0072295223 0.29231992 -0.07053454 -0.10914092 -0.27156094 0.39961836 0.23533477
0.10877253

ff4.bias f4 [5]
00000000: e6e3 253c 3b0b cfbd f1f8 e63d 3248 9a3b
00000010: 9832 873e
0.010125136 -0.10109564 0.112779506 0.0047083134 0.26405787

ff5.weight f4 [5, 5]
00000000: 22b8 433e 3303 99be b07d b83e a92f 833e
00000010: 1838 6bbe 09b8 943e bfdc 973e cf1e 95be
00000020: 07a4 aebd 0878 353e 596e 4d3e 1f01 6e3e
00000030: d46e b8bd 5c2e 39be 2f86 9bbe 9a3d bb3e
00000040: bc4f 973e bda2 9e3e 8ad6 dfbe 723b 063c
00000050: 3382 1abd c6b2 da3e 1bfb a63d 1ad9 9d3e
00000060: 1034 323e
0.1911321 -0.29885253 0.36033392 0.256223 -0.22970617 0.29046658 0.29660603 -0.29125068
-0.085273795 0.1772157 0.20061626 0.23242615 -0.09005514 -0.18084091 -0.3037581 0.36570436
0.2955302 0.30983534 -0.43718368 0.008192884 -0.037721824 0.42714518 0.08153363 0.30829698
0.17402673

ff5.bias f4 [5]
00000000: 4b42 82be e707 14be 0ebf fbba 820a 913e
00000010: a6bf 313d
-0.25441203 -0.1445614 -0.0019206719 0.2832833 0.04339566

ff6.weight f4 [10, 5]
00000000: f4eb 0b3e 571d 73be d5a8 b23e a09e c93e
00000010: afb4 9fbd e097 d0be fa87 b53e 6e36 883e
00000020: 5ef7 983e f065 bbbe eaf0 1f3c 10bd 923e
00000030: 722e 93be 36c5 a63d e565 3d3e e05c abbe
00000040: 700f 433e fc27 853e 625b 9ebe 052b 40be
00000050: f35d 31bd 895b 76bd 5433 f03d 3c98 31be
00000060: c9f6 73be c21d 0f3d 21bd 7dbe e395 07bd
00000070: 97dd cebe a54c 333d b02b f5bd 0ff4 443e
00000080: 8e85 e8bd 0106 1cbe 53ab 633e c808 893d
00000090: d506 d43e 6b2a 0d3e 1ceb c1be aee0 89bc
000000a0: 44db e63d 5356 743e 8784 cf3e 3ccc dcbe
000000b0: bc97 e0be b3a8 94be 0675 b43e 61e8 853e
000000c0: 0a5f 103e 9fe5 5e3e
0.13664228 -0.23741661 0.34894434 0.39378834 -0.077981345 -0.4074087 0.35455304 0.26604027
0.29876226 -0.3660121 0.009762028 0.28659868 -0.28746372 0.08143084 0.18495901 -0.33469296
0.19048858 0.26007068 -0.30929095 -0.1876641 -0.043302488 -0.06014589 0.1172854 -0.17343229
-0.2382461 0.03494049 -0.24779178 -0.033101927 -0.40403435 0.043774266 -0.11971223 0.19233726
-0.113535985 -0.15236665 0.22233324 0.06691128 0.41411462 0.13785712 -0.37874687 -0.016830768
0.1127229 0.23861055 0.40530798 -0.43124568 -0.43865764 -0.29034957 0.35245532 0.26153854
0.14098755 0.21767281

ff6.bias f4 [10]
00000000: 71ba a13d 8c8b 91be f252 67be 30f0 7dbe
00000010: efaa 523e 0ada a4be ec20 84be f3a3 77be
00000020: abdc 19bb 30a7 dabd
0.07896889 -0.28426778 -0.22590235 -0.24798656 0.20573018 -0.321976 -0.25806367 -0.24183635
-0.0023477476 -0.1067642
