code/ml_model/model_weights_m7p8n20_lr0.100000_bs10_epochs10.pth (torch, 22066 bytes, 48 tensors)

ff1.weight f4 [5, 5]
-0.25317183 0.32200772 0.41532084 -0.28247136 0.39019683 -0.3254733 0.061467208 -0.30774722
-0.20516084 0.40631634 0.15895158 -0.35899112 0.3861589 -0.36442095 -0.40661132 0.4398824
-0.13194041 0.27426702 -0.06820281 0.23695916 0.082647376 0.40232518 -0.023729924 0.25300625
0.21482919
00000000: bd9f 81be 32de a43e efa4 d43e 16a0 90be
00000010: e1c7 c73e 70a4 a6be 0ac5 7b3d 0b91 9dbe
00000020: af15 52be b208 d03e 34c4 223e afcd b7be
00000030: 9fb6 c53e 6295 babe 5c2f d0be 4438 e13e
00000040: 631b 07be ba6c 8c3e eaad 8bbd 6ca5 723e
00000050: 0743 a93d 91fd cd3e 4265 c2bc 098a 813e
00000060: 2ffc 5b3e

ff1.bias f4 [5]
0.07498564 -0.35115165 -0.2598308 -0.3017192 -0.4239846
00000000: 1292 993d 26ca b3be 8b08 85be f07a 9abe
00000010: 8214 d9be

ff2.weight f4 [5, 5]
-0.4330425 -0.27285334 0.29493034 -0.3294288 -0.035792995 -0.4023405 0.26642653 0.075994946
0.29097548 -0.39234856 -0.05018265 0.114562824 -0.2181341 0.11443563 0.0030100497 0.43331495
-0.32864586 -0.42772084 -0.096441165 0.43978903 -0.31509197 -0.43276572 0.28841063 0.3146189
-0.10679089
00000000: bfb7 ddbe 6fb3 8bbe 1c01 973e e4aa a8be
00000010: ad9b 12bd 93ff cdbe 0f69 883e 3da3 9b3d
00000020: bdfa 943e e9e1 c8be 538c 4dbd ea9f ea3d
00000030: 8c5e 5fbe 3a5d ea3d 4144 453b 75db dd3e
00000040: 4544 a8be 3afe dabe f282 c5bd 072c e13e
00000050: bc53 a1be 7893 ddbe 8faa 933e ba15 a13e
00000060: 2fb5 dabd

ff2.bias f4 [5]
0.112362534 -0.27618572 0.057452064 0.3163689 -0.22192314
00000000: 541e e63d 3768 8dbe db52 6b3d 1bfb a13e
00000010: d23f 63be

ff3.weight f4 [5, 5]
0.031435 -0.07602256 0.3797473 -0.3843674 0.3740389 -0.19474997 -0.25737122 0.03743143
0.21982825 -0.22217777 -0.3315653 0.1157382 0.18270886 -0.38984245 -0.19519618 -0.1656554
0.43659505 0.24438255 0.32387143 -0.18107879 -0.03751641 0.06706545 0.27371 0.0057884585
-0.23506312
00000000: fdc1 003d b7b1 9bbd 3d6e c23e cecb c4be
00000010: 0782 bf3e 896c 47be 29c6 83be b351 193d
00000020: a81a 613e 9282 63be edc2 a9be 2608 ed3d
00000030: 0818 3b3e 6e99 c7be 82e1 47be 92a1 29be
00000040: 6389 df3e 6b3f 7a3e 7ad2 a53e b86c 39be
00000050: cfaa 19bd 9c59 893d b823 8c3e 1cad bd3b
00000060: 63b4 70be

ff3.bias f4 [5]
-0.3634657 0.32182202 0.21694988 0.14793295 -0.12982541
00000000: 2d18 babe dbc5 a43e 1c28 5e3e bc7b 173e
00000010: f4f0 04be

firstGCN.attentionLayer.linear.weight f4 [5, 10]
0.34242216 0.10208303 -0.18524778 0.21027035 0.2294209 -0.008418377 0.28291824 -0.17137408
0.0103761945 0.13976978 -0.07172362 0.13318405 0.36138955 0.061222762 0.12703045 0.07265676
-0.0933402 -0.0026382767 -0.16351707 0.3118275 0.022127185 0.43266037 0.6573326 -0.0353448
0.35104048 0.3615004 -0.15684478 -0.10404496 0.05427892 0.469488 0.22970204 0.19480273
0.02636289 0.06567861 -0.05630398 0.22445852 0.31400916 0.28542903 0.07162608 -0.25795856
0.079016425 -0.034341052 0.021539459 0.34095374 0.31688797 -0.20269741 -0.053940766 0.29704452
0.033858243 0.3307352
00000000: f551 af3e e810 d13d 98b1 3dbe 1c51 573e
00000010: 50ed 6a3e 3bed 09bc a9da 903e b07c 2fbe
00000020: ea00 2a3c cf1f 0f3e d5e3 92bd 6661 083e
00000030: 0d08 b93e b8c4 7a3d 4514 023e 11cd 943d
00000040: 2629 bfbd f0e6 2cbb 0571 27be dba7 9f3e
00000050: 1244 b53c a985 dd3e f346 283f b6c5 10bd
00000060: 94bb b33e 9516 b93e eb9b 20be 8615 d5bd
00000070: 9353 5e3d bb60 f03e 0337 6b3e 5e7a 473e
00000080: fdf6 d73c 8282 863d 019f 66bd 74d8 653e
00000090: cfc5 a03e c123 923e b2b0 923d 2513 84be
000000a0: 5dd3 a13d 34a9 0cbd 8573 b03c 7d91 ae3e
000000b0: 243f a23e e98f 4fbe fef0 5cbd 3816 983e
000000c0: f1ae 0a3d 2056 a93e

firstGCN.attentionLayer.linear.bias f4 [5]
0.15095182 0.21299604 0.14606519 -0.009635204 0.25968185
00000000: 1d93 1a3e a21b 5a3e 1d92 153e fadc 1dbc
00000010: 05f5 843e

firstGCN.attentionLayer.inAttention.W_sum f4 [5, 5]
0.017418122 0.5495695 0.3706887 0.38816914 0.63640684 0.8094347 0.3821111 0.8812143
0.12701812 0.4551875 0.7450974 0.55614555 1.1124281 0.5856325 0.7809229 0.26284027
0.33866867 0.45981747 0.6194334 0.8065195 0.525021 0.44018674 0.10403086 0.49903432
0.32086235
00000000: 73b0 8e3c 96b0 0c3f e9ca bd3e 1bbe c63e
00000010: 8feb 223f 1d37 4f3f 11a4 c33e 4397 613f
00000020: 0a11 023e 560e e93e b4be 3e3f 8e5f 0e3f
00000030: 0b64 8e3f 03ec 153f 90ea 473f 0093 863e
00000040: fb65 ad3e 326d eb3e 3093 1e3f 1078 4e3f
00000050: c767 063f 2860 e13e 220e d53d 6d81 ff3e
00000060: 1248 a43e

firstGCN.attentionLayer.inAttention.W_alpha f4 [5, 5]
0.45946103 0.46133575 0.056192704 0.13287303 0.7981391 0.23040816 0.47736493 0.5806629
0.2623403 0.91470927 0.28711405 0.39544255 0.5087143 0.74117047 0.1288488 0.07090576
0.21453111 0.6212226 0.1688296 0.14240396 0.780874 0.15159056 0.66969854 0.94061226
0.4760961
00000000: 7a3e eb3e 3334 ec3e 522a 663d de0f 083e
00000010: d852 4c3f 1ef0 6b3e 2d69 f43e 53a6 143f
00000020: 7851 863e 632a 6a3f 9d00 933e 7277 ca3e
00000030: 1a3b 023f 59bd 3d3f f1f0 033e 0a37 913d
00000040: 0bae 5b3e 7208 1f3f abe1 2c3e 58d2 113e
00000050: 5ce7 473f 8e3a 1b3e 5d71 2b3f f7cb 703f
00000060: dec2 f33e

firstGCN.attentionLayer.inAttention.a_alpha f4 [5, 1]
0.99489707 0.33068442 0.7561486 0.0059150457 0.010221362
00000000: 93b1 7e3f 784f a93e f492 413f 00d3 c13b
00000010: 8077 273c

firstGCN.attentionLayer.inAttention.b_alpha f4 [5, 1]
0.04859988 0.5405364 0.73827904 0.334628 0.4913238
00000000: ab10 473d 9860 0a3f dbff 3c3f 5c54 ab3e
00000010: cb8e fb3e

firstGCN.attentionLayer.outAttention.W_sum f4 [5, 5]
0.20642021 0.011717021 0.15883847 0.07886033 0.47004336 0.121067554 0.50500804 0.6956603
0.13943155 0.93486357 0.5788616 0.0048114434 0.5312601 0.8467481 0.4371258 0.9345729
0.55174667 0.4317806 0.21352999 0.51248693 0.31690648 0.24989544 0.9930185 0.11848918
0.1658986
00000000: d25f 533e c0f8 3f3c 8da6 223e 8681 a13d
00000010: 86a9 f03e 44f2 f73d 3548 013f cb16 323f
00000020: 25c7 0e3e 3853 6f3f 4630 143f 50a9 9d3b
00000030: a900 083f 7cc4 583f f4ce df3e 2b40 6f3f
00000040: 453f 0d3f 5912 dd3e 9ba7 5a3e 5832 033f
00000050: 9141 a23e 97e4 7f3e 7636 7e3f 75aa f23d
00000060: 53e1 293e

firstGCN.attentionLayer.outAttention.W_alpha f4 [5, 5]
0.817203 0.8027238 0.37028465 0.95477265 0.13570447 0.8789934 0.110306785 0.1672283
0.4062756 0.9623893 0.64162064 0.17846458 0.49108946 0.4828189 0.04408259 0.5883457
0.20373169 0.10614319 0.915787 0.05416955 0.2334953 0.89686096 0.08103977 0.8014493
0.13532384
00000000: 3734 513f 4f7f 4d3f f395 bd3e fb6b 743f
00000010: 1df6 0a3e b605 613f 86e8 e13d e53d 2b3e
00000020: 5b03 d03e 255f 763f 4041 243f 6bbf 363e
00000030: 1470 fb3e 0a34 f73e f28f 343d d39d 163f
00000040: 0a9f 503e 9a61 d93d 0471 6a3f e4e0 5d3d
00000050: 6419 6f3e ae98 653f 2ef8 a53d c82b 4d3f
00000060: 5592 0a3e

firstGCN.attentionLayer.outAttention.a_alpha f4 [5, 1]
0.73820585 0.0020710826 0.9982307 0.9530956 0.7888905
00000000: 0ffb 3c3f 00bb 073b 0c8c 7f3f 13fe 733f
00000010: baf4 493f

firstGCN.attentionLayer.outAttention.b_alpha f4 [5, 1]
0.1863559 0.38726494 0.33775073 0.3824535 0.31163123
00000000: 15d4 3e3e 9747 c63e aaed ac3e f2d0 c33e
00000010: 218e 9f3e

firstGCN.linearLayer.weight f4 [5, 10]
0.1237631 -0.01992411 0.15875368 0.03358817 -0.15056066 0.16146499 0.048450552 -0.16850089
0.05439647 -0.026798135 0.11641262 -0.14916326 0.31310466 0.03779059 -0.28346157 -0.17620847
-0.0041749747 -0.043928273 -0.062402505 -0.28759444 0.1470495 -0.052256394 -0.27301776 -0.2761405
0.17797059 0.14346893 -0.048842225 0.2476673 0.028726388 0.18277465 -0.2184111 -0.15968794
-0.2427459 0.13212164 0.18632254 -0.19541776 0.2793499 0.29437724 -0.07223882 -0.14677446
-0.23556001 -0.19896697 0.09203849 0.17936 0.029602662 -0.043370765 0.18191285 0.046374977
0.12864248 0.19561854
00000000: 8277 fd3d e337 a3bc 5390 223e c093 093d
00000010: 932c 1abe 1457 253e 1674 463d 7f8b 2cbe
00000020: d5ce 5e3d c387 dbbc bd69 ee3d 41be 18be
00000030: 414f a03e 4eca 1a3d e021 91be fe6f 34be
00000040: 3ace 88bb 22ee 33bd c599 7fbd 943f 93be
00000050: 2594 163e cd0a 56bd fcc8 8bbe 4a62 8dbe
00000060: ec3d 363e 85e9 123e c90e 48bd 7f9c 7d3e
00000070: 9a53 eb3c 4729 3b3e 29a7 5fbe 3c85 23be
00000080: 6292 78be e54a 073e 56cb 3e3e 981b 48be
00000090: f306 8f3e 9db8 963e f2f1 93bd 0b4c 16be
000000a0: a536 71be ffbd 4bbe ad7e bc3d 26aa 373e
000000b0: 4881 f23c 8ba5 31bd 5d47 3a3e b0f3 3d3d
000000c0: dbba 033e 3a50 483e

firstGCN.linearLayer.bias f4 [5]
-0.21974394 -0.1402856 -0.04295504 -0.25024784 0.1677858
00000000: 8e04 61be 07a7 0fbe a0f1 2fbd 7c20 80be
00000010: 0ad0 2b3e

secondGCN.attentionLayer.linear.weight f4 [5, 10]
-0.2744528 -0.22750358 -0.21893921 0.0762713 -0.09388879 0.022888133 -0.25999102 0.12669839
0.19821998 0.26023045 -0.09700843 0.24944253 0.12709086 -0.3031992 -0.11592836 0.16082194
0.25895762 -0.096961305 -0.11904381 -0.07793982 0.2110253 0.00034289452 0.12996683 -0.280563
-0.18490247 -0.29254952 -0.26485574 0.027998453 0.2366196 0.15766506 -0.275621 -0.083588645
-0.1251087 0.1417274 0.20190568 -0.049664177 0.037055302 -0.008366611 0.015539199 -0.25158536
-0.09716789 -0.11615028 -0.03397072 -0.18079646 0.02801768 -0.17584074 0.028764727 0.13080227
-0.08333747 -0.011434718
00000000: 1485 8cbe b3f6 68be 9a31 60be 2134 9c3d
00000010: c448 c0bd e57f bb3c 8b1d 85be 39bd 013e
00000020: 2efa 4a3e ed3c 853e 5bac c6bd dd6d 7f3e
00000030: 1b24 023e ed3c 9bbe d96b edbd 82ae 243e
00000040: 1896 843e a693 c6bd 3ecd f3bd ea9e 9fbd
00000050: 0417 583e 86c6 b339 0616 053e f4a5 8fbe
00000060: 1357 3dbe 0dc9 95be 2c9b 87be 035d e53c
00000070: 694c 723e f372 213e 321e 8dbe 8630 abbd
00000080: 7f1c 00be fd20 113e 5dc0 4e3e aa6c 4bbd
00000090: 4dc7 173d 1c14 09bc 2098 7e3c cccf 80be
000000a0: f5ff c6bd 33e0 edbd e224 0bbd b522 39be
000000b0: 5585 e53c 980f 34be 01a4 eb3c 08f1 053e
000000c0: d6ac aabd af58 3bbc

secondGCN.attentionLayer.linear.bias f4 [5]
-0.05828302 -0.2610356 0.18298568 0.27024528 -0.18918316
00000000: 2dba 6ebd 75a6 85be 9960 3b3e 975d 8a3e
00000010: 3bb9 41be

secondGCN.attentionLayer.inAttention.W_sum f4 [5, 5]
0.9241236 0.91048133 0.26000625 0.2936387 0.6769379 0.86566997 0.7603719 0.28129274
0.50396866 0.915891 0.37911373 0.1671099 0.66308326 0.6972608 0.014437854 0.33071226
0.39528382 0.7952504 0.58089375 0.46806931 0.46532404 0.07538742 0.14551497 0.8293485
0.1590488
00000000: 5d93 6c3f 4e15 693f 8a1f 853e d057 963e
00000010: cd4b 2d3f 8c9c 5d3f bca7 423f 9a05 903e
00000020: 1704 013f d577 6a3f 321b c23e dc1e 2b3e
00000030: d3bf 293f af7f 323f c08c 6c3c 1e53 a93e
00000040: a462 ca3e 8895 4b3f 74b5 143f c8a6 ef3e
00000050: f43e ee3e b864 9a3d e001 153e 2f50 543f
00000060: b0dd 223e

secondGCN.attentionLayer.inAttention.W_alpha f4 [5, 5]
0.07305586 0.7331736 0.21342164 0.4161157 0.72000414 0.344373 0.027471006 0.6077339
0.76034033 0.9624004 0.9752202 0.26056683 0.7479748 0.3966729 0.86610603 0.7538934
0.011592209 0.6963346 0.15555662 0.8243424 0.85103333 0.0067796707 0.44559687 0.33462447
0.20030612
00000000: 509e 953d 44b1 3b3f 348b 5a3e 1e0d d53e
00000010: 3152 383f a851 b03e e00a e13c 7394 1b3f
00000020: aaa5 423f df5f 763f 08a8 793f 0469 853e
00000030: 477b 3f3f b618 cb3e 20b9 5d3f 28ff 403f
00000040: 40ed 3d3c fc42 323f 3c4a 1f3e 1b08 533f
00000050: 52dd 593f 0028 de3b 4625 e43e e653 ab3e
00000060: 0c1d 4d3e

secondGCN.attentionLayer.inAttention.a_alpha f4 [5, 1]
0.45651883 0.6159522 0.94038504 0.93999463 0.09973341
00000000: d6bc e93e 0baf 1d3f 13bd 703f 7da3 703f
00000010: 0841 cc3d

secondGCN.attentionLayer.inAttention.b_alpha f4 [5, 1]
0.77975637 0.39059258 0.6498569 0.6523064 0.64148325
00000000: 1d9e 473f c0fb c73e 065d 263f 8dfd 263f
00000010: 3f38 243f

secondGCN.attentionLayer.outAttention.W_sum f4 [5, 5]
0.1427527 0.9104722 0.9552499 0.25587213 0.5078802 0.019738555 0.8892259 0.07116699
0.25398183 0.7126538 0.31433165 0.30534625 0.17822671 0.38768083 0.10355568 0.018199503
0.3108539 0.97750396 0.061120927 0.9420609 0.26605034 0.28543115 0.2725405 0.41897058
0.9367616
00000000: c42d 123e b514 693f 428b 743f ac01 833e
00000010: 7004 023f c0b2 a13c 4fa4 633f 00c0 913d
00000020: e809 823e 7b70 363f 14f0 a03e 5856 9c3e
00000030: 1081 363e 1a7e c63e 0015 d43d 2017 953c
00000040: 3e28 9f3e b33d 7a3f f059 7a3d e72a 713f
00000050: c037 883e 0824 923e 6e8a 8b3e 5083 d63e
00000060: 9ccf 6f3f

secondGCN.attentionLayer.outAttention.W_alpha f4 [5, 5]
0.08554548 0.38836074 0.51970726 0.23093104 0.85056126 0.3996789 0.15581602 0.46117663
0.031101048 0.098113 0.62735033 0.76691294 0.88683206 0.94753784 0.15078837 0.6992309
0.30254483 0.22780585 0.22173661 0.64843816 0.07126117 0.28271574 0.052012384 0.5230226
0.42537463
00000000: 7832 af3d 38d7 c63e 890b 053f 3079 6c3e
00000010: 62be 593f b6a2 cc3e 3c8e 1f3e 581f ec3e
00000020: a0c7 fe3c 78ef c83d 089a 203f 6854 443f
00000030: 6d07 633f d791 723f 4468 1a3e cc00 333f
00000040: 28e7 9a3e f045 693e ec0e 633e 0b00 263f
00000050: 60f1 913d 1ec0 903e f00a 553d cfe4 053f
00000060: b4ca d93e

secondGCN.attentionLayer.outAttention.a_alpha f4 [5, 1]
0.40131187 0.3291279 0.79019666 0.2661801 0.93183506
00000000: c078 cd3e 7483 a83e 544a 4a3f c248 883e
00000010: be8c 6e3f

secondGCN.attentionLayer.outAttention.b_alpha f4 [5, 1]
0.9742694 0.27844137 0.16548437 0.80829585 0.60066533
00000000: b869 793f de8f 8e3e bc74 293e 7aec 4e3f
00000010: 34c5 193f

secondGCN.linearLayer.weight f4 [5, 10]
0.14831337 0.03271039 0.009466769 -0.22833504 -0.17898178 0.25131086 0.01758032 -0.20197253
0.250295 -0.29062557 -0.12073314 -0.29685825 0.1540577 0.31547797 0.2811023 -0.022272123
0.0706273 0.0027933312 -0.24479249 -0.17596173 -0.08050927 0.24035195 0.15745965 0.14734904
0.036978588 -0.019965502 -0.055922944 -0.109911 0.16887483 -0.020289207 -0.012270278 -0.28500605
-0.09162876 -0.0040975064 0.101276815 0.01520324 0.048774373 0.049653698 0.037172955 -0.12047996
0.010094316 -0.28124124 -0.03339648 -0.20478486 0.287336 0.07450198 0.17708093 -0.11409947
-0.21746796 0.29766023
00000000: 76df 173e 54fb 053d 821a 1b3c a9d0 69be
00000010: 0047 37be d1ab 803e 9a04 903c e3d1 4ebe
00000020: ab26 803e e0cc 94be f042 f7bd cefd 97be
00000030: 4dc1 1d3e 5486 a13e a4ec 8f3e 0774 b6bc
00000040: 0ca5 903d 5210 373b e2aa 7abe 502f 34be
00000050: 0be2 a4bd d21e 763e 1a3d 213e abe2 163e
00000060: dc76 173d b18e a3bc 750f 65bd 0519 e1bd
00000070: 86ed 2c3e 8d35 a6bc 4709 49bc 50ec 91be
00000080: dca7 bbbd 6044 86bb 386a cf3d 0317 793c
00000090: a3c7 473d ad61 4b3d ab42 183d 33be f6bd
000000a0: a162 253c dafe 8fbe bfca 08bd 1fb3 51be
000000b0: b41d 933e 7e94 983d b454 353e fcac e9bd
000000c0: ecaf 5ebe ec66 983e

secondGCN.linearLayer.bias f4 [5]
0.26954317 0.047395516 -0.2952857 -0.07225386 0.22636236
00000000: 9001 8a3e cd21 423d b02f 97be d5f9 93bd
00000010: 89cb 673e

thirdGCN.attentionLayer.linear.weight f4 [5, 10]
0.012789634 0.084484294 0.22190794 0.20421997 0.26328117 -0.24429071 -0.26715916 0.18376097
-0.12466802 0.1483401 0.0046857726 0.06187169 -0.11497801 0.01869073 0.03261569 0.047690235
0.17792372 -0.08028056 0.12970234 0.10347804 -0.086855456 -0.19315456 -0.2977044 0.29717895
0.12417724 -0.067210495 0.1189579 -0.13835089 -0.029494131 0.203721 -0.30091238 -0.24879995
0.19386943 -0.12462259 0.07534832 0.0093366 -0.034466967 0.23565023 0.07569144 0.18579142
-0.14375132 0.116138555 -0.07329819 0.26965317 -0.2993717 0.21918243 -0.31061572 0.21671605
-0.07054584 0.17892727
00000000: 9d8b 513c 1a06 ad3d d63b 633e 0a1f 513e
00000010: cacc 863e 5827 7abe 16c9 88be d62b 3c3e
00000020: f251 ffbd 78e6 173e 1c8b 993b 2b6d 7d3d
00000030: 9779 ebbd 4d1d 993c 0898 053d d656 433d
00000040: a331 363e 226a a4bd b1d0 043e 4bec d33d
00000050: 46e1 b1bd 4fca 45be b66c 98be d727 983e
00000060: a350 fe3d a8a5 89bd 33a0 f33d dbab 0dbe
00000070: ad9d f1bc 3d9c 503e 3011 9abe 6ac5 7ebe
00000080: b585 463e 213a ffbd 3850 9a3d 8af8 183c
00000090: 3c2d 0dbd 4b4e 713e 1d04 9b3d 1b40 3e3e
000000a0: 8c33 13be 0dda ed3d 5d1d 96bd fb0f 8a3e
000000b0: 3f47 99be 5c71 603e 0609 9fbe d0ea 5d3e
000000c0: 567a 90bd b638 373e

thirdGCN.attentionLayer.linear.bias f4 [5]
-0.020440675 0.26114368 0.010596067 0.30806002 -0.0360607
00000000: 3473 a7bc a0b4 853e 209b 2d3c 0bba 9d3e
00000010: 62b4 13bd

thirdGCN.attentionLayer.inAttention.W_sum f4 [5, 5]
0.25891984 0.00034976006 0.48225415 0.42295396 0.68151927 0.13445807 0.86134726 0.59834594
0.78082234 0.2117672 0.46887714 0.24716198 0.6248802 0.7804603 0.65453213 0.62997776
0.7859876 0.14516431 0.80327576 0.33498257 0.5893668 0.47115707 0.6346758 0.34491122
0.7166172
00000000: 2491 843e 0060 b739 04ea f63e 6c8d d83e
00000010: 0c78 2e3f 60af 093e 4181 5c3f 332d 193f
00000020: f9e3 473f 80d9 583e aa10 f03e 0818 7d3e
00000030: 26f8 1f3f 3fcc 473f 6b8f 273f 3946 213f
00000040: 7c36 493f f4a5 143e 7ba3 4d3f d682 ab3e
00000050: bee0 163f 803b f13e 1d7a 223f 3498 b03e
00000060: 3a74 373f

thirdGCN.attentionLayer.inAttention.W_alpha f4 [5, 5]
0.4104213 0.20773476 0.39860857 0.9730794 0.9677826 0.2087605 0.016763866 0.62072986
0.8063767 0.75326717 0.59704614 0.4333948 0.23174107 0.016210496 0.7018352 0.68414885
0.2803762 0.15623653 0.5258072 0.9974236 0.39813566 0.5209108 0.5182965 0.4786716
0.1688968
00000000: be22 d23e 6cb8 543e 6c16 cc3e bb1b 793f
00000010: 9ac0 773f 50c5 553e 6054 893c 27e8 1e3f
00000020: b46e 4e3f 1ed6 403f 04d8 183f ece5 dd3e
00000030: 884d 6d3e e0cb 843c 79ab 333f 6124 2f3f
00000040: 788d 8f3e 78fc 1f3e 4d9b 063f 2757 7f3f
00000050: 70d8 cb3e 695a 053f 14af 043f 7214 f53e
00000060: 48f3 2c3e

thirdGCN.attentionLayer.inAttention.a_alpha f4 [5, 1]
0.898723 0.061632812 0.4744748 0.43732208 0.7770551
00000000: b612 663f b072 7c3d 5cee f23e aee8 df3e
00000010: 15ed 463f

thirdGCN.attentionLayer.inAttention.b_alpha f4 [5, 1]
0.15375888 0.4287117 0.012952566 0.08939558 0.06639999
00000000: f872 1d3e 1a80 db3e 0037 543c 0815 b73d
00000010: b8fc 873d

thirdGCN.attentionLayer.outAttention.W_sum f4 [5, 5]
0.09225637 0.61468196 0.28847468 0.33235002 0.78427523 0.046919763 0.12122649 0.075627506
0.7044678 0.34061408 0.89075214 0.2510442 0.96376246 0.07701683 0.048573673 0.43413448
0.8960181 0.92611384 0.55993086 0.45444322 0.3657114 0.28680402 0.8603144 0.8181901
0.15239161
00000000: e8f0 bc3d cc5b 1d3f f4b2 933e c829 aa3e
00000010: 43c6 483f f02e 403d 9845 f83d 98e2 9a3d
00000020: 0058 343f f864 ae3e 5508 643f de88 803e
00000030: 23b9 763f 00bb 9d3d 30f5 463d e046 de3e
00000040: 7161 653f cc15 6d3f a157 0f3f c8ac e83e
00000050: 863e bb3e fad7 923e 913d 5c3f e874 513f
00000060: 8c0c 1c3e

thirdGCN.attentionLayer.outAttention.W_alpha f4 [5, 5]
0.17315173 0.44196916 0.9885492 0.629331 0.35185987 0.4788375 0.37610853 0.37942314
0.56261253 0.6137785 0.082209826 0.31091052 0.7251838 0.09528214 0.91465455 0.43081564
0.78536564 0.40583545 0.3028797 0.7427602 0.19193661 0.8550987 0.7380579 0.7480635
0.87659043
00000000: b04e 313e c849 e23e 8f11 7d3f d61b 213f
00000010: fa26 b43e 302a f53e 4c91 c03e c043 c23e
00000020: 6007 103f 9620 1d3f a05d a83d aa2f 9f3e
00000030: a5a5 393f 4823 c33d cd26 6a3f de93 dc3e
00000040: b90d 493f aac9 cf3e 0c13 9b3e 8825 3e3f
00000050: 088b 443e c0e7 5a3f 5df1 3c3f 1781 3f3f
00000060: 3b68 603f

thirdGCN.attentionLayer.outAttention.a_alpha f4 [5, 1]
0.9747524 0.7626187 0.009863794 0.51920843 0.55456823
00000000: 6089 793f fb3a 433f c09b 213c d8ea 043f
00000010: 2ff8 0d3f

thirdGCN.attentionLayer.outAttention.b_alpha f4 [5, 1]
0.3389954 0.22668815 0.21129537 0.27825886 0.78330714
00000000: ce90 ad3e f020 683e d05d 583e f277 8e3e
00000010: d186 483f

thirdGCN.linearLayer.weight f4 [5, 10]
0.10578522 -0.186594 -0.05977312 0.22105697 -0.30452785 0.15409079 -0.14689788 0.15699153
0.11377354 0.010802082 0.010753716 -0.20258631 -0.013125969 -0.24045125 -0.2239989 -0.06305214
0.025825318 0.27675226 0.054380298 0.2576835 0.010806606 0.23811337 0.26325896 -0.06068087
0.08506193 0.2906238 -0.08686013 0.17087513 -0.28278938 0.2732058 -0.013943322 -0.119359374
-0.31524828 0.17561376 -0.17917928 0.056347717 -0.3072377 -0.13957956 0.3005468 -0.21586432
-0.08074197 -0.07393912 -0.09740154 0.19575703 -0.22753648 0.2384539 -0.28962862 -0.21074578
0.18434207 0.084025025
00000000: eca5 d83d 7f12 3fbe a9d4 74bd c25c 623e
00000010: 13eb 9bbe fac9 1d3e 666c 16be 63c2 203e
00000020: 1a02 e93d 37fb 303c 5b30 303c c972 4fbe
00000030: 4e0e 57bc da38 76be f85f 65be 7b21 81bd
00000040: 9e8f d33c 79b2 8d3e e0bd 5e3d 17ef 833e
00000050: 310e 313c fed3 733e e1c9 863e 818c 78bd
00000060: f334 ae3d a5cc 943e b9e3 b1bd e4f9 2e3e
00000070: c5c9 90be a1e1 8b3e 8872 64bc b072 f4bd
00000080: 3968 a1be 18d4 333e c67a 37be ddcc 663d
00000090: 434e 9dbe f2ed 0ebe 45e1 993e 890b 5dbe
000000a0: 0c5c a5bd 656d 97bd 757a c7bd 8874 483e
000000b0: 53ff 68be 422d 743e 344a 94be becd 57be
000000c0: 2bc4 3c3e 5015 ac3d

thirdGCN.linearLayer.bias f4 [5]
0.14850318 0.08379342 0.13255185 0.26291475 -0.13477723
00000000: 3811 183e e29b ab3d acbb 073e c39c 863e
00000010: 0b03 0abe

ff4.weight f4 [5, 5]
0.24595274 -0.36243007 -0.265511 -0.40018845 -0.09891575 0.42205623 0.2523064 0.842833
0.09769841 0.54217184 -0.21260956 -0.024324656 -0.36676517 0.1977555 -0.39722452 0.2748441
-0.3064543 0.098375775 -0.35746205 0.11961818 0.28314444 -0.04317328 -0.4393576 0.101190284
-0.13173845
00000000: 09db 7b3e 6f90 b9be 0ff1 87be 80e5 ccbe
00000010: 5794 cabd c117 d83e 4e2e 813e e7c3 573f
00000020: 1b16 c83d c6cb 0a3f 52b6 59be 8044 c7bc
00000030: a5c8 bbbe 6b80 4a3e 0361 cbbe 5eb8 8c3e
00000040: 94e7 9cbe 3d79 c93d 4405 b7be 60fa f43d
00000050: 4ff8 903e 77d6 30bd 7bf3 e0be da3c cf3d
00000060: 72e6 06be

ff4.bias f4 [5]
-0.2611289 -0.013722539 0.28360513 -0.2638018 -0.2160234
00000000: b0b2 85be 80d4 60bc b134 913e 0811 87be
00000010: 3d35 5dbe

ff5.weight f4 [5, 5]
-0.25129434 0.424562 0.08897711 -0.22995386 0.39402655 -0.06795448 0.3200853 -0.27498952
-0.123701416 -0.21596532 -0.2680339 -0.086207874 0.11586684 0.08558658 -0.271691 -0.29999128
-0.41032377 0.019218767 -0.13724042 -0.26938453 -0.09471119 0.34309927 -0.19550283 -0.21021172
-0.045738615
00000000: a7a9 80be 3160 d93e a239 b63d 0679 6bbe
00000010: d9bd c93e b82b 8bbd 38e2 a33e 6dcb 8cbe
00000020: 2b57 fdbd 0326 5dbe bd3b 89be c18d b0bd
00000030: 984b ed3d 0448 af3d 151b 8bbe 7598 99be
00000040: f515 d2be ad70 9d3c c188 0cbe c5ec 89be
00000050: f1f7 c1bd b5aa af3e e531 48be be41 57be
00000060: 6a58 3bbd

ff5.bias f4 [5]
0.0971322 -0.34608272 0.11785213 -0.15606469 -0.18655506
00000000: 3fed c63d c131 b1be 755c f13d 6ccf 1fbe
00000010: 4a08 3fbe

ff6.weight f4 [20, 5]
0.3159183 -0.2639708 0.32500058 0.36493313 -0.2593557 -0.2045099 -0.27357045 0.21489528
-0.31223455 -0.023483055 -0.09160742 -0.29194024 0.10920132 0.23208666 0.4380977 -0.03719446
-0.27521005 0.39575335 0.32338244 -0.36720228 0.13921499 -0.2759573 0.03097229 0.19081461
0.03862519 -0.43456334 -0.26526403 0.22371474 0.3805284 0.34357706 -0.039916944 -0.38861278
0.34033495 0.39114988 -0.24341312 0.024974387 -0.5111097 -0.15988976 0.34134346 0.3223181
0.351988 -0.47997877 -0.25913784 0.036509916 0.25572684 -0.13634308 -0.45863706 -0.23710263
-0.0007869537 -0.1311825 -0.07829786 -0.26959085 -0.41014883 0.18071833 0.027536493 0.44400245
-0.2759661 0.41398665 0.25780386 0.23822498 -0.29317296 -0.42438716 0.17552225 0.35504186
0.28027856 0.026330324 -0.21974617 0.33694744 0.025274767 -0.2514839 -0.32973832 -0.4473353
0.35580322 0.37179145 0.12678531 -0.27750817 -0.38416004 -0.15109771 0.3020824 0.1751105
0.24998696 -0.48080182 0.06534784 -0.026933784 0.041363526 0.33772233 -0.11119576 0.31982905
0.07642785 -0.3845699 -0.3332552 -0.41182733 0.29931584 -0.18856579 0.1841104 -0.14524229
-0.3396065 0.41049993 -0.12738684 -0.25671157
00000000: 0bc0 a13e 2e27 87be 7a66 a63e 84d8 ba3e
00000010: 45ca 84be 0b6b 51be 6d11 8cbe 820d 5c3e
00000020: 35dd 9fbe 895f c0bc ac9c bbbd 3179 95be
00000030: f1a4 df3d 20a8 6d3e 574e e03e 3859 18bd
00000040: 55e8 8cbe 2fa0 ca3e 6292 a53e f001 bcbe
00000050: 608e 0e3e 464a 8dbe 9ab9 fd3c e864 433e
00000060: 7235 1e3d 167f debe b0d0 87be 7a15 653e
00000070: 9ed4 c23e 55e9 af3e f37f 23bd 41f8 c6be
00000080: 6240 ae3e cc44 c83e 4a41 79be 1697 cc3c
00000090: 16d8 02bf 24ba 23be 92c4 ae3e e106 a53e
000000a0: c537 b43e c7bf f5be b7ad 84be 6c8b 153d
000000b0: a1ee 823e 859d 0bbe 7ad2 eabe 08cb 72be
000000c0: 924b 4eba b554 06be a15a a0bd d007 8abe
000000d0: 07ff d1be 3a0e 393e 3694 e13c 4a54 e33e
000000e0: 6e4b 8dbe 0ff6 d33e defe 833e 40f1 733e
000000f0: c41a 96be 4649 d9be 1bbc 333e 0cc8 b53e
00000100: ac80 8f3e b1b2 d73c 2405 61be 6084 ac3e
00000110: 070d cf3c 7fc2 80be 76d3 a8be 2209 e5be
00000120: d72b b63e 735b be3e 02d4 013e 8d15 8ebe
00000130: a0b0 c4be 5cb9 1abe 8baa 9a3e 2b50 333e
00000140: 95fc 7f3e a82b f6be 17d5 853d 3da4 dcbc
00000150: cd6c 293d f1e9 ac3e 9aba e3bd a2c0 a33e
00000160: 3486 9c3d 59e6 c4be 6da0 aabe 08db d2be
00000170: ed3f 993e 6417 41be 7087 3c3e 65ba 14be
00000180: e7e0 adbe 0c2d d23e b271 02be b36f 83be

ff6.bias f4 [20]
-0.58215225 -0.5188387 -0.39048964 -0.25477293 -0.011712176 -0.019332524 -0.28429657 0.2466058
-0.018416846 -0.15936193 -0.31129542 -0.22666022 0.118394434 -0.08360051 -0.48202887 -0.3808938
0.20872171 0.5222152 -0.2837903 -0.0025045841
00000000: ee07 15bf 9dd2 04bf 42ee c7be 9971 82be
00000010: 6de4 3fbc 3e5f 9ebc 528f 91be 3b86 7c3e
00000020: edde 96bc c62f 23be 1d62 9fbe 9e19 68be
00000030: c878 f23d bf36 abbd 7dcc f6be 8304 c3be
00000040: 25bb 553e e5af 053f f64c 91be f323 24bb
