code/ml_model/model_weights_m8p8n30_lr0.001000_bs250_epochs10.pth (torch, 22438 bytes, 48 tensors)

ff1.weight f4 [5, 5]
-0.30053672 0.38802516 0.43047106 0.43088076 -0.1551685 -0.10192404 -0.3016389 0.032134935
0.27650622 0.18125328 -0.0033076373 0.28257096 -0.14441553 0.0015202988 0.37081107 0.22552384
0.36581767 -0.252184 -0.07035005 0.26157424 0.05538132 0.39084643 -0.023965456 -0.12278338
0.26418433
00000000: f3df 99be 3cab c63e b466 dc3e 679c dc3e
00000010: 7ee4 1ebe 8dbd d0bd 6a70 9abe ec9f 033d
00000020: 3992 8d3e 769a 393e f2c4 58bb 24ad 903e
00000030: aae1 13be c344 c73a f3da bd3e b9ef 663e
00000040: 744c bb3e 431e 81be b013 90bd 0fed 853e
00000050: 86d7 623d 061d c83e 3453 c4bc da75 fbbd
00000060: 2b43 873e

ff1.bias f4 [5]
0.080219224 0.27524316 -0.027163059 0.14444868 -0.19315854
00000000: fa49 a43d acec 8c3e 1085 debc 5bea 133e
00000010: 5acb 45be

ff2.weight f4 [5, 5]
-0.16100176 0.07610823 -0.36631507 -0.33951917 -0.3561421 0.15215628 -0.07620494 -0.39746687
-0.3552115 0.4219935 -0.25194848 -0.38667172 -0.14818543 -0.1260545 0.30178204 -0.10149168
0.18024115 -0.064195715 0.15555283 0.31454474 -0.33297986 -0.32253703 -0.041278798 -0.16568543
-0.15140495
00000000: a5dd 24be a2de 9b3d a68d bbbe 75d5 adbe
00000010: 4258 b6be dbce 1b3e 5611 9cbd c780 cbbe
00000020: 48de b5be 880f d83e 64ff 80be d6f9 c5be
00000030: ecbd 17be 6e14 01be 2d83 9a3e dfda cfbd
00000040: 2391 383e 0b79 83bd 3e49 1f3e 020c a13e
00000050: 567c aabe 9323 a5be f513 29bd 71a9 29be
00000060: e609 1bbe

ff2.bias f4 [5]
-0.39818248 -0.04311023 0.38853672 0.15622947 -0.14389318
00000000: 93de cbbe 5a94 30bd 49ee c63e 9efa 1f3e
00000010: bc58 13be

ff3.weight f4 [5, 5]
0.00056281494 0.35906515 0.249581 -0.033493806 -0.17476116 0.14393008 -0.15596478 -0.32526264
0.34586477 0.032155674 0.31522396 -0.10091452 0.4296621 0.17924778 -0.17404272 -0.31615463
-0.25461668 -0.13385837 0.16699524 -0.3497773 0.10725567 -0.35915077 0.36776376 0.24724832
-0.10244501
00000000: df89 133a 63d7 b73e 2992 7f3e cd30 09bd
00000010: 97f4 32be 6862 133e 3bb5 1fbe d388 a6be
00000020: 3015 b13e abb5 033d 0965 a13e 46ac cebd
00000030: acfc db3e bb8c 373e 4138 32be 05df a1be
00000040: 1e5d 82be 2b12 09be cd00 2b3e 0316 b3be
00000050: dca8 db3d 9ce2 b7be 884b bc3e aa2e 7d3e
00000060: b0ce d1bd

ff3.bias f4 [5]
0.42568445 -0.17351787 -0.099153146 -0.37886226 0.2924462
00000000: 50f3 d93e abae 31be ce10 cbbd 3cfa c1be
00000010: 82bb 953e

firstGCN.attentionLayer.linear.weight f4 [5, 10]
-0.05948165 -0.24761736 0.21753308 -0.14894463 0.20452258 -0.16277513 0.15831707 -0.25678313
0.16496779 -0.15489413 -0.281012 0.021763768 0.022229737 0.2257196 0.19847403 0.21679899
-0.03517373 -0.1934539 0.28108698 0.20794505 -0.11030721 0.27233613 0.29696807 0.12033147
0.07586615 0.0948748 0.12187869 0.27554962 -0.26037556 -0.08324223 -0.01892408 -0.11408319
-0.19416593 0.14414777 -0.200271 -0.119793944 0.023795804 -0.1983168 0.07248909 0.14473593
0.26817173 0.09705725 -0.0352094 -0.18268798 -0.11057565 -0.15561514 0.1295192 -0.25846305
-0.24635586 -0.036032908
00000000: 08a3 73bd 688f 7dbe fec0 5e3e f184 18be
00000010: 5e6e 513e 86ae 26be df1d 223e 1479 83be
00000020: 51ed 283e 919c 1ebe cee0 8fbe ee49 b23c
00000030: 231b b63c 0a23 673e c73c 4b3e 8e00 5e3e
00000040: 5412 10bd c718 46be a2ea 8f3e 8cef 543e
00000050: bfe8 e1bd a46f 8b3e 330c 983e 5970 f63d
00000060: b65f 9b3d b84d c23d 899b f93d d714 8d3e
00000070: f24f 85be e77a aabd ac06 9bbc 73a4 e9bd
00000080: 6fd3 46be 799b 133e d713 4dbe 8756 f5bd
00000090: 6bef c23c 8f13 4bbe 2975 943d a835 143e
000000a0: ce4d 893e f4c5 c63d bb37 10bd 8f12 3bbe
000000b0: 7d75 e2bd 9359 1fbe aea0 043e 4555 84be
000000c0: b644 7cbe 3e97 13bd

firstGCN.attentionLayer.linear.bias f4 [5]
0.05044463 -0.23166004 0.044951893 -0.29223743 -0.023979845
00000000: 079f 4e3d 4a38 6dbe 7a1f 383d 25a0 95be
00000010: 6171 c4bc

firstGCN.attentionLayer.inAttention.W_sum f4 [5, 5]
0.58020407 0.41715658 0.4489209 0.82092136 0.82851857 0.30248392 0.8508041 0.49742487
0.65043974 0.58742887 0.61091363 0.9983685 0.8321474 0.66730547 0.026109412 0.0478282
0.9692912 0.8679768 0.6472934 0.32815725 0.37940806 0.2262421 0.932529 0.124707595
0.5953653
00000000: 4188 143f 8c95 d53e f6d8 e53e e727 523f
00000010: cb19 543f 2cdf 9a3e 4cce 593f 79ae fe3e
00000020: 3883 263f bd61 163f d664 1c3f 1495 7f3f
00000030: 9d07 553f 88d4 2a3f 68e3 d53c 81e7 433d
00000040: 7823 783f ba33 5e3f 05b5 253f 3a04 a83e
00000050: c641 c23e 02ac 673e 38ba 6e3f b266 ff3d
00000060: dc69 183f

firstGCN.attentionLayer.inAttention.W_alpha f4 [5, 5]
0.83889693 0.9474222 0.63601786 0.3894984 0.7256867 0.83087415 0.8113533 0.9211535
0.9321967 0.78667575 0.47021776 0.70820504 0.68753195 0.026939305 0.47841907 0.67670375
0.28784728 0.9366931 0.5908861 0.23367351 0.126787 0.35171744 0.052735005 0.8079333
0.7434711
00000000: f3c1 563f 438a 723f 11d2 223f 566c c73e
00000010: 9bc6 393f 2bb4 543f dab4 4f3f b7d0 6b3f
00000020: 71a4 6e3f 9563 493f 62c0 f03e ed4c 353f
00000030: 1802 303f d1af dc3c 58f3 f43e 753c 2d3f
00000040: b860 933e 1ecb 6f3f 5044 173f 1c48 6f3e
00000050: 74d4 013e 4f14 b43e a900 583d b7d4 4e3f
00000060: 1f54 3e3f

firstGCN.attentionLayer.inAttention.a_alpha f4 [5, 1]
0.48973012 0.8581476 0.56828004 0.0043381453 0.7087674
00000000: e8bd fa3e 90af 5b3f cd7a 113f 0027 8e3b
00000010: c871 353f

firstGCN.attentionLayer.inAttention.b_alpha f4 [5, 1]
0.38681346 0.9878562 0.7440511 0.5963097 0.77312994
00000000: 6a0c c63e 25e4 7c3f 227a 3e3f c1a7 183f
00000010: d8eb 453f

firstGCN.attentionLayer.outAttention.W_sum f4 [5, 5]
0.83270127 0.20705736 0.56862235 0.8644541 0.04663317 0.51373327 0.16552185 0.5283862
0.38035244 0.7965369 0.3379399 0.8941238 0.54273653 0.79277045 0.0074726674 0.99090606
0.23015529 0.33598214 0.7482255 0.57060146 0.29711998 0.19727007 0.37883896 0.8900289
0.88271636
00000000: e92b 553f d806 543e 3c91 113f dd4c 5d3f
00000010: 6c02 3f3d 0684 033f 8f7e 293e 5144 073f
00000020: 8ebd c23e d8e9 4b3f 7506 ad3e 4ce5 643f
00000030: c8f0 0a3f 01f3 4a3f 47dd f43b 05ac 7d3f
00000040: d4ad 6b3e da05 ac3e b58b 3f3f f012 123f
00000050: 1c20 983e 2a01 4a3e 2ef7 c13e efd8 633f
00000060: b3f9 613f

firstGCN.attentionLayer.outAttention.W_alpha f4 [5, 5]
0.2478844 0.7331949 0.26372197 0.8309333 0.9267607 0.9581492 0.84503126 0.5640482
0.024926946 0.90499294 0.45018077 0.31804633 0.04813053 0.48480988 0.7050273 0.14262599
0.85865104 0.9028644 0.46074134 0.7176832 0.80111635 0.2575819 0.41986823 0.012285799
0.12849212
00000000: 68d5 7d3e a9b2 3b3f 9106 873e 0bb8 543f
00000010: 3040 6d3f 4449 753f f853 583f 7665 103f
00000020: 9833 cc3c 9ead 673f 187e e63e f8d6 a23e
00000030: 8524 453d 0039 f83e ab7c 343f 8c0c 123e
00000040: 8ed0 5b3f 1f22 673f 4ae6 eb3e 16ba 373f
00000050: f615 4d3f c6e1 833e f8f8 d63e 604a 493c
00000060: 7093 033e

firstGCN.attentionLayer.outAttention.a_alpha f4 [5, 1]
0.47276354 0.80451715 0.841798 0.72351336 0.63509107
00000000: 100e f23e d6f4 4d3f 1380 573f 2c38 393f
00000010: 5495 223f

firstGCN.attentionLayer.outAttention.b_alpha f4 [5, 1]
0.5103662 0.26503804 0.7100449 0.788909 0.101164296
00000000: 5ca7 023f 11b3 873e 81c5 353f f1f5 493f
00000010: 3a2f cf3d

firstGCN.linearLayer.weight f4 [5, 10]
0.23237094 0.10189633 0.14908828 0.2810862 0.21200475 -0.13570303 0.046233047 -0.24756864
-0.29051518 0.25026715 -0.30398336 0.15599805 0.17967594 0.21591623 -0.16033934 -0.08969508
0.119083546 0.15970723 0.034867052 0.12441869 0.14921856 0.23225442 0.16121162 0.16379227
0.20274852 0.24709569 0.07285585 -0.0002432229 0.06366804 -0.24754328 0.1916507 0.23647124
0.05174175 -0.17706873 0.014372581 -0.023786874 0.24054126 -0.11191974 0.15848196 -0.16180015
0.24096325 -0.29653907 -0.1315293 -0.31290308 0.23487498 -0.024740955 -0.050259568 -0.17297943
-0.038745876 0.10964075
00000000: a6f2 6d3e 06af d03d 99aa 183e 88ea 8f3e
00000010: c617 593e bcf5 0abe dd5e 3d3d a282 7dbe
00000020: 68be 94be 0423 803e b5a3 9bbe f4bd 1f3e
00000030: f8fc 373e 2519 5d3e ff2f 24be 0eb2 b7bd
00000040: 13e2 f33d 4b8a 233e c1d0 0e3d 3acf fe3d
00000050: c0cc 183e 1ad4 6d3e a914 253e 29b9 273e
00000060: 4f9d 4f3e a706 7d3e 7335 953d a609 7fb9
00000070: 6464 823d fc7b 7dbe 1540 443e 8425 723e
00000080: 28ef 533d 8151 35be f97a 6b3c b1dc c2bc
00000090: 7350 763e 2d36 e5bd 1849 223e f0ae 25be
000000a0: 12bf 763e f8d3 97be 9eaf 06be d534 a0be
000000b0: 1183 703e 8bad cabc fadc 4dbd 8521 31be
000000c0: ffb3 1ebd 548b e03d

firstGCN.linearLayer.bias f4 [5]
-0.034336273 -0.22839327 -0.017524112 0.22485346 0.2866137
00000000: 31a4 0cbd eddf 69be ba8e 8fbc fc3f 663e
00000010: 08bf 923e

secondGCN.attentionLayer.linear.weight f4 [5, 10]
0.0075932513 -0.17024608 0.28629214 0.17256111 0.09557732 -0.044096515 0.019958377 -0.28594384
0.14672433 0.022728523 -0.060794678 0.17650405 -0.16305049 0.12036563 0.27857646 -0.16128452
0.16523652 0.26285863 0.19589867 -0.034736957 -0.26240808 0.16226077 -0.23916346 -0.07118654
0.12999396 0.22731781 -0.21842845 0.12946899 -0.31426737 0.3131223 -0.1656513 0.10781315
0.13910036 0.30217463 0.23174478 0.29301837 0.09396147 -0.12304994 -0.081249796 0.21107773
0.09942818 -0.17839472 -0.06537011 0.25647682 -0.19890258 -0.2549842 0.058408517 -0.257617
-0.11645186 -0.23147307
00000000: cfd0 f83b fd54 2ebe e294 923e dcb3 303e
00000010: 0bbe c33d 8c9e 34bd c07f a33c 3b67 92be
00000020: e73e 163e 2b31 ba3c d703 79bd 7abd 343e
00000030: b5f6 26be 4182 f63d 93a1 8e3e c527 25be
00000040: c333 293e 6895 863e a999 483e 5748 0ebd
00000050: 5a5a 86be b027 263e 44e7 74be 40ca 91bd
00000060: 231d 053e 00c6 683e b5ab 5fbe 8593 043e
00000070: a7e7 a0be 9151 a03e 7fa0 29be 24cd dc3d
00000080: 5370 0e3e a2b6 9a3e 814e 6d3e 8106 963e
00000090: df6e c03d 9b01 fcbd 4b66 a6bd c324 583e
000000a0: 00a1 cb3d 1bad 36be c4e0 85bd ee50 833e
000000b0: 1ead 4bbe 4a8d 82be c53d 6f3d 60e6 83be
000000c0: 507e eebd 4707 6dbe

secondGCN.attentionLayer.linear.bias f4 [5]
-0.28618693 -0.31003606 0.10362573 -0.13176017 -0.24219874
00000000: 1887 92be 0cbd 9ebe ba39 d43d 23ec 06be
00000010: f202 78be

secondGCN.attentionLayer.inAttention.W_sum f4 [5, 5]
0.22081667 0.1377272 0.5875654 0.16964638 0.16168171 0.21227461 0.5308675 0.889703
0.20152003 0.5134067 0.36917877 0.13603836 0.10936761 0.09983778 0.008359134 0.7170132
0.51942915 0.1546539 0.7270123 0.38528216 0.62968457 0.85676605 0.6172322 0.9730314
0.6831116
00000000: c41d 623e 5c08 0d3e b06a 163f c8b7 2d3e
00000010: e48f 253e 845e 593e efe6 073f 93c3 633f
00000020: 445b 4e3e 9f6e 033f 0005 bd3e a44d 0b3e
00000030: 20fc df3d c077 cc3d c0f4 083c 2d8e 373f
00000040: 4ff9 043f 985d 1e3e 7a1d 3a3f b443 c53e
00000050: 0233 213f 0555 5b3f ee02 1e3f 9618 793f
00000060: 67e0 2e3f

secondGCN.attentionLayer.inAttention.W_alpha f4 [5, 5]
0.75596446 0.6047692 0.66625684 0.33003408 0.4765938 0.055426538 0.021986902 0.92919517
0.5380511 0.19924998 0.46883714 0.80668414 0.46828783 0.070115864 0.74060917 0.07276583
0.13767326 0.29765528 0.52329344 0.6928914 0.3224287 0.92837256 0.35720825 0.4759922
0.6158345
00000000: e386 413f 27d2 1a3f cf8f 2a3f 3afa a83e
00000010: 1a04 f43e f006 633d e01d b43c bcdf 6d3f
00000020: b8bd 093f 3008 4c3e 6c0b f03e da82 4e3f
00000030: 6cc3 ef3e e898 8f3d 9098 3d3f 4006 953d
00000040: 38fa 0c3e 4666 983e 8ff6 053f 5561 313f
00000050: 6015 a53e d3a9 6d3f 00e4 b63e 40b5 f33e
00000060: 54a7 1d3f

secondGCN.attentionLayer.inAttention.a_alpha f4 [5, 1]
0.8012468 0.6276359 0.2071575 0.9294699 0.69627357
00000000: 831e 4d3f bfac 203f 1821 543e bdf1 6d3f
00000010: fc3e 323f

secondGCN.attentionLayer.inAttention.b_alpha f4 [5, 1]
0.054000735 0.020962179 0.56576025 0.06060785 0.42090726
00000000: e02f 5d3d e0b8 ab3c aad5 103f f03f 783d
00000010: 2881 d73e

secondGCN.attentionLayer.outAttention.W_sum f4 [5, 5]
0.12883419 0.4012611 0.15020102 0.38779312 0.53105044 0.70356697 0.27927268 0.4933058
0.9761171 0.97955793 0.30899292 0.88246775 0.9853509 0.638782 0.10151571 0.1391483
0.37349832 0.825709 0.86202955 0.8082191 0.91322696 0.48721862 0.08230418 0.75087583
0.7924811
00000000: 1ced 033e 1872 cd3e 4cce 193e d28c c63e
00000010: ecf2 073f f71c 343f d4fc 8e3e 9492 fc3e
00000020: cfe2 793f 4fc4 7a3f 5234 9e3e 68e9 613f
00000030: f53f 7c3f 3887 233f 78e7 cf3d e47c 0e3e
00000040: 2c3b bf3e aa61 533f f8ad 5c3f 72e7 4e3f
00000050: 3ec9 693f b874 f93e 188f a83d 6639 403f
00000060: 0be0 4a3f

secondGCN.attentionLayer.outAttention.W_alpha f4 [5, 5]
0.7378616 0.41419065 0.19714451 0.31750232 0.09304285 0.3137946 0.41546315 0.87282914
0.698606 0.20289892 0.7375769 0.031627595 0.33568513 0.2422607 0.5628238 0.57476145
0.90720415 0.035794556 0.8377693 0.8176807 0.113051236 0.06313509 0.45987886 0.018648207
0.58412737
00000000: 7fe4 3c3f cc10 d43e 40e0 493e aa8f a23e
00000010: 408d be3d b0a9 a03e 96b7 d43e bb71 5f3f
00000020: d8d7 323f bcc4 4f3e d7d1 3c3f f08b 013d
00000030: ecde ab3e 3013 783e 3815 103f 9123 133f
00000040: 883e 683f 509d 123d 0d78 563f 8653 513f
00000050: 6887 e73d f84c 813d 3e75 eb3e 20c4 983c
00000060: 5f89 153f

secondGCN.attentionLayer.outAttention.a_alpha f4 [5, 1]
0.8224157 0.422552 0.90179664 0.13534683 0.21958023
00000000: d689 523f bc58 d83e 25dc 663f 5c98 0a3e
00000010: a4d9 603e

secondGCN.attentionLayer.outAttention.b_alpha f4 [5, 1]
0.16988015 0.78414816 0.004172504 0.16722429 0.19814783
00000000: 10f5 2d3e efbd 483f 80b9 883b d83c 2b3e
00000010: 44e7 4a3e

secondGCN.linearLayer.weight f4 [5, 10]
-0.2979705 -0.13512905 -0.023256475 0.31571832 -0.03428655 -0.20421834 0.057322945 0.062347956
-0.12779056 0.2360151 -0.06907892 0.21750012 0.14229988 -0.20967937 -0.20169063 0.18078703
-0.2457312 -0.16554609 -0.06501855 -0.2636648 0.28185162 -0.04233473 -0.2243586 -0.0050233896
0.28281093 0.07006704 0.23937389 0.178905 0.08163747 0.001283178 0.07012039 0.24525648
0.2817079 -0.052628692 0.020690722 0.27108285 -0.17607781 0.0126189785 0.08711896 0.24947304
-0.28677398 0.2975376 -0.13405758 0.29272065 -0.31077904 -0.07581366 -0.02749561 0.24682823
-0.23081253 -0.278679
00000000: 978f 98be 455f 0abe 5d84 bebc d5a5 a13e
00000010: 0e70 0cbd 9d1e 51be 77cb 6a3d 9260 7f3d
00000020: 87db 02be f1ad 713e 4079 8dbd 5ab8 5e3e
00000030: 0fb7 113e 30b6 56be fd87 4ebe 3c20 393e
00000040: f6a0 7bbe ea84 29be 7228 85bd 13ff 86be
00000050: db4e 903e 2f67 2dbd 43be 65be 3f9b a4bb
00000060: 98cc 903e 4f7f 8f3d 6e1e 753e df32 373e
00000070: 8c31 a73d 4f30 a83a 479b 8f3d 8424 7b3e
00000080: 053c 903e 2f91 57bd 977f a93c 5fcb 8a3e
00000090: be4d 34be d5bf 4e3c 6d6b b23d dc75 7f3e
000000a0: 0ad4 92be d956 983e 6446 09be 7bdf 953e
000000b0: 6e1e 9fbe 3144 9bbd 793e e1bc 8ac0 7c3e
000000c0: 1f5a 6cbe 04af 8ebe

secondGCN.linearLayer.bias f4 [5]
-0.030531975 -0.149381 -0.14224838 -0.2839249 -0.20271668
00000000: 311e fabc 55f7 18be 8fa9 11be 9b5e 91be
00000010: f694 4fbe

thirdGCN.attentionLayer.linear.weight f4 [5, 10]
-0.21677603 -0.18679293 0.20925647 -0.09346643 0.100783095 -0.032005787 0.010465295 -0.1613393
-0.05080844 -0.19313523 0.07671285 0.0985461 -0.0765313 -0.17917849 0.28761703 -0.24089675
0.046193466 -0.053943537 -0.11885276 0.06540121 -0.12300312 -0.08505955 -0.05585754 0.13129626
0.25220212 -0.17975461 0.1745058 -0.038997013 -0.15462722 -0.08878141 -0.26090723 0.15425318
0.23983558 0.20062214 0.050819486 0.11444787 -0.055932935 -0.042142514 -0.105639674 -0.043305963
0.27123415 -0.03411842 -0.081272714 -0.31033677 0.043239694 0.29005632 -0.08638993 0.12606813
-0.23222607 -0.30738097
00000000: 89fa 5dbe a546 3fbe 5447 563e 546b bfbd
00000010: 5e67 ce3d 8018 03bd a176 2b3c 2136 25be
00000020: 831c 50bd 3ec5 45be a01b 9d3d 8ad2 c93d
00000030: 71bc 9cbd 917a 37be 8a42 933e a3ad 76be
00000040: 5c35 3d3d e6f3 5cbd 1369 f3bd 12f1 853d
00000050: 0fe9 fbbd b433 aebd e0ca 64bd 8772 063e
00000060: a320 813e 9811 38be a6b1 323e 55bb 1fbd
00000070: 9956 1ebe 07d3 b5bd a295 85be 8cf4 1d3e
00000080: 7597 753e e46f 4d3e 1828 503d a563 ea3d
00000090: ef19 65bd a19d 2cbd 9d59 d8bd 9861 31bd
000000a0: 34df 8a3e c2bf 0bbd 4f72 a6bd 76e4 9ebe
000000b0: 1b1c 313d 4382 943e 34ed b0bd 0118 013e
000000c0: accc 6dbe 0a61 9dbe

thirdGCN.attentionLayer.linear.bias f4 [5]
0.09012072 0.24555421 0.2756543 -0.10941328 -0.2550684
00000000: 3691 b83d 9072 7b3e 8f22 8d3e 1214 e0bd
00000010: 5398 82be

thirdGCN.attentionLayer.inAttention.W_sum f4 [5, 5]
0.80391186 0.10758984 0.40605414 0.4237451 0.5011615 0.21956879 0.20896327 0.70301944
0.7475386 0.17227268 0.78834015 0.64666796 0.68847126 0.4089747 0.3973276 0.04855901
0.5179254 0.7125441 0.27487105 0.6835523 0.295914 0.6228937 0.13754416 0.0016758442
0.9470768
00000000: 2bcd 4d3f 1058 dc3d 54e6 cf3e 1ef5 d83e
00000010: 1f4c 003f a4d6 603e 78fa 553e 15f9 333f
00000020: b15e 3f3f 4068 303e a9d0 493f 088c 253f
00000030: a73f 303f 2265 d13e 866e cb3e d0e5 463d
00000040: c296 043f 4a69 363f e6bb 8c3e 49fd 2e3f
00000050: 0a82 973e f675 1f3f 60d8 0c3e 00a8 db3a
00000060: a073 723f

thirdGCN.attentionLayer.inAttention.W_alpha f4 [5, 5]
0.058530033 0.8095027 0.13542622 0.48544765 0.007386148 0.3232383 0.87312865 0.33800274
0.42842776 0.970131 0.8154077 0.31226563 0.44733226 0.8189056 0.2999828 0.3469541
0.04680276 0.9376654 0.02266115 0.9860313 0.6518538 0.68534 0.7176134 0.99763817
0.3155101
00000000: 30bd 6f3d 923b 4f3f 2cad 0a3e 988c f83e
00000010: 8007 f23b 7e7f a53e 5c85 5f3f b20e ad3e
00000020: e25a db3e 815a 783f 8fbe 503f 48e1 9f3e
00000030: bc08 e53e cca3 513f 5897 993e f8a3 b13e
00000040: 40b4 3f3d d70a 703f e0a3 b93c 8c6c 7c3f
00000050: e4df 263f 7172 2f3f 83b5 373f 3765 7f3f
00000060: 8a8a a13e

thirdGCN.attentionLayer.inAttention.a_alpha f4 [5, 1]
0.20413673 0.17773336 0.34250945 0.9778499 0.6561722
00000000: 3809 513e bcff 353e 665d af3e 5f54 7a3f
00000010: e7fa 273f

thirdGCN.attentionLayer.inAttention.b_alpha f4 [5, 1]
0.98523575 0.67817247 0.7546636 0.25442964 0.25263923
00000000: 6938 7c3f b69c 2d3f a231 413f 9a44 823e
00000010: ee59 813e

thirdGCN.attentionLayer.outAttention.W_sum f4 [5, 5]
0.47624558 0.3054611 0.8244909 0.7319201 0.20019162 0.6615516 0.20384091 0.87215817
0.06220615 0.9797753 0.7073995 0.6636786 0.39253426 0.6162823 0.41410464 0.9265917
0.24764293 0.38488817 0.74343365 0.8541791 0.3751551 0.9753155 0.69950545 0.33253342
0.31025034
00000000: 76d6 f33e 6665 9c3e d611 533f 1e5f 3b3f
00000010: 08ff 4c3e 725b 293f acbb 503e c245 5f3f
00000020: e0cb 7e3d 8ed2 7a3f 2218 353f d7e6 293f
00000030: 40fa c83e adc4 1d3f 8605 d43e 1d35 6d3f
00000040: 1c96 7d3e 1010 c53e ab51 3e3f 7bab 5a3f
00000050: 5414 c03e 47ae 793f ca12 333f d241 aa3e
00000060: 22d9 9e3e

thirdGCN.attentionLayer.outAttention.W_alpha f4 [5, 5]
0.5984974 0.1387459 0.96665794 0.8076042 0.33845478 0.85569245 0.95105225 0.6261025
0.9889525 0.8043032 0.46041995 0.0021433234 0.88073546 0.82848835 0.20215458 0.84027797
0.118958294 0.73653144 0.8636318 0.3985262 0.33511752 0.14706051 0.8386077 0.0019606352
0.32325417
00000000: 2037 193f 6813 0e3e e576 773f 26bf 4e3f
00000010: f249 ad3e a90e 5b3f 2978 733f 4148 203f
00000020: fe2b 7d3f d1e6 4d3f 2abc eb3e 0077 0c3b
00000030: e177 613f d017 543f 9c01 4f3e 751c 573f
00000040: 68a0 f33d 538d 3c3f f916 5d3f a00b cc3e
00000050: 8694 ab3e 0897 163e ffae 563f 007e 003b
00000060: 9281 a53e

thirdGCN.attentionLayer.outAttention.a_alpha f4 [5, 1]
0.5570879 0.5289331 0.12584728 0.5442038 0.056466043
00000000: 509d 0e3f 2968 073f 1cde 003e f150 0b3f
00000010: f048 673d

thirdGCN.attentionLayer.outAttention.b_alpha f4 [5, 1]
0.83291364 0.37661672 0.13428164 0.6409058 0.6640493
00000000: d439 553f e8d3 c03e 2081 093e 6712 243f
00000010: 23ff 293f

thirdGCN.linearLayer.weight f4 [5, 10]
0.21826594 0.10178045 0.09281577 0.008967996 0.20775521 0.14618668 0.28870577 0.31342247
0.29267642 0.1666021 0.16785814 -0.17500415 0.2730653 -0.22553477 -0.13643119 -0.087979436
0.15538374 0.2961851 0.19882868 -0.25727758 0.01873525 0.15666929 0.23731302 0.20520039
-0.0209802 0.18460155 0.2130205 -0.07556527 -0.09115589 0.04756595 -0.02498007 0.053188495
-0.052510284 -0.25471762 -0.18155673 0.00035514616 -0.10786607 0.030744212 -0.10843798 -0.108392365
0.16036218 0.2328051 0.030082624 0.0688749 -0.018787198 -0.030507887 -0.20844017 0.22371146
-0.05838277 0.04398478
00000000: 1b81 5f3e 4572 d03d 3216 be3d 80ee 123c
00000010: c8bd 543e f6b1 153e 3ed1 933e e978 a03e
00000020: afd9 953e be99 2a3e 01e3 2b3e 4a34 33be
00000030: 37cf 8b3e 96f2 66be 9eb4 0bbe 902e b4bd
00000040: ea1c 1f3e 93a5 973e bf99 4b3e e3b9 83be
00000050: ab7a 993c ea6d 203e 2f02 733e 0d20 523e
00000060: abde abbc 3008 3d3e 0c22 5a3e f7c1 9abd
00000070: f0af babd 83d4 423d 01a3 ccbc 2edc 593d
00000080: 0615 57bd 596a 82be 02ea 39be e932 ba39
00000090: e3e8 dcbd 49db fb3c bb14 debd d1fc ddbd
000000a0: fc35 243e 7664 6e3e d66f f63c 490e 8d3d
000000b0: 9ce7 99bc adeb f9bc 5771 55be 9e14 653e
000000c0: c522 6fbd 6229 343d

thirdGCN.linearLayer.bias f4 [5]
-0.2805537 -0.17509244 0.30221963 0.31186777 0.14597256
00000000: bca4 8fbe 6f4b 33be 88bc 9a3e 22ad 9f3e
00000010: d579 153e

ff4.weight f4 [5, 5]
0.06823991 -0.4121168 0.076604776 0.19985965 -0.13883062 0.37085852 0.38590547 -0.24986073
-0.3016872 0.27717373 -0.3635299 0.092914455 0.37033397 0.19992706 0.28102106 0.11602213
0.33318597 0.109030835 0.41772828 0.034875683 -0.06765632 -0.1512491 0.19735156 -0.37660098
0.39191735
00000000: 5ec1 8b3d f900 d3be f7e2 9c3d 02a8 4c3e
00000010: 9d29 0ebe 2be1 bd3e 6795 c53e 7edb 7fbe
00000020: bf76 9abe b7e9 8d3e 9720 babe ef49 be3d
00000030: 6a9c bd3e aeb9 4c3e fee1 8f3e 039d ed3d
00000040: 5a97 aa3e 8f4b df3d 7be0 d53e ced9 0e3d
00000050: 668f 8abd 0be1 1abe 8716 4a3e d8d1 c0be
00000060: 64a9 c83e

ff4.bias f4 [5]
-0.33311382 -0.051081613 -0.18916881 -0.33703813 -0.14715482
00000000: e58d aabe f43a 51bd 78b5 41be 4390 acbe
00000010: c1af 16be

ff5.weight f4 [5, 5]
0.05527155 -0.16635112 0.42772987 -0.20829538 0.40648395 -0.14316313 0.16716307 -0.41567025
-0.40344214 0.37699655 -0.12139929 -0.02856463 -0.29098344 0.2672317 0.27794257 -0.0057575377
-0.06986742 -0.32664752 -0.2898528 0.13445237 -0.40071586 -0.3211094 -0.00520965 0.37240922
0.026219968
00000000: 6c64 623d f357 2abe 69ff da3e 624b 55be
00000010: aa1e d03e 5b99 12be cc2c 2b3e bbd2 d4be
00000020: f88f cebe b105 c13e 31a0 f8bd 5f00 eabc
00000030: c8fb 94be 98d2 883e 7d4e 8e3e baa9 bcbb
00000040: a616 8fbd 583e a7be 9667 94be e2ad 093e
00000050: a12a cdbe 7468 a4be b6b5 aabb 6cac be3e
00000060: 42cb d63c

ff5.bias f4 [5]
-0.11704397 -0.2597952 -0.22562082 -0.115803614 0.40493083
00000000: c0b4 efbd e003 85be 2509 67be 722a edbd
00000010: 1853 cf3e

ff6.weight f4 [30, 5]
0.033247717 0.4114345 0.27590922 0.065233 0.03580219 -0.29090303 -0.1971444 -0.084984794
0.16465262 -0.04076232 -0.40614074 0.23906013 0.3939507 -0.39296842 -0.0523729 0.0137749715
0.34563732 0.0819148 0.15447345 0.18878487 0.43932918 -0.12980597 -0.076643124 -0.036705114
0.12989429 0.01946219 0.12736222 0.24405764 0.091808185 -0.36129272 -0.07389301 -0.17737548
0.24904038 0.4065003 0.10589512 0.41546825 -0.12915118 -0.3209476 0.22858354 -0.091298714
-0.10447225 0.44028184 0.36227164 -0.20496643 -0.19160455 0.1037842 -0.015313658 -0.4403316
-0.3273043 0.2122103 0.29239333 -0.27797854 0.04013322 -0.12457421 -0.36995766 -0.096237406
-0.21833208 -0.041031938 -0.2374865 -0.042143296 0.30649823 0.13174734 0.3732994 0.26296347
0.23056296 0.019785902 -0.31257996 0.11137077 0.13104321 -0.2944062 -0.36280254 0.34701294
0.17069277 -0.18444961 0.2587201 -0.23430023 0.24871278 0.32258323 -0.13495366 0.16882965
-0.10826428 -0.20748612 0.2482062 0.08081125 -0.17319179 -0.022636387 0.05777655 -0.0026852884
0.21566267 -0.21709134 -0.3635983 -0.20756549 0.1822572 -0.12094311 0.21100219 0.0644151
-0.17755014 0.35888615 -0.009149313 -0.30498597 0.35042375 0.33464074 -0.16808598 -0.32512376
-0.05318172 -0.32339755 0.18519928 -0.1845476 0.34383675 -0.09985061 0.2381276 0.04036523
-0.24042071 0.20791797 0.21313699 0.009701667 0.051357463 -0.08135377 -0.28058007 0.22565815
0.14509691 0.2836051 -0.21053591 0.1572988 -0.36015114 -0.16308172 -0.28884748 -0.35094488
0.2188717 0.35831714 -0.08523786 -0.2410165 -0.30463943 0.05358848 -0.39182642 -0.4053095
-0.259863 -0.3423491 0.44632336 -0.19976658 0.20420352 0.065121315 0.23606314 0.36081797
-0.04991158 0.105807446 0.31598097 0.07527389 0.4275986 0.40156323
00000000: c22e 083d 8ba7 d23e f943 8d3e e198 853d
00000010: 51a5 123d 3ef1 94be 39e0 49be 820c aebd
00000020: b29a 283e 64f6 26bd aef1 cfbe 2ecc 743e
00000030: e8b3 c93e 2833 c9be f784 56bd 6bb0 613c
00000040: 60f7 b03e f2c2 a73d 4a2e 1e3e d250 413e
00000050: c1ef e03e dbeb 04be 12f7 9cbd 1a58 16bd
00000060: 0203 053e 2c6f 9f3c 3e6b 023e 3fea 793e
00000070: ee05 bc3d 5cfb b8be 3855 97bd eba1 35be
00000080: 7104 7f3e cf20 d03e 8adf d83d 41b8 d43e
00000090: 3540 04be 3e53 a4be ce11 6a3e d2fa babd
000000a0: 8cf5 d5bd 9f6c e13e ab7b b93e b8e2 51be
000000b0: fc33 44be d08c d43d 23e6 7abc 2573 e1be
000000c0: 6e94 a7be a84d 593e 94b4 953e 3453 8ebe
000000d0: bb62 243d c320 ffbd 176b bdbe 1e18 c5bd
000000e0: 7292 5fbe 1b11 28bd a92f 73be 739e 2cbd
000000f0: 56ed 9c3e c6e8 063e 1921 bf3e 26a3 863e
00000100: b218 6c3e 0b16 a23c 7b0a a0be 5c16 e43d
00000110: 3130 063e 69bc 96be 41c1 b9be aeab b13e
00000120: 16ca 2e3e 5ce0 3cbe f676 843e 66ec 6fbe
00000130: 90ae 7e3e a129 a53e 4b31 0abe aee1 2c3e
00000140: aab9 ddbd 3e77 54be c429 7e3e 5e80 a53d
00000150: 3059 31be f26f b9bc 1ba7 6c3d aafb 2fbb
00000160: add6 5c3e 314d 5ebe 8e29 babe 0c8c 54be
00000170: a2a1 3a3e 05b1 f7bd f510 583e 10ec 833d
00000180: b4cf 35be edbf b73e 00e7 15bc 1f27 9cbe
00000190: be6a b33e 0856 ab3e bb1e 2cbe 9f76 a6be
000001a0: 13d5 59bd 5d94 a5be e1a4 3d3e 0cfa 3cbe
000001b0: 5f0b b03e 7a7e ccbd b9d7 733e 0356 253d
000001c0: d930 76be 73e8 543e 9540 5a3e bef3 1e3c
000001d0: 345c 523d ce9c a6bd 31a8 8fbe ee12 673e
000001e0: 4994 143e b034 913e ba96 57be f012 213e
000001f0: bb65 b8be e5fe 26be d1e3 93be 0caf b3be
00000200: e71f 603e 5875 b73e 3091 aebd 08cd 76be
00000210: b3f9 9bbe 987f 5b3d 799d c8be ba84 cfbe
00000220: c30c 85be 6248 afbe 7f84 e43e 9c8f 4cbe
00000230: ba1a 513e 535e 853d 89ba 713e 22bd b83e
00000240: 1670 4cbd 93b1 d83d 42c8 a13e 3229 9a3d
00000250: 34ee da3e b299 cd3e

ff6.bias f4 [30]
0.09712457 -0.19060121 0.34111798 -0.3654161 -0.42317605 0.36772177 0.086302534 -0.3693478
-0.2221903 -0.29450345 0.17378277 -0.4277186 0.3870418 -0.31248614 0.2539591 0.42681047
0.13793181 -0.2700521 -0.07603551 -0.26932612 -0.20714799 -0.34258765 0.18527454 -0.3084865
-0.43463448 -0.15123518 0.19805054 -0.16372825 0.15461096 -0.09481309
00000000: 3fe9 c63d f72c 43be 04a7 ae3e d217 bbbe
00000010: 88aa d8be 0746 bc3e 62bf b03d 281b bdbe
00000020: db85 63be 28c9 96be 1cf4 313e effd dabe
00000030: 582a c63e 2ffe 9fbe ed06 823e e786 da3e
00000040: ff3d 0d3e 4544 8abe 81b8 9bbd 1de5 89be
00000050: 9a1e 54be a667 afbe 9cb8 3d3e f1f1 9dbe
00000060: 6988 debe 65dd 1abe c3cd 4a3e 61a8 27be
00000070: 5652 1e3e 5e2d c2bd
