code/ml_model/model_weights_m8p8n10_lr0.001000_bs250_epochs40.pth (torch, 21926 bytes, 48 tensors)

ff1.weight f4 [5, 5]
0.15539919 0.022388114 -0.08038812 0.3016124 0.3073215 -0.3740139 -0.12052897 0.33549705
-0.09841926 0.061936244 0.12957218 -0.13932961 0.0030202856 0.26989862 0.29949686 0.43754008
-0.08155059 -0.0086980155 0.082641564 -0.28166497 0.00976948 -0.27841666 0.23446138 0.43820488
-0.34713495
00000000: f720 1f3e 4767 b73c 87a2 a4bd f16c 9a3e
00000010: 3e59 9d3e c07e bfbe e5d7 f6bd 45c6 ab3e
00000020: 0990 c9bd dcb0 7d3d 92ae 043e 6cac 0ebe
00000030: fcef 453b 2730 8a3e a757 993e 4105 e03e
00000040: ff03 a7bd 1f82 0ebc fb3f a93d 6436 90be
00000050: 2b10 203c a18c 8ebe a516 703e 645c e03e
00000060: acbb b1be

ff1.bias f4 [5]
0.12148742 -0.39771065 -0.28218055 0.42598012 -0.22418875
00000000: 65ce f83d bba0 cbbe f879 90be 111a da3e
00000010: bc91 65be

ff2.weight f4 [5, 5]
0.3475311 0.329907 -0.3439514 -0.2641226 -0.23092973 0.38771215 -0.11610664 0.05932881
0.1690308 -0.37676704 -0.12732662 -0.20059098 0.0053003873 0.33316678 -0.10839916 -0.40492225
-0.41844967 0.24227011 0.19369844 -0.060214214 0.0014286553 0.2807489 -0.08297274 0.38042387
-0.18716009
00000000: 99ef b13e 92e9 a83e 661a b0be 143b 87be
00000010: d878 6cbe 3582 c63e 51c9 edbd c402 733d
00000020: 6916 2d3e 9ce7 c0be e961 02be b967 4dbe
00000030: dfae ad3b d694 aa3e 6100 debd f851 cfbe
00000040: 093f d6be a815 783e e258 463e 2ea3 76bd
00000050: b841 bb3a 52be 8f3e 9ded a9bd ebc6 c23e
00000060: e5a6 3fbe

ff2.bias f4 [5]
0.30810422 0.28862554 -0.39558324 0.24357283 -0.21083847
00000000: d6bf 9d3e bac6 933e e389 cabe 286b 793e
00000010: 0ae6 57be

ff3.weight f4 [5, 5]
0.11242587 -0.12952644 0.22888191 0.15003307 0.358864 0.04793699 -0.34431672 0.1755708
0.26484182 0.39646727 -0.39859304 -0.26975042 0.36536548 0.43403822 0.42058274 -0.016999763
0.07322922 -0.025076373 -0.26451397 -0.3729604 -0.39808556 0.1634493 0.24294743 0.2027442
0.34134078
00000000: 893f e63d 94a2 04be 0560 6a3e 45a2 193e
00000010: 06bd b73e 9459 443d 484a b0be d5c8 333e
00000020: 5999 873e c2fd ca3e 6314 ccbe ba1c 8abe
00000030: 2f11 bb3e 423a de3e 9f56 d73e 1643 8bbc
00000040: 34f9 953d f76c cdbc 606e 87be aaf4 bebe
00000050: dfd1 cbbe 415f 273e 36c7 783e 2d9c 4f3e
00000060: 38c4 ae3e

ff3.bias f4 [5]
-0.24771518 0.31098187 -0.08088003 0.06267867 -0.24367669
00000000: 0ca9 7dbe 0439 9f3e 6ea4 a5bd ad5d 803d
00000010: 6286 79be

firstGCN.attentionLayer.linear.weight f4 [5, 10]
0.025628058 -0.28445157 -0.26757383 0.2566731 -0.052806318 0.29252064 -0.047787093 -0.26460007
0.2705657 -0.06672583 -0.24079241 -0.31330535 -0.07519842 0.29425862 -0.003292423 -0.12799905
-0.233936 -0.30499873 -0.26596 0.06071852 0.17113788 0.11680048 -0.2641994 0.2168353
0.112987615 0.23737814 -0.23325355 0.046597444 0.21474145 0.09398836 0.05948837 0.2872804
0.012035757 -0.30743885 -0.26800707 0.17316388 0.21771376 -0.18129557 0.2050141 -0.09019675
-0.011192419 0.031313907 -0.21737117 0.19567446 0.17668094 0.022599978 0.16815773 0.28258488
-0.09134738 -0.1435946
00000000: eff1 d13c a3a3 91be 70ff 88be a86a 833e
00000010: 704b 58bd 44c5 953e 66bc 43bd a979 87be
00000020: 9687 8a3e 8da7 88bd 4992 76be 8f69 a0be
00000030: a101 9abd 11a9 963e b1c5 57bb 2f12 03be
00000040: eb8c 6fbe cb28 9cbe e92b 88be fcb3 783d
00000050: c53e 2f3e 1735 ef3d 2545 87be 130a 5e3e
00000060: 0d66 e73d 4113 733e 05da 6ebe f6dc 3e3d
00000070: 2fe5 5b3e f87c c03d 14aa 733d 6b16 933e
00000080: a031 453c a068 9dbe 3938 89be df51 313e
00000090: 5bf0 5e3e 8ca5 39be 37ef 513e 13b9 b8bd
000000a0: 6860 37bc 0343 003d 8c96 5ebe e35e 483e
000000b0: d9eb 343e 9723 b93c 8a31 2c3e f7ae 903e
000000c0: 5614 bbbd 760a 13be

firstGCN.attentionLayer.linear.bias f4 [5]
-0.115230896 -0.17884935 0.177835 -0.11966076 0.16578579
00000000: 2dfe ebbd 4924 37be 611a 363e b310 f5bd
00000010: c0c3 293e

firstGCN.attentionLayer.inAttention.W_sum f4 [5, 5]
0.40441865 0.9396274 0.72521687 0.88361526 0.24373546 0.9554844 0.4155418 0.79668796
0.10968702 0.040793836 0.5776795 0.96921766 0.86989146 0.91067326 0.70583546 0.4783
0.4415741 0.88017845 0.31403986 0.9482457 0.71874845 0.5468716 0.41701335 0.10793373
0.4308464
00000000: f60f cf3e 6c8b 703f d0a7 393f 9c34 623f
00000010: ca95 793e a09a 743f e5c1 d43e bef3 4b3f
00000020: 97a3 e03d 7017 273d cee2 133f a61e 783f
00000030: 35b1 5e3f e221 693f a2b1 343f bde3 f43e
00000040: 0016 e23e 6053 613f d5c9 a03e 3bc0 723f
00000050: e6ff 373f c7ff 0b3f c682 d53e 5c0c dd3d
00000060: e697 dc3e

firstGCN.attentionLayer.inAttention.W_alpha f4 [5, 5]
0.9084566 0.88366425 0.5683785 0.23793429 0.8948959 0.73018247 0.13029541 0.769245
0.88714445 0.32974964 0.9289854 0.085311696 0.8366323 0.17275922 0.0944574 0.9003522
0.16779909 0.5497215 0.47145253 0.98361766 0.87686145 0.2892588 0.31047714 0.41763824
0.6200581
00000000: 9d90 683f d237 623f 4181 113f 0ca5 733e
00000010: e617 653f 3ded 3a3f 296c 053e 3eed 443f
00000020: e61b 633f f2d4 a83e fdd1 6d3f e6b7 ae3d
00000030: 892d 563f cbe7 303e e272 c13d 7b7d 663f
00000040: 86d3 2b3e 8cba 0c3f 3a62 f13e 5ece 7b3f
00000050: fe79 603f bb19 943e dcf6 9e3e aed4 d53e
00000060: 21bc 1e3f

firstGCN.attentionLayer.inAttention.a_alpha f4 [5, 1]
0.97037137 0.054598212 0.26163143 0.5614476 0.76214385
00000000: 426a 783f 60a2 5f3d 8ef4 853e 08bb 0f3f
00000010: dc1b 433f

firstGCN.attentionLayer.inAttention.b_alpha f4 [5, 1]
0.028591668 0.2061591 0.72660124 0.29482123 0.7369474
00000000: 1339 ea3c 5f1b 533e 8a02 3a3f cff2 963e
00000010: 96a8 3c3f

firstGCN.attentionLayer.outAttention.W_sum f4 [5, 5]
0.80035305 0.9458642 0.9495272 0.89777625 0.49655068 0.21855699 0.8966879 0.048208725
0.57827747 0.832959 0.13157792 0.21164407 0.2889959 0.025449844 0.46059048 0.07982394
0.06871467 0.65764236 0.5884596 0.5408344 0.79817927 0.9168859 0.1509835 0.59951377
0.7185239
00000000: f0e3 4c3f 2824 723f 3714 733f aad4 653f
00000010: e43b fe3e 67cd 5f3e 578d 653f 8376 453d
00000020: fe09 143f cd3c 553f 5dbc 063e 39b9 583e
00000030: 45f7 933e 317c d03c 84d2 eb3e bc7a a33d
00000040: 47ba 8c3d 405b 283f 4aa5 163f 2074 0a3f
00000050: 7a55 4c3f 09b9 6a3f 6b9b 1a3e bc79 193f
00000060: 2ff1 373f

firstGCN.attentionLayer.outAttention.W_alpha f4 [5, 5]
0.8796252 0.9526669 0.90505296 0.99258465 0.92860174 0.273897 0.9226476 0.36704284
0.67229986 0.77040875 0.79448044 0.8865237 0.7261725 0.02007795 0.7945882 0.24048531
0.96462816 0.07504976 0.059428275 0.2678609 0.78821784 0.7094143 0.13644862 0.47866046
0.56557834
00000000: 1e2f 613f fae1 733f 8db1 673f 071a 7e3f
00000010: d8b8 6d3f 3a3c 8c3e a232 6c3f 0aed bb3e
00000020: d81b 2c3f 8239 453f 1263 4b3f 38f3 623f
00000030: 71e6 393f 837a a43c 226a 4b3f c841 763e
00000040: dff1 763f b0b3 993d 106b 733d 1025 893e
00000050: a5c8 493f 2d9c 353f 30b9 0b3e fc12 f53e
00000060: bec9 103f

firstGCN.attentionLayer.outAttention.a_alpha f4 [5, 1]
0.4514985 0.44248134 0.92724687 0.39860004 0.41685718
00000000: d02a e73e ea8c e23e 0d60 6d3f 4e15 cc3e
00000010: 4e6e d53e

firstGCN.attentionLayer.outAttention.b_alpha f4 [5, 1]
0.5264118 0.94182557 0.34730315 0.19418244 0.6474691
00000000: ecc2 063f 7b1b 713f b8d1 b13e c3d7 463e
00000010: 89c0 253f

firstGCN.linearLayer.weight f4 [5, 10]
-0.085558444 0.14312363 -0.26357526 0.2777526 -0.14504698 -0.27425817 -0.24699146 -0.1407452
-0.13055328 -0.07453187 -0.26855698 0.22653216 -0.115467355 -0.21152438 0.2052154 -0.09630477
0.074186794 0.102092475 -0.022978192 0.2549951 0.19945556 0.113968775 -0.31401536 0.21599445
-0.09269212 -0.09878465 -0.08560587 -0.14961496 -0.13217762 -0.26551402 0.18697406 0.1272135
0.20013995 0.043373633 -0.10069473 -0.20327067 0.20737481 0.02637438 0.1646852 -0.11658685
-0.2064815 -0.22085984 0.14590655 0.010536128 0.23716524 0.30144277 0.16783665 0.046538845
0.07694887 0.2111621
00000000: 4439 afbd 008f 123e 56f3 86be 9735 8e3e
00000010: 3287 14be 916b 8cbe 54eb 7cbe 821f 10be
00000020: c2af 05be 2aa4 98bd 4d80 89be 0cf8 673e
00000030: 267a ecbd d999 58be fc23 523e 6f3b c5bd
00000040: 3fef 973d dc15 d13d c33c bcbc b88e 823e
00000050: 143e 4c3e 7668 e93d 9fc6 a0be a62d 5d3e
00000060: 5ed5 bdbd 9b4f cabd 2152 afbd aa34 19be
00000070: 9259 07be 74f1 87be 2176 3f3e 4144 023e
00000080: 7df1 4c3e 8da8 313d 0a39 cebd 3026 50be
00000090: 105a 543e 150f d83c 3da3 283e 16c5 eebd
000000a0: e36f 53be 1529 62be 8768 153e b99f 2c3c
000000b0: 72db 723e b556 9a3e 5fdd 2b3e 849f 3e3d
000000c0: 5f97 9d3d e13a 583e

firstGCN.linearLayer.bias f4 [5]
0.2616727 0.06704534 -0.11313506 0.06671089 0.05661469
00000000: f7f9 853e 114f 893d 5bb3 e7bd b89f 883d
00000010: cee4 673d

secondGCN.attentionLayer.linear.weight f4 [5, 10]
0.054463007 0.056201115 0.13637643 0.29474732 -0.2193118 0.31360084 0.009907111 0.3091427
0.06768337 -0.109991975 -0.025924763 -0.17863029 -0.037133563 -0.16469674 -0.24919452 0.15183744
0.15074074 0.18854938 -0.24272077 0.15222158 0.13585684 0.2437075 0.004369756 0.07965188
-0.13093749 -0.28306988 -0.25747287 0.11859058 -0.25449958 0.23677425 -0.24218524 -0.14901184
-0.18089299 -0.20418118 -0.26731426 -0.11751428 0.24685597 -0.024089396 -0.30720985 -0.15179262
0.043640565 -0.10994618 0.023751628 0.030173965 0.17534019 -0.0152625 -0.22635716 -0.26973116
0.12618922 0.20032908
00000000: 9a14 5f3d 2433 663d 43a6 0b3e 1fe9 963e
00000010: 4693 60be 4a90 a03e 6f51 223c f447 9e3e
00000020: 949d 8a3d 7943 e1bd 2b60 d4bc dcea 36be
00000030: 5d19 18bd 43a6 28be d92c 7fbe 467b 1b3e
00000040: c85b 1a3e 1713 413e cb8b 78be f9df 1b3e
00000050: 0e1e 0b3e 758e 793e 2c30 8f3b 8620 a33d
00000060: 7a14 06be 89ee 90be 7cd3 83be 9edf f23d
00000070: c54d 82be f374 723e 68ff 77be 8f96 18be
00000080: 033c 39be df14 51be 6add 88be 54ab f0bd
00000090: d0c7 7c3e 2057 c5bc 9c4a 9dbe 866f 1bbe
000000a0: 73c0 323d 762b e1bd c692 c23c 642f f73c
000000b0: 618c 333e 910f 7abc 2cca 67be 341a 8abe
000000c0: bf37 013e 1123 4d3e

secondGCN.attentionLayer.linear.bias f4 [5]
-0.03912036 -0.25219718 -0.29699636 -0.09596508 0.27861202
00000000: ac3c 20bd fd1f 81be e80f 98be 5789 c4bd
00000010: 3ca6 8e3e

secondGCN.attentionLayer.inAttention.W_sum f4 [5, 5]
0.2632826 0.40928072 0.8626111 0.87087286 0.38828558 0.8527094 0.06501621 0.9092456
0.91494435 0.19800353 0.16524363 0.5942727 0.09445429 0.7116138 0.27268392 0.22853082
0.6565465 0.97321415 0.040493727 0.4028023 0.35713255 0.49679792 0.98428917 0.13590938
0.30491167
00000000: facc 863e 3e8d d13e 15d4 5c3f 86f1 5e3f
00000010: 5ecd c63e 2a4b 5a3f 3827 853d 52c4 683f
00000020: cb39 6a3f 70c1 4a3e a035 293e 4122 183f
00000030: 4071 c13d 522c 363f 3a9d 8b3e fc03 6a3e
00000040: 6e13 283f 9024 793f c0dc 253d 1a3c ce3e
00000050: 14da b63e 4c5c fe3e 60fa 7b3f d42b 0b3e
00000060: 621d 9c3e

secondGCN.attentionLayer.inAttention.W_alpha f4 [5, 5]
0.24524474 0.49702114 0.13237101 0.7983746 0.2665853 0.5405981 0.4651997 0.36013818
0.4294778 0.8812223 0.67979234 0.18836296 0.20548975 0.21507084 0.70876503 0.20174915
0.8994316 0.983342 0.41111535 0.44632936 0.06853932 0.7342639 0.49023312 0.40272385
0.3285209
00000000: 7021 7b3e 8e79 fe3e 448c 073e 4762 4c3f
00000010: de7d 883e a364 0a3f a82e ee3e 0864 b83e
00000020: 84e4 db3e c997 613f df06 2e3f 38e2 403e
00000030: e86b 523e 883b 5c3e a071 353f 5497 4e3e
00000040: 2641 663f 4dbc 7b3f b67d d23e 4885 e43e
00000050: 585e 8c3d b8f8 3b3f d6ff fa3e d231 ce3e
00000060: e433 a83e

secondGCN.attentionLayer.inAttention.a_alpha f4 [5, 1]
0.4782048 0.12705511 0.946241 0.93101114 0.971883
00000000: 42d7 f43e bc1a 023e da3c 723f bf56 6e3f
00000010: 53cd 783f

secondGCN.attentionLayer.inAttention.b_alpha f4 [5, 1]
0.6726354 0.28198367 0.9814074 0.92719615 0.3715818
00000000: d531 2c3f 2a60 903e 843d 7b3f ba5c 6d3f
00000010: f83f be3e

secondGCN.attentionLayer.outAttention.W_sum f4 [5, 5]
0.07336789 4.708767e-05 0.8971163 0.5041517 0.7029451 0.24027866 0.27986252 0.14928836
0.513705 0.87637544 0.069287896 0.89473945 0.2616505 0.34188008 0.28617138 0.5256355
0.55044967 0.7869471 0.022887945 0.2516324 0.6582461 0.8969995 0.22822571 0.9165335
0.047932386
00000000: e841 963d 0080 4538 6aa9 653f 1610 013f
00000010: 36f4 333f 9c0b 763e 244a 8f3e 0cdf 183e
00000020: 2c82 033f 245a 603f d0e6 8d3d a50d 653f
00000030: 0ef7 853e e80a af3e 0e85 923e 0c90 063f
00000040: 45ea 0c3f 5d75 493f 807f bb3c f6d5 803e
00000050: d182 283f c2a1 653f 00b4 693e f1a1 6a3f
00000060: c054 443d

secondGCN.attentionLayer.outAttention.W_alpha f4 [5, 5]
0.013265789 0.47257566 0.25101662 0.2904547 0.37100446 0.15923572 0.35512954 0.2156235
0.9955451 0.11277974 0.4667393 0.09307575 0.019399107 0.8976482 0.9891265 0.7255653
0.64080995 0.78127265 0.48876178 0.83235365 0.6382088 0.42664796 0.40749818 0.39551944
0.4879971
00000000: c058 593c 70f5 f13e 4085 803e 7ab6 943e
00000010: 4cf4 bd3e b00e 233e 8ad3 b53e 68cc 5c3e
00000020: 0bdc 7e3f 10f9 e63d 74f8 ee3e 809e be3d
00000030: e0ea 9e3c 46cc 653f 6537 7d3f a6be 393f
00000040: 1f0c 243f 7c01 483f fc3e fa3e 2115 553f
00000050: a761 233f 9a71 da3e 9aa3 d03e 8681 ca3e
00000060: c2da f93e

secondGCN.attentionLayer.outAttention.a_alpha f4 [5, 1]
0.9911586 0.17330295 0.10238409 0.543991 0.44953555
00000000: 92bc 7d3f 5476 313e c0ae d13d ff42 0b3f
00000010: 8629 e63e

secondGCN.attentionLayer.outAttention.b_alpha f4 [5, 1]
0.0556221 0.6627343 0.36900872 0.68745655 0.018465817
00000000: 00d4 633d f5a8 293f b6ee bc3e 27fd 2f3f
00000010: a045 973c

secondGCN.linearLayer.weight f4 [5, 10]
0.18604618 -0.034178246 -0.14679185 -0.23960358 -0.17975156 -0.31088364 -0.2866596 -0.2969571
0.06641312 -0.2838442 -0.26892322 0.097836375 0.28849 0.08400147 0.021896733 -0.110097416
0.10165066 -0.03837889 0.25809947 0.15498354 0.046048064 0.013704132 0.029420357 0.0706011
0.11061628 -0.0823354 -0.15695718 0.28295907 -0.18552709 0.06712387 0.07358284 0.055832207
-0.29691383 0.23304726 0.29513806 0.16362473 0.058776215 0.10369804 0.03853439 -0.28476313
0.27043056 0.28655672 0.13098302 -0.17668538 0.27410835 0.28036535 0.04135943 0.08358702
0.051682565 -0.23875125
00000000: e482 3e3e 7dfe 0bbd 9a50 16be a45a 75be
00000010: cb10 38be 242c 9fbe 0cc5 92be c30a 98be
00000020: 9a03 883d 0754 91be 4eb0 89be 705e c83d
00000030: f6b4 933e f608 ac3d c760 b33c c17a e1bd
00000040: 392e d03d 2f33 1dbd 9d25 843e 01b4 1e3e
00000050: e59c 3c3d 4c87 603c f602 f13c 4f97 903d
00000060: ca8a e23d 769f a8bd 62b9 20be 03e0 903e
00000070: d0fa 3dbe 3d78 893d 9ab2 963d 50b0 643d
00000080: 1705 98be f1a3 6e3e 561c 973e 3e8d 273e
00000090: 54bf 703d a35f d43d 3dd6 1d3d 79cc 91be
000000a0: e075 8a3e 90b7 923e 6a20 063e 03ed 34be
000000b0: ee57 8c3e 0c8c 8f3e 8168 293d ac2f ab3d
000000c0: 19b1 533d 357b 74be

secondGCN.linearLayer.bias f4 [5]
0.14413999 -0.020901637 -0.0803541 0.03681879 0.20292382
00000000: 6f99 133e e939 abbc b190 a4bd 4dcf 163d
00000010: 43cb 4f3e

thirdGCN.attentionLayer.linear.weight f4 [5, 10]
-0.14368491 0.05646831 -0.1705527 -0.026035707 0.15907106 -0.06942163 0.076626524 -0.30874965
-0.27671945 0.19819985 -0.18699728 0.17200454 -0.23602559 -0.21675962 0.13296123 -0.018143892
0.2245203 -0.11173574 0.2370278 0.06429321 -0.23352678 -0.10386209 -0.07835166 -0.13764599
-0.08007284 -0.29560357 -0.30841997 0.20048141 0.26466465 -0.24012938 0.04657315 -0.03569247
0.024467876 -0.20687944 -0.26728725 0.29420856 0.04713963 0.09772441 0.08456195 0.25349683
0.18649831 -0.01903732 0.10399852 0.24724157 -0.23375767 -0.086593345 -0.296169 -0.021931225
-0.08971958 -0.01905187
00000000: 2322 13be 514b 673d 5ea5 2ebe d648 d5bc
00000010: 86e3 223e ed2c 8ebd 5eee 9c3d 6f14 9ebe
00000020: 2cae 8dbe e7f4 4a3e 377c 3fbe f521 303e
00000030: b1b0 71be 3cf6 5dbe fd26 083e 80a2 94bc
00000040: a6e8 653e b5d5 e4bd 6ab7 723e 29ac 833d
00000050: a521 6fbe a6b5 d4bd d676 a0bd 12f3 0cbe
00000060: 3bfd a3bd 5a59 97be 39e9 9dbe 004b 4d3e
00000070: 2082 873e 7ae4 75be 7dc3 3e3d 4432 12bd
00000080: db70 c83c 34d8 53be e0d9 88be 81a2 963e
00000090: 7c15 413d bc23 c83d d12e ad3d 56ca 813e
000000a0: 6af9 3e3e 27f4 9bbc 2dfd d43d e52c 7d3e
000000b0: 2c5e 6fbe da57 b1bd 77a3 97be 1da9 b3bc
000000c0: e6be b7bd ab12 9cbc

thirdGCN.attentionLayer.linear.bias f4 [5]
-0.22899541 -0.112756014 -0.006427199 0.29135332 -0.040009864
00000000: c67d 6abe a0ec e6bd 419b d2bb 432c 953e
00000010: 62e1 23bd

thirdGCN.attentionLayer.inAttention.W_sum f4 [5, 5]
0.60787594 0.61621916 0.6159673 0.00093996525 0.47736436 0.8292576 0.78200364 0.032944083
0.81582016 0.10568112 0.5293111 0.47305816 0.8019466 0.5010683 0.23030555 0.86605084
0.6268142 0.90558076 0.28733808 0.10407615 0.8929332 0.4709227 0.6434208 0.1553995
0.18645698
00000000: c29d 1b3f 8ac0 1d3f 08b0 1d3f 0068 763a
00000010: 1a69 f43e 3a4a 543f 6431 483f 60f0 063d
00000020: 97d9 503f 586f d83d ef80 073f ae34 f23e
00000030: 5f4c 4d3f 0346 003f 38d5 6b3e 82b5 5d3f
00000040: e576 203f 24d4 673f fa1d 933e e025 d53d
00000050: 4597 643f c81c f13e 3ab7 243f 0c21 1f3e
00000060: 94ee 3e3e

thirdGCN.attentionLayer.inAttention.W_alpha f4 [5, 5]
0.5424164 0.30107868 0.3912558 0.36070025 0.07139313 0.70564854 0.10129976 0.45639187
0.049099207 0.12938392 0.0009135008 0.4253868 0.518809 0.48147154 0.9480215 0.047915995
0.57655084 0.26914078 0.26333922 0.4819808 0.32213134 0.431306 0.5460427 0.624931
0.5675827
00000000: cddb 0a3f fc26 9a3e ae52 c83e b4ad b83e
00000010: 9036 923d 62a5 343f 4076 cf3d 32ac e93e
00000020: 401c 493d 387d 043e 0078 6f3a 4ccc d93e
00000030: abd0 043f 7083 f63e 89b1 723f 9043 443d
00000040: d698 133f d2cc 893e 66d4 863e 30c6 f63e
00000050: 66ee a43e 24d4 dc3e 74c9 0b3f 7afb 1f3f
00000060: 1a4d 113f

thirdGCN.attentionLayer.inAttention.a_alpha f4 [5, 1]
0.20774585 0.34451818 0.90436125 0.6952019 0.35475296
00000000: 54bb 543e b064 b03e 3884 673f c0f8 313f
00000010: 2ea2 b53e

thirdGCN.attentionLayer.inAttention.b_alpha f4 [5, 1]
0.21358639 0.26601774 0.11585808 0.6154128 0.7357224
00000000: 64b6 5a3e 7a33 883e 0047 ed3d b18b 1d3f
00000010: 4e58 3c3f

thirdGCN.attentionLayer.outAttention.W_sum f4 [5, 5]
0.5130615 0.88133997 0.90993553 0.7359278 0.025188625 0.9057919 0.8250388 0.33779222
0.95416486 0.9777915 0.31531543 0.34011084 0.33405215 0.0846324 0.23431873 0.37766647
0.19800991 0.8600752 0.5099984 0.40816563 0.511209 0.15447283 0.73655736 0.6010311
0.7490277
00000000: 0058 033f 7f9f 613f 89f1 683f c465 3c3f
00000010: 6058 ce3c fae1 673f be35 533f 1af3 ac3e
00000020: 2644 743f 8b50 7a3f 0671 a13e 0223 ae3e
00000030: e208 ab3e c053 ad3d 40f1 6f3e 805d c13e
00000040: 1cc3 4a3e e32d 5c3f 418f 023f 16fb d03e
00000050: 98de 023f 202e 1e3e 068f 3c3f 2ddd 193f
00000060: 48c0 3f3f

thirdGCN.attentionLayer.outAttention.W_alpha f4 [5, 5]
0.5342078 0.20062119 0.64811367 0.5475703 0.6169186 0.10762596 0.7792061 0.46790028
0.21255136 0.40316355 0.2974189 0.79166514 0.5131755 0.21844125 0.88128257 0.25431532
0.04725927 0.085440814 0.80106246 0.62685585 0.5564605 0.33631885 0.7502924 0.210635
0.99327016
00000000: d8c1 083f a46f 4d3e c7ea 253f 912d 0c3f
00000010: 61ee 1d3f 006b dc3d 0d7a 473f a090 ef3e
00000020: 10a7 593e 746b ce3e 4a47 983e 91aa 4a3f
00000030: 785f 033f 10af 5f3e bc9b 613f 9e35 823e
00000040: f092 413d 98fb ae3d 6e12 4d3f a079 203f
00000050: 3274 0e3f fc31 ac3e 2a13 403f b4b0 573e
00000060: f446 7e3f

thirdGCN.attentionLayer.outAttention.a_alpha f4 [5, 1]
0.0068299174 0.5836212 0.1989733 0.13829654 0.61816514
00000000: 80cd df3b 3368 153f a8bf 4b3e 9c9d 0d3e
00000010: 1240 1e3f

thirdGCN.attentionLayer.outAttention.b_alpha f4 [5, 1]
0.09178436 0.26913583 0.60357094 0.33250993 0.7762977
00000000: 70f9 bb3d 2ccc 893e a083 1a3f be3e aa3e
00000010: 72bb 463f

thirdGCN.linearLayer.weight f4 [5, 10]
0.005392823 -0.30711192 0.055207185 -0.014791134 -0.23805347 -0.025849331 0.12025329 -0.08391582
-0.31495064 0.16421658 0.0387942 0.044697974 -0.10987994 -0.17631538 -0.033224314 -0.13371733
0.012604654 0.23355588 -0.13056086 -0.18169297 0.24680859 -0.14106445 -0.014393766 -0.014803724
0.18027717 -0.09462498 -0.05919673 -0.25879705 0.100622274 0.013743941 0.0059223194 -0.0031999343
-0.16357686 0.2691417 -0.20555754 -0.2236179 -0.13721952 0.18835627 -0.17310832 0.16735707
-0.2150593 -0.103777654 -0.04748595 0.24359044 -0.27624744 0.18517861 0.2507159 0.15442018
-0.21421136 -0.2094223
00000000: 47b6 b03b c63d 9dbe ee20 623d 8356 72bc
00000010: 4ac4 73be fac1 d3bc 5b47 f63d 0fdc abbd
00000020: 3641 a1be 6428 283e abe6 1e3d 3915 373d
00000030: bc08 e1bd 058c 34be 3816 08bd 32ed 08be
00000040: c083 4e3c 4629 6f3e bfb1 05be b90d 3abe
00000050: 64bb 7c3e 3373 10be d5d3 6bbc 528b 72bc
00000060: 949a 383e beca c1bd 4578 72bd 0c81 84be
00000070: 0d13 ce3d 442e 613c 0410 c23b fdb5 51bb
00000080: b180 27be f1cc 893e ad7d 52be 17fc 64be
00000090: 4683 0cbe 77e0 403e 4f43 31be a75f 2b3e
000000a0: 8138 5cbe 6189 d4bd a180 42bd c66f 793e
000000b0: 4e70 8dbe 769f 3d3e d65d 803e 5320 1e3e
000000c0: 395a 5bbe cd72 56be

thirdGCN.linearLayer.bias f4 [5]
-0.24922095 -0.14248477 0.020882111 -0.120970026 -0.27845165
00000000: c733 7fbe 87e7 11be f610 ab3c 22bf f7bd
00000010: 3791 8ebe

ff4.weight f4 [5, 5]
0.15383193 -0.008853206 -0.19590603 -0.09521995 0.1933752 0.12763019 0.37592828 0.24311228
0.43137714 -0.33270872 -0.26738256 0.15022707 0.29283333 0.23296452 0.29363906 0.20100567
0.14108527 0.097459294 0.38819665 -0.17851382 -0.023899082 -0.15700905 -0.33350113 -0.4233923
0.14368099
00000000: 1e86 1d3e 0a0d 11bc 979b 48be ad02 c3bd
00000010: 2604 463e 7db1 023e ac79 c03e 6df2 783e
00000020: 77dd dc3e cc58 aabe 5ee6 88be 20d5 193e
00000030: 40ee 953e 408e 6e3e dc57 963e 6ed4 4d3e
00000040: a878 103e bd98 c73d b6c1 c63e 54cc 36be
00000050: 02c8 c3bc fbc6 20be a9c0 aabe e0c6 d8be
00000060: 1c21 133e

ff4.bias f4 [5]
-0.36718073 0.34580916 -0.060940206 0.2705932 -0.2652536
00000000: 1dff bbbe e60d b13e 709c 79bd 318b 8a3e
00000010: 52cf 87be

ff5.weight f4 [5, 5]
-0.32467258 0.40597755 0.108923964 0.035781905 0.3084236 0.18134658 -0.09999734 0.42221895
0.14389941 0.06430927 0.18697558 -0.3469141 0.0895266 0.3348991 -0.30495244 0.18794245
0.19296071 0.0022752502 0.18019333 -0.27599543 0.3696511 -0.0676458 -0.00031054247 -0.25847435
0.11099274
00000000: 7c3b a6be 4adc cf3e 8713 df3d 0c90 123d
00000010: b3e9 9d3e ebb2 393e 68cb ccbd 152d d83e
00000020: 5e5a 133e 94b4 833d 8776 3f3e ba9e b1be
00000030: b959 b73d e577 ab3e ba22 9cbe fc73 403e
00000040: 7e97 453e 5d1c 153b 9a84 383e 464f 8dbe
00000050: e942 bd3e e289 8abd 4ed0 a2b9 c056 84be
00000060: 2950 e33d

ff5.bias f4 [5]
0.32246816 -0.23202817 -0.38672864 0.3874575 -0.114646524
00000000: 8c1a a53e cb98 6dbe 4c01 c6be d460 c63e
00000010: cccb eabd

ff6.weight f4 [10, 5]
-0.12492561 -0.40952826 -0.104846895 -0.13712507 0.23420474 0.28499654 -0.037527725 -0.2254401
-0.07700823 0.40198117 -0.019195683 0.16450784 -0.4143402 -0.21563663 0.18156563 0.32358164
0.299255 0.03426065 -0.06909246 0.14570647 0.21855426 -0.2624352 0.102789834 0.40138957
-0.32822773 0.19303752 -0.08608119 -0.13165416 0.2794208 0.04884532 0.08826508 0.10506827
-0.3963332 -0.39448377 0.15232538 -0.1880617 0.34841138 0.40014678 0.3806257 0.03183367
0.0430269 -0.06784206 0.0457542 -0.28012237 0.40664694 -0.19430043 0.29131785 0.42627454
-0.19229141 -0.26381487
00000000: 00d9 ffbd b0ad d1be f8b9 d6bd 846a 0cbe
00000010: 5ed3 6f3e 11eb 913e acb6 19bd c5d9 66be
00000020: 7eb6 9dbd 7ad0 cd3e 4440 9dbc be74 283e
00000030: 6624 d4be d9cf 5cbe 57ec 393e 7eac a53e
00000040: f437 993e e554 0c3d 5980 8dbd 1434 153e
00000050: b0cc 5f3e e85d 86be 7a83 d23d ef82 cd3e
00000060: 770d a8be a1ab 453e 564b b0bd 59d0 06be
00000070: 3e10 8f3e 0812 483d 52c4 b43d 082e d73d
00000080: 2fec cabe c7f9 c9be 2ffb 1b3e 3f93 40be
00000090: fa62 b23e 0ae0 cc3e 5fe1 c23e 0664 023d
000000a0: fa3c 303d c7f0 8abd c268 3b3d 336c 8fbe
000000b0: 0734 d03e b1f6 46be 9d27 953e a840 da3e
000000c0: 0ae8 44be be12 87be

ff6.bias f4 [10]
-0.040488966 -0.08922117 0.41182643 -0.053901862 -0.21168405 0.012266212 0.17305613 0.24783559
-0.01347081 0.103955805
00000000: c2d7 25bd 97b9 b6bd eada d23e 33c8 5cbd
00000010: b4c3 58be 39f8 483c a035 313e 9dc8 7d3e
00000020: acb4 5cbc c8e6 d43d
