code/ml_model/model_weights_m8p8n20_lr0.001000_bs250_epochs20.pth (torch, 22118 bytes, 48 tensors)

ff1.weight f4 [5, 5]
0	0x3ebcd3be	0.36880296
1	0xbdf084df	-0.11744093
2	0xbe8dd813	-0.27703914
3	0xbe013607	-0.12618266
4	0x3ea98498	0.33108974
5	0xbe7ef49a	-0.24897996
6	0xbd526887	-0.051369216
7	0xbc2412bf	-0.010014235
8	0xbe30bb22	-0.17258886
9	0xbe98481d	-0.29742518
10	0xbdeb10dd	-0.11477826
11	0x3d1fa9b3	0.038980197
12	0xbdcdf2a7	-0.10056048
13	0x3e2625f4	0.16225415
14	0xbdaa3437	-0.083107404
15	0xbe12e1a3	-0.14343886
16	0xbeaa9a6d	-0.33320943
17	0x3e60e789	0.21963324
18	0xbe7c24d0	-0.24623418
19	0x3ecbbe97	0.39793846
20	0xbcbe38fa	-0.023220528
21	0xbeb70ef8	-0.35753608
22	0x3e9a6d55	0.3016154
23	0xbe36659d	-0.178122
24	0xbed5b10c	-0.4173664

ff1.bias f4 [5]
0	0xbe177fa6	-0.14794788
1	0xbe847943	-0.25873765
2	0xbe775c54	-0.24156314
3	0xbec3e548	-0.38260865
4	0xbe65a481	-0.22426035

ff2.weight f4 [5, 5]
0	0xbdfae9a0	-0.12251592
1	0xbe1beec3	-0.15227799
2	0xbc8ba1ac	-0.017044865
3	0x3eb70ff7	0.35754368
4	0x3e3e5c0a	0.18589798
5	0x3e81625f	0.25270364
6	0xbe5eb359	-0.21748103
7	0x3e805964	0.250682
8	0xbebf2bc9	-0.37338093
9	0xbedccd5e	-0.43125433
10	0xbebe6855	-0.37188974
11	0x3da5ff69	0.08105356
12	0xbe6ada75	-0.22934897
13	0x3e31cea1	0.17363979
14	0xbeb7c56b	-0.35892805
15	0x3ed4b306	0.41542834
16	0xbe8ffc1f	-0.2812204
17	0x3df94ea9	0.12173206
18	0x3ebbf95f	0.36713693
19	0xbdef0208	-0.11670309
20	0xbd9f8a9f	-0.07790112
21	0xbd0db154	-0.03459294
22	0x3d09fe85	0.033689994
23	0xbdd9e3b1	-0.10639132
24	0xbe8fa808	-0.28057885

ff2.bias f4 [5]
0	0x3e6cdcaf	0.23131059
1	0x3e1a1e05	0.15050514
2	0x3cca6d6f	0.024710385
3	0xbe3d53b2	-0.18488958
4	0xbe362cb1	-0.17790486

ff3.weight f4 [5, 5]
0	0x3e99a762	0.30010515
1	0x3e16f1e2	0.14740708
2	0xbedc0070	-0.42969084
3	0x3e82bffb	0.25537094
4	0xbcfdd5d0	-0.030985743
5	0xbe788c92	-0.24272373
6	0xbe8a23d0	-0.26980448
7	0x3e6f2396	0.23353419
8	0x3e30e52f	0.17274927
9	0x3e2ece83	0.17070965
10	0x3ebe4360	0.37160778
11	0x3d4b98f4	0.049706414
12	0x3ebec693	0.37260875
13	0x3ea071e4	0.31336892
14	0xbd02f9d7	-0.031976547
15	0xbe94d50a	-0.29068786
16	0xbe9e4707	-0.30913565
17	0xbe3eeef0	-0.18645835
18	0xbce970d1	-0.028496178
19	0xbea65751	-0.32488492
20	0x3ebbf2c1	0.36708644
21	0xbe9f0cf0	-0.31064558
22	0xbde32699	-0.11091346
23	0x3e19f06f	0.15033124
24	0xba5fc9da	-0.0008536853

ff3.bias f4 [5]
0	0x3cbf9928	0.02338846
1	0x3dfb86f5	0.122816004
2	0xbea0ff9c	-0.31445014
3	0x3ebd3890	0.36957216
4	0x3e133fdb	0.14379828

firstGCN.attentionLayer.linear.weight f4 [5, 10]
0	0x3e4cc987	0.19998752
1	0xbdc096c1	-0.09403754
2	0x3da3281a	0.07966633
3	0x3e9b2cf6	0.3030774
4	0x3e57d559	0.2107748
5	0xbdf5e642	-0.12006809
6	0xbc9b3193	-0.018944537
7	0x3de529b2	0.111895934
8	0xbd5bc584	-0.053655162
9	0x3e8db9a0	0.27680683
10	0xbe6aba81	-0.22922708
11	0x3e96a7f8	0.29425025
12	0x3df1a002	0.11798097
13	0x3e745c74	0.23863393
14	0xbe3871d6	-0.18012175
15	0xbe69c6b4	-0.22829705
16	0xbe8bd32c	-0.2730955
17	0x3e723532	0.23653105
18	0xbd647cb6	-0.055782996
19	0xbd3ebdd7	-0.046567764
20	0x3e7948a2	0.24344113
21	0xbe8ee2d7	-0.2790744
22	0xbe99a962	-0.3001204
23	0x3d9131bc	0.07089564
24	0xbe054a9d	-0.13016744
25	0x3e792b9f	0.24333046
26	0xbd90c200	-0.070682526
27	0xbd8339f3	-0.06407537
28	0x3e91fd3a	0.2851351
29	0xbe423ae2	-0.18967775
30	0x3c38c864	0.011278246
31	0x3e5d6aea	0.21622816
32	0xbe837b7f	-0.25680158
33	0x3daa8c24	0.08327511
34	0xbbaf455d	-0.005348845
35	0x3e2d10fd	0.16901012
36	0x3de0857f	0.10962962
37	0xbd0fd03b	-0.035110693
38	0x3d49a401	0.049228672
39	0xbd19bcd9	-0.037533615
40	0xbd483f53	-0.048888516
41	0xbb99c992	-0.0046932185
42	0x3e707d01	0.23485185
43	0xbdb0ef2f	-0.08639371
44	0xbda8fc44	-0.08251241
45	0xbccc9b6d	-0.024976457
46	0xbca21b04	-0.019788273
47	0x3ce62d14	0.028097667
48	0xbe11bba6	-0.14231738
49	0x3e87157b	0.26383576

firstGCN.attentionLayer.linear.bias f4 [5]
0	0xbd8b66cb	-0.068067156
1	0x3e85a1f3	0.2610012
2	0xbe1551ce	-0.14581987
3	0x3e769ff1	0.2408445
4	0xbe8e1399	-0.27749327

firstGCN.attentionLayer.inAttention.W_sum f4 [5, 5]
0	0x3d4511a2	0.04811252
1	0x3f75ded1	0.96043116
2	0x3f1a9b98	0.6039367
3	0x3ecea3c6	0.40359324
4	0x3e03e86d	0.12881632
5	0x3f010521	0.5039845
6	0x3ee0d459	0.43912008
7	0x3de1dbf6	0.11028282
8	0x3de60452	0.11231293
9	0x3ef72e37	0.48277447
10	0x3f36d26c	0.7141483
11	0x3e11869a	0.14211503
12	0x3df8c863	0.12147596
13	0x3f58802e	0.84570587
14	0x3f3d0c72	0.73847115
15	0x3f77712a	0.9665705
16	0x3f5abfb9	0.85448796
17	0x3c246c21	0.010035546
18	0x3efe1e67	0.4963257
19	0x3d838a20	0.0642283
20	0x3f390e66	0.72287595
21	0x3f431517	0.76204056
22	0x3e406c72	0.18791369
23	0x3f32d17d	0.69850904
24	0x3f1d908b	0.6154868

firstGCN.attentionLayer.inAttention.W_alpha f4 [5, 5]
0	0x3f24f985	0.64443237
1	0x3e5379e8	0.20651972
2	0x3f04540d	0.5169075
3	0x3ed4a688	0.41533303
4	0x3ec7923e	0.3897876
5	0x3dfff3a0	0.1249764
6	0x3ea13e2b	0.31492743
7	0x3f6f4715	0.9346784
8	0x3f771434	0.965152
9	0x3ec8b828	0.39203
10	0x3f74be48	0.95602846
11	0x3e12db4a	0.14341465
12	0x3e455b2f	0.19273065
13	0x3d6001b2	0.054689117
14	0x3e7a5ccc	0.24449462
15	0x3f395132	0.7238952
16	0x3f37d5fd	0.71810895
17	0x3f349166	0.7053436
18	0x3ec2405a	0.3793972
19	0x3eaed9da	0.34150583
20	0x3eb1d70c	0.3473438
21	0x3ef4a672	0.47783238
22	0x3e8780e9	0.26465538
23	0x3e943cfe	0.28952783
24	0x3ec0ce54	0.37657416

firstGCN.attentionLayer.inAttention.a_alpha f4 [5, 1]
0	0x3ef7df8c	0.4841274
1	0x3f3b76f7	0.732284
2	0x3dbe2580	0.09284496
3	0x3e794554	0.24342853
4	0x3d490dd0	0.04908544

firstGCN.attentionLayer.inAttention.b_alpha f4 [5, 1]
0	0x3f294da4	0.66134095
1	0x3f3ee37c	0.74565864
2	0x3f75ffc1	0.96093374
3	0x3f45f17b	0.77321595
4	0x3ed70f9e	0.42004102

firstGCN.attentionLayer.outAttention.W_sum f4 [5, 5]
0	0x3e552014	0.20813018
1	0x3f009dc4	0.5024073
2	0x3e9dc3ae	0.30813354
3	0x3eb5c6d0	0.35503244
4	0x3e79452a	0.2434279
5	0x3f717e7b	0.9433362
6	0x3e40c2a4	0.1882425
7	0x3e863f68	0.2622025
8	0x3eaf7b5e	0.3427381
9	0x3e832069	0.25610664
10	0x3f2a1dbf	0.6645164
11	0x3e2bc359	0.16773738
12	0x3f7dd8b9	0.9915882
13	0x3e7c66b2	0.2464855
14	0x3f2e2ff6	0.6804193
15	0x3ee92859	0.45538595
16	0x3f6466e9	0.8921953
17	0x3d91941f	0.0710833
18	0x3f3f0e5e	0.746313
19	0x3ec523e8	0.38503957
20	0x3f256ca0	0.64618874
21	0x3eca99d2	0.3957048
22	0x3e929866	0.28631896
23	0x3f32048f	0.69538206
24	0x3dcf9204	0.10135272

firstGCN.attentionLayer.outAttention.W_alpha f4 [5, 5]
0	0x3f4df16e	0.8044652
1	0x3f755a7f	0.9584121
2	0x3e95f2ec	0.29286897
3	0x3e8a778c	0.27044332
4	0x3f1fb4d2	0.62385285
5	0x3f3d3815	0.739137
6	0x3f27d8b2	0.65565026
7	0x3f08c83c	0.53430533
8	0x3ea22a42	0.31672865
9	0x3ece2406	0.4026186
10	0x3f05ea67	0.52310795
11	0x3ea3fe2c	0.32029855
12	0x3f23844b	0.6387374
13	0x3f2d8ac3	0.6778986
14	0x3ee8c532	0.45462948
15	0x3f106048	0.56396914
16	0x3f0b7838	0.54480314
17	0x3e8603f6	0.26174897
18	0x3f69d443	0.9133951
19	0x3e59f920	0.2128644
20	0x3f19638c	0.5991752
21	0x3c7e0d6a	0.015506128
22	0x3f08ea2c	0.5348232
23	0x3f466d5a	0.7751061
24	0x3f5073ed	0.8142689

firstGCN.attentionLayer.outAttention.a_alpha f4 [5, 1]
0	0x3d2ea810	0.042640746
1	0x3d72a5a0	0.059239984
2	0x3ea233fc	0.31680286
3	0x3bbc0780	0.0057381988
4	0x3d7d8a60	0.061899543

firstGCN.attentionLayer.outAttention.b_alpha f4 [5, 1]
0	0x3f3d98dc	0.7406137
1	0x3eb45ec2	0.35228544
2	0x3f5e1141	0.8674508
3	0x3f292abe	0.66080844
4	0x3e86b2e5	0.2630836

firstGCN.linearLayer.weight f4 [5, 10]
0	0xbe12c92d	-0.14334555
1	0xbc4c2289	-0.012459406
2	0x3e9d95ed	0.30778447
3	0x3e975930	0.29560232
4	0x3e65f406	0.22456369
5	0x3e4f6cd1	0.20256354
6	0xbd788d92	-0.060681887
7	0xbe8cff20	-0.27538395
8	0xbc2f6b08	-0.010706671
9	0x3e85a63a	0.26103383
10	0xbe120372	-0.14259127
11	0xbe8725d3	-0.26396045
12	0xbd37e8e6	-0.044899844
13	0x3e5c9945	0.21542843
14	0x3e7184d0	0.2358582
15	0x3e91f21a	0.2850502
16	0x3e1597fe	0.14608762
17	0x3e6cca43	0.23124032
18	0x3e75fdcb	0.24022596
19	0xbcdd656c	-0.0270259
20	0x3d032151	0.032014195
21	0x3e63e59a	0.22255555
22	0x3d9661c9	0.0734287
23	0xbe6ae698	-0.22939527
24	0xbe0c1273	-0.13678913
25	0x3e962271	0.29323152
26	0x3e986261	0.29762557
27	0x3d8e7182	0.06955244
28	0xbe1ea34e	-0.15491983
29	0x3d785c5c	0.060634956
30	0xbe9f94e7	-0.3116829
31	0x3da81f82	0.08209135
32	0x3d989ef8	0.07452196
33	0x3e3d1d30	0.18468165
34	0xbe9becc1	-0.30454066
35	0xbdc03f75	-0.093871035
36	0x3e0fcb9a	0.14042512
37	0xbd4f2483	-0.05057193
38	0xbe8246a5	-0.25444523
39	0xbe4e01c7	-0.20117866
40	0x3e892bda	0.2679127
41	0x3e19c454	0.150163
42	0xbe7c0782	-0.24612239
43	0x3c288652	0.010285931
44	0x3bf656c6	0.0075176684
45	0x3e23964f	0.15975307
46	0x3e99c9bb	0.3003672
47	0xbe9135d5	-0.28361383
48	0xbe5b6be0	-0.2142787
49	0x3e84ffcf	0.25976416

firstGCN.linearLayer.bias f4 [5]
0	0x3d84dcf2	0.064874545
1	0xbe68e8dd	-0.2274508
2	0x3e3850a2	0.17999509
3	0xbe2ae45f	-0.16688679
4	0xbe02c6c9	-0.12771143

secondGCN.attentionLayer.linear.weight f4 [5, 10]
0	0x3e07c87a	0.1326007
1	0x3d4d5945	0.050133962
2	0xbe8dca15	-0.2769324
3	0xbdff21d2	-0.124576226
4	0x3e10769f	0.1410775
5	0xbe80c0f8	-0.25147223
6	0x3e33723b	0.17524044
7	0x3dfc54ad	0.12320838
8	0xbc880715	-0.01660494
9	0xbcf62062	-0.030044738
10	0x3d6321f2	0.055452295
11	0xbe6b5b01	-0.22983934
12	0x3e992c48	0.29916596
13	0xbe9d8074	-0.30762064
14	0xbe8d3092	-0.2757612
15	0x3de53845	0.11192373
16	0x3d580c00	0.05274582
17	0x3cb22895	0.021747867
18	0x3e087ee2	0.13329652
19	0x3e81fe1d	0.25389186
20	0xbde57701	-0.11204339
21	0xbe0cbf00	-0.13744736
22	0xbe4fc0fc	-0.20288461
23	0xbe401e6e	-0.18761608
24	0xbe87a178	-0.26490378
25	0x3e296dd4	0.16545802
26	0x3e4940ea	0.19653669
27	0xbe9f372d	-0.31096783
28	0xbe9f6277	-0.3112981
29	0xbd80f4d6	-0.06296699
30	0xbcdc0ac2	-0.026860598
31	0x3da3fdce	0.08007394
32	0xbe5bfbef	-0.21482824
33	0x3da961aa	0.08270581
34	0x3e90421a	0.2817543
35	0xbe6cca0e	-0.23123953
36	0x3e585fde	0.2113032
37	0xbe3faefd	-0.18719096
38	0x3e62d045	0.22149761
39	0xbcffd159	-0.031227754
40	0x3e192333	0.14954834
41	0x3dc8772e	0.09788357
42	0x3e142632	0.14467695
43	0xbe802d7c	-0.25034702
44	0xbe1be00a	-0.15222183
45	0xbe910d19	-0.28330305
46	0xbe5a5fe6	-0.21325645
47	0x3e6ac163	0.22925334
48	0xbdfe9e59	-0.12432546
49	0x3da2e9f0	0.07954776

secondGCN.attentionLayer.linear.bias f4 [5]
0	0xbe92f22a	-0.28700382
1	0xbe8c0914	-0.27350676
2	0xbd8e9c66	-0.069634244
3	0xbe6a04c2	-0.22853377
4	0x3e973d89	0.29539135

secondGCN.attentionLayer.inAttention.W_sum f4 [5, 5]
0	0x3e1f7740	0.15572834
1	0x3f0f7f1b	0.5605332
2	0x3e18d580	0.14925194
3	0x3f749407	0.9553837
4	0x3d94a4d8	0.07258004
5	0x3f19ede3	0.6012861
6	0x3f7a1168	0.9768281
7	0x3f4f8fd9	0.8107887
8	0x3f3be8e2	0.73402226
9	0x3edeae40	0.43492317
10	0x3f5b7f39	0.85741
11	0x3ea18ca4	0.31552613
12	0x3f5098cc	0.8148315
13	0x3e81f216	0.2538001
14	0x3f5b5905	0.8568271
15	0x3d8fcab0	0.070210814
16	0x3f1a3ad3	0.6024601
17	0x3f29321b	0.6609208
18	0x3f0c6715	0.5484479
19	0x3e9b41da	0.30323678
20	0x3f30e0d9	0.6909309
21	0x3f7937f1	0.97350985
22	0x3f59a570	0.8501806
23	0x3d939990	0.07207024
24	0x3f0be5fe	0.54647815

secondGCN.attentionLayer.inAttention.W_alpha f4 [5, 5]
0	0x3d8daf48	0.06918198
1	0x3e20f150	0.15717053
2	0x3f58fb1a	0.8475815
3	0x3c03af00	0.008037329
4	0x3f42e25d	0.7612665
5	0x3f75441c	0.9580705
6	0x3d88dc00	0.06682587
7	0x3f7b6652	0.98203003
8	0x3f011f1b	0.5043809
9	0x3f00b12e	0.50270355
10	0x3eed2fbc	0.4632548
11	0x3f5b1796	0.85582864
12	0x3f5eb834	0.8699982
13	0x3ef89894	0.48553908
14	0x3e5dedf0	0.21672797
15	0x3ec96c84	0.39340603
16	0x3ede62e4	0.43434823
17	0x3b88ce80	0.0041750073
18	0x3e1e7024	0.15472466
19	0x3eb65502	0.3561173
20	0x3eadbb28	0.3393185
21	0x3f72fe26	0.9491905
22	0x3e8c5c2e	0.27414078
23	0x3f620196	0.8828367
24	0x3dd7bfc8	0.10534626

secondGCN.attentionLayer.inAttention.a_alpha f4 [5, 1]
0	0x3e3d0be0	0.18461561
1	0x3f01f4e9	0.5076433
2	0x3f190dae	0.597865
3	0x3f12ce66	0.5734619
4	0x3eae2416	0.34011906

secondGCN.attentionLayer.inAttention.b_alpha f4 [5, 1]
0	0x3dbe6538	0.0929665
1	0x3ebf216c	0.37330186
2	0x3e712d58	0.23552454
3	0x3dc4dc88	0.096123755
4	0x3ed2e606	0.4119112

secondGCN.attentionLayer.outAttention.W_sum f4 [5, 5]
0	0x3e010fb8	0.12603652
1	0x3f268bcf	0.6505708
2	0x3f1ede56	0.6205801
3	0x3f6d9be1	0.9281598
4	0x3edfb73c	0.43694484
5	0x3f381af8	0.7191615
6	0x3ea3408e	0.3188519
7	0x3df4c250	0.11951125
8	0x3f25a734	0.64708257
9	0x3e48ffc0	0.19628811
10	0x3f778b06	0.9669651
11	0x3e9c6b40	0.30550575
12	0x3ccad160	0.02475804
13	0x3e9545ee	0.29154915
14	0x3f4b1eb1	0.79343706
15	0x3e8158aa	0.25262958
16	0x3da10c70	0.078637004
17	0x3f7fd1c9	0.9992948
18	0x3ed60e38	0.41807723
19	0x3f0a4a6e	0.5401982
20	0x3f092346	0.5356945
21	0x3f586569	0.8452974
22	0x3f4796fb	0.7796475
23	0x3f022326	0.5083488
24	0x3ea48720	0.32134342

secondGCN.attentionLayer.outAttention.W_alpha f4 [5, 5]
0	0x3f26a3a8	0.6509347
1	0x3e35b120	0.17743349
2	0x3e785d80	0.24254417
3	0x3f16888d	0.5880211
4	0x3d1fd7a0	0.039023995
5	0x3f32231f	0.6958484
6	0x3f59bfec	0.85058475
7	0x3df723b8	0.1206736
8	0x3ee50ac8	0.44734788
9	0x3ea1c2da	0.31593972
10	0x3c184ac0	0.009295166
11	0x3d6abc60	0.057308555
12	0x3eabbd8a	0.33543044
13	0x3f23f01c	0.6403825
14	0x3f7c249f	0.9849338
15	0x3f5b20b7	0.85596794
16	0x3ed2fb64	0.4120742
17	0x3f2231c1	0.6335717
18	0x3e192a24	0.14957482
19	0x3f4dbf4c	0.8037002
20	0x3e10c254	0.1413663
21	0x3f61d861	0.88220793
22	0x3f5bb717	0.8582625
23	0x3ecc545c	0.3990811
24	0x3ee066a6	0.43828315

secondGCN.attentionLayer.outAttention.a_alpha f4 [5, 1]
0	0x3eac4174	0.33643687
1	0x3e417304	0.18891531
2	0x3d1810c0	0.03712535
3	0x3efd922a	0.49525577
4	0x3f04bb37	0.5184817

secondGCN.attentionLayer.outAttention.b_alpha f4 [5, 1]
0	0x3ea65632	0.32487637
1	0x3eb3c34c	0.35109937
2	0x3f40e74b	0.75352925
3	0x3ead8a76	0.338947
4	0x3f4e3701	0.8055268

secondGCN.linearLayer.weight f4 [5, 10]
0	0x3daada9c	0.08342478
1	0xbe52dba5	-0.205916
2	0x3e4bf6a6	0.19918308
3	0x3dccb0c7	0.09994655
4	0x3d21c21b	0.039491754
5	0xbd2d1f7b	-0.04226635
6	0x3e69a75f	0.22817753
7	0x3d388212	0.04504592
8	0x3e436ff5	0.19085677
9	0xbd9bcac9	-0.076070376
10	0xbdd818d8	-0.105516136
11	0xbcdc0317	-0.026856942
12	0xbdb0ae65	-0.08627013
13	0xbe53ae6c	-0.20672005
14	0xbd12728a	-0.035753764
15	0xbbcd725f	-0.0062697376
16	0x3e6dd003	0.23223881
17	0xbe269cda	-0.16270772
18	0x3da09b76	0.07842152
19	0xbd0d6f72	-0.03453011
20	0xbe8e42db	-0.27785382
21	0x3e1f762e	0.15572426
22	0xbe1818b1	-0.14853169
23	0x3e8f9951	0.2804666
24	0xbe80155c	-0.25016296
25	0xbd5616f0	-0.05226797
26	0xbdb6b910	-0.089220166
27	0x3e86395a	0.2621563
28	0xbdde4a37	-0.10853999
29	0xbe2be3ec	-0.16786164
30	0xbdb5ff7a	-0.08886619
31	0x3d7bcdf6	0.061475717
32	0xbe9302d6	-0.287131
33	0x3c6c39a9	0.014418044
34	0x3e90aab3	0.28255233
35	0xbe3c4eff	-0.1838951
36	0x3d0a5298	0.033770174
37	0x3e50560e	0.20345327
38	0xbe4d1850	-0.20028806
39	0x3b2f3e9a	0.0026740194
40	0x3e97db0a	0.296593
41	0xbe511312	-0.20417431
42	0x3d104bfd	0.035228718
43	0x3e140412	0.14454678
44	0x3dfd1cbb	0.123589955
45	0x3e42732c	0.18989247
46	0x3dc67a69	0.09691317
47	0xbe867542	-0.26261336
48	0xbe84276e	-0.25811332
49	0x3d4dec3c	0.05027412

secondGCN.linearLayer.bias f4 [5]
0	0xbe6806cf	-0.22658847
1	0x3d64931a	0.05580435
2	0xbc3cfff4	-0.011535633
3	0xbe2bb702	-0.1676903
4	0x3e9ec74f	0.31011435

thirdGCN.attentionLayer.linear.weight f4 [5, 10]
0	0xbd93a7b1	-0.07209719
1	0xbe163f6a	-0.14672628
2	0x3e50dad5	0.20395978
3	0xbe857086	-0.2606241
4	0xbd999b29	-0.075002976
5	0xbe29b325	-0.16572244
6	0xbd83d97b	-0.064379655
7	0x3ddd1c2d	0.1079639
8	0x3db7a07c	0.08966157
9	0x3cda35b7	0.026636941
10	0xbdf6c403	-0.12049105
11	0x3e756e74	0.23967916
12	0xbe894400	-0.26809692
13	0x3e46520b	0.19367234
14	0xbb591213	-0.0033122345
15	0x3e40a678	0.18813503
16	0xbe40f78d	-0.18844433
17	0x3ca524a6	0.020159077
18	0xbe9f429d	-0.3110551
19	0x3e8789ac	0.26472223
20	0xbe908ef4	-0.28234065
21	0x3c113887	0.008863575
22	0x3cf39d04	0.029737957
23	0xbda05e7d	-0.07830522
24	0xbe8f0786	-0.27935427
25	0xbe97367e	-0.29533762
26	0x3de80dae	0.11330734
27	0xbe11fbe5	-0.14256246
28	0xbbea0a69	-0.0071423543
29	0xbe5eddef	-0.21764348
30	0xbe5ecdd8	-0.2175821
31	0x3e94d659	0.29069784
32	0xbe412cf9	-0.18864812
33	0x3d42be9d	0.047545064
34	0xbe9ec87d	-0.31012335
35	0xbe8c1306	-0.27358264
36	0x3e545e62	0.20739129
37	0xbde8777f	-0.11350917
38	0xbcbeb67c	-0.023280375
39	0xbe4e8d02	-0.20170978
40	0x3e6c2a46	0.23063001
41	0x3bbb284d	0.0057115913
42	0xbe0e1e0b	-0.13878648
43	0x3e0d6ff3	0.13812236
44	0xbe453f8c	-0.19262522
45	0xbe8bf3e4	-0.2733451
46	0xbdb4679a	-0.08808823
47	0x3e4476f3	0.19186
48	0x3cfc54e0	0.03080219
49	0xbe3abde1	-0.18236496

thirdGCN.attentionLayer.linear.bias f4 [5]
0	0xbdb19a7a	-0.08672042
1	0xbe2666cc	-0.16250151
2	0x3e2e4c36	0.1702126
3	0xbe674a01	-0.22586824
4	0x3e61f356	0.22065482

thirdGCN.attentionLayer.inAttention.W_sum f4 [5, 5]
0	0x3f44b809	0.76843315
1	0x3e27be14	0.16381103
2	0x3f6910f6	0.91041505
3	0x3f1eaa88	0.6197896
4	0x3da9c4d0	0.08289492
5	0x3efbd86e	0.4918856
6	0x3edbb5c0	0.42912102
7	0x3edd2b06	0.43196887
8	0x3f65e623	0.89804286
9	0x3f25e9d1	0.648099
10	0x3eb62d6c	0.3558153
11	0x3d58c530	0.052922428
12	0x3f4d3d83	0.80171984
13	0x3f1646ad	0.5870159
14	0x3edd8fc2	0.4327374
15	0x3f642897	0.89124435
16	0x3e4a0f8c	0.19732493
17	0x3e99db72	0.30050236
18	0x3e9de67e	0.30839914
19	0x3f40beaa	0.7529093
20	0x3ef0d3b2	0.4703651
21	0x3f64ac13	0.89325064
22	0x3f7aaeff	0.9792327
23	0x3f3041fa	0.6885067
24	0x3f2ecded	0.6828297

thirdGCN.attentionLayer.inAttention.W_alpha f4 [5, 5]
0	0x3d37d470	0.04488033
1	0x3c616c00	0.013758659
2	0x3da255e8	0.079265416
3	0x3e34a838	0.17642295
4	0x3f0b4707	0.54405254
5	0x3d313780	0.04326582
6	0x3f519102	0.8186189
7	0x3f20e58a	0.6285025
8	0x3f1420ac	0.57862353
9	0x3f74d85a	0.95642626
10	0x3c8549c0	0.016270518
11	0x3f366715	0.7125104
12	0x3f76fbf4	0.964782
13	0x3dd5ff60	0.104490995
14	0x3dff0ff0	0.12454212
15	0x3e4bd944	0.19907099
16	0x3e0d3884	0.1379109
17	0x3e962304	0.2932359
18	0x3f644e7b	0.8918225
19	0x3e94089e	0.28912824
20	0x3f0a6dc3	0.54073733
21	0x3f54f191	0.831811
22	0x3f4cf309	0.8005834
23	0x3e9fd4f6	0.31217164
24	0x3f7b7353	0.98222846

thirdGCN.attentionLayer.inAttention.a_alpha f4 [5, 1]
0	0x3f6b8e32	0.9201385
1	0x3f3a368c	0.7273948
2	0x3ed5978a	0.41717178
3	0x3f746070	0.9545965
4	0x3da4e3c0	0.08051252

thirdGCN.attentionLayer.inAttention.b_alpha f4 [5, 1]
0	0x3e7e5288	0.2483617
1	0x3f5a29ce	0.8522004
2	0x3f00d661	0.50327116
3	0x3f40591f	0.7513599
4	0x3f0e5795	0.5560239

thirdGCN.attentionLayer.outAttention.W_sum f4 [5, 5]
0	0x3f6bfae6	0.92179716
1	0x3f200937	0.6251406
2	0x3f4654e5	0.7747329
3	0x3ddae220	0.10687661
4	0x3f78fe97	0.97263473
5	0x3f46268f	0.77402586
6	0x3ebad994	0.36494124
7	0x3e9e08ea	0.30866176
8	0x3e9a911a	0.3018883
9	0x3f51a030	0.8188505
10	0x3f674b2f	0.90349096
11	0x3f612458	0.8794608
12	0x3f5cd6d7	0.8626532
13	0x3efe3a20	0.4965372
14	0x3ee56810	0.44805956
15	0x3e328ad4	0.17435771
16	0x3f24d4a3	0.6438696
17	0x3de83b80	0.11339474
18	0x3ee2da06	0.44306964
19	0x3edb3bb4	0.42818987
20	0x3ebaa5da	0.3645466
21	0x3f78d937	0.97206444
22	0x3f35acfb	0.7096707
23	0x3e08613c	0.13318342
24	0x3e9ae632	0.3025375

thirdGCN.attentionLayer.outAttention.W_alpha f4 [5, 5]
0	0x3f60999a	0.8773438
1	0x3f4c26b1	0.7974654
2	0x3d7a3fc0	0.061095953
3	0x3f5d6099	0.8647552
4	0x3d90e120	0.07074189
5	0x3f78337e	0.9695357
6	0x3f412132	0.7544128
7	0x3f146204	0.5796206
8	0x3dbec150	0.09314215
9	0x3f728417	0.94732803
10	0x3e9c1e62	0.3049193
11	0x3dbbd638	0.09171718
12	0x3f6838ac	0.90711474
13	0x3d4a9cd0	0.049465954
14	0x3f7e2ade	0.9928416
15	0x3d2f03d0	0.042728245
16	0x3f273cdc	0.6532724
17	0x3e548bb8	0.20756423
18	0x3f0fb5d0	0.561368
19	0x3d836228	0.06415206
20	0x3f17e3d5	0.5933202
21	0x3ead4c96	0.33847493
22	0x3ee95f1e	0.4558038
23	0x3e63fb1c	0.2226376
24	0x3f21fafc	0.63273597

thirdGCN.attentionLayer.outAttention.a_alpha f4 [5, 1]
0	0x3f074cda	0.5285164
1	0x3f044f5c	0.5168359
2	0x3e9bfc6c	0.3046602
3	0x3d5920e0	0.053009868
4	0x3e841ea0	0.25804615

thirdGCN.attentionLayer.outAttention.b_alpha f4 [5, 1]
0	0x3eefd516	0.4684226
1	0x3dc76800	0.09736633
2	0x3eba8c54	0.36435187
3	0x3ed23300	0.41054535
4	0x3f662555	0.89900714

thirdGCN.linearLayer.weight f4 [5, 10]
0	0x3e7da7e6	0.2477108
1	0x3defc9b8	0.11708397
2	0x3e662f44	0.22478968
3	0xbe4956fe	-0.19662091
4	0xbe90562c	-0.28190744
5	0x3dfcc22b	0.12341722
6	0x3e214b8d	0.15751477
7	0x3d960f36	0.0732712
8	0x3e029220	0.12751055
9	0x3e88f398	0.26748347
10	0x3b4db23f	0.003138676
11	0x3b3bec5d	0.002867482
12	0x3e3648bc	0.17801183
13	0x3dbdeba0	0.092734575
14	0x3e3c3b5c	0.18382019
15	0xbe2028c2	-0.15640548
16	0x3e684f35	0.22686465
17	0x3dc2ead8	0.09517449
18	0xbe865f95	-0.26244798
19	0xbe06823d	-0.1313562
20	0x3d9d4b38	0.076803625
21	0x3e89fadb	0.269492
22	0x3e764247	0.2404872
23	0xbd7be9ac	-0.061502144
24	0x3e971d79	0.29514673
25	0xbe3bcec4	-0.18340594
26	0x3e27a6d9	0.16372241
27	0x3e25d9c2	0.1619635
28	0xbdcb93e6	-0.09940319
29	0xbe86e9de	-0.26350302
30	0xbe828a15	-0.25495973
31	0xbe8eec4e	-0.2791466
32	0x3ea1df53	0.31615695
33	0xbd4537f0	-0.04814905
34	0x3e813eb0	0.2524314
35	0xbe0db125	-0.13837107
36	0x3e89db22	0.26924998
37	0xbe9a4b31	-0.30135491
38	0xbd5126a8	-0.051062256
39	0x3e8f56be	0.27995867
40	0xbe8e4afe	-0.2779159
41	0x3c50b6a2	0.012738856
42	0xbc894c2a	-0.01675995
43	0xbe33032a	-0.17481676
44	0xbcaa28b1	-0.020771356
45	0x3e4605e4	0.19338185
46	0x3e58bf52	0.21166733
47	0x3e4c8ada	0.19974843
48	0x3e0969b6	0.13419232
49	0x3e86aa5b	0.26301846

thirdGCN.linearLayer.bias f4 [5]
0	0xbd1dc4a6	-0.038517617
1	0xbe3eedd3	-0.1864541
2	0x3ea18baf	0.31551883
3	0x3e8d0a4f	0.27546927
4	0x3dcdf6a2	0.10056807

ff4.weight f4 [5, 5]
0	0x3e567ef5	0.20946868
1	0xbe9d7e3d	-0.30760375
2	0xbd99cc48	-0.07509667
3	0xbe705ce6	-0.23472938
4	0xbea63f35	-0.32470098
5	0x3e9b6ad6	0.30354947
6	0x3ec20c2d	0.37899914
7	0xbdfaec69	-0.12252123
8	0x3ec6463d	0.38725463
9	0x3cf2566d	0.029582227
10	0x3e7d14c0	0.24714947
11	0x3e94408f	0.28955504
12	0xbcd2e8c7	-0.025745763
13	0x3ee2d98e	0.44306606
14	0x3ea502a9	0.32228592
15	0x3e853add	0.26021472
16	0xbe762178	-0.24036205
17	0xbc8a40bf	-0.016876576
18	0x3eb18be6	0.34677047
19	0xbd9e683f	-0.07734727
20	0x3e6bde95	0.23034127
21	0x3ea2298e	0.3167233
22	0xbe480ce1	-0.19536163
23	0x3eafcbaf	0.34335086
24	0xbce26d49	-0.027640002

ff4.bias f4 [5]
0	0x3e981348	0.2970221
1	0xbe5ef1a1	-0.21771862
2	0xbdf8b30d	-0.12143526
3	0xbecaa4d2	-0.39578873
4	0xbdd5d471	-0.104409106

ff5.weight f4 [5, 5]
0	0x3e7321ee	0.23743412
1	0x3e5f99b8	0.21835983
2	0xbeb38d41	-0.35068706
3	0xbd30ae1f	-0.043134805
4	0xbea0bca0	-0.3139391
5	0xbe8af083	-0.2713662
6	0x3e73d69b	0.23812334
7	0xbe686493	-0.22694616
8	0x3d0cd961	0.034386996
9	0x3d08d97c	0.033410534
10	0xbeca664b	-0.39531168
11	0xbdc30bc3	-0.09523728
12	0xbdf6d1cd	-0.12051735
13	0xbe9de8af	-0.30841586
14	0xbed88747	-0.42290708
15	0x3ede2796	0.43389577
16	0x3eb9a04b	0.36255106
17	0x3e3a1a6f	0.18174146
18	0x3dbd0780	0.09229946
19	0xbec18316	-0.37795323
20	0x3e5f89a6	0.21829852
21	0xbec392eb	-0.38198027
22	0xbe43d76d	-0.19125147
23	0xbe1bb12f	-0.15204309
24	0x3e8e118e	0.27747768

ff5.bias f4 [5]
0	0x3e1eb03d	0.15496917
1	0xbe0c19a3	-0.13681655
2	0xbdd61e94	-0.10455051
3	0xbe14f5d5	-0.14546902
4	0x3e192892	0.14956883

ff6.weight f4 [20, 5]
0	0x3eb1c71d	0.34722224
1	0xbeb24ea2	-0.34825617
2	0x3d84f8a1	0.06492735
3	0xbe9b46c1	-0.30327418
4	0xbe9b6167	-0.3034775
5	0xbe8fbc9a	-0.2807358
6	0xbd18a0b3	-0.03726263
7	0x3ec30005	0.38085952
8	0x3ee417f6	0.4454953
9	0x3eba49ae	0.36384338
10	0x3d8272da	0.063695624
11	0x3e86f29c	0.2635697
12	0xbea9fc02	-0.3320008
13	0xbeb20d6a	-0.3477586
14	0x3ec0834f	0.3760018
15	0x3ec1d8f7	0.37860844
16	0x3e976c8d	0.29575005
17	0xbe559c33	-0.20860367
18	0xbecf547d	-0.40494147
19	0x3dc4db2e	0.09612118
20	0x3d642304	0.055697456
21	0x3ea0f9e4	0.3144065
22	0x3dc6c4a0	0.09705472
23	0x3e8ebd45	0.27878776
24	0xbe17a82d	-0.14810248
25	0x3e14d61b	0.145348
26	0xbecc034a	-0.3984626
27	0xbd24fea8	-0.04028192
28	0xbe1aedd3	-0.15129785
29	0xbe80b19e	-0.2513551
30	0xbe8f2464	-0.2795745
31	0xbe331705	-0.1748925
32	0xbe84f68f	-0.2596936
33	0x3d64d552	0.0558675
34	0x3e6780d1	0.22607733
35	0x3ed3c2eb	0.41359648
36	0xbe4fc4b7	-0.20289885
37	0x3ee19856	0.44061536
38	0xbeb3cb08	-0.35115838
39	0x3e9794bb	0.2960566
40	0x3e02d0d2	0.12774971
41	0xbebcef6d	-0.36901417
42	0xbe24c36c	-0.16090173
43	0x3eb0499c	0.3443116
44	0x3d886101	0.06659127
45	0x3e3d820c	0.1850664
46	0x3e900744	0.28130543
47	0x3ec55cb9	0.38547304
48	0xbe3f4187	-0.1867734
49	0x3ed0a7fa	0.40753156
50	0xbe2f9d19	-0.17149772
51	0x3de91b9a	0.11382218
52	0xbd939446	-0.07206015
53	0xbe2000b2	-0.15625265
54	0xbd9c07f4	-0.076187044
55	0xbec09f8a	-0.3762172
56	0x3e85ac19	0.26107863
57	0xbd88ee1c	-0.06686041
58	0xbea5a533	-0.323526
59	0x3ebcfcf6	0.36911744
60	0xbe99d974	-0.30048716
61	0x3d8a5eab	0.06756338
62	0x3edb1e24	0.42796433
63	0xbe13ca10	-0.1443255
64	0xbeb7af1e	-0.3587579
65	0xbc99502b	-0.018714985
66	0xbe75c7c6	-0.24001989
67	0xbecec425	-0.4038402
68	0x3e17184b	0.14755361
69	0xbdbf8667	-0.09351807
70	0x3c27f706	0.010251766
71	0xbedd8131	-0.43262628
72	0x3de4b10b	0.11166581
73	0xbe8b3495	-0.27188554
74	0x3e86530d	0.26235238
75	0x3c140880	0.00903523
76	0x3e83af46	0.2571966
77	0x3e277474	0.16353017
78	0x3e4908da	0.19632283
79	0x3e002e99	0.12517776
80	0xbdcb1b31	-0.09917296
81	0x3ebfdbb0	0.37472296
82	0x3e9241f0	0.2856593
83	0x3d5647f3	0.05231471
84	0x3cc8514e	0.024452832
85	0x3e99229e	0.29909223
86	0xbea7e400	-0.32791138
87	0x3e333778	0.17501628
88	0x3e5d1cda	0.21593037
89	0xbe68584d	-0.22689934
90	0x3ed1a508	0.4094622
91	0x3dacbea9	0.08434803
92	0xbea8db41	-0.32979777
93	0xbea731a7	-0.3265507
94	0xbec2fa27	-0.38081476
95	0x3eb781ff	0.35841367
96	0xbeb7482b	-0.35797247
97	0xbe8dd2c9	-0.2769988
98	0xbeaedef3	-0.34154472
99	0xbcea5f1d	-0.028609807

ff6.bias f4 [20]
0	0x3db9cad8	0.090718925
1	0x3ec32cd2	0.38120133
2	0x3edb6e85	0.42857757
3	0xbb65cca5	-0.0035064605
4	0xbec2e0b7	-0.3806207
5	0x3ea02696	0.3127944
6	0xbed99ee0	-0.42504025
7	0xbea8fd08	-0.33005548
8	0x3ec21f1c	0.3791436
9	0xbe3234b7	-0.17402922
10	0xbdb5122f	-0.08841359
11	0xbde3735d	-0.11105988
12	0xbdfd5b81	-0.123709686
13	0xbe4f28be	-0.20230386
14	0x3de10b92	0.10988535
15	0xbed11492	-0.40836006
16	0xbdbc43db	-0.0919263
17	0x3d5e1670	0.054220617
18	0x3e14ec80	0.14543343
19	0xbe816ee5	-0.25279918
