code/ml_model/model_weights_m6p8n30_lr0.001000_bs250_epochs10.pth (torch, 22438 bytes, 48 tensors)

ff1.weight f4 [5, 5]
0	0xbedd1dcf	-0.43186805
1	0x3e69311e	0.22772643
2	0xbe742d2b	-0.23845355
3	0xbea09c3b	-0.31369194
4	0x3eaa4558	0.3325603
5	0xbc599af0	-0.013281569
6	0xbd490bbe	-0.049083464
7	0xbea728db	-0.32648358
8	0xbe2f9329	-0.17145981
9	0x3ec9e3b1	0.39431527
10	0xbe271f38	-0.16320503
11	0x3d7226cb	0.059119027
12	0xbda4baad	-0.08043418
13	0x3ec06120	0.375741
14	0xbeb71987	-0.35761663
15	0x3eac744e	0.33682483
16	0x3daaad45	0.0833383
17	0x3e00401a	0.12524453
18	0xbeaaca50	-0.33357477
19	0x3c25361b	0.0100837005
20	0x3d17536e	0.0369448
21	0xbea012a6	-0.31264228
22	0xbea921fc	-0.3303374
23	0xbe715db7	-0.23570906
24	0x3e3f8aaa	0.1870524

ff1.bias f4 [5]
0	0x3edfdf88	0.43725228
1	0x3e3deffb	0.18548577
2	0xbece5043	-0.4029561
3	0x3e548498	0.20753706
4	0x3ea72b49	0.3265021

ff2.weight f4 [5, 5]
0	0x3cd9bfd5	0.02658073
1	0x3e7ea885	0.24868973
2	0x3eb02422	0.34402567
3	0x3e68965a	0.22713605
4	0xbed900a1	-0.42383292
5	0x3d26d604	0.040731445
6	0xbebc7c6f	-0.36813685
7	0x3e996762	0.29961687
8	0x3ebeae3d	0.37242308
9	0xbe4798eb	-0.19491927
10	0xbeaaec71	-0.33383515
11	0x3e175e0d	0.14781971
12	0x3eb63c09	0.35592678
13	0xbed632fd	-0.41835776
14	0xbd282e98	-0.04106006
15	0xbedfd632	-0.43718106
16	0xbde89489	-0.11356456
17	0x3e63c50d	0.22243138
18	0xbee14b88	-0.44002938
19	0xbdcb3f11	-0.09924138
20	0xbe2ddef9	-0.16979589
21	0x3eda1c3b	0.42599663
22	0xbdd0a1be	-0.101871
23	0xbeace732	-0.33770138
24	0xbe2673ba	-0.16255084

ff2.bias f4 [5]
0	0xbe8b260b	-0.27177462
1	0xbb2ea6a0	-0.002664961
2	0xbe204217	-0.15650211
3	0xbe92565d	-0.28581515
4	0xbdaae806	-0.08345036

ff3.weight f4 [5, 5]
0	0x3db30bca	0.08742483
1	0xbdba2afe	-0.09090231
2	0xbd895078	-0.06704801
3	0x3df284bc	0.11841723
4	0xbbbd7857	-0.005782168
5	0xbdf6f036	-0.12057535
6	0x3e9bedd5	0.3045489
7	0xbe100499	-0.14064254
8	0x3ee16544	0.44022572
9	0xbe90a9c4	-0.2825452
10	0xbe204ae5	-0.1565357
11	0x3e6c5f69	0.23083271
12	0x3ed6374d	0.41839066
13	0xbebb7fac	-0.36620843
14	0x3e480330	0.19532466
15	0xbebb6302	-0.36598974
16	0xbe8b173e	-0.2716617
17	0x3ecc201e	0.39868253
18	0xbe79f39a	-0.24409333
19	0x3eb0733e	0.34462923
20	0x3d20f35a	0.039294578
21	0x3d301815	0.042991716
22	0x3ebdf273	0.37099037
23	0x3e99287f	0.2991371
24	0xbdc0bc93	-0.09410968

ff3.bias f4 [5]
0	0xbe7a7d02	-0.24461749
1	0xbe4e3375	-0.20136817
2	0xbeb31c47	-0.3498251
3	0x3d743d7e	0.059628956
4	0x3eafc726	0.34331626

firstGCN.attentionLayer.linear.weight f4 [5, 10]
0	0xbe80eab0	-0.25179052
1	0x3d8cdf44	0.06878522
2	0xbea05287	-0.31312963
3	0xbe88690f	-0.26642653
4	0x3e441954	0.19150287
5	0x3d3762ed	0.044772077
6	0xbded23fe	-0.115791306
7	0xbe1b2514	-0.15150863
8	0xbe57ede3	-0.2108684
9	0xbe6ed85e	-0.23324725
10	0x3cbe853e	0.023256894
11	0xbe63a4ef	-0.22230886
12	0xbdbc66d7	-0.09199303
13	0xbe5a3a02	-0.2131119
14	0x3ea08e9e	0.31358808
15	0x3e45a1bd	0.1929998
16	0xbe660233	-0.22461776
17	0xbe747751	-0.2387364
18	0x3b99d252	0.0046942616
19	0xbe862290	-0.26198244
20	0x3e063fda	0.13110295
21	0x3df3822d	0.118900634
22	0x3d8f18cd	0.06987152
23	0x3e9111dd	0.2833394
24	0xba5e06aa	-0.0008469621
25	0x3dbf6e10	0.09347165
26	0xbc6fe020	-0.014640838
27	0x3e92a820	0.28643894
28	0x3e9f3392	0.31094033
29	0x3e2706d1	0.16311194
30	0xbe1db94e	-0.1540272
31	0x3d477bf1	0.048702184
32	0xbe748db1	-0.23882176
33	0xbe3ae7db	-0.18252508
34	0x3e670e15	0.22563966
35	0x3ca87a29	0.020566063
36	0xbea05d8c	-0.3132137
37	0x3e8251c2	0.25453
38	0xbce6f11c	-0.028191142
39	0x3e3e0534	0.18556672
40	0x3e77437d	0.24146838
41	0x3daac472	0.0833825
42	0xbe7e5e04	-0.24840552
43	0xbe2ca03f	-0.16858004
44	0xbe25bd8f	-0.16185592
45	0x3e407e9f	0.18798302
46	0x3e8ec8c4	0.27887547
47	0xbe5b7205	-0.21430214
48	0xbe99f934	-0.3007294
49	0xbe09300a	-0.13397232

firstGCN.attentionLayer.linear.bias f4 [5]
0	0xbe6bdbaa	-0.23033014
1	0xbe9cf28f	-0.30653808
2	0x3c345bbd	0.0110082
3	0x3e67fa3a	0.22654048
4	0x3dd2ebb3	0.10298862

firstGCN.attentionLayer.inAttention.W_sum f4 [5, 5]
0	0x3f2f3260	0.6843624
1	0x3f2952a0	0.661417
2	0x3eae4216	0.34034795
3	0x3ee39acc	0.44454038
4	0x3f0d028b	0.55082005
5	0x3f63d519	0.88997036
6	0x3f5b4ad4	0.85661054
7	0x3e8ea42f	0.27859637
8	0x3e248c60	0.16069174
9	0x3f47ce98	0.7804961
10	0x3f272de5	0.65304404
11	0x3f38b43e	0.7215003
12	0x3dae1f66	0.085020825
13	0x3eb01bae	0.34396118
14	0x3f57ce3b	0.8429906
15	0x3ded0877	0.1157388
16	0x3e03706e	0.12835857
17	0x3ccccd65	0.025000283
18	0x3cf18ce9	0.029486137
19	0x3f2033de	0.62579143
20	0x3f413080	0.7546463
21	0x3d4e6fb1	0.050399486
22	0x3d2b603a	0.041839816
23	0x3d62fa21	0.055414323
24	0x3d79b7e2	0.06096638

firstGCN.attentionLayer.inAttention.W_alpha f4 [5, 5]
0	0x3e9e3876	0.3090245
1	0x3f67ef84	0.90599847
2	0x3e8b4af5	0.27205625
3	0x3f5a36a8	0.8523965
4	0x3f0e4727	0.5557732
5	0x3f667fcf	0.9003877
6	0x3eec701a	0.46179277
7	0x3e9aacfd	0.30210105
8	0x3e4b8d28	0.19878066
9	0x3d60e643	0.054907095
10	0x3e19b7cc	0.15011519
11	0x3f6cf755	0.925649
12	0x3e4f281e	0.20230147
13	0x3f2b2518	0.66853476
14	0x3f1c0048	0.6093793
15	0x3f1dc491	0.6162806
16	0x3edbf26c	0.4295839
17	0x3deb3f9c	0.11486742
18	0x3f470886	0.7774738
19	0x3f138790	0.57628727
20	0x3f6d6cb3	0.92743987
21	0x3ea79748	0.32732606
22	0x3f7949c5	0.9737819
23	0x3f6c45dd	0.922941
24	0x3ebc849e	0.3681993

firstGCN.attentionLayer.inAttention.a_alpha f4 [5, 1]
0	0x3f177370	0.5916052
1	0x3f4f49d4	0.8097203
2	0x3eed1a64	0.46309197
3	0x3e723b00	0.23655319
4	0x3f1facec	0.6237323

firstGCN.attentionLayer.inAttention.b_alpha f4 [5, 1]
0	0x3f3f44a7	0.7471413
1	0x3ee5888e	0.44830745
2	0x3f1f9141	0.62331015
3	0x3e03d237	0.1287316
4	0x3eb9cd5b	0.36289486

firstGCN.attentionLayer.outAttention.W_sum f4 [5, 5]
0	0x3ed34e04	0.4127046
1	0x3f25e2cf	0.6479921
2	0x3f1d6b1b	0.61491555
3	0x3ef60616	0.48051518
4	0x3f7d3708	0.98912096
5	0x3edda658	0.43290973
6	0x3f0ac9dc	0.5421426
7	0x3e48aab2	0.19596365
8	0x3f22a9f4	0.6354058
9	0x3ea50041	0.32226756
10	0x3e11666e	0.1419923
11	0x3e015eda	0.12633839
12	0x3c6fb9a2	0.014631661
13	0x3e81a4d3	0.25321063
14	0x3ca4c40a	0.02011301
15	0x3ed510bf	0.4161434
16	0x3ebe51a5	0.37171665
17	0x3e4e7149	0.20160402
18	0x3dcf62c1	0.10126258
19	0x3f49fb90	0.7889948
20	0x3f1a4904	0.60267663
21	0x3c85b445	0.01632131
22	0x3e9efd24	0.31052506
23	0x3f4e4bc4	0.8058436
24	0x3f762dee	0.96163833

firstGCN.attentionLayer.outAttention.W_alpha f4 [5, 5]
0	0x3f2881f2	0.6582328
1	0x3ee0cfb0	0.43908453
2	0x3d97f9a4	0.07420662
3	0x3d8d2446	0.06891684
4	0x3f4602e5	0.77348167
5	0x3f0259e4	0.5091841
6	0x3f6d7a52	0.9276477
7	0x3f14e8f6	0.5816797
8	0x3ef6bd9a	0.4819153
9	0x3f3a0520	0.7266407
10	0x3f480f94	0.7814877
11	0x3e13d958	0.14438379
12	0x3f3d5c9c	0.73969436
13	0x3f17d4cc	0.5930908
14	0x3e974545	0.29545036
15	0x3f54aad8	0.83073187
16	0x3f4b4c3c	0.794132
17	0x3f45dea3	0.7729284
18	0x3ea4368c	0.32072866
19	0x3e966134	0.29371035
20	0x3f2c228a	0.672402
21	0x3d0cf552	0.034413643
22	0x3d5af1bd	0.053453196
23	0x3e805b6c	0.2506975
24	0x3f3a19d5	0.72695667

firstGCN.attentionLayer.outAttention.a_alpha f4 [5, 1]
0	0x3f7307a4	0.94933534
1	0x3f1d378a	0.6141287
2	0x3f29022c	0.6601894
3	0x3f789a22	0.9711019
4	0x3f2c2cb7	0.6725573

firstGCN.attentionLayer.outAttention.b_alpha f4 [5, 1]
0	0x3f257835	0.64636546
1	0x3ed38a8c	0.4131664
2	0x3f75bde1	0.9599286
3	0x3f664870	0.8995428
4	0x3eed467e	0.46342844

firstGCN.linearLayer.weight f4 [5, 10]
0	0xbe816326	-0.25270957
1	0x3e1c576d	0.15267725
2	0xbdf638b1	-0.12022532
3	0x3e0288d6	0.12747511
4	0x3e07e33d	0.13270278
5	0xbe0518a4	-0.12997681
6	0x3e252bb9	0.1612996
7	0x3e9ce498	0.30643153
8	0x3e32e5b5	0.17470439
9	0x3e0fe893	0.14053564
10	0x3e53077e	0.20608327
11	0xbe80bbb6	-0.25143212
12	0x3e948947	0.29010984
13	0x3e1f1d98	0.15538633
14	0x3cfcf77e	0.030879732
15	0xbdff1da7	-0.124568276
16	0x3e386ec8	0.1801101
17	0x3e9630ce	0.2933411
18	0x3e8b8d85	0.27256408
19	0x3d3db828	0.046318203
20	0xba05753f	-0.00050910184
21	0xbe884871	-0.26617768
22	0x3deed347	0.11661392
23	0xbdbef7c9	-0.09324605
24	0x3d71e96a	0.05906049
25	0xbe459d7f	-0.19298361
26	0xbe85dfdc	-0.26147354
27	0xbe3f59e7	-0.18686639
28	0xbe9d7c25	-0.30758777
29	0x3e95a2a8	0.2922566
30	0x3e4fab6c	0.20280236
31	0xbe60c9a5	-0.21951921
32	0x3e9b4b16	0.30330724
33	0xbde75ee2	-0.11297394
34	0x3e50fc0e	0.20408651
35	0xbe030b68	-0.1279732
36	0x3e7f2d9c	0.24919742
37	0xb9a947da	-0.00032287725
38	0x3e46027b	0.19336884
39	0xbe932e70	-0.28746367
40	0x3deacd58	0.114649475
41	0xbddb6e16	-0.107143566
42	0x3e7dff1c	0.24804348
43	0xbe0f61c6	-0.14002141
44	0x3e3604e9	0.1777531
45	0x3e97fac0	0.29683495
46	0xbd95780e	-0.07298289
47	0xbe6b464d	-0.22976036
48	0x3e5f5ad7	0.21811996
49	0xbe149230	-0.14508891

firstGCN.linearLayer.bias f4 [5]
0	0xbe0dbb5c	-0.13841003
1	0x3e6fa85e	0.2340407
2	0x3df8ff74	0.12158099
3	0xbdc6680d	-0.09687815
4	0x3e9e5ec8	0.30931687

secondGCN.attentionLayer.linear.weight f4 [5, 10]
0	0x3dfe1803	0.124069236
1	0x3e4fb905	0.20285423
2	0x3df60df6	0.120143816
3	0xbea00b71	-0.3125873
4	0x3e804b1d	0.25057307
5	0xbe886254	-0.26637518
6	0xbe801a51	-0.25020078
7	0xbe8f8d88	-0.28037667
8	0xbe1d8c85	-0.15385635
9	0x3e08cc15	0.13359101
10	0x3dfef129	0.124483414
11	0xbc1062c2	-0.008812608
12	0x3ea10200	0.31446838
13	0x3d989cda	0.07451792
14	0x3e18379c	0.14864963
15	0x3e5ca2cb	0.21546476
16	0xbe9ccec3	-0.30626497
17	0x3e0d34e5	0.13789709
18	0x3d2124aa	0.039341606
19	0xbd183693	-0.03716142
20	0xbcacb5f0	-0.021082848
21	0xbdb943af	-0.09046113
22	0x3d65fd25	0.05614962
23	0xbe6c591f	-0.23080872
24	0xbe1ff798	-0.15621793
25	0x3c306e2e	0.010768456
26	0xbe9e6ae2	-0.3094092
27	0xbe53c391	-0.20680071
28	0x3e380e50	0.1797421
29	0x3dd13381	0.10214902
30	0x3e5c14ed	0.21492358
31	0xbe869aca	-0.2628997
32	0xbd620668	-0.05518189
33	0x3e99e5f4	0.30058253
34	0x3e8120ca	0.2522033
35	0x3d9075c0	0.07053709
36	0x3e9dd44b	0.3082603
37	0xbe2b5f19	-0.16735496
38	0x3e616afb	0.22013466
39	0xbe59ac88	-0.21257222
40	0x3df90b13	0.12160315
41	0x3e359b18	0.17734945
42	0xbda1ce75	-0.07900707
43	0x3c85b678	0.01632236
44	0x3e686f71	0.22698762
45	0x3dabc6ac	0.08387503
46	0xbe10a618	-0.1412586
47	0x3e14fa83	0.14548688
48	0x3c6748bf	0.014116465
49	0xbe3eafad	-0.18621702

secondGCN.attentionLayer.linear.bias f4 [5]
0	0x3e3fbe6f	0.18724988
1	0xba8e4ae9	-0.0010856065
2	0xbea1b3c8	-0.31582475
3	0xbe78e9e4	-0.24307972
4	0xbc519894	-0.012792725

secondGCN.attentionLayer.inAttention.W_sum f4 [5, 5]
0	0x3d9d2490	0.07672989
1	0x3f63bddc	0.8896158
2	0x3f6f4135	0.93458873
3	0x3e17cd30	0.14824367
4	0x3eaa8756	0.33306378
5	0x3c3b2b40	0.011423886
6	0x3eed761a	0.46379167
7	0x3f6a3ac1	0.914959
8	0x3f3b7f3a	0.7324101
9	0x3e5af81c	0.21383709
10	0x3ed4363c	0.41447628
11	0x3f56b013	0.8386242
12	0x3e4d7850	0.20065427
13	0x3e3e4190	0.18579698
14	0x3e9ce94a	0.30646735
15	0x3e98a0ea	0.29810268
16	0x3f5823b8	0.844295
17	0x3f3c56b8	0.7356982
18	0x3e85f5a6	0.26163977
19	0x3f4fc2b4	0.8115647
20	0x3f255bc2	0.64593136
21	0x3f648cb1	0.8927718
22	0x3d66e7b0	0.0563733
23	0x3f66aa17	0.90103287
24	0x3c26efc0	0.010188997

secondGCN.attentionLayer.inAttention.W_alpha f4 [5, 5]
0	0x3ebd8c10	0.37020922
1	0x3f080ac0	0.53141403
2	0x3dcfbb08	0.10143095
3	0x3ec4d596	0.38444203
4	0x3f742eeb	0.9538409
5	0x3f3add9f	0.72994417
6	0x3f4cf198	0.8005614
7	0x3ed2d38a	0.41177016
8	0x3f008d66	0.50215757
9	0x3e5b2c80	0.21403694
10	0x3f725aa0	0.9466953
11	0x3e24c558	0.16090906
12	0x3f42069a	0.75791323
13	0x3efe9506	0.4972307
14	0x3dca4da8	0.09878093
15	0x3e6086ec	0.21926469
16	0x3f0aa3fe	0.5415648
17	0x3e06fd94	0.1318267
18	0x3f1f2db3	0.62179106
19	0x3f445b74	0.76702046
20	0x3f542641	0.8287087
21	0x3da68c88	0.08132273
22	0x3d250790	0.040290415
23	0x3ee935a6	0.45548743
24	0x3e8b013a	0.27149373

secondGCN.attentionLayer.inAttention.a_alpha f4 [5, 1]
0	0x3f4509e0	0.76968193
1	0x3efcf130	0.4940276
2	0x3f289ba6	0.658625
3	0x3f392ce1	0.72334105
4	0x3f30b669	0.69028336

secondGCN.attentionLayer.inAttention.b_alpha f4 [5, 1]
0	0x3f463636	0.7742647
1	0x3f57ffc2	0.8437463
2	0x3f45c982	0.772606
3	0x3e47f208	0.19525921
4	0x3f4d2b37	0.80144066

secondGCN.attentionLayer.outAttention.W_sum f4 [5, 5]
0	0x3e409068	0.18805087
1	0x3e9064de	0.28201956
2	0x3e9e3278	0.3089788
3	0x3f600dc4	0.87521005
4	0x3eb20b92	0.34774452
5	0x3f7bf15a	0.9841515
6	0x3f65cc4b	0.8976485
7	0x3d74d130	0.05976981
8	0x3ec3ef9e	0.3826875
9	0x3e9ab864	0.30218804
10	0x3ef35d72	0.4753223
11	0x3f1c7f6f	0.6113195
12	0x3e335bb8	0.17515457
13	0x3b5cc900	0.0033689141
14	0x3f63ccb0	0.88984203
15	0x3e4e2890	0.20132661
16	0x3dc00bf0	0.09377277
17	0x3f465667	0.7747559
18	0x3e8dbbae	0.2768225
19	0x3f1a5124	0.6028006
20	0x3f0a5ce2	0.5404798
21	0x3eb8e2e6	0.3611061
22	0x3f7fbb99	0.99895626
23	0x3ed24fbe	0.41076463
24	0x3d758360	0.059939742

secondGCN.attentionLayer.outAttention.W_alpha f4 [5, 5]
0	0x3f1443c3	0.57915896
1	0x3dfb3df8	0.12267679
2	0x3f4ff8a0	0.81238747
3	0x3f1dcbc9	0.61639076
4	0x3e1adb68	0.1512276
5	0x3e51f580	0.20503807
6	0x3f5baad2	0.85807526
7	0x3ea80c90	0.32822084
8	0x3eb46762	0.35235125
9	0x3e49da10	0.1971209
10	0x3cc38fa0	0.023872197
11	0x3ea8fd96	0.3300597
12	0x3d0aa4f0	0.033848703
13	0x3f187615	0.5955518
14	0x3f3f601d	0.7475603
15	0x3f5a359f	0.8523807
16	0x3ebce28e	0.36891598
17	0x3f48ef43	0.78490084
18	0x3e5fc9fc	0.21854395
19	0x3b968d00	0.004594445
20	0x3dbc81b8	0.092044294
21	0x3f6c56a4	0.92319703
22	0x3f3b343d	0.73126584
23	0x3cc7dd20	0.024397433
24	0x3e84a578	0.25907493

secondGCN.attentionLayer.outAttention.a_alpha f4 [5, 1]
0	0x3f31ba5e	0.69425
1	0x3e5bb5e8	0.2145611
2	0x3c924aa0	0.01785785
3	0x3da88c10	0.0822984
4	0x3eab89ae	0.3350348

secondGCN.attentionLayer.outAttention.b_alpha f4 [5, 1]
0	0x3f640b54	0.89079785
1	0x3e83d34a	0.25747138
2	0x3e012cf8	0.1261481
3	0x3ec70448	0.38870454
4	0x3efc56b8	0.4928491

secondGCN.linearLayer.weight f4 [5, 10]
0	0x3e71ddcb	0.23619764
1	0x3e98a484	0.29813015
2	0x3e9c16c3	0.30486116
3	0xbe6881df	-0.22705792
4	0x3e8ccdc8	0.2750075
5	0xbe166b7b	-0.14689438
6	0x3be2d20f	0.0069220136
7	0xbc9a6619	-0.018847512
8	0xbde56acf	-0.11202013
9	0x3e86b9b0	0.26313543
10	0xbc825cb4	-0.015913345
11	0xbe0dbd40	-0.13841724
12	0xbe0f1d70	-0.13976073
13	0x3e414c17	0.18876682
14	0xbdbda817	-0.09260576
15	0xbe854fbf	-0.26037404
16	0x3e2cf3e6	0.16889915
17	0xbd67ce5a	-0.056593277
18	0x3e7fecc0	0.24992657
19	0x3da04f4f	0.07827627
20	0xbdf8b07f	-0.12143039
21	0x3d9a0e0d	0.07522211
22	0x3e3cebbc	0.184493
23	0xbe41a4bc	-0.18910497
24	0xbe099274	-0.13434774
25	0x3e37e967	0.1796013
26	0xbde77959	-0.11302442
27	0xbe9645dd	-0.29350176
28	0x3d1f3fd9	0.03887925
29	0x3e8eb919	0.27875593
30	0xbd8ec0a5	-0.06970338
31	0x3dff49e2	0.12465264
32	0x3dc2dd44	0.09514859
33	0x3e13c503	0.14430623
34	0x3e7552c4	0.23957354
35	0xbb9eda42	-0.0048477957
36	0x3e4e6de1	0.20159103
37	0xbe2da525	-0.16957529
38	0x3e85f8c1	0.26166347
39	0x3e1f7df7	0.15575396
40	0xbd335ba4	-0.043788567
41	0x3d83dbbc	0.064383954
42	0x3e5ffefe	0.21874616
43	0x3e9d8bd5	0.30770746
44	0xbe22eb43	-0.15910058
45	0x3d8a8a96	0.067647144
46	0xbdb8f49b	-0.0903103
47	0xbdbf4c38	-0.093407094
48	0xbe16b096	-0.147158
49	0xbe952891	-0.29132512

secondGCN.linearLayer.bias f4 [5]
0	0xbe2ffee8	-0.17187083
1	0xbe926711	-0.28594258
2	0x3de06dd2	0.109584466
3	0x3cfdb563	0.030970281
4	0x3e4a6d3b	0.1976823

thirdGCN.attentionLayer.linear.weight f4 [5, 10]
0	0xbe62ec00	-0.2216034
1	0x3e807499	0.25088957
2	0xbe9ade82	-0.30247885
3	0xbbba7227	-0.0056898776
4	0xbdc07610	-0.09397519
5	0x3d1c703b	0.03819297
6	0xbe19efa7	-0.15032826
7	0xbe84a62c	-0.2590803
8	0xbde2c443	-0.1107259
9	0xbe8b8809	-0.27252224
10	0x3e30ada4	0.17253739
11	0xbe7ad6fb	-0.24496071
12	0xbe1170e0	-0.14203215
13	0x3d5eaeef	0.05436605
14	0x3c7c4783	0.015397909
15	0x3dd4bddf	0.103877775
16	0x3e57bcb2	0.21068075
17	0xbe5d6a6f	-0.21622632
18	0x3e136f74	0.14397985
19	0xbe265520	-0.1624341
20	0xbdb0e5b2	-0.08637561
21	0xbea0bcb3	-0.31393966
22	0x3e99d676	0.30046433
23	0x3e0eb184	0.13934904
24	0x3e063611	0.13106562
25	0x3d1201b0	0.03564614
26	0xbdc7aaf5	-0.09749404
27	0x3c5a1654	0.0133109875
28	0x3da3f864	0.08006361
29	0xbe9bc756	-0.3042552
30	0x3e8c93b1	0.2745643
31	0xbdae4315	-0.08508889
32	0xbe81ddb2	-0.25364453
33	0xbd127295	-0.035753805
34	0x3e46a244	0.19397837
35	0xbe46caa5	-0.1941324
36	0xbdc42cc9	-0.095788546
37	0x3e4e1eb9	0.20128907
38	0xbe95b2e0	-0.29238033
39	0xbd1c4c61	-0.038158778
40	0x3e35147b	0.17683594
41	0xbe4ecfc3	-0.20196442
42	0xbe48284b	-0.1954662
43	0x3e5076bc	0.20357794
44	0xbdbf0bd3	-0.09328427
45	0xbe2bf8b2	-0.16794088
46	0x3da560c5	0.08075098
47	0x3e3af325	0.18256815
48	0x3e43f7b5	0.19137461
49	0xbe801ca2	-0.25021845

thirdGCN.attentionLayer.linear.bias f4 [5]
0	0xbe9eacdd	-0.3099126
1	0xbe837dc1	-0.2568188
2	0x3e972561	0.29520705
3	0x3e1cb3ad	0.15302916
4	0x3e3ffe28	0.18749297

thirdGCN.attentionLayer.inAttention.W_sum f4 [5, 5]
0	0x3e6b534c	0.22980994
1	0x3ec862d4	0.391379
2	0x3d3b4910	0.045723975
3	0x3f136434	0.5757477
4	0x3ecddb0a	0.40206176
5	0x3f304d20	0.68867683
6	0x3e49e404	0.19715887
7	0x3f574198	0.84084463
8	0x3c752900	0.014963388
9	0x3e2e6a20	0.17032671
10	0x3e2f9a7c	0.17148775
11	0x3ef3adce	0.4759354
12	0x3f717cb1	0.9433089
13	0x3e9c77a8	0.3056004
14	0x3e785578	0.24251354
15	0x3f063f4f	0.5244035
16	0x3f111bd4	0.5668309
17	0x3f6dd33f	0.9290046
18	0x3f65dbc3	0.89788455
19	0x3e127610	0.1430285
20	0x3f17bd11	0.5927287
21	0x3d9a70e0	0.075410604
22	0x3d86b8f0	0.06578243
23	0x3f3c6f69	0.736075
24	0x3de72068	0.11285478

thirdGCN.attentionLayer.inAttention.W_alpha f4 [5, 5]
0	0x3f4d082c	0.80090594
1	0x3ef1ec32	0.47250515
2	0x3ed8316a	0.422252
3	0x3f18c833	0.5968048
4	0x3f2099b2	0.6273452
5	0x3ec26dcc	0.37974393
6	0x3d16c9e0	0.036813617
7	0x3ec66e7a	0.38756162
8	0x3e192b68	0.14957964
9	0x3f410ea8	0.7541299
10	0x3e9e7efe	0.30956262
11	0x3db34a60	0.0875442
12	0x3edafde4	0.42771828
13	0x3f27f3c4	0.6560633
14	0x3f259ede	0.6469554
15	0x3f01bc28	0.5067773
16	0x3e24f520	0.16109133
17	0x3f6397d7	0.88903564
18	0x3e8fd5f8	0.28092933
19	0x3f403fbc	0.7509725
20	0x3f11584a	0.56775343
21	0x3ebb8986	0.3662836
22	0x3f29662c	0.66171527
23	0x3df942b8	0.12170929
24	0x3eab940c	0.33511388

thirdGCN.attentionLayer.inAttention.a_alpha f4 [5, 1]
0	0x3f628e80	0.8849869
1	0x3eebae8a	0.460316
2	0x3c34efc0	0.011043489
3	0x3efe5a86	0.4967844
4	0x3f31c574	0.69441915

thirdGCN.attentionLayer.inAttention.b_alpha f4 [5, 1]
0	0x3f1333bf	0.57500833
1	0x3f66b8d7	0.90125793
2	0x3f244cab	0.64179486
3	0x3eabdce2	0.33566958
4	0x3ec3702e	0.38171524

thirdGCN.attentionLayer.outAttention.W_sum f4 [5, 5]
0	0x3d891848	0.066940844
1	0x3f71944c	0.9436691
2	0x3e9a3698	0.30119777
3	0x3e85b05c	0.26111114
4	0x3ebabc7e	0.36471933
5	0x3e9a4506	0.30130786
6	0x3d8788f8	0.066179216
7	0x3f4d91c9	0.80300575
8	0x3d893058	0.06698674
9	0x3f5bb236	0.85818803
10	0x3f40213d	0.7505072
11	0x3f579cf8	0.8422389
12	0x3d3f25d0	0.04666692
13	0x3e6d7f18	0.23193014
14	0x3f341ea3	0.7035925
15	0x3f574757	0.8409323
16	0x3d8e0ec8	0.06936413
17	0x3f53d8ec	0.8275287
18	0x3f1b7447	0.607243
19	0x3ee32e8a	0.44371444
20	0x3f6954f7	0.9114527
21	0x3f24034c	0.6406753
22	0x3ebdd5fa	0.37077314
23	0x3f4fa342	0.81108487
24	0x3edc901a	0.4307869

thirdGCN.attentionLayer.outAttention.W_alpha f4 [5, 5]
0	0x3f56bc6d	0.83881265
1	0x3e5fa458	0.21840036
2	0x3b8f6f00	0.004377246
3	0x3ddfab90	0.10921395
4	0x3f2bc3bc	0.6709554
5	0x3f72a4c8	0.94782686
6	0x3ee41e60	0.44554424
7	0x3e3dffd4	0.18554622
8	0x3f45eb1f	0.7731189
9	0x3f5c9ac5	0.8617366
10	0x3e750194	0.23926383
11	0x3f7fb175	0.9988015
12	0x3f5dc274	0.86624837
13	0x3f52a623	0.82284755
14	0x3f7d65fe	0.9898375
15	0x3ef20672	0.47270542
16	0x3d18d190	0.03730923
17	0x3f52c9ba	0.8233906
18	0x3b753a00	0.0037418604
19	0x3f3104ed	0.6914814
20	0x3e83767a	0.25676328
21	0x3f7dd0ac	0.99146533
22	0x3f316a6e	0.69303024
23	0x3e998a7e	0.29988474
24	0x3ed6ca5c	0.41951263

thirdGCN.attentionLayer.outAttention.a_alpha f4 [5, 1]
0	0x3f7359a5	0.9505866
1	0x3e3dfa7c	0.18552583
2	0x3f41511d	0.75514394
3	0x3ede472c	0.43413675
4	0x3d06dc30	0.03292483

thirdGCN.attentionLayer.outAttention.b_alpha f4 [5, 1]
0	0x3f16cae0	0.5890331
1	0x3f065229	0.52469116
2	0x3f49c4a6	0.78815687
3	0x3f4056e4	0.75132585
4	0x3f48fdc6	0.7851223

thirdGCN.linearLayer.weight f4 [5, 10]
0	0x3d8a1877	0.067429475
1	0x3e41792c	0.1889388
2	0xbe422d07	-0.18962489
3	0xbe5573aa	-0.20844904
4	0x3ea1247f	0.31473157
5	0x3e372592	0.17885426
6	0xbd8dc900	-0.06923103
7	0x3cb5ffbc	0.02221667
8	0x3c6b0d8f	0.014346494
9	0xbe00a6a1	-0.12563564
10	0x3e41a410	0.18910241
11	0xbc9451f1	-0.018105479
12	0xbe12c754	-0.1433385
13	0x3dbdc77f	0.092665665
14	0x3e676695	0.22597726
15	0xbe3a9dee	-0.18224308
16	0xbe53039e	-0.20606849
17	0xbe70e822	-0.23526052
18	0x3e904d2d	0.2818388
19	0x3dbe069f	0.092786066
20	0x3d9f2553	0.07770791
21	0xbe8bebda	-0.27328378
22	0x3de3c1c7	0.111209445
23	0xbc7384ab	-0.0148631735
24	0xbe05f2c5	-0.1308089
25	0xbe37c50c	-0.17946261
26	0x3e88d312	0.26723534
27	0x3e390cbf	0.18071268
28	0x3e40ea96	0.18839487
29	0xbe9bfa3f	-0.3046436
30	0x3e78f5fa	0.24312583
31	0x3e417a29	0.18894257
32	0xbe4c8d64	-0.19975811
33	0xbcb9d02b	-0.02268227
34	0xbe8732bd	-0.26405898
35	0x3e4ffc49	0.20311083
36	0xbd6b9cee	-0.057522707
37	0x3d996e74	0.074917704
38	0x3d454505	0.048161525
39	0x3e90518f	0.28187224
40	0x3e5a4fbc	0.21319479
41	0xbe6a99f5	-0.22910292
42	0xbc15fb45	-0.009154146
43	0x3e894eb8	0.2681787
44	0xbdbc1cce	-0.091851816
45	0xbe98e279	-0.29860285
46	0x3e869a84	0.2628976
47	0xbe10665d	-0.14101548
48	0xbe21a3bf	-0.1578512
49	0x3d443d72	0.04791016

thirdGCN.linearLayer.bias f4 [5]
0	0x3da16624	0.0788081
1	0x3e18630d	0.14881535
2	0x3cac9600	0.02106762
3	0xbe5f979e	-0.21835181
4	0x3e1980d0	0.14990544

ff4.weight f4 [5, 5]
0	0xbe8a2f54	-0.26989233
1	0x3ebc2dd2	0.36753708
2	0xbe4fdd8a	-0.20299354
3	0x3af19610	0.0018431563
4	0xbdb3cadc	-0.08778927
5	0x3c9b51d4	0.018959917
6	0xbe82122b	-0.25404486
7	0xbe51d9e5	-0.20493276
8	0x3e7ce629	0.24697174
9	0xbee06c3b	-0.43832573
10	0x3eabe6a0	0.3357439
11	0xbebe32fd	-0.37148276
12	0x3ea10353	0.3144785
13	0x3eaa0924	0.332101
14	0xbe856b04	-0.2605821
15	0x3e8b1f4a	0.2717231
16	0x3e250f74	0.16119176
17	0x3e3083b9	0.17237748
18	0xbe953653	-0.2914301
19	0x3edbcd40	0.4293003
20	0x3ede0679	0.43364313
21	0x3ec75684	0.38933194
22	0xbe25b924	-0.16183907
23	0x3e22cb03	0.15897755
24	0xbe8f4dba	-0.27988988

ff4.bias f4 [5]
0	0x3daa87ca	0.08326681
1	0x3e0c5e6b	0.13707893
2	0xbdc98e53	-0.09841599
3	0x3ec5010f	0.3847737
4	0x3dd98fde	0.106231436

ff5.weight f4 [5, 5]
0	0x3ed926d6	0.42412442
1	0x3ec8a72f	0.3919005
2	0xbc9e1f8a	-0.019302148
3	0x3d8201a3	0.063479684
4	0xbedd6f9b	-0.4324921
5	0xbe8a3976	-0.26996964
6	0xbdade68c	-0.08491239
7	0xbe0e7cab	-0.13914745
8	0xbe29e1f1	-0.16590096
9	0xbe8be711	-0.27324727
10	0x3d68da7f	0.056849
11	0x3c9d5e91	0.019210132
12	0xbea08000	-0.31347656
13	0x3ebfd5fa	0.3746794
14	0xbe23c536	-0.15993199
15	0xbe3858b4	-0.18002588
16	0x3e7f8d21	0.2495618
17	0xbe7c730f	-0.24653266
18	0x3e40b7b9	0.18820085
19	0xbe0b893a	-0.13626567
20	0x3e9d9de3	0.3078452
21	0x3ecd7652	0.40129334
22	0xbee3f2ba	-0.44521123
23	0x3e0f8486	0.14015397
24	0xbe69f2e3	-0.2284656

ff5.bias f4 [5]
0	0x3c9ee958	0.019398376
1	0xbe452875	-0.19253714
2	0xbebc271d	-0.3674859
3	0xbe7dc181	-0.24780847
4	0x3d5124f8	0.051060647

ff6.weight f4 [30, 5]
0	0xbdff4862	-0.12464978
1	0x3e551bec	0.20811433
2	0xbe3c1bb1	-0.18369938
3	0x3edf6074	0.43628275
4	0xbe0c0fec	-0.13677949
5	0xbeb3a300	-0.35085297
6	0xbee44ad6	-0.44588345
7	0xbe8e6308	-0.2780993
8	0x3ebc7bd4	0.36813223
9	0xbe8489ca	-0.25886375
10	0x3ecd5f71	0.4011188
11	0xbd1dcb20	-0.038523793
12	0xbe9e932d	-0.3097166
13	0xbdcd3e72	-0.10021676
14	0xbdb23a8c	-0.08702573
15	0x3e77f4d7	0.24214493
16	0x3e606400	0.21913147
17	0x3e3faf9a	0.1871933
18	0x3d8575b9	0.065165944
19	0xbc926b18	-0.017873332
20	0x3dcc31c3	0.09970429
21	0xbe42c968	-0.19022143
22	0xbe595f44	-0.21227747
23	0xbed35dc7	-0.41282484
24	0xbd20bb2c	-0.039241
25	0xbe21ab0f	-0.1578791
26	0x3e3df6d8	0.18551195
27	0x3ed1a9ef	0.40949962
28	0xbd979124	-0.0740073
29	0x3e6d31c1	0.23163511
30	0xbe26091c	-0.16214412
31	0xbbc8a463	-0.006123112
32	0x3e84f387	0.25967047
33	0xbe119e4c	-0.14220542
34	0xbdc32f83	-0.095305465
35	0x3eabfd18	0.33591533
36	0x3e397d5d	0.18114229
37	0xbecd455b	-0.40091977
38	0xbe999353	-0.29995212
39	0x3ed07ecf	0.40721747
40	0x3e2e66a9	0.17031349
41	0xbec2bb75	-0.38033643
42	0xbebd21dc	-0.36939895
43	0x3edc5c14	0.43039
44	0x3dcef394	0.101050526
45	0xbd481681	-0.048849586
46	0xbe4cc0f1	-0.19995476
47	0xbed3f3b7	-0.41396877
48	0xbe05883e	-0.13040254
49	0x3e9e84f2	0.30960804
50	0xbe47c376	-0.19508156
51	0xbb99af59	-0.0046900925
52	0xbe17e7f4	-0.14834577
53	0xbe5e9b70	-0.21738982
54	0x3e1b2cc8	0.15153801
55	0x3dbe85ac	0.0930284
56	0x3eab360e	0.33439678
57	0x3eae173f	0.3400211
58	0xbe02a0e3	-0.12756686
59	0x3e24205c	0.16027969
60	0x3c628a36	0.013826897
61	0xbeb8ff7c	-0.3613242
62	0x3db0ebb8	0.0863871
63	0xbe6b3e9d	-0.22973104
64	0xbedd9887	-0.43280432
65	0x3d752c5c	0.059856758
66	0xbe773478	-0.24141109
67	0xbe915099	-0.28381804
68	0xbeb24cab	-0.34824118
69	0x3ebd40e6	0.36963576
70	0xbc503645	-0.012708251
71	0x3d552d32	0.052045055
72	0xbe6707d0	-0.22561574
73	0xbe4be7a9	-0.1991259
74	0x3d2f722a	0.042833485
75	0x3e084e2d	0.13311072
76	0xbe99c2f5	-0.30031553
77	0x3eb45abe	0.3522548
78	0xbe63af3a	-0.22234812
79	0x3e793c69	0.24339451
80	0x3d7b7acd	0.06139641
81	0x3c78e18b	0.015190492
82	0xbed4aad4	-0.41536582
83	0x3dd7bcb6	0.10534041
84	0xbe927191	-0.2860227
85	0x3e775623	0.24153952
86	0xbe278a77	-0.16361414
87	0xbe47e95f	-0.19522618
88	0x3d28e331	0.04123229
89	0xbeaf6d68	-0.34263158
90	0xbea18981	-0.3155022
91	0xbe41c08f	-0.18921112
92	0xbec89932	-0.3917938
93	0x3de3c6a2	0.111218706
94	0x3b812cc3	0.0039421036
95	0x3e7bb58a	0.2458097
96	0xbe7d0021	-0.2470708
97	0x3d85a70f	0.065260045
98	0x3c94375d	0.018092806
99	0xbe3f83b1	-0.1870258
100	0xbe908e71	-0.28233674
101	0x3e98981d	0.29803553
102	0xbec6eeb0	-0.3885398
103	0x3ce9950f	0.02851346
104	0xbe836a59	-0.25667074
105	0xbeb45daa	-0.3522771
106	0xbc33b8c0	-0.010969341
107	0x3d9a4cf6	0.075342104
108	0xbe6b3069	-0.22967686
109	0x3dc91bb4	0.09819737
110	0x3ecaeee7	0.39635393
111	0x3e93a91d	0.2883996
112	0x3e326b1c	0.17423671
113	0x3d9f2744	0.07771161
114	0xbea47c70	-0.32126188
115	0xbed86c30	-0.4227004
116	0x3e9b5459	0.3033779
117	0xbe169ceb	-0.14708297
118	0xbe9c64c7	-0.30545637
119	0xbee44fe0	-0.4459219
120	0xbe6925ec	-0.22768372
121	0xbe904a42	-0.28181654
122	0xbec6d0fe	-0.38831323
123	0xbbaaf024	-0.0052166153
124	0x3e1995ea	0.14998594
125	0xbeb3d78e	-0.35125393
126	0x3ed61b5f	0.41817757
127	0x3ec382de	0.3818578
128	0x3edfd429	0.43716553
129	0x3c1fd929	0.009756365
130	0xbdef5968	-0.11686975
131	0xbd962830	-0.07331884
132	0xbdee41e8	-0.11633664
133	0xbdaf13e0	-0.08548713
134	0x3e8e67b5	0.27813497
135	0xbe9e5b0a	-0.30928832
136	0xbda44125	-0.08020238
137	0xbd32df89	-0.04367021
138	0x3eca0efd	0.3946456
139	0x3dede7c1	0.11616469
140	0x3da93e6a	0.08263858
141	0xbedc7e0b	-0.43064913
142	0x3ec35f94	0.38158858
143	0x3e625bf0	0.22105384
144	0xbe3cfc24	-0.18455559
145	0xbe6fa4b8	-0.23402679
146	0x3ea77f1e	0.3271417
147	0xbe32bdc8	-0.17455208
148	0xbca7dd05	-0.020491133
149	0xbd70bb35	-0.058772285

ff6.bias f4 [30]
0	0xbdfc5de2	-0.12322594
1	0xbecf3540	-0.40470314
2	0x3ec98503	0.39359292
3	0xbdab3f4e	-0.08361684
4	0x3ebfbb27	0.37447473
5	0x3e5fd9b2	0.21860388
6	0xbe353ba4	-0.17698532
7	0xbe96d9c1	-0.29463008
8	0x3d53a60d	0.05167203
9	0x3e396f96	0.18108973
10	0xbd53d451	-0.051716153
11	0xbe8298ea	-0.2550729
12	0x3e7842e7	0.24244271
13	0x3d9d016e	0.07666288
14	0xbe8b6b73	-0.27230415
15	0xbecae8d5	-0.39630762
16	0x3e955401	0.29165652
17	0x3e69defa	0.22838965
18	0x3ec906c5	0.39262977
19	0xbe0dffe5	-0.13867147
20	0xbe82a78e	-0.2551846
21	0x3e2c7192	0.16840199
22	0xbd1c0c14	-0.038097456
23	0xbdbe3d9e	-0.09289096
24	0xbd9e03af	-0.07715546
25	0x3eab86e5	0.33501354
26	0x3ecb1ccf	0.39670417
27	0x3ec59e21	0.38597205
28	0xbe67b2fc	-0.22626871
29	0x3d04951c	0.032368764
