code/ml_model/model_weights_m8p8n10_lr0.001000_bs250_epochs20.pth (torch, 21926 bytes, 48 tensors)

ff1.weight f4 [5, 5]
000000 62 dc d4 3e b7 8c c9 be 27 d0 b4 3e af da 45 3d
       0.4157439 -0.3936517 0.35315058 0.048304256
000010 24 c9 b7 be 56 8a a0 be 69 c0 17 be 0b e0 db be
       -0.35895646 -0.31355542 -0.14819492 -0.4294437
000020 de fa 06 be a3 be 5c 3e 2c 34 8a be 5b be 6b 3c
       -0.13181636 0.21557097 -0.2699293 0.014388646
000030 79 d1 8a 3e 57 d5 13 3d d1 28 5b 3e ea dc 0b be
       0.2711294 0.03609213 0.21402289 -0.13658491
000040 3b b0 bf 3e e0 9f c9 3e 94 6e aa bd c9 12 b1 be
       0.3743914 0.39379787 -0.08321872 -0.34584644
000050 b9 a8 ae 3e 36 b1 1a 3d 10 2a d8 3e 82 5b 26 be
       0.341131 0.037766658 0.4221959 -0.16245845
000060 8c b2 d1 be
       -0.40956533

ff1.bias f4 [5]
000000 2f 34 d2 3e c5 e8 9e 3e aa 25 b4 3e 4b 16 76 3e
       0.41055438 0.31036964 0.35184985 0.24031942
000010 e6 37 6b be
       -0.22970542

ff2.weight f4 [5, 5]
000000 39 04 8a bc 6d 92 d9 be f0 50 a3 bd 50 54 94 3e
       -0.016847717 -0.42494527 -0.07974422 0.28970575
000010 e2 de 58 bb f1 6c df be 73 bb 4d 3e db b9 7b 3d
       -0.0033091833 -0.43637803 0.20091037 0.061456542
000020 11 ed b0 be 92 20 c4 3e 18 fb dd 3e 3b 9b 69 3e
       -0.34555867 0.383061 0.43355632 0.22813122
000030 f2 2d 96 3d 3c 96 95 3e 8f 0e 53 3b 28 2c 96 3c
       0.07332982 0.29216182 0.0032204723 0.018331602
000040 23 21 47 be 95 a8 73 3e 67 88 1a bd 76 21 80 be
       -0.19446234 0.23794778 -0.03772774 -0.2502553
000050 71 49 30 3d c8 c9 a7 3e d6 a0 70 3e 84 84 57 bd
       0.04303879 0.32771134 0.23498854 -0.05261661
000060 81 be 59 be
       -0.21264078

ff2.bias f4 [5]
000000 31 ff 75 be bb 55 8d 3e fc 90 b5 3e 06 49 df bd
       -0.24023129 0.2760447 0.35462177 -0.109026
000010 36 a3 f7 3d
       0.12091677

ff3.weight f4 [5, 5]
000000 e2 e1 85 3e dc 4e 17 be df 37 46 bd 0b 44 ae be
       0.26148897 -0.14776176 -0.048393127 -0.34036288
000010 ef c5 85 3e 54 65 71 be 01 4d a8 bd 14 c4 1a 3e
       0.26127574 -0.2357381 -0.08217812 0.1511386
000020 c1 c8 08 be c3 fe d1 3d 88 93 92 be 4a c1 8e bd
       -0.13357832 0.1025367 -0.28628182 -0.06970461
000030 3a cc ba 3e 13 17 c4 3e 8c 69 dc 3e 3a 6f d8 3e
       0.36483938 0.38298854 0.43049276 0.4227236
000040 9c 80 6a bd 8b 56 89 be f8 88 c5 3e b6 65 a3 3e
       -0.057251558 -0.2682384 0.3858106 0.31913537
000050 07 73 97 3e 9a 3b d1 3e c0 d0 95 3e 2c 7a ab be
       0.29579946 0.40865785 0.29260826 -0.33491647
000060 58 3e de 3e
       0.4340694

ff3.bias f4 [5]
000000 3a 59 6a be f0 f0 c4 3e 80 1b ba be 5c 15 e8 3d
       -0.228856 0.3846507 -0.36349106 0.11332199
000010 f9 98 8b 3e
       0.27265146

firstGCN.attentionLayer.linear.weight f4 [5, 10]
000000 01 f4 fb 3d cf e5 3c be bb c1 9a be 67 58 74 bd
       0.123023994 -0.1844704 -0.3022593 -0.05965462
000010 79 e4 0e 3e e6 ee 4e 3d 74 c4 4e bd 8a f3 96 3d
       0.13954343 0.0505208 -0.05048032 0.0737067
000020 78 8b 97 3e a3 bc 17 3e bb 16 3c be af 39 60 bb
       0.29598594 0.14818053 -0.18368046 -0.003421407
000030 7a df 80 bd b1 e4 7e bd 80 4a 97 be 16 17 81 3d
       -0.06292625 -0.062229816 -0.29549026 0.063032314
000040 f6 2f 46 3e 44 e1 4b bb c3 af 8f bd bb f2 d1 3d
       0.19354233 -0.003110961 -0.07015946 0.10251375
000050 db 1b 96 3e e2 e0 7d be 06 76 a0 bd 99 91 0c 3e
       0.29318127 -0.24792817 -0.07835011 0.13727416
000060 99 87 35 3e 17 ea 91 be f3 97 97 be 8f 70 73 3e
       0.17727508 -0.2849891 -0.29608116 0.23773406
000070 a0 4f fa bd 32 96 72 bd 39 40 33 be 04 d7 00 be
       -0.122222185 -0.05922527 -0.17504968 -0.12582022
000080 67 11 93 3e e4 fd af 3c 3d 9d 2d 3e 6a d8 34 3e
       0.28724214 0.02148337 0.16954513 0.1766068
000090 60 2e 5c bd fc 45 85 be 7f 6c 87 3e 9d 0a a4 3d
       -0.053755164 -0.26029956 0.26449963 0.08009837
0000a0 05 1d 95 3e 42 3b 1d bd af a0 70 3e 49 13 ab bd
       0.29123703 -0.03838659 0.23498796 -0.08353288
0000b0 7b e6 8e be 58 7a 87 be 10 99 00 3d 6f 23 27 be
       -0.27910218 -0.26460528 0.03139597 -0.1632211
0000c0 bb 51 87 3d 24 0b e3 bb
       0.06607386 -0.0069288183

firstGCN.attentionLayer.linear.bias f4 [5]
000000 27 4d 07 3d f5 10 c1 3d d7 23 a5 3d ef 11 92 be
       0.033032563 0.094270624 0.080634765 -0.28529307
000010 8d 5d 4e 3e
       0.20152874

firstGCN.attentionLayer.inAttention.W_sum f4 [5, 5]
000000 d2 83 e6 3d 93 ba 97 3d 80 82 a0 3e d0 be 30 3c
       0.112556115 0.07408633 0.31349564 0.010787681
000010 b9 ae 67 3f 98 fb 74 3f a4 0e 7b 3d 11 5a 32 3f
       0.9050098 0.956964 0.06129326 0.6966868
000020 5e 9a 19 3f 8a 16 73 3f 53 6b 07 3f ea 36 52 3f
       0.6000117 0.94956267 0.5289814 0.8211504
000030 77 3a 05 3e 54 55 0c 3f 88 fc 22 3f 7e 63 6a 3f
       0.13010584 0.548177 0.6366658 0.91558063
000040 48 be 43 3e 9c cb 24 3f 69 5b 5b 3f 1a b0 73 3f
       0.19115555 0.64373183 0.85686356 0.95190585
000050 01 3e 95 3d 85 da 55 3d 7c 31 fe 3e 35 c0 3d 3e
       0.07287217 0.05221035 0.4964713 0.18530352
000060 54 6a cf 3e
       0.4051081

firstGCN.attentionLayer.inAttention.W_alpha f4 [5, 5]
000000 f0 d1 73 3f 6a 21 86 3e 0f 50 35 3f f8 14 77 3f
       0.95242214 0.26197368 0.70825285 0.9651637
000010 53 55 00 3f b4 80 73 3f fb d9 09 3f b8 03 b8 3d
       0.50130194 0.9511826 0.53848237 0.08985084
000020 f2 7b 45 3e 3b 2c e2 3c 6c 1f 2b 3f 07 fe d8 3e
       0.19285563 0.027608981 0.6684482 0.42381307
000030 43 f6 51 3f 49 6d db 3c 68 d6 51 3f 40 02 8e 3c
       0.8201639 0.02678551 0.8196778 0.017335057
000040 c4 0d e4 3e c2 da 33 3f 90 54 ec 3e ad 52 37 3f
       0.44541752 0.7025567 0.46158266 0.7161053
000050 1e 68 6a 3f 9f fc 13 3e e1 37 28 3d f0 23 77 3f
       0.9156512 0.14451836 0.041068915 0.9653921
000060 20 5c c4 3d
       0.09587884

firstGCN.attentionLayer.inAttention.a_alpha f4 [5, 1]
000000 c0 9c ea 3d 00 7b 90 3d b4 bf 07 3f 90 00 48 3e
       0.11455679 0.070547104 0.5302689 0.19531465
000010 4d 07 77 3f
       0.96495515

firstGCN.attentionLayer.inAttention.b_alpha f4 [5, 1]
000000 5b 6b 6d 3f bb 01 e6 3e 9d 0b 1d 3f 46 06 0a 3e
       0.92741936 0.44923195 0.61345845 0.13478956
000010 1c 57 be 3e
       0.37175834

firstGCN.attentionLayer.outAttention.W_sum f4 [5, 5]
000000 cb 2a 5c 3f 78 8f 8c 3d 13 5b 76 3f df e1 7e 3f
       0.86002797 0.06863302 0.9623272 0.995634
000010 35 b0 71 3f e4 0a 2a 3f 14 75 43 3f 36 94 46 3f
       0.94409496 0.6642287 0.7635052 0.775699
000020 ec 39 55 3e 7f 9b 78 3f 06 60 06 3f 50 81 52 3e
       0.20822877 0.9711227 0.5249027 0.20557141
000030 f9 d6 61 3f 99 30 a1 3e d0 9c 16 3f 18 e1 4f 3f
       0.8821865 0.3148239 0.58833027 0.8120284
000040 c8 c2 5c 3f 48 58 81 3e 00 68 7b 3f 3a d7 3e 3f
       0.8623471 0.25262666 0.98205566 0.7454716
000050 12 97 87 3e 21 df b1 3e 6c f5 db 3d 63 30 e4 3d
       0.26482445 0.34740546 0.1074017 0.111420415
000060 42 e1 70 3f
       0.94093716

firstGCN.attentionLayer.outAttention.W_alpha f4 [5, 5]
000000 4b 10 7f 3f 66 39 ea 3e 12 ce f6 3e 61 24 35 3f
       0.99634236 0.45746917 0.48204094 0.70758635
000010 07 a3 c4 3e 55 f3 33 3f dd ff 6e 3f aa 0f 0e 3f
       0.3840563 0.7029317 0.93359166 0.5549265
000020 76 71 cd 3d d6 5e de 3e d1 2f 4c 3f fb 1f 11 3e
       0.100314066 0.4343173 0.7976046 0.14172356
000030 14 06 1e 3e 43 e9 0f 3e c8 3e 0f 3e 53 d6 7d 3f
       0.15432006 0.14053826 0.13988793 0.9915516
000040 9c 81 5d 3e 68 b8 b1 3e 3f 9c 02 3f 82 23 e0 3e
       0.21631473 0.34711003 0.5101966 0.4377709
000050 5b 3e 66 3f d6 a0 0a 3f 5c 88 70 3e 96 38 a5 3e
       0.89938897 0.54151666 0.23489517 0.32269734
000060 0f 79 75 3f
       0.95887846

firstGCN.attentionLayer.outAttention.a_alpha f4 [5, 1]
000000 5e 10 45 3f fc 14 5e 3e a0 c2 49 3e 3a eb 1f 3f
       0.769781 0.21687692 0.1970315 0.624683
000010 1b 38 6f 3f
       0.93444985

firstGCN.attentionLayer.outAttention.b_alpha f4 [5, 1]
000000 fd a4 46 3f 16 9c 66 3f fd 3f 35 3f 5f f9 1e 3e
       0.775955 0.9008192 0.70800763 0.15524815
000010 c7 58 20 3e
       0.15658866

firstGCN.linearLayer.weight f4 [5, 10]
000000 c1 38 c6 3b b6 74 88 bd f9 77 ab 3c 97 6c 99 be
       0.006049246 -0.06662886 0.02093123 -0.2996566
000010 7e 0e 93 be 14 21 62 be 8f 4e 05 be 0d 0f ac bd
       -0.28721994 -0.22082931 -0.13018249 -0.08401308
000020 4d 81 9b 3e 93 6a c5 bd 02 46 a8 3d 8a 80 38 be
       0.30372086 -0.09639468 0.08216478 -0.18017784
000030 ba 04 6f 3e 2d 89 4d bd 46 13 7f be 91 f4 25 3b
       0.23341647 -0.05017965 -0.24909696 0.0025322775
000040 d3 94 44 be 38 b7 82 3e fd 4a 3b 3e 4e 2f 49 3e
       -0.19197397 0.2553041 0.18290325 0.19646952
000050 98 e5 95 3e e3 3b 92 be df 20 25 be 19 63 0c be
       0.2927673 -0.28561315 -0.1612582 -0.13709678
000060 9e 58 8f be e8 2c 5d 3e af e1 05 3e 12 92 65 3e
       -0.27997297 0.21599162 0.13074373 0.22419003
000070 d7 52 c9 bd d3 6b 43 be 6f f3 07 be 69 3a cc bc
       -0.098302536 -0.190841 -0.13276456 -0.024930196
000080 71 f1 38 3e 4d fc d0 bd f4 e3 ed bd 7a 6f 44 3e
       0.18060853 -0.102043726 -0.11615744 0.1918315
000090 75 05 9f be a6 dc 4b bd 48 55 e1 bd ff 75 94 3e
       -0.3105885 -0.049770974 -0.11002594 0.28996274
0000a0 0a 09 cf 3b 88 6c ef bb 25 72 2f 3c 7b 4d 40 3e
       0.006318216 -0.007306639 0.0107083665 0.18779556
0000b0 26 c0 2b 3e e3 6a a8 3d 1d 52 9b 3e b4 1e 8c bd
       0.16772518 0.08223512 0.30336085 -0.06841794
0000c0 67 52 92 bd 5f 3b 69 be
       -0.07144623 -0.22776555

firstGCN.linearLayer.bias f4 [5]
000000 b5 f1 0f bd 3d 82 9b 3e b9 40 97 3e 96 39 1e 3e
       -0.03514262 0.303728 0.29541567 0.15451655
000010 c1 e8 95 3e
       0.2927914

secondGCN.attentionLayer.linear.weight f4 [5, 10]
000000 1b 94 7a 3d ad e6 cf 3d 5b 4e 07 3e a8 77 2b be
       0.0611764 0.1015142 0.13213484 -0.16744864
000010 98 57 90 3e 44 f4 41 3d 12 79 77 3d 49 a8 6d 3e
       0.2819183 0.04735209 0.060418196 0.23208727
000020 29 41 f1 3d b3 1c 55 3e c7 bb 7e 3d 45 f2 94 bc
       0.117800064 0.20811729 0.062190797 -0.01818193
000030 9c eb 04 3e 93 51 69 be c9 9b c5 3d 64 79 9f 3e
       0.12980503 -0.22785024 0.09648854 0.311473
000040 fe 8a 9c bd dc ce 76 3e a9 ff 2e be 60 38 95 3d
       -0.07643698 0.24102348 -0.17089714 0.07286143
000050 75 f7 2f 3e ec 6f a4 bd b7 70 a4 3c b8 41 62 3e
       0.17184241 -0.0802916 0.020073278 0.22095382
000060 ff b1 be 3d 72 87 29 be 04 f8 10 3d e3 58 a1 3e
       0.09311294 -0.16555575 0.035392776 0.31513128
000070 aa 43 5d bd af 53 75 be d8 3d d5 bc a1 8e b9 bd
       -0.054019608 -0.23957704 -0.026030466 -0.090604074
000080 01 be 1c 3e 60 da 2e 3e 51 0f 87 bc 10 9a a1 bd
       0.15306856 0.17075491 -0.016486796 -0.07890713
000090 a9 9a d2 3d 47 f9 c6 bd 7c 5c 27 3e b7 b2 fc bc
       0.10283405 -0.09715515 0.16343874 -0.030846937
0000a0 f7 48 28 be 35 18 4c be b2 77 35 be 44 95 6c be
       -0.16434084 -0.19931109 -0.17721441 -0.23103815
0000b0 94 cd 1e be 68 5a df bd 1b fe c7 bd b8 ea 8e 3e
       -0.1550811 -0.109059155 -0.09765264 0.2791345
0000c0 6e b2 6e bc 8e 51 97 be
       -0.014568908 -0.2955441

secondGCN.attentionLayer.linear.bias f4 [5]
000000 cb b8 6e be e4 2f 01 3c 3c 89 e3 bd a0 57 4e be
       -0.2331268 0.007884953 -0.1111016 -0.20150614
000010 0b cd 73 3d
       0.059521716

secondGCN.attentionLayer.inAttention.W_sum f4 [5, 5]
000000 56 14 83 3e e5 3c 46 3f 14 24 ce 3e 39 7f 0b 3f
       0.25601453 0.7743667 0.402619 0.54491
000010 3c 19 18 3f be 5f 45 3f 5a bc 84 3e 70 2c 5b 3e
       0.59413505 0.77099216 0.2592495 0.2140367
000020 5d 65 65 3f 70 20 5d 3e 9d ac 3c 3f 14 f7 64 3f
       0.89607793 0.21594405 0.73700887 0.8943951
000030 dc 94 0b 3e b0 53 47 3e 9e d6 cc 3e 20 ac e5 3d
       0.13631004 0.19465518 0.4000749 0.11214471
000040 ae 06 05 3f da 9f bf 3e c3 76 39 3f cf f1 60 3f
       0.5196332 0.37426645 0.7244684 0.8786897
000050 44 d5 70 3f d0 29 e7 3d 00 0c fb 3e 43 0d 34 3f
       0.9407542 0.11287272 0.49032593 0.70332736
000060 44 02 27 3f
       0.6523783

secondGCN.attentionLayer.inAttention.W_alpha f4 [5, 5]
000000 8c a2 dd 3e ae c0 87 3e 00 44 71 3b 68 0b ef 3d
       0.43288076 0.2651419 0.0036814213 0.116720974
000010 f4 9e 1d 3f f4 ad 32 3f 5c 5b 72 3e c9 62 34 3f
       0.6157067 0.6979668 0.23667663 0.70463234
000020 0f 47 32 3f ca c2 6e 3f 08 b8 f9 3e 90 8e 22 3d
       0.69639677 0.93265975 0.48773217 0.03968674
000030 ca 38 82 3e 60 fe e9 3e d8 ea e3 3d f2 fb 8b 3e
       0.25433952 0.45701885 0.11128777 0.27340657
000040 e8 9d 20 3e b0 fe 83 3d b4 c5 2c 3f 31 d4 53 3f
       0.15685236 0.06445062 0.6748917 0.82745653
000050 5e 00 de 3e 60 e6 e8 3e b2 30 fa 3e f6 f6 02 3f
       0.43359655 0.45488262 0.48865277 0.5115808
000060 de b1 77 3f
       0.9675578

secondGCN.attentionLayer.inAttention.a_alpha f4 [5, 1]
000000 6c 34 c9 3e 44 b8 2b 3e 92 7f ae 3e 5a 78 c1 3e
       0.39297807 0.1676951 0.34081703 0.37787133
000010 24 a9 88 3e
       0.26691544

secondGCN.attentionLayer.inAttention.b_alpha f4 [5, 1]
000000 3c 18 2a 3f 19 25 39 3f 73 89 06 3f 1e 2d 82 3e
       0.6644323 0.7232223 0.5255348 0.25425047
000010 f6 6c a8 3e
       0.3289563

secondGCN.attentionLayer.outAttention.W_sum f4 [5, 5]
000000 70 e2 6a 3d 37 78 73 3f 2e 84 c2 3e 80 51 2d 3f
       0.057344854 0.9510531 0.3799147 0.67702484
000010 a0 3f cd 3c fd 50 74 3f 2a fe 45 3f f2 70 64 3f
       0.025054753 0.9543608 0.7734095 0.8923484
000020 47 e2 05 3f af 52 19 3f b4 1d 6f 3e 85 0e 3c 3f
       0.52298397 0.5989179 0.23351175 0.73459655
000030 9e 2b c0 3e 90 0b 80 3d 8f 5c 13 3f 26 8a 8d 3e
       0.37533277 0.06252205 0.5756311 0.2764446
000040 c4 c9 5a 3f 10 b7 7c 3d 60 70 70 3d cc 6b 20 3f
       0.8546412 0.06169802 0.05870092 0.62664485
000050 d4 0f 73 3f 00 f8 b5 3b 32 65 bc 3e 54 f9 c0 3e
       0.94946027 0.0055532455 0.36795956 0.37690222
000060 ee 7c 5e 3f
       0.8690938

secondGCN.attentionLayer.outAttention.W_alpha f4 [5, 5]
000000 0f 49 1b 3f f8 60 f6 3d 54 63 01 3e f5 6a 5e 3f
       0.60658354 0.12030214 0.12635547 0.86881953
000010 da 93 a5 3e 24 88 76 3f d2 ac e2 3e eb 45 5d 3f
       0.32339364 0.96301484 0.44272476 0.8643481
000020 d4 3d 75 3f 2f 88 2a 3f 66 d4 40 3f d2 22 43 3f
       0.9579747 0.6661405 0.75324094 0.76225007
000030 84 62 5b 3f 38 d7 49 3f 9d 38 30 3f 92 0a 80 3e
       0.856972 0.7884402 0.68836385 0.25008065
000040 7d 85 50 3f e6 e7 d1 3e e0 b6 bd 3c c8 8c 90 3d
       0.81453687 0.40997237 0.02315849 0.07058102
000050 9e 80 00 3f 8b db 20 3f 24 77 cb 3e 7f ea 26 3f
       0.50196254 0.62834996 0.39739335 0.6520156
000060 60 ef 3d 3d
       0.046370864

secondGCN.attentionLayer.outAttention.a_alpha f4 [5, 1]
000000 c3 6d 7b 3f 46 03 2a 3f 08 9f 8b 3d 8c cc 5c 3f
       0.9821436 0.66411245 0.06817442 0.86249614
000010 24 6a 88 3e
       0.2664348

secondGCN.attentionLayer.outAttention.b_alpha f4 [5, 1]
000000 34 c7 33 3f db d1 20 3f 0b 5d 46 3f a4 d3 eb 3e
       0.70225835 0.62820214 0.7748572 0.46059906
000010 c4 82 e4 3e
       0.44631016

secondGCN.linearLayer.weight f4 [5, 10]
000000 fe 73 20 be ce 2d 63 bd 4a 54 80 3d 19 30 c3 bb
       -0.15669248 -0.055463605 0.06266077 -0.0059566614
000010 30 8d b0 bd 07 ae 18 be d3 4e 84 be 8c 8c 3b bd
       -0.086206794 -0.14910136 -0.25841388 -0.045788333
000020 dc 2d d2 3d 26 54 9a be 1e db 99 bb 14 1a 09 bd
       0.10262653 -0.30142325 -0.0046953103 -0.033472136
000030 e0 3d b0 3c fa 22 9c be f7 56 40 3e 58 4c 18 be
       0.02151388 -0.30495435 0.18783174 -0.14872873
000040 42 ac 5d 3e d3 ed 3e be 12 94 64 3e 75 ce 8d 3e
       0.21647742 -0.1864541 0.2232211 0.27696577
000050 63 5b f1 3d 97 91 ec 3d df d4 50 3e e4 0a 5b 3e
       0.11785009 0.115512066 0.20393704 0.21390873
000060 ba 00 a0 3d 2b 9f 82 3d b9 ff b0 3c 1d ce d0 bc
       0.078126386 0.06378015 0.021606313 -0.025488907
000070 6d b1 85 be 4b 4f 80 3e cd 65 30 3d b9 2d 69 3e
       -0.26111928 0.25060496 0.043065835 0.22771348
000080 95 d1 9f 3e c4 7b 09 be dc 91 39 be 81 67 0a 3d
       0.31214586 -0.13426119 -0.18122047 0.033790115
000090 50 31 9a be 3a be a0 3e d9 a4 93 bd ab 25 86 3e
       -0.30115747 0.3139513 -0.072091766 0.26200613
0000a0 f3 ee 93 be 31 a4 26 bd f6 f1 1d be eb 33 71 be
       -0.2889324 -0.04068393 -0.15424332 -0.23554961
0000b0 eb bb 0c be d1 eb 26 3d 53 7a c8 3d bd c3 01 3e
       -0.1374356 0.040752236 0.097889565 0.12672324
0000c0 09 0d 50 be cd eb 9f 3e
       -0.20317473 0.3123459

secondGCN.linearLayer.bias f4 [5]
000000 1d b4 5b be ac cb 60 3e e2 87 6a 3e 78 30 22 bd
       -0.21455427 0.21952695 0.22903398 -0.039597005
000010 1b 2a cf 3d
       0.10115453

thirdGCN.attentionLayer.linear.weight f4 [5, 10]
000000 84 c3 4e 3e 20 11 85 be 9a 05 dc 3d 43 08 89 be
       0.20191771 -0.25989628 0.10743256 -0.26764116
000010 81 57 17 be fb ba 56 bd f3 ea a6 3d 2b 5a 25 bd
       -0.14779474 -0.052424412 0.08150282 -0.040369194
000020 d6 96 57 3e 3f b4 9f be 01 97 81 3e 4d e6 02 3e
       0.21053633 -0.31192204 0.2531052 0.12783165
000030 00 8a 52 be 1b 01 5e 3e 31 65 a1 bd 0b f9 10 3d
       -0.20560455 0.21680109 -0.07880629 0.035393756
000040 db d9 97 3e 77 02 90 3b 5c 51 07 3e 69 2d 33 be
       0.29658398 0.004394825 0.1321463 -0.17497791
000050 9c f1 16 bd 3f 5f 8b bd 25 20 3f be 29 e6 69 bd
       -0.03685151 -0.06805276 -0.18664606 -0.057104263
000060 ea 2e 90 3d 38 81 43 be af c2 08 bc 14 c9 6e be
       0.07040198 -0.19092262 -0.008347197 -0.23318893
000070 0d 93 f2 bd 7c 80 c4 bc 49 95 2f 3e b5 4b b6 3c
       -0.11844454 -0.023987047 0.17146792 0.022252897
000080 91 47 8f 3e a4 b2 95 be 28 72 d1 bd 01 ec 6b be
       0.27984288 -0.29237854 -0.10226852 -0.23039247
000090 0e 2f 44 be 62 4c 6d be a8 1d 4b 3e 76 92 02 be
       -0.19158575 -0.23173669 0.19835532 -0.12751183
0000a0 d7 a3 93 3d 90 df c6 bc f2 88 7b bd 06 1e 80 3e
       0.07208984 -0.024276525 -0.061409898 0.25022906
0000b0 41 f2 99 3e cc 15 9b 3e b5 22 06 be c6 3b 7c be
       0.30067638 0.30290067 -0.13099177 -0.24632177
0000c0 e5 eb 2f bd 66 25 57 3e
       -0.042949576 0.2101036

thirdGCN.attentionLayer.linear.bias f4 [5]
000000 32 e9 61 3d 08 a7 fc 3d 61 56 9f 3e 9c 13 55 be
       0.055154033 0.12336546 0.3112059 -0.20808262
000010 35 1e 2c 3e
       0.16808398

thirdGCN.attentionLayer.inAttention.W_sum f4 [5, 5]
000000 02 5c b9 3e e8 e2 0b 3e 34 19 f2 3e b6 73 24 3f
       0.3620301 0.13660777 0.47284853 0.6423906
000010 d4 82 cc 3e 32 18 d9 3e f9 3c 16 3f a0 49 15 3f
       0.39943564 0.42401272 0.58686787 0.5831547
000020 9c 25 13 3f 9c d6 5c 3f 44 84 3c 3f b7 a6 17 3f
       0.5747926 0.8626497 0.7363932 0.5923876
000030 4f 72 7f 3f 68 96 24 3f 5c ab fd 3e f8 30 3b 3f
       0.99783796 0.64292 0.495448 0.73121595
000040 e1 91 62 3f 60 01 e9 3c be 3c 05 3f af 75 59 3f
       0.88503844 0.028443038 0.5204581 0.84945196
000050 02 c0 a0 3e 44 77 bb 3e b0 94 da 3e b8 64 62 3f
       0.3139649 0.3661443 0.42691565 0.88434935
000060 78 ad f1 3e
       0.4720266

thirdGCN.attentionLayer.inAttention.W_alpha f4 [5, 5]
000000 24 47 97 3e 64 38 62 3e 44 7c 56 3e b8 53 99 3e
       0.29546463 0.22091824 0.20945841 0.29946685
000010 76 08 05 3f d0 91 33 3f b4 dc 6b 3e e0 80 fc 3c
       0.51966035 0.7014437 0.2303341 0.030823171
000020 23 1b 7d 3f 40 12 b3 3c e4 b0 95 3e 2a c6 af 3e
       0.9886953 0.021859288 0.2923652 0.34330875
000030 f5 b5 7b 3f 16 eb c4 3e 55 8d 0e 3f 8a a8 7d 3f
       0.9832452 0.38460606 0.55684406 0.99085295
000040 f4 43 4b 3e 04 ad 90 3e 08 e0 97 3d 64 e1 3e 3f
       0.19850141 0.28257 0.074157774 0.7456267
000050 00 81 1f 3c d0 27 ee 3e 40 0e 8f 3c fd 4d 30 3f
       0.009735346 0.4651475 0.01746285 0.68869
000060 98 48 31 3e
       0.17312849

thirdGCN.attentionLayer.inAttention.a_alpha f4 [5, 1]
000000 63 2e 61 3f bc 5e 40 3f 06 75 f5 3e ec 24 29 3f
       0.87961406 0.75144553 0.47940844 0.66071963
000010 1c ec 3a 3e
       0.18254131

thirdGCN.attentionLayer.inAttention.b_alpha f4 [5, 1]
000000 f0 19 55 3f 17 86 3b 3f 32 ef 6f 3f 0e 91 dc 3e
       0.832427 0.7325148 0.9372436 0.43079418
000010 67 24 62 3f
       0.88336796

thirdGCN.attentionLayer.outAttention.W_sum f4 [5, 5]
000000 b6 89 a9 3e 9c 66 c1 3e e0 44 03 3d e1 2f 74 3f
       0.33112878 0.37773597 0.032048106 0.9538556
000010 9a 60 09 3f 60 8d 69 3f 0e e4 c6 3e 29 53 4a 3f
       0.5366303 0.91231346 0.38845867 0.7903314
000020 5c 82 65 3e 80 a5 be 3e 46 10 6d 3f 54 4c 2d 3e
       0.2241301 0.3723564 0.92602956 0.16923648
000030 98 01 36 3f f6 9e a5 3e c4 fd 13 3e f2 ab ec 3e
       0.7109618 0.3234784 0.14452273 0.46224934
000040 a4 a0 06 3e f8 dc 36 3e dc 06 cd 3e 04 9f 74 3e
       0.13147217 0.1785773 0.40044296 0.23888785
000050 00 f8 67 3c bf 85 08 3f 1a 44 9d 3e d4 8f 45 3e
       0.014158249 0.5332908 0.3071602 0.19293147
000060 b5 ce 53 3f
       0.82737285

thirdGCN.attentionLayer.outAttention.W_alpha f4 [5, 5]
000000 60 69 35 3f b8 53 20 3f 14 d7 55 3f ce 31 11 3f
       0.70863914 0.62627745 0.8353131 0.5671662
000010 08 cf 0e 3e 7b 49 1b 3f 2e 53 bb 3e ac 86 15 3e
       0.13946164 0.60659 0.365869 0.14602154
000020 cc 3a 6d 3f 58 19 4d 3e 18 54 bf 3d 0a af e2 3e
       0.9266784 0.20029199 0.093422115 0.4427417
000030 6c 2b b7 3e bb bd 75 3f 68 3d 8e 3e 00 61 6e 3e
       0.35775316 0.9599263 0.27781224 0.2327919
000040 25 a8 0c 3f b1 ab 11 3f d8 6a 25 3e 6a 0a e4 3e
       0.5494407 0.56902605 0.16154039 0.44539195
000050 20 b4 59 3d 16 8f 50 3f 00 a1 63 3c a1 40 44 3f
       0.053150296 0.8146833 0.013893366 0.76661116
000060 40 b4 26 3c
       0.010174811

thirdGCN.attentionLayer.outAttention.a_alpha f4 [5, 1]
000000 65 f8 41 3f f4 cd 7c 3e 84 d2 04 3f 6e de a3 3e
       0.75769645 0.2468794 0.5188372 0.32005638
000010 10 8a b7 3d
       0.0896188

thirdGCN.attentionLayer.outAttention.b_alpha f4 [5, 1]
000000 bc d7 51 3e 58 56 fb 3e 45 7c 4a 3f 18 92 86 3e
       0.20492452 0.49089313 0.7909587 0.26283336
000010 1b f2 64 3f
       0.89431924

thirdGCN.linearLayer.weight f4 [5, 10]
000000 d6 a0 97 3e 9b 3c 8b be 69 83 a0 3e 4a ef 58 3b
       0.29614896 -0.27194676 0.31350258 0.0033101612
000010 c4 24 f2 bd e4 0b 93 be 7e ad 65 bb e5 29 23 3b
       -0.11823419 -0.2872001 -0.0035046036 0.0024896797
000020 16 3b e0 3d 60 9c 1c 3e 41 82 f6 3c ac 40 6f 3e
       0.1094877 0.15294027 0.030091407 0.23364514
000030 94 20 8d 3e 1e b9 25 bb 5a a8 3c be cc a5 8b 3e
       0.27563918 -0.002528734 -0.18423596 0.2727493
000040 5a 26 c6 3d 52 c4 9c be 9a cf e1 bd eb 7e 03 be
       0.09675284 -0.3061853 -0.11025925 -0.12841384
000050 55 3a 82 3d fb ea 75 be 58 d3 9c 3e e8 0d 80 be
       0.06358782 -0.24015419 0.30629992 -0.2501061
000060 ec 8c 0e bd 02 98 04 be a7 37 8d be 56 1e 24 bd
       -0.034802362 -0.12948611 -0.27581522 -0.040067993
000070 f7 a8 21 3d 76 b3 72 3e 5c 11 2a be ad b5 68 3c
       0.039467778 0.23701271 -0.16608185 0.014203471
000080 f9 e9 52 be f8 69 2b be e8 46 86 3d f6 ac 6c 3e
       -0.20597066 -0.16739643 0.06556493 0.23112854
000090 79 c6 0e 3d 3d 89 89 3e 09 5b 3e be 82 63 9a bd
       0.034857247 0.26862517 -0.18589415 -0.07538511
0000a0 6c 9b f1 3d 11 3e 8f be 38 b2 55 3d 85 4c 18 be
       0.117972225 -0.2797704 0.052171916 -0.1487294
0000b0 78 78 cc 3c f9 5b 80 be 34 6b f8 3d 6a 8f 98 3e
       0.024959788 -0.2507017 0.121298224 0.29796916
0000c0 48 e8 6d 3e af e7 02 bd
       0.2323314 -0.031959232

thirdGCN.linearLayer.bias f4 [5]
000000 26 1c 8c 3e cc d6 4b 3c fd 98 3d be 31 84 02 3e
       0.27365226 0.012441348 -0.18515392 0.1274574
000010 3a 2a 91 3e
       0.2835253

ff4.weight f4 [5, 5]
000000 55 d0 98 3e 40 c7 80 3e 26 06 88 3d 6d 78 57 be
       0.29846445 0.25152016 0.06641798 -0.21042033
000010 4b f1 8a be a1 db bd be cd d7 61 3e 67 71 51 be
       -0.27137217 -0.37081626 0.22054978 -0.20453416
000020 01 30 d5 be 19 74 df 3c 33 cf 9f 3e 53 4b a7 be
       -0.41638187 0.02727704 0.31212768 -0.32674655
000030 31 40 19 3b aa 25 d2 3d 6b e4 50 3e 31 f4 c6 3d
       0.0023384208 0.1026109 0.20399635 0.097145446
000040 de b8 0e be 61 8c 8a 3d cb 1d 44 3d 11 09 a1 be
       -0.13937709 0.067650564 0.047879975 -0.3145223
000050 e4 1c 44 3d 75 31 8d 3e 8e bc 5d be 27 e9 07 bc
       0.047879115 0.27576795 -0.21653959 -0.008295334
000060 7b 21 c6 be
       -0.3869742

ff4.bias f4 [5]
000000 c0 b3 90 3e 6a f4 5c bd 1b cc ac ba bc e0 af 3e
       0.28262138 -0.05394403 -0.0013183387 0.34351146
000010 1b b8 8b 3e
       0.272889

ff5.weight f4 [5, 5]
000000 53 82 a9 be 73 b4 9b 3e e9 8f a3 3e 46 bc 00 be
       -0.33107242 0.3041111 0.31945732 -0.1257182
000010 ca b2 65 3e 46 03 8c 3e eb 5d bc 3e e8 f7 cc 3e
       0.22431484 0.27346247 0.36790404 0.40032887
000020 b1 d6 f4 3d 98 34 db 3e 93 58 b7 be 53 9b 8d 3e
       0.11955012 0.42813563 -0.35809764 0.27657565
000030 96 72 11 3e 3c 05 c3 be cd 49 e0 be f9 8c 8b be
       0.14203867 -0.3808993 -0.43806306 -0.2725599
000040 0c 48 c1 3c b9 d3 00 be 91 e8 fc bd 8f 02 a1 be
       0.023593925 -0.12580766 -0.12349046 -0.31447265
000050 90 9a 1d 3e 40 d9 93 3c 73 eb a0 be 5b 31 e2 3d
       0.15390992 0.018047929 -0.31429633 0.1104457
000060 bf 9f e1 be
       -0.4406719

ff5.bias f4 [5]
000000 90 fd c2 3e 82 ff 17 be 1b a7 31 3e b5 81 7c 3e
       0.38084078 -0.14843562 0.17348902 0.24658854
000010 e5 88 51 3e
       0.20462377

ff6.weight f4 [10, 5]
000000 1c 51 de be 86 47 4d 3e a4 14 d5 be cf 84 c1 be
       -0.43421257 0.20046815 -0.4161731 -0.37796637
000010 c8 76 ba bd c1 09 be 3e cb 8d d5 bd 00 93 88 be
       -0.09104687 0.37116817 -0.104274355 -0.26674652
000020 bd ec 83 be 97 54 41 be 72 5f df be d2 1d b5 3d
       -0.25766554 -0.18879925 -0.43627506 0.088435784
000030 c0 6b 60 3e fe 41 2b 3e fc ef 8f 3d db e2 22 3c
       0.21916103 0.16724393 0.07028195 0.009941782
000040 94 43 b4 3d b8 a8 c1 be e0 65 ba 3e 00 a3 30 3e
       0.08801952 -0.37824035 0.3640585 0.1724968
000050 86 63 a2 3d 33 e6 db 3e 4f 5d 88 be 8c 88 d5 3d
       0.07929139 0.42949066 -0.2663369 0.10426435
000060 19 e3 76 bd 51 e6 b7 be 75 df 7e 3d 61 21 e0 bd
       -0.06027517 -0.35917905 0.062224824 -0.109438665
000070 53 fd 9d be 90 40 a2 be 42 f5 c1 be 3d b3 df 3d
       -0.30857334 -0.31689882 -0.3788243 0.10922859
000080 d9 16 5d bb f4 71 25 3d 0e b8 c4 be e9 54 61 3e
       -0.0033735542 0.040391877 -0.38421673 0.22005047
000090 5d fc 9e 3e 93 0a 36 3e 89 50 e1 3e f1 ce 60 be
       0.31051913 0.17777471 0.44006756 -0.21953942
0000a0 62 20 d0 3b b9 39 b1 3e 00 c0 91 be 4c a8 8b be
       0.0063515166 0.3461435 -0.28466797 -0.27276838
0000b0 88 d2 0d 3e e1 4b 09 3d 68 a9 f2 3d 79 9d 99 3d
       0.13849843 0.03351963 0.11848718 0.07500739
0000c0 fd 94 08 be 73 55 c2 3e
       -0.13338085 0.37955818

ff6.bias f4 [10]
000000 6d fc 4d be 98 fa 00 be d3 e5 04 be ab 5c c9 3e
       -0.20115824 -0.12595594 -0.12978296 0.39328513
000010 f1 72 54 3e db 92 53 3e 55 73 bb be f5 55 18 3e
       0.20746972 0.2066149 -0.3661143 0.1487654
000020 19 c8 00 bc 11 1d a1 be
       -0.007860207 -0.31467488
