code/ml_model/useless_models/model_weights_m6p8n30_lr0.100000_bs10_epochs20.pth (torch, 22322 bytes, 48 tensors)

ff1.weight f4 [5, 5]
0.19932643 -0.20394804 0.3705625 0.0015434894 -0.1426943 0.304166 0.24752283 -0.29978466
-0.38772362 -0.28002188 -0.3586208 -0.04966217 -0.34985685 -0.07410258 -0.2830594 0.34064502
0.038584784 0.43060184 0.024976999 -0.046029594 0.101236954 -0.1302637 0.29357272 -0.37157428
-0.20437534
00000000: 3a1c 4c3e c1d7 50be 5eba bd3e e94e ca3a
00000010: 741e 12be a5bb 9b3e a076 7d3e 607d 99be
00000020: b683 c6be 075f 8fbe 259d b7be 8f6a 4bbd
00000030: 7020 b3be 18c3 97bd 29ed 90be 0669 ae3e
00000040: 140b 1e3d d877 dc3e 909c cc3c 8789 3cbd
00000050: 5255 cf3d d963 05be 2a4f 963e fc3e bebe
00000060: c547 51be

ff1.bias f4 [5]
-0.28615078 -0.031154048 -0.10033087 -0.2019169 -0.07428096
00000000: 5b82 92be c636 ffbc 457a cdbd 4ec3 4ebe
00000010: 9e20 98bd

ff2.weight f4 [5, 5]
-0.44258535 -0.19217184 0.012327123 -0.3682915 -0.42377326 0.27071095 0.09751487 0.12040599
-0.36558747 -0.19782723 0.38481465 -0.18737595 0.2212302 -0.012548848 -0.004557271 -0.37420326
0.4038111 -0.2868094 -0.14793646 0.30588952 0.1542114 0.29825437 0.080578126 0.22794597
0.32304198
00000000: 8c9a e2be b2c8 44be b4f7 493c b490 bcbe
00000010: cff8 d8be a09a 8a3e e0b5 c73d 6a97 f63d
00000020: 482e bbbe 3993 4abe 6d06 c53e 7bdf 3fbe
00000030: 2b8a 623e af99 4dbc 2955 95bb 9297 bfbe
00000040: 54c0 ce3e afd8 92be a87c 17be 8d9d 9c3e
00000050: 98e9 1d3e ccb4 983e 2506 a53d ab6a 693e
00000060: c265 a53e

ff2.bias f4 [5]
-0.20186034 -0.23425245 -0.26156592 0.39314854 0.053382598
00000000: 7ab4 4ebe e0df 6fbe f8eb 85be c44a c93e
00000010: b6a7 5a3d

ff3.weight f4 [5, 5]
0.068404965 0.40239775 0.22324091 -0.049617223 0.16144888 -0.17831221 0.4417213 0.2384373
-0.058699407 0.27855667 -0.24809113 0.10688126 0.43238145 0.15690424 -0.2590024 0.093280725
-0.023383236 0.038245827 -0.044972416 -0.43061942 -0.3156775 -0.0144519275 0.43192893 -0.19500878
-0.24244496
00000000: e717 8c3d 1407 ce3e 4499 643e 6e3b 4bbd
00000010: db52 253e 7a97 36be 4b29 e23e e828 743e
00000020: ca6e 70bd fb9e 8e3e 9a0b 7ebe 90e4 da3d
00000030: 1a61 dd3e 81ab 203e f69b 84be f709 bf3d
00000040: 338e bfbc a8a7 1c3d ff34 38bd 267a dcbe
00000050: 7ba0 a1be c7c7 6cbc ca25 dd3e 62b0 47be
00000060: 7e43 78be

ff3.bias f4 [5]
-0.19695698 0.059887998 0.4312396 -0.006237399 0.20874506
00000000: 17af 49be 1e4d 753d 70cb dc3e 1863 ccbb
00000010: 44c1 553e

firstGCN.attentionLayer.linear.weight f4 [5, 10]
0.17132297 -0.24335355 -0.044876307 0.008647938 0.0085233785 0.036572557 -0.32303473 0.13455692
0.22118802 0.30223653 0.22852202 0.63764966 0.031046832 0.067436196 0.2118757 0.2469554
0.58892417 -0.03115011 0.62508315 0.17438279 0.18101309 -0.14571102 -0.01938763 -0.23907582
-0.25411844 -0.057537843 -0.17837223 -0.26464695 -0.28284228 0.24326922 -0.33297724 -0.024796903
0.042447306 0.18260439 -0.15970884 0.105035245 0.027954012 -0.08337284 -0.3049007 -0.06261786
0.07120633 0.26444575 0.13274574 0.34485766 0.13890325 0.21492577 0.042123646 0.30771536
-0.21892999 0.20725103
00000000: 4a6f 2f3e ac31 79be 38d0 37bd 15b0 0d3c
00000010: a4a5 0b3c 1bcd 153d cf64 a5be 4ac9 093e
00000020: 1d7f 623e bfbe 9a3e ad01 6a3e 023d 233f
00000030: ed55 fe3c fd1b 8a3d f2f5 583e e0e1 7c3e
00000040: bcc3 163f 842e ffbc 7305 203f 6791 323e
00000050: 7f5b 393e 4535 15be cfd2 9ebc 4bd0 74be
00000060: d01b 82be cdac 6bbd 36a7 36be ce7f 87be
00000070: b4d0 90be 911b 793e fe7b aabe e022 cbbc
00000080: 3add 2d3d a5fc 3a3e b78a 23be b81c d73d
00000090: d0ff e43c 61bf aabd f21b 9cbe cb3d 80bd
000000a0: a0d4 913d 6f65 873e 80ee 073e 2f91 b03e
000000b0: a73c 0e3e 8015 5c3e d889 2c3d de8c 9d3e
000000c0: 2f2f 60be 9d39 543e

firstGCN.attentionLayer.linear.bias f4 [5]
-0.28826022 -0.042803954 -0.30401367 0.26830038 0.3023767
00000000: d896 93be 3353 2fbd aea7 9bbe ab5e 893e
00000010: 1ed1 9a3e

firstGCN.attentionLayer.inAttention.W_sum f4 [5, 5]
0.59693354 0.40389183 0.83889496 0.20359819 0.8462418 0.27168867 0.048689656 0.7307381
0.103874 0.40195277 0.5645575 1.1237687 0.5333132 0.4563247 0.39434403 0.34525716
0.3411846 0.37670532 0.059364438 0.72640365 0.03552176 0.18677555 0.20058775 0.79945636
0.7811031
00000000: a3d0 183f e9ca ce3e d2c1 563f 0b7c 503e
00000010: 4da3 583f c71a 8b3e ce6e 473d a711 3b3f
00000020: e4bb d43d c1cc cd3e d786 103f a7d7 8f3f
00000030: 3787 083f 64a3 e93e 76e7 c93e 8cc5 b03e
00000040: bfaf ae3e 85df c03e 2028 733d 97f5 393f
00000050: 447f 113d 1742 3f3e e066 4d3e 2ca9 4c3f
00000060: 5ff6 473f

firstGCN.attentionLayer.inAttention.W_alpha f4 [5, 5]
0.7991941 0.14746022 0.62559956 0.9523437 0.52295125 0.5647511 0.8623301 0.5197875
0.8876318 0.41581765 0.50066775 0.008585909 0.88904315 0.97538656 0.31427407 0.8607391
0.8402155 0.7716603 0.85392475 0.57900363 0.8525996 0.6802841 0.18369123 0.5762661
0.5860653
00000000: fc97 4c3f d0ff 163e 4b27 203f cccc 733f
00000010: 22e0 053f 8793 103f aac1 5c3f cb10 053f
00000020: d63b 633f 0de6 d43e c32b 003f eaab 0c3c
00000030: 5598 633f efb2 793f 88e8 a03e 6659 5c3f
00000040: 5d18 573f 888b 453f d09a 5a3f 9539 143f
00000050: f843 5a3f 1927 2e3f 8e19 3c3e 2d86 133f
00000060: 6008 163f

firstGCN.attentionLayer.inAttention.a_alpha f4 [5, 1]
0.45567316 0.30612224 0.91782194 0.99002075 0.4072945
00000000: fe4d e93e 0ebc 9c3e 61f6 6a3f 0072 7d3f
00000010: e888 d03e

firstGCN.attentionLayer.inAttention.b_alpha f4 [5, 1]
0.32930052 0.34969437 0.09892051 0.7539197 0.51124203
00000000: 149a a83e 240b b33e d696 ca3d e200 413f
00000010: c2e0 023f

firstGCN.attentionLayer.outAttention.W_sum f4 [5, 5]
0.31870854 0.30962214 0.3860998 0.17583518 0.14272101 0.3746827 0.850403 0.6618662
0.8687814 0.6374154 0.6321967 0.84371614 0.18600716 0.35051554 0.7256953 0.6627366
0.7738684 0.68061525 0.8631299 0.65238357 0.31462526 0.96483517 0.3852856 0.6635226
0.6087427
00000000: c42d a33e cb86 9e3e dfae c53e 230e 343e
00000010: 7525 123e 69d6 bf3e 03b4 593f 1070 293f
00000020: 7568 5e3f a82d 233f a5d7 213f c8fd 573f
00000030: a978 3e3e c676 b33e 2bc7 393f 1ba9 293f
00000040: 3d1c 463f cd3c 2e3f 15f6 5c3f 9c02 273f
00000050: 9016 a13e 70ff 763f 2744 c53e 9edc 293f
00000060: 90d6 1b3f

firstGCN.attentionLayer.outAttention.W_alpha f4 [5, 5]
0.6941097 0.6868783 0.37359434 0.35387152 0.83086336 0.4370244 0.97200364 0.6024102
0.9192626 0.08933923 0.5003866 0.46841076 0.092156455 0.5232986 0.11614422 0.8201418
0.64140385 0.56987375 0.31593361 0.25139418 0.5779129 0.869628 0.540061 0.91014427
0.06153301
00000000: 2cb1 313f 42d7 2f3f c247 bf3e a62e b53e
00000010: 76b3 543f aac1 df3e 3bd5 783f 8e37 1a3f
00000020: cb54 6b3f 7cf7 b63d 5619 003f 89d3 ef3e
00000030: 86bc bc3d e6f6 053f 05dd ed3d d0f4 513f
00000040: 0b33 243f 3fe3 113f 0dc2 a13e bdb6 803e
00000050: 1af2 133f f19f 5e3f 7041 0a3f 37ff 683f
00000060: 0a0a 7c3d

firstGCN.attentionLayer.outAttention.a_alpha f4 [5, 1]
0.09378326 0.16087776 0.9478609 0.8941531 0.071050406
00000000: 7011 c03d 24bd 243e 03a7 723f 38e7 643f
00000010: e082 913d

firstGCN.attentionLayer.outAttention.b_alpha f4 [5, 1]
0.036306366 0.2731907 0.6076988 0.70246446 0.38683534
00000000: fcb5 143d a7df 8b3e 2692 1b3f b6d4 333f
00000010: 480f c63e

firstGCN.linearLayer.weight f4 [5, 10]
-0.14443074 0.28522745 0.054392852 0.15824544 0.3105 -0.15144123 0.25358513 -0.041604687
-0.26255682 0.29945114 0.1954429 -0.07327987 0.097337864 0.1329169 0.16131103 -0.06295176
0.24529232 -0.25604782 0.20510906 0.099185444 -0.15099622 -0.11813074 -0.30224577 -0.08366649
0.20651034 0.12656882 0.12625402 -0.25063798 -0.021747112 -0.2609278 0.18803366 -0.2424798
-0.11064403 0.07262149 -0.09790596 -0.13389352 0.0048574083 -0.30629122 -0.093564555 -0.24235865
-0.033825286 -0.1260949 -0.30104175 -0.20332989 -0.09070525 -0.13788544 -0.069261566 -0.085755445
0.26040864 0.0753254
00000000: a7e5 13be 5509 923e 0acb 5e3d 180b 223e
00000010: dbf9 9e3e 6913 1bbe e9d5 813e ad69 2abd
00000020: d96d 86be a951 993e 2f22 483e c213 96bd
00000030: 1359 c73d 5e1b 083e b82e 253e daec 80bd
00000040: e92d 7b3e b318 83be 1c08 523e bd21 cb3d
00000050: c19e 1abe 88ee f1bd f5bf 9abe 5659 abbd
00000060: 7277 533e 429b 013e bc48 013e 9f53 80be
00000070: 0027 b2bc 5498 85be e58b 403e a04c 78be
00000080: 5699 e2bd 93ba 943d ec82 c8bd 621b 09be
00000090: e52a 9f3b 34d2 9cbe c69e bfbd de2c 78be
000000a0: 628c 0abd 051f 01be 2522 9abe b635 50be
000000b0: adc3 b9bd d731 0dbe 02d9 8dbd 8da0 afbd
000000c0: 4854 853e 3444 9a3d

firstGCN.linearLayer.bias f4 [5]
0.24030995 0.0012369611 -0.2556239 0.016282175 0.27084473
00000000: d013 763e 8721 a23a 23e1 82be 3262 853c
00000010: 29ac 8a3e

secondGCN.attentionLayer.linear.weight f4 [5, 10]
-0.21343492 0.16311345 0.21415697 0.2786294 0.19386354 -0.25704056 0.2771136 -0.29759276
-0.0060881497 -0.028620685 0.07543615 0.16604935 0.17572047 -0.2541887 -0.220446 0.30548984
0.007419203 0.0390542 0.31048533 0.019799294 -0.13006175 0.24349427 -0.30969554 -0.2864285
-0.29921678 -0.045696236 -0.24587339 0.20507208 0.24648005 -0.24661377 0.15898176 -0.2631172
-0.10117341 -0.11189512 -0.13868338 -0.20516801 0.099361755 -0.18877889 0.07685214 -0.30059966
0.06754524 -0.082070686 0.1953654 -0.0072476426 -0.14323118 -0.2350416 -0.07051549 -0.03359831
0.11002858 0.11642543
00000000: af8e 5abe 3607 273e f74b 5b3e 83a8 8e3e
00000010: 2a84 463e d29a 83be d5e1 8d3e 145e 98be
00000020: 1a7f c7bb ed75 eabc 457e 9a3d d708 2a3e
00000030: 11f0 333e 0525 82be 99bc 61be 2a69 9c3e
00000040: c91c f33b 4cf7 1f3d eff7 9e3e 2132 a23c
00000050: e82e 05be 9056 793e 6a90 9ebe c2a6 92be
00000060: f132 99be fa2b 3bbd 3cc6 7bbe 6afe 513e
00000070: 4465 7c3e 5288 7cbe 1dcc 223e 4cb7 86be
00000080: 0134 cfbd 4529 e5bd 0403 0ebe 9017 52be
00000090: 2d7e cb3d 414f 41be a864 9d3d 33e8 99be
000000a0: 2955 8a3d ad14 a8bd de0d 483e a27d edbb
000000b0: 32ab 12be bfae 70be 6d6a 90bd 629e 09bd
000000c0: aa56 e13d 7570 ee3d

secondGCN.attentionLayer.linear.bias f4 [5]
0.138362 0.05133417 -0.039871175 -0.05905148 -0.007941424
00000000: c5ae 0d3e c743 523d f54f 23bd f7df 71bd
00000010: bf1c 02bc

secondGCN.attentionLayer.inAttention.W_sum f4 [5, 5]
0.86725795 0.66897345 0.9918492 0.8803549 0.90274346 0.75633025 0.69298524 0.31809545
0.83805 0.33688194 0.55653834 0.7476897 0.68010813 0.8989628 0.3803299 0.27164066
0.57732713 0.23597866 0.9617589 0.92105544 0.36453038 0.9012373 0.19843584 0.049434483
0.9922355
00000000: 9e04 5e3f d841 2b3f d4e9 7d3f f05e 613f
00000010: 321a 673f dc9e 413f 7b67 313f 68dd a23e
00000020: 728a 563f ca7b ac3e 4c79 0e3f 9868 3f3f
00000030: 911b 2e3f 6d22 663f 9aba c23e 7c14 8b3e
00000040: b6cb 133f 64a4 713e d535 763f 4aca 6b3f
00000050: baa3 ba3e 7db7 663f c432 4b3e d07b 4a3d
00000060: 2503 7e3f

secondGCN.attentionLayer.inAttention.W_alpha f4 [5, 5]
0.28468126 0.17581797 0.46393448 0.8131639 0.5392417 0.09714508 0.5362364 0.1556018
0.17197025 0.8072815 0.49901485 0.895903 0.9019706 0.21617931 0.17840046 0.3855384
0.9007961 0.79206234 0.15798122 0.8778485 0.039426386 0.43590838 0.8713342 0.46557295
0.9835979
00000000: bec1 913e a009 343e d288 ed3e 822b 503f
00000010: be0b 0a3f 00f4 c63d ca46 093f 1456 1f3e
00000020: f818 303e 00aa 4e3f e07e ff3e e659 653f
00000030: 8ce7 663f 1c5e 5d3e 9cae 363e 4a65 c53e
00000040: 939a 663f 99c4 4a3f d4c5 213e aeba 603f
00000050: 907d 213d 622f df3e c20f 5f3f 945f ee3e
00000060: 12cd 7b3f

secondGCN.attentionLayer.inAttention.a_alpha f4 [5, 1]
0.7639126 0.11641222 0.7038539 0.120215416 0.91957945
00000000: c78f 433f 8869 ee3d c52f 343f 8033 f63d
00000010: 8f69 6b3f

secondGCN.attentionLayer.inAttention.b_alpha f4 [5, 1]
0.0852111 0.12847829 0.37865597 0.7768155 0.5702901
00000000: 2883 ae3d d08f 033e 32df c13e 61dd 463f
00000010: 88fe 113f

secondGCN.attentionLayer.outAttention.W_sum f4 [5, 5]
0.63601935 0.4397236 0.4601692 0.4176672 0.5932165 0.028553247 0.6115587 0.5154725
0.9852568 0.4922694 0.030743778 0.5075885 0.45799828 0.9390968 0.5981402 0.55980635
0.13943517 0.54540914 0.063317 0.15438575 0.6123016 0.89458734 0.56168926 0.027382255
0.8455473
00000000: 2ad2 223f 7423 e13e 4c9b eb3e 7ad8 d53e
00000010: 09dd 173f 80e8 e93c 1c8f 1c3f 01f6 033f
00000020: ca39 7c3f bc0a fc3e 60da fb3c 52f1 013f
00000030: c07e ea3e a668 703f b71f 193f 784f 0f3f
00000040: 18c8 0e3e ef9f 0b3f 58ac 813d 4c17 1e3e
00000050: ccbf 1c3f ad03 653f deca 0f3f c050 e03c
00000060: ca75 583f

secondGCN.attentionLayer.outAttention.W_alpha f4 [5, 5]
0.79944885 0.9605847 0.63443065 0.26221132 0.6695223 0.8909016 0.08577168 0.40690553
0.37138128 0.0763371 0.59628814 0.98647493 0.6595882 0.028384626 0.74784213 0.018666863
0.4635033 0.7370764 0.7023747 0.21190381 0.02702099 0.8203169 0.011835992 0.7642795
0.2814219
00000000: aea8 4c3f e1e8 753f 0c6a 223f 9040 863e
00000010: d065 2b3f 2112 643f 10a9 af3d ec55 d03e
00000020: b025 be3e a056 9c3d 57a6 183f 9f89 7c3f
00000030: c6da 283f e086 e83c 9572 3f3f 40eb 983c
00000040: 4e50 ed3e 0ab1 3c3f d4ce 333f 50fd 583e
00000050: 205b dd3c 4a00 523f c0eb 413c d2a7 433f
00000060: 8816 903e

secondGCN.attentionLayer.outAttention.a_alpha f4 [5, 1]
0.62178123 0.3685828 0.32679105 0.46263355 0.83996624
00000000: 0e2d 1f3f e2b6 bc3e 2851 a73e 4ede ec3e
00000010: 0708 573f

secondGCN.attentionLayer.outAttention.b_alpha f4 [5, 1]
0.7091503 0.75146514 0.75302315 0.8873814 0.5173541
00000000: e08a 353f 0560 403f 20c6 403f 6d2b 633f
00000010: 5171 043f

secondGCN.linearLayer.weight f4 [5, 10]
-0.22196901 -0.24797054 -0.30427632 -0.15683278 0.1812343 0.050326932 0.115742736 0.23191077
-0.27610406 -0.25362417 0.027933238 -0.06318077 -0.07759791 -0.1994269 -0.22080533 0.025771938
-0.00040833701 0.14039499 -0.20697734 0.10255106 -0.028456852 -0.19606826 -0.16782957 -0.17260826
-0.071749665 0.21058002 -0.25929445 -0.27765602 0.056092508 -0.103057 0.03761386 -0.17889157
0.1735044 -0.17208053 -0.27372682 -0.065161906 0.29060924 -0.1103055 0.20085895 -0.29499128
0.12241289 -0.054357264 -0.06390516 -0.14320672 -0.27389577 -0.19830815 -0.1958808 -0.020347826
-0.15262297 -0.15587674
00000000: d84b 63be fdeb 7dbe 1bca 9bbe c698 20be
00000010: 7c95 393e 9d23 4e3d 870a ed3d 047a 6d3e
00000020: 835d 8dbe 07db 81be 3fd4 e43c eb64 81bd
00000030: a7eb 9ebd 9136 4cbe cb1a 62be ac1f d33c
00000040: 1116 d6b9 b4c3 0f3e def1 53be 4a06 d23d
00000050: 581e e9bc 1ec6 48be 84db 2bbe 38c0 30be
00000060: 7df1 92bd 4aa2 573e 3ec2 84be ee28 8ebe
00000070: 42c1 653d 8c0f d3bd fe10 1a3d 5a2f 37be
00000080: 23ab 313e e135 30be ec25 8cbe 9b73 85bd
00000090: bcca 943e dae7 e1bd f8ad 4d3e 1909 97be
000000a0: 9cb3 fa3d b9a5 5ebd b5e0 82bd c8a4 12be
000000b0: 113c 8cbe 4b11 4bbe fa94 48be 7cb0 a6bc
000000c0: 3249 1cbe 279e 1fbe

secondGCN.linearLayer.bias f4 [5]
-0.117853254 0.28452823 0.1888659 -0.10671676 -0.06431688
00000000: 0c5d f1bd afad 913e 1066 413e 518e dabd
00000010: 92b8 83bd

thirdGCN.attentionLayer.linear.weight f4 [5, 10]
-0.24938893 -0.27527815 -0.072834894 0.09463463 -0.26222765 0.056851845 -0.07900028 0.03939819
0.2388856 -0.29545346 0.19311555 -0.1670962 0.23207562 0.079870865 0.20885096 -0.01357747
-0.108830296 0.028331736 -0.22484663 0.10171769 0.09249998 0.2611941 0.2733327 0.038423035
0.052196305 0.038155008 -0.15496269 -0.0366536 0.016241612 -0.24394341 0.109573156 -0.19049333
-0.25865105 0.16989297 0.13738294 0.12500161 0.10824482 -0.17797303 0.28472447 0.274634
0.051410995 -0.18764398 -0.09652828 -0.18437938 0.30909058 0.112719186 -0.0863361 0.04708738
-0.06670878 0.046110343
00000000: d05f 7fbe 42f1 8cbe 762a 95bd cdcf c13d
00000010: b442 86be 7bdd 683d e6ca a1bd ff5f 213d
00000020: 6d9e 743e ad45 97be 15c0 453e 441b 2bbe
00000030: 3ba5 6d3e 5693 a33d 07dd 553e 0974 5ebc
00000040: 6be2 debd f517 e83c 323e 66be 5d51 d03d
00000050: a170 bd3d 3cbb 853e 43f2 8b3e 7961 1d3d
00000060: cbcb 553d 6d48 1c3d 8aae 1ebe 1622 16bd
00000070: 210d 853c 4dcc 79be e467 e03d af10 43be
00000080: e96d 84be 6cf8 2d3e 1dae 0c3e 6c00 003e
00000090: 76af dd3d 903e 36be 68c7 913e d49c 8c3e
000000a0: 5694 523d be25 40be 9eb0 c5bd f3cd 3cbe
000000b0: 1f41 9e3e 51d9 e63d fbd0 b0bd b2de 403d
000000c0: 9d9e 88bd 33de 3c3d

thirdGCN.attentionLayer.linear.bias f4 [5]
0.016557666 -0.010570056 0.15418051 0.30178812 0.065188
00000000: f1a3 873c 072e 2dbc 7fe1 1d3e f983 9a3e
00000010: 4981 853d

thirdGCN.attentionLayer.inAttention.W_sum f4 [5, 5]
0.413332 0.3303246 0.2983567 0.6042691 0.87666917 0.43870074 0.5735938 0.61450505
0.41309434 0.92405 0.5293711 0.81614137 0.8167698 0.104798436 0.23479009 0.74820817
0.88315046 0.85036707 0.29289532 0.5973079 0.009277225 0.16461062 0.43267244 0.49975383
0.0039717555
00000000: 40a0 d33e 4e20 a93e 36c2 983e 61b1 1a3f
00000010: 646d 603f 629d e03e 0bd7 123f 3450 1d3f
00000020: 1a81 d33e 8a8e 6c3f dd84 073f a4ee 503f
00000030: d317 513f 90a0 d63d d06c 703e 928a 3f3f
00000040: 2616 623f a8b1 593f 60f6 953e 2ce9 183f
00000050: 80ff 173c b08f 283e 3e87 dd3e bcdf ff3e
00000060: 8025 823b

thirdGCN.attentionLayer.inAttention.W_alpha f4 [5, 5]
0.8351958 0.3514803 0.68967766 0.12248683 0.4879133 0.8556493 0.089600146 0.95602405
0.7413695 0.6375881 0.62782425 0.21959108 0.45781392 0.39074022 0.9098136 0.22235507
0.398807 0.8502203 0.8374798 0.97130984 0.28140724 0.26915103 0.879778 0.28147763
0.3810475
00000000: 64cf 553f 3af5 b33e b78e 303f 60da fa3d
00000010: c6cf f93e d50b 5b3f 4880 b73d febd 743f
00000020: 64ca 3d3f f938 233f 17b9 203f 7cdc 603e
00000030: 9666 ea3e 1a0f c83e 8be9 683f 0cb1 633e
00000040: 6e30 cc3e 0aa8 593f 1465 563f c3a7 783f
00000050: 9c14 903e 2ace 893e 2239 613f d61d 903e
00000060: a818 c33e

thirdGCN.attentionLayer.inAttention.a_alpha f4 [5, 1]
0.08128297 0.89016104 0.9426491 0.012860715 0.62769437
00000000: b077 a63d 98e1 633f 7451 713f c0b5 523c
00000010: 94b0 203f

thirdGCN.attentionLayer.inAttention.b_alpha f4 [5, 1]
0.31954533 0.8599905 0.13614458 0.78917074 0.5103003
00000000: 729b a33e 5628 5c3f 7c69 0b3e 1807 4a3f
00000010: 0aa3 023f

thirdGCN.attentionLayer.outAttention.W_sum f4 [5, 5]
0.91157746 0.13399702 0.3221619 0.99252546 0.022620916 0.076218724 0.7195979 0.6837176
0.6693765 0.45715463 0.008921325 0.8601598 0.38869 0.07039219 0.035088837 0.814675
0.5812726 0.66501653 0.96844923 0.52236414 0.21892637 0.4834814 0.8973978 0.17548132
0.4825557
00000000: 245d 693f 8436 093e 68f2 a43e 2616 7e3f
00000010: 804f b93c 9018 9c3d 9137 383f 1e08 2f3f
00000020: 425c 2b3f 2c10 ea3e c02a 123c 6f33 5c3f
00000030: 6002 c73e c829 903d 50b9 0f3d 8a8e 503f
00000040: 48ce 143f 863e 2a3f 4aec 773f a8b9 053f
00000050: 3c2e 603e e08a f73e ddbb 653f 60b1 333e
00000060: 8a11 f73e

thirdGCN.attentionLayer.outAttention.W_alpha f4 [5, 5]
0.98287416 0.6133666 0.59477705 0.0008119345 0.34213728 0.06923157 0.33740544 0.7862742
0.8074689 0.80446523 0.71515846 0.36428338 0.5819882 0.82041204 0.037023723 0.94021386
0.52455735 0.51328367 0.7678519 0.75122154 0.44011688 0.25628644 0.39616448 0.08219308
0.77045107
00000000: a49d 7b3f 9805 1d3f 4f43 183f 00d8 543a
00000010: 9e2c af3e 48c9 8d3d 68c0 ac3e 4449 493f
00000020: 48b6 4e3f 6ff1 4d3f a014 373f 5a83 ba3e
00000030: 2efd 143f 8606 523f 30a6 173d dbb1 703f
00000040: 6449 063f 8f66 033f f191 443f 0e50 403f
00000050: 0057 e13e fa37 833e 12d6 ca3e d854 a83d
00000060: 483c 453f

thirdGCN.attentionLayer.outAttention.a_alpha f4 [5, 1]
0.510295 0.16863734 0.34330863 0.36612177 0.11780691
00000000: b1a2 023f 44af 2c3e 26c6 af3e 5074 bb3e
00000010: c044 f13d

thirdGCN.attentionLayer.outAttention.b_alpha f4 [5, 1]
0.9170017 0.5309788 0.35222638 0.25511009 0.19864404
00000000: a0c0 6a3f 3aee 073f 0457 b43e ca9d 823e
00000010: 5869 4b3e

thirdGCN.linearLayer.weight f4 [5, 10]
0.13571167 -0.027357826 0.16256043 -0.2586364 -0.17791544 0.12338345 -0.058562018 0.19129726
-0.08096733 0.16429722 0.17846495 0.24559635 -0.3000226 0.15011452 -0.091138095 0.05672733
-0.04140798 0.3082831 0.060545087 -0.2889401 -0.09111954 -0.17036298 -0.119318284 0.061946973
0.18211356 0.10252516 0.24617365 -0.027369399 -0.13664961 0.04543865 0.058961008 0.14333527
0.22154322 0.2565406 -0.06439492 -0.11738589 0.07042415 -0.020191422 -0.1948122 -0.1431256
0.06197973 -0.22566184 0.17867199 -0.044213902 0.1746167 0.20267121 -0.04727338 0.057263575
-0.0026479706 0.014730931
00000000: 00f8 0a3e 851d e0bc 3e76 263e fd6b 84be
00000010: 772f 36be 76b0 fc3d bade 6fbd 6ee3 433e
00000020: 33d2 a5bd 883d 283e 84bf 363e 9c7d 7b3e
00000030: 909c 99be 9fb7 193e 9ca6 babd eb5a 683d
00000040: 6a9b 29bd 48d7 9d3e 20fe 773d f5ef 93be
00000050: e29c babd a273 2ebe 255d f4bd 1cbc 7d3d
00000060: fa7b 3a3e b6f8 d13d f214 7c3e ca35 e0bc
00000070: e0ed 0bbe e11d 3a3d 1981 713d 7bc6 123e
00000080: 3adc 623e 4a59 833e 7ce1 83bd 0368 f0bd
00000090: 893a 903d 7b68 a5bc d97c 47be 848f 12be
000000a0: 75de 7d3d e613 67be caf5 363e a319 35bd
000000b0: b8ce 323e 0b89 4f3e bba1 41bd 368d 6a3d
000000c0: 9389 2dbb 015a 713c

thirdGCN.linearLayer.bias f4 [5]
-0.18232813 0.09619228 0.0024197134 -0.028672934 0.20476677
00000000: 3ab4 3abe 7500 c53d 0e94 1e3b 80e3 eabc
00000010: 61ae 513e

ff4.weight f4 [5, 5]
-0.32343626 0.035003334 0.35336497 0.35483202 -0.18164459 -0.089961685 1.1494746 -0.5556471
-0.4939 0.32946634 0.24144858 -0.41170022 0.16831821 -0.027579417 -0.32627815 -0.2006181
0.14198989 0.1820285 0.10393946 -0.2750515 0.018617794 -0.30657017 0.3379634 0.023077413
0.18172123
00000000: 7099 a5be a85f 0f3d 41ec b43e 8bac b53e
00000010: 0a01 3abe d53d b8bd fc21 933f e33e 0ebf
00000020: 76e0 fcbe d0af a83e 4c3e 773e 5fca d2be
00000030: 9c5b 2c3e 3bee e1bc ee0d a7be d56e 4dbe
00000040: cc65 113e ae65 3a3e 36de d43d 8dd3 8cbe
00000050: 5884 983c c4f6 9cbe 8a09 ad3e d80c bd3c
00000060: 2115 3a3e

ff4.bias f4 [5]
-0.40188658 0.5344256 0.09148507 -0.38956937 0.35259318
00000000: 14c4 cdbe 1ed0 083f 865c bb3d a375 c7be
00000010: 1887 b43e

ff5.weight f4 [5, 5]
0.38089743 -0.2869896 0.22847663 0.017680237 0.19197886 0.07711119 -0.21500207 0.16779104
0.23622474 0.31733283 -0.2726103 -0.17216475 0.35404542 0.4002665 -0.366092 -0.06100307
0.43416655 -0.14473945 -0.051770605 -0.20355743 0.20576124 -0.1752046 0.14319538 0.21118446
-0.23250462
00000000: fd04 c33e 4df0 92be c7f5 693e 25d6 903c
00000010: 1b96 443e 79ec 9d3d 8129 5cbe 6ad1 2b3e
00000020: e6e4 713e 7379 a23e 9493 8bbe f54b 30be
00000030: 7145 b53e bbef cc3e 6970 bbbe 5bde 79bd
00000040: 144b de3e 9436 14be 6a0d 54bd 5c71 50be
00000050: 13b3 523e d668 33be cfa1 123e bd40 583e
00000060: b115 6ebe

ff5.bias f4 [5]
-0.09601323 0.3762937 0.12011159 -0.33859053 -0.38023007
00000000: 96a2 c4bd 91a9 c03e 11fd f53d bd5b adbe
00000010: 84ad c2be

ff6.weight f4 [30, 5]
0.24247834 -0.30890763 0.020373 0.4339119 -0.44411638 -0.31906354 -0.3196807 0.21598354
0.33407867 0.058662836 0.21401356 -0.44024822 0.3931356 -0.20062248 0.36071515 0.39965913
-0.30925864 0.31360328 0.31515282 -0.25688717 0.37405595 -0.28155434 -0.2828026 0.19562659
-0.22399132 -0.2537137 -0.31190893 0.44222137 -0.3293823 0.110822335 0.12948774 -0.26446182
0.28087747 0.2400872 -0.43752566 -0.16429979 -0.39421824 -0.100358866 0.2973767 -0.44968322
0.44180354 -0.4045896 -0.23019749 -0.41499168 0.1805402 -0.111056015 -0.38395026 0.036378257
-0.39335847 0.13713153 0.16304733 -0.4528835 0.050983865 -0.18486635 0.09530889 0.045738295
-0.1030305 -0.32638183 0.4261703 0.046995047 0.2576689 -0.465258 0.0050824396 0.33252323
0.023642302 0.26226887 -0.4943588 0.117996715 -0.136315 -0.31366238 0.13254966 -0.4175473
-0.3586833 -0.4367897 -0.04513549 -0.3542959 -0.39578867 -0.1490773 0.15713991 0.3085519
0.3271528 -0.3658993 -0.3081576 -0.40406734 -0.2893482 0.3059152 -0.2819318 -0.39709392
0.41552317 0.19803756 0.22679053 -0.25535625 0.0932256 0.1083679 -0.18923205 0.18004598
-0.41228515 -0.00678925 0.026222702 -0.37792596 -0.046102203 -0.2583494 -0.053704925 0.36792648
0.17797314 0.08696602 -0.260079 -0.38235316 0.074653246 -0.12594429 -0.08483935 -0.29156482
0.13399604 -0.30755052 0.11083713 0.2732034 -0.28296596 -0.34988675 0.010881759 -0.18629812
-0.31950653 -0.49567908 0.06253923 0.37450317 -0.24144831 0.14018607 -0.39756265 0.10267806
0.34106705 0.32991642 0.2648533 -0.25570554 -0.12665881 -0.2980918 0.04712328 -0.08531127
-0.4554416 -0.2005341 -0.09671038 0.33515796 -0.37820944 -0.36893442 -0.43510342 0.20185989
-0.099631704 -0.38118634 -0.30671826 0.025353385 -0.11281885 -0.09292098
00000000: 3e4c 783e 2429 9ebe 47e5 a63c b329 de3e
00000010: 3963 e3be 4c5c a3be 30ad a3be ca2a 5d3e
00000020: 5c0c ab3e 7148 703d 5f26 5b3e 3768 e1be
00000030: 1249 c93e fb6f 4dbe a8af b83e 1fa0 cc3e
00000040: 2657 9ebe 9c90 a03e b65b a13e b786 83be
00000050: 4384 bf3e e427 90be 81cb 90be 5652 483e
00000060: fb5d 65be c3e6 81be 87b2 9fbe d76a e23e
00000070: cca4 a8be d2f6 e23d 6f98 043e 8a67 87be
00000080: 2ccf 8f3e 6bd9 753e 5d03 e0be 343e 28be
00000090: f9d6 c9be f388 cdbd c241 983e e13c e6be
000000a0: 1334 e23e 5e26 cfbe e4b8 6bbe ca79 d4be
000000b0: 88df 383e 5671 e3bd 2195 c4be 5e01 153d
000000c0: 4866 c9be 356c 0c3e e1f5 263e 59e0 e7be
000000d0: 75d4 503d 9b4d 3dbe 4f31 c33d 1458 3b3d
000000e0: a801 d3bd 851b a7be fe32 da3e e17d 403d
000000f0: 2eed 833e 4c36 eebe 988a a63b 7c40 aa3e
00000100: 80ad c13c 1b48 863e 991c fdbe 43a8 f13d
00000110: 2996 0bbe 5b98 a0be 19bb 073e c2c8 d5be
00000120: 56a5 b7be e6a2 dfbe fedf 38bd 4666 b5be
00000130: d0a4 cabe b8a7 18be 49e9 203e 84fa 9d3e
00000140: 9280 a73e 2757 bbbe d5c6 9dbe eae1 cebe
00000150: 7325 94be eba0 9c3e 5d59 90be e54f cbbe
00000160: 74bf d43e 5cca 4a3e c73b 683e 0ebe 82be
00000170: 10ed be3d fdef dd3d 0cc6 41be f95d 383e
00000180: 0a17 d3be 5b78 debb fed0 d63c 837f c1be
00000190: aad5 3cbd 5f46 84be b2f9 5bbd dc60 bc3e
000001a0: 973e 363e 3e1b b23d 1329 85be cbc3 c3be
000001b0: cde3 983d 8af7 00be 41c0 adbd fc47 95be
000001c0: 4236 093e 4377 9dbe 94fe e23d 51e1 8b3e
000001d0: eae0 90be 5b24 b3be 6849 323c efc4 3ebe
000001e0: 5c96 a3be a6c9 fdbe 9114 803d e1be bf3e
000001f0: 3a3e 77be f08c 0f3e 558d cbbe e048 d23d
00000200: 57a0 ae3e ceea a83e da9a 873e d6eb 82be
00000210: d9b2 01be 7d9f 98be 5704 413d adb7 aebd
00000220: a42f e9be d058 4dbe 1710 c6bd d399 ab3e
00000230: aba4 c1be f9e4 bcbe e0c5 debe 5cb4 4e3e
00000240: b50b ccbd db2a c3be 2d0a 9dbe e7b1 cf3c
00000250: 920d e7bd 5b4d bebd

ff6.bias f4 [30]
-0.236601 0.25297907 0.19896297 0.00013287018 -0.30786425 -0.09302382 -0.38448808 -0.36153272
0.11014446 -0.47584507 0.26284155 0.5827201 -0.28706542 0.28979382 0.044730008 0.16102073
-0.254371 -0.12346268 -0.5381298 0.28856084 -0.4105099 6.538036e-05 0.14580983 -0.07514185
0.062238418 -0.1412833 -0.43165568 0.1307186 -0.24127059 0.2091741
00000000: 8847 72be 7986 813e f3bc 4b3e 1153 0b39
00000010: 62a0 9dbe 4683 bebd 9fdb c4be d11a b9be
00000020: 6b93 e13d f7a1 f3be 2b93 863e 252d 153f
00000030: 3dfa 92be db5f 943e d036 373d 9ee2 243e
00000040: ea3c 82be 00da fcbd e0c2 09bf 3fbe 933e
00000050: 5b2e d2be d01c 8938 2c4f 153e f8e3 99bd
00000060: b6ed 7e3d 92ac 10be f901 ddbe 19db 053e
00000070: a30f 77be bc31 563e
