code/ml_model/useless_models/model_weights_m8p8n30_lr0.100000_bs10_epochs20.pth (torch, 22322 bytes, 48 tensors)

ff1.weight f4 [5, 5]
0	0xbd6b6608	-0.05747035
1	0xbda0c058	-0.07849187
2	0x3d32f74d	0.043692876
3	0xbebb5110	-0.36585283
4	0x3e94aa4a	0.2903617
5	0xbe7f3047	-0.2492076
6	0x3edc54e9	0.4303353
7	0x3e0f1e6f	0.13976453
8	0x3e3d3b88	0.1847974
9	0xbd80f7bd	-0.06297252
10	0xbe52d2c2	-0.2058821
11	0x3ea201a0	0.31641865
12	0xbea49665	-0.32145992
13	0xbedde70e	-0.43340343
14	0xbd8285e6	-0.06373195
15	0xbecc8957	-0.39948532
16	0xbba23e84	-0.0049513
17	0x3e51674c	0.20449561
18	0x3e1729fb	0.14762108
19	0xbe5ae4d4	-0.21376354
20	0x3e9439d1	0.2895036
21	0xbcfa37f8	-0.030544266
22	0xbea2d7e0	-0.31805325
23	0xbedee628	-0.4353497
24	0xbe8c61ee	-0.27418464

ff1.bias f4 [5]
0	0xbebd57ac	-0.3698095
1	0xbea967b5	-0.33086935
2	0x3e89d87a	0.2692297
3	0xbdb7a58d	-0.08967123
4	0xbe292bad	-0.16520567

ff2.weight f4 [5, 5]
0	0x3e76f195	0.24115594
1	0xbee0ed6d	-0.43931141
2	0xbe9b5239	-0.30336168
3	0x3d079597	0.033101644
4	0x3e01dd9f	0.12682198
5	0x3ed9f318	0.42568278
6	0xbe8cc3d9	-0.2749317
7	0x3e04df4a	0.12975803
8	0xbe3da887	-0.1852132
9	0x3ed29ff1	0.4113765
10	0xbe4581a6	-0.19287738
11	0x3d5c7099	0.05381832
12	0x3ec7b2c4	0.39003575
13	0x3eb92e48	0.36168122
14	0x3e8a3981	0.26996997
15	0xbe88b62d	-0.2670149
16	0xbe7a3065	-0.24432524
17	0xbc62cad5	-0.013842304
18	0x3e007b7c	0.12547106
19	0x3e7d005d	0.2470717
20	0xbe7adac8	-0.24497521
21	0xbd1e9316	-0.03871449
22	0xbea7555e	-0.32682317
23	0xbec5f4e7	-0.38663408
24	0x3e244102	0.16040424

ff2.bias f4 [5]
0	0x3e3af302	0.18256763
1	0x3eb93a0d	0.36177102
2	0xbe9da43f	-0.30789372
3	0x3d4de70e	0.05026918
4	0x3e0f8870	0.1401689

ff3.weight f4 [5, 5]
0	0xbeabead0	-0.33577585
1	0xbec19a5b	-0.37813076
2	0x3ed459ca	0.41474754
3	0x3e52a5b3	0.20571022
4	0xbd1e34f3	-0.038624715
5	0x3e7cfe2f	0.24706338
6	0x3eaa6938	0.332834
7	0xbec70d86	-0.38877505
8	0xbe9d5cd2	-0.3073488
9	0xbdb3fa76	-0.08788006
10	0xbe87ba41	-0.26509288
11	0x3d848ee0	0.06472564
12	0xbbcd51e8	-0.0062658675
13	0x3dd34134	0.10315171
14	0xbeb9ebb3	-0.36312637
15	0x3e8560a9	0.26050308
16	0x3d8453a6	0.06461267
17	0x3e731c70	0.23741317
18	0xbecdd94f	-0.40204856
19	0x3ed15137	0.40882275
20	0xbd9d4adc	-0.07680294
21	0xbde556bb	-0.11198183
22	0x3e85d9d9	0.26142767
23	0x3ec67977	0.38764545
24	0x3e6b4e09	0.22978987

ff3.bias f4 [5]
0	0x3cb88eaa	0.022528965
1	0xbe026ec9	-0.12737574
2	0x3e830a48	0.2559378
3	0x3ee42e90	0.44566774
4	0x3ee4cd35	0.4468781

firstGCN.attentionLayer.linear.weight f4 [5, 10]
0	0x3e0fd568	0.14046252
1	0xbea65d92	-0.32493263
2	0xbde833e1	-0.1133802
3	0x3e0ebaf9	0.13938512
4	0xbdd76edf	-0.10519194
5	0x3df807b0	0.12110841
6	0xbe5640ac	-0.20923108
7	0xbe9a5e79	-0.30150202
8	0x3e5e4e89	0.21709646
9	0x3d8704d4	0.06592718
10	0xbdbbff30	-0.091795325
11	0xbe36b892	-0.17843845
12	0xbd4e6b81	-0.050395492
13	0xbe9f9bfa	-0.31173688
14	0x3da5a201	0.080875404
15	0xbb077690	-0.0020670034
16	0x3e17d542	0.14827445
17	0xbd8e44a5	-0.06946687
18	0xbe12ea9b	-0.14347307
19	0xbe83ba02	-0.2572785
20	0x3e0200ba	0.1269559
21	0xbe1c199c	-0.15244144
22	0xbe438792	-0.19094685
23	0xbd7d0f36	-0.061782084
24	0xbe297aa6	-0.16550693
25	0xbe27887e	-0.16360661
26	0xbe8f1baa	-0.27950794
27	0xbdbdc101	-0.09265328
28	0x3e894b55	0.26815286
29	0xbdbfa388	-0.09357363
30	0x3da3135c	0.07962677
31	0x3eccfeef	0.4003825
32	0x3ea6c305	0.32570663
33	0x3f1ebb92	0.6200496
34	0x3e84a6df	0.25908563
35	0x3f0d4b37	0.55192894
36	0x3eca6935	0.39533392
37	0x3ea8633f	0.3288822
38	0x3e42c653	0.19020967
39	0xbe31d516	-0.17366442
40	0x3e4f45d7	0.20241486
41	0x3e7b7887	0.24557696
42	0x3ddac8de	0.106828436
43	0x3ec1f88c	0.3788494
44	0x3e84cacb	0.2593597
45	0xbc2334ba	-0.009961301
46	0xbe25c942	-0.16190055
47	0xbea85e3a	-0.3288439
48	0xbe6d1de0	-0.23155928
49	0xbdd69b47	-0.104788356

firstGCN.attentionLayer.linear.bias f4 [5]
0	0xbe8f0abf	-0.27937886
1	0x3e89c7d1	0.2691026
2	0x3d29318f	0.04130703
3	0x3e3c28a2	0.18374875
4	0xba2f036c	-0.000667623

firstGCN.attentionLayer.inAttention.W_sum f4 [5, 5]
0	0x3f1237d9	0.57116467
1	0x3f0f7e94	0.5605252
2	0x3e1120c7	0.1417266
3	0x3eedc790	0.46441317
4	0x3e3b1b56	0.18272147
5	0x3e5e59d9	0.21713962
6	0x3e64bb31	0.22337033
7	0x3ec33c61	0.38132003
8	0x3f7f37a5	0.9969428
9	0x3ef3bf82	0.47607046
10	0x3e621c47	0.220811
11	0x3e65873b	0.22414868
12	0x3f817773	1.0114578
13	0x3f8d4e6c	1.1039557
14	0x3f4f000b	0.8085944
15	0x3ebd4325	0.3696529
16	0x3da1054c	0.078623384
17	0x3eebeb5b	0.46078
18	0x3f07618c	0.5288322
19	0x3f677ba1	0.9042302
20	0x3f4f53af	0.80987066
21	0x3f12d659	0.5735832
22	0x3f0fae47	0.561253
23	0x3dd32e47	0.10311561
24	0x3f1a2e60	0.6022701

firstGCN.attentionLayer.inAttention.W_alpha f4 [5, 5]
0	0x3f32051c	0.69539046
1	0x3f6ce832	0.925418
2	0x3e1fee53	0.15618257
3	0x3df9b4d8	0.12192696
4	0x3f38eee3	0.7223951
5	0x3f278d2a	0.65449774
6	0x3da28884	0.079361945
7	0x3d23e707	0.040015247
8	0x3ca58b41	0.020208003
9	0x3e6cd60b	0.23128526
10	0x3db6137f	0.08890437
11	0x3f7bc075	0.9834054
12	0x3e132be2	0.14372209
13	0x3f6d4c46	0.9269451
14	0x3f21e5cc	0.6324127
15	0x3f5a4fa1	0.85277754
16	0x3e816a68	0.25276494
17	0x3f4e7b2d	0.806567
18	0x3e36b072	0.17840746
19	0x3f65bd98	0.8974242
20	0x3f3b12a6	0.7307533
21	0x3e9412d6	0.2892062
22	0x3f1941a3	0.5986578
23	0x3e3c1c40	0.18370152
24	0x3e1ff46c	0.15620583

firstGCN.attentionLayer.inAttention.a_alpha f4 [5, 1]
0	0x3eb6faa0	0.35738087
1	0x3f4cd381	0.8001023
2	0x3eaecd4a	0.34140998
3	0x3e97c36e	0.2964129
4	0x3dd6f4a8	0.10495883

firstGCN.attentionLayer.inAttention.b_alpha f4 [5, 1]
0	0x3f679767	0.90465397
1	0x3ec2104d	0.37903062
2	0x3f6314c9	0.8870359
3	0x3f26f270	0.6521368
4	0x3f3707ea	0.7149645

firstGCN.attentionLayer.outAttention.W_sum f4 [5, 5]
0	0x3e0dfdd8	0.13866365
1	0x3f3261cb	0.6968047
2	0x3f2ceba8	0.6754708
3	0x3f163758	0.586782
4	0x3ee05ab2	0.43819195
5	0x3f7abea4	0.97947145
6	0x3f1fac69	0.6237245
7	0x3f69988c	0.91248393
8	0x3e0dd647	0.13851272
9	0x3e3449b2	0.17606238
10	0x3f74f690	0.95688725
11	0x3f1f0f22	0.62132466
12	0x3f39e16a	0.7260958
13	0x3f562f11	0.8366557
14	0xbd1652b6	-0.036699973
15	0x3ea627a7	0.32452127
16	0x3d96b2b9	0.073583074
17	0x3f519ed7	0.81882995
18	0x3f4678bd	0.7752798
19	0x3de99166	0.11404686
20	0x3ea87bc2	0.3290692
21	0x3e2166e0	0.157619
22	0x3f37e7be	0.71837986
23	0x3e2645dd	0.16237588
24	0x3f2867e1	0.65783507

firstGCN.attentionLayer.outAttention.W_alpha f4 [5, 5]
0	0x3eccf388	0.4002955
1	0x3f00b802	0.50280774
2	0x3ecc33e4	0.3988334
3	0x3f492182	0.78566754
4	0x3ef4408c	0.47705495
5	0x3e44093d	0.19144149
6	0x3f6c3244	0.922642
7	0x3e47bbfc	0.19505304
8	0x3f4cdc1b	0.80023354
9	0x3eb055fc	0.344406
10	0x3deb4c34	0.11489144
11	0x3f48eef1	0.78489596
12	0x3e9d35db	0.3070515
13	0x3e3467aa	0.1761767
14	0x3f1ceee0	0.61301994
15	0x3f0ab9c3	0.541897
16	0x3e72750e	0.23677465
17	0x3e843a9a	0.2582596
18	0x3df1936c	0.117956966
19	0x3ce5c408	0.028047577
20	0x3e871a3e	0.2638721
21	0x3e1afe62	0.15136102
22	0x3f504581	0.81356055
23	0x3e57f129	0.21088089
24	0x3ee88615	0.45414796

firstGCN.attentionLayer.outAttention.a_alpha f4 [5, 1]
0	0x3dbb2780	0.091383934
1	0x3f74cca2	0.95624745
2	0x3f5d6b01	0.864914
3	0x3d557390	0.052112162
4	0x3ee16a38	0.4402635

firstGCN.attentionLayer.outAttention.b_alpha f4 [5, 1]
0	0x3ec924a0	0.39285755
1	0x3d0115ba	0.03151486
2	0x3eb5e001	0.35522464
3	0x3f4e22f5	0.8052209
4	0x3e913d72	0.28367192

firstGCN.linearLayer.weight f4 [5, 10]
0	0x3e890b56	0.2676646
1	0x3e5760b4	0.21032983
2	0x3cc97b1f	0.024594842
3	0x3e214c64	0.15751797
4	0x3d7f1e3e	0.0622847
5	0x3de23c95	0.11046711
6	0x3ddb8dca	0.107204035
7	0xbe90e2d5	-0.2829806
8	0x3e9944f6	0.29935426
9	0x3e7e5cee	0.24840137
10	0x3d17139b	0.03688393
11	0x3e80fc80	0.25192642
12	0x3e6bd4ee	0.23030445
13	0xbe6bcb19	-0.23026694
14	0xbe153480	-0.14570808
15	0x3e735907	0.2376443
16	0xbd951f41	-0.07281352
17	0xbe670f7e	-0.22564504
18	0x3e64af30	0.22332454
19	0xbe8fd8c3	-0.28095064
20	0xbdf00a77	-0.11720746
21	0xbe0c3e60	-0.13695669
22	0xbe8cadf6	-0.27476472
23	0x3d0dfc90	0.03466469
24	0x3e1c8737	0.15285955
25	0x3d99a17c	0.07501504
26	0xbd2cf576	-0.042226277
27	0xbea02c80	-0.3128395
28	0xbe97a165	-0.29615322
29	0xbd5b4fd4	-0.053542927
30	0x3d632a02	0.055459984
31	0x3e986c7a	0.2977026
32	0x3de22c74	0.11043635
33	0xbe62667e	-0.2210941
34	0x3e08bfba	0.13354388
35	0x3b62f70f	0.0034632122
36	0xbe5bf9e9	-0.21482052
37	0x3bc7564f	0.006083287
38	0xbd41d3b2	-0.04732103
39	0xbe805c41	-0.25070384
40	0xbd3f1a55	-0.04665597
41	0xbdcb33c9	-0.099219866
42	0xbe831396	-0.2560088
43	0xbd4432a7	-0.04789987
44	0x3e8eeda3	0.27915677
45	0x3ba3d8c4	0.0050002057
46	0xbdd944ba	-0.10608812
47	0x3e482b3f	0.19547747
48	0x3da808e1	0.082048185
49	0x3dcb9a52	0.09941544

firstGCN.linearLayer.bias f4 [5]
0	0x3e6ce388	0.23133671
1	0x3a60f766	0.0008581787
2	0xbe00714b	-0.12543218
3	0xbe41e847	-0.18936263
4	0xbe4e925b	-0.20173018

secondGCN.attentionLayer.linear.weight f4 [5, 10]
0	0x3e484a5b	0.19559614
1	0x3e54ab6a	0.20768514
2	0x3e1a1bd1	0.15049674
3	0xbe2a0b9e	-0.16605994
4	0x3de5efd2	0.11227383
5	0xbbaec10f	-0.005333073
6	0x3e9a3de9	0.3012536
7	0xbe863047	-0.26208708
8	0x3e21ad76	0.15788826
9	0xbe53ebdb	-0.2069544
10	0xbd70394a	-0.058648385
11	0x3e8fb301	0.28066257
12	0x3dfb6768	0.122755826
13	0xbe1fa906	-0.15591821
14	0x3e9063f4	0.28201258
15	0xbe57f545	-0.21089657
16	0x3e84f43f	0.25967595
17	0x3d22c175	0.039735276
18	0xbd1b8dda	-0.037977077
19	0x3e9512a7	0.29115793
20	0x3ca22ac7	0.019795788
21	0x3ea142d3	0.31496295
22	0xbe98054c	-0.2969154
23	0xbe8458e9	-0.25849083
24	0xbe5d294a	-0.21597782
25	0x3d5816ca	0.05275611
26	0xbe4b4d8c	-0.198538
27	0x3c95d95a	0.018292118
28	0x3dfbde90	0.1229831
29	0xbe888fa7	-0.26672098
30	0xbe14c563	-0.14528422
31	0xbe378c2d	-0.17924567
32	0xbe70dfda	-0.23522893
33	0xbe1fc00f	-0.15600608
34	0xbe72baf9	-0.23704137
35	0xbe194370	-0.14967132
36	0x3dd60716	0.1045057
37	0xbdf11428	-0.117714226
38	0x3dfdf016	0.123993084
39	0xbd238502	-0.039921768
40	0x3d3cddf6	0.046110116
41	0x3de27679	0.11057753
42	0x3dbbf9fb	0.09178539
43	0x3ced8576	0.028994303
44	0xbe9fbd4e	-0.31199116
45	0x3d169ea4	0.036772385
46	0x3e8e9ec6	0.2785551
47	0xbdc6a561	-0.09699512
48	0x3cb5fd85	0.022215614
49	0x3e8db09d	0.27673808

secondGCN.attentionLayer.linear.bias f4 [5]
0	0xbe8d29b3	-0.27570876
1	0xbe9f28cc	-0.31085813
2	0xbe6c01c1	-0.23047544
3	0xbd5b0e9b	-0.053480726
4	0x3d2d1d11	0.042264048

secondGCN.attentionLayer.inAttention.W_sum f4 [5, 5]
0	0x3f72db46	0.94865835
1	0x3ee70f02	0.45128638
2	0x3f77c915	0.967912
3	0x3f0a3d74	0.5400002
4	0x3f1a5fd3	0.60302466
5	0x3e8837a6	0.26604956
6	0x3e558508	0.20851529
7	0x3f3286a6	0.6973671
8	0x3ef95f18	0.48705363
9	0x3e6d608c	0.23181361
10	0x3ed1bf3c	0.40966213
11	0x3f1c9466	0.6116394
12	0x3f094c8b	0.5363242
13	0x3ee6f6dc	0.45110214
14	0x3efb78ee	0.491157
15	0x3f453c2a	0.7704493
16	0x3f0b2eed	0.5436848
17	0x3f345d05	0.70454437
18	0x3f6558f4	0.89588857
19	0x3e8f3fd4	0.27978384
20	0x3f145377	0.5793986
21	0x3da97b28	0.08275443
22	0x3e384a94	0.179972
23	0x3ef19f34	0.47191775
24	0x3ec03124	0.3753749

secondGCN.attentionLayer.inAttention.W_alpha f4 [5, 5]
0	0x3f2e8b29	0.6818109
1	0x3f176343	0.59135836
2	0x3edc7c42	0.4306355
3	0x3f3667f2	0.7125236
4	0x3f71a601	0.94393927
5	0x3e4b1b10	0.19834542
6	0x3e332088	0.17492878
7	0x3de79858	0.11308354
8	0x3dcb8ac8	0.0993858
9	0x3eb150fc	0.346321
10	0x3f2ff6d8	0.6873603
11	0x3eaaee66	0.3338501
12	0x3f21863f	0.6309547
13	0x3dfa7e20	0.12231088
14	0x3f3ffd57	0.7499594
15	0x3f4053d7	0.7512793
16	0x3f7d8194	0.99025846
17	0x3f1f88c7	0.6231808
18	0x3e90ba5c	0.2826718
19	0x3f40fcd1	0.7538577
20	0x3f15199a	0.5824219
21	0x3d02b850	0.031914055
22	0x3f348356	0.705129
23	0x3f07a5eb	0.52987546
24	0x3f5dbee3	0.86619395

secondGCN.attentionLayer.inAttention.a_alpha f4 [5, 1]
0	0x3f26a684	0.6509783
1	0x3e75dfb0	0.24011111
2	0x3d01d1a0	0.031694055
3	0x3f1eb4fb	0.61994904
4	0x3f1bea07	0.6090397

secondGCN.attentionLayer.inAttention.b_alpha f4 [5, 1]
0	0x3f4a7dcd	0.79098207
1	0x3f1a9cb0	0.60395336
2	0x3f0be5b5	0.5464738
3	0x3f2b5c2f	0.66937536
4	0x3e5d6238	0.21619499

secondGCN.attentionLayer.outAttention.W_sum f4 [5, 5]
0	0x3e1ff6a8	0.15621436
1	0x3f596f2b	0.84935254
2	0x3e3eddb4	0.1863926
3	0x3f0873c0	0.5330162
4	0x3c9452c0	0.018105865
5	0x3f23c047	0.63965267
6	0x3d4e86e0	0.050421596
7	0x3a810000	0.0009841919
8	0x3d9b4fe0	0.07583594
9	0x3f163335	0.58671886
10	0x3ef72b24	0.482751
11	0x3e9cfb42	0.30660444
12	0x3f065bcd	0.52483827
13	0x3f6cd641	0.92514426
14	0x3f40ec51	0.7536059
15	0x3ebf935a	0.37417108
16	0x3c70d740	0.014699757
17	0x3ebd7f76	0.37011307
18	0x3e5c758c	0.21529216
19	0x3f2313f7	0.6370234
20	0x3f1fdcbe	0.624462
21	0x3eec0194	0.46094954
22	0x3f5b9df1	0.85787874
23	0x3f63b150	0.8894243
24	0x3ec1c508	0.37845635

secondGCN.attentionLayer.outAttention.W_alpha f4 [5, 5]
0	0x3f11e73e	0.5699347
1	0x3ebe4d2c	0.37168252
2	0x3f798312	0.9746562
3	0x3da64b68	0.08119851
4	0x3d523530	0.051320255
5	0x3f1d3833	0.6141388
6	0x3f736471	0.95075136
7	0x3edb90ba	0.42883855
8	0x3f207826	0.6268333
9	0x3e11d4e8	0.14241374
10	0x3e534e34	0.20635301
11	0x3c8fa260	0.017533481
12	0x3d9e8550	0.07740271
13	0x3f4cacc0	0.79951096
14	0x3f132727	0.57481617
15	0x3dfcd3d0	0.123450875
16	0x3ee1c80a	0.4409793
17	0x3f74e995	0.9566892
18	0x3f6ab89a	0.9168793
19	0x3f72bcfa	0.94819605
20	0x3f67d83f	0.9056434
21	0x3e1e6568	0.15468371
22	0x3ed1a894	0.40948927
23	0x3e802226	0.25026053
24	0x3e4a98dc	0.19784874

secondGCN.attentionLayer.outAttention.a_alpha f4 [5, 1]
0	0x3dc85100	0.097810745
1	0x3f69161a	0.9104935
2	0x3e0a3d20	0.1349988
3	0x3ceeaf00	0.02913618
4	0x3f5caad0	0.8619814

secondGCN.attentionLayer.outAttention.b_alpha f4 [5, 1]
0	0x3e4ea88c	0.20181483
1	0x3d8c6c68	0.06856614
2	0x3f62f960	0.88661766
3	0x3db970d0	0.090547204
4	0x3d8b22f0	0.06793773

secondGCN.linearLayer.weight f4 [5, 10]
0	0x3e71772f	0.23580621
1	0x3e224258	0.1584562
2	0xbe4c32c3	-0.19941239
3	0x3ddd3d9e	0.10802768
4	0xbe254804	-0.16140753
5	0xbe96d272	-0.29457432
6	0xbe7ef432	-0.2489784
7	0xbe2abb36	-0.16672978
8	0x3e9788f2	0.29596668
9	0xbe4bcf24	-0.19903237
10	0x3cb9a250	0.022660404
11	0xbe2916c2	-0.16512588
12	0x3d9bfddb	0.076167785
13	0x3d3f92c7	0.046770837
14	0xbd337670	-0.043814123
15	0x3e212bc2	0.15739349
16	0xbe1ef399	-0.15522613
17	0x3e7c7144	0.24652582
18	0xbd011192	-0.031510897
19	0x3e93f555	0.2889811
20	0x3e80c1a4	0.25147736
21	0x3ea1a75d	0.31573
22	0xbe7e8a0b	-0.24857347
23	0x3e80e0f4	0.25171626
24	0xbe1a12dd	-0.15046258
25	0x3e96bd8c	0.29441488
26	0x3e56386d	0.20919962
27	0xbe66469b	-0.22487871
28	0x3e9fa139	0.3117769
29	0xbe977504	-0.29581463
30	0xbe0824e0	-0.13295317
31	0xbdaa8f44	-0.08328107
32	0xbe94e0e4	-0.29077828
33	0xbe28f653	-0.16500215
34	0xbe8e6add	-0.27815905
35	0xbe76f73b	-0.24117748
36	0xbe69700a	-0.22796646
37	0x3d57d6ad	0.052694965
38	0x3e116416	0.14198336
39	0xbe803a10	-0.25044298
40	0x3d7a29ef	0.061075147
41	0x3e68303a	0.22674647
42	0xbe37b662	-0.17940667
43	0x3e5cfc4f	0.21580623
44	0x3d217807	0.039421108
45	0x3d9a043a	0.075203374
46	0xbac19b03	-0.0014770929
47	0xbd9a3a2a	-0.07530625
48	0x3b4fa0d4	0.0031681554
49	0x3bc59127	0.0060292664

secondGCN.linearLayer.bias f4 [5]
0	0xbe302901	-0.17203142
1	0xbd9b400f	-0.075805776
2	0xbe2d4bbe	-0.16923425
3	0x3a82b4b1	0.0009972063
4	0x3e35f2ca	0.17768398

thirdGCN.attentionLayer.linear.weight f4 [5, 10]
0	0xbd90f545	-0.070780315
1	0xbe3e5f3f	-0.18591021
2	0x3e17db97	0.1482986
3	0x3dab007f	0.08349704
4	0x3da885c5	0.082286395
5	0x3e5fe87b	0.21866028
6	0xbe34df16	-0.17663226
7	0xbdd64e5b	-0.10464164
8	0x3e910d18	0.28330302
9	0xbe10321e	-0.14081618
10	0xbcc7746d	-0.024347508
11	0xbe68fe6b	-0.22753303
12	0xbe3465a0	-0.17616892
13	0xbcc54f38	-0.024085626
14	0x3da4987b	0.08036896
15	0xbe977a98	-0.2958572
16	0x3d8493fa	0.06473537
17	0x3de2afde	0.110687
18	0x3e0842ed	0.1330678
19	0x3e2660c7	0.16247855
20	0x3dae7dc8	0.085200846
21	0xbe09eb32	-0.13468626
22	0x3e8ebeb3	0.27879867
23	0x3dd6ac3c	0.1048207
24	0xbe255241	-0.16144659
25	0xbd2ca20e	-0.042146735
26	0x3d72095a	0.05909095
27	0x3e30e2e6	0.17274055
28	0x3e97433b	0.2954348
29	0xbe556845	-0.20840557
30	0xbe72ec23	-0.23722892
31	0xbe94715a	-0.2899273
32	0x3e839a8d	0.2570385
33	0xbdbfb7f4	-0.09361258
34	0xbe6ade11	-0.22936274
35	0xbdaa0c8c	-0.083031744
36	0xbd9f61d2	-0.077823296
37	0x3d7936f4	0.060843423
38	0xbe781942	-0.24228385
39	0xbc9d8daa	-0.01923259
40	0x3ce6023e	0.028077241
41	0x3e8f6007	0.2800295
42	0xbe310e63	-0.17290644
43	0x3e6240eb	0.22095077
44	0xbdeb8948	-0.11500794
45	0x3e5a80a1	0.2133813
46	0xbd6a3621	-0.057180528
47	0xbdb758ff	-0.089525215
48	0xbd3139d4	-0.04326804
49	0x3e6c90e6	0.2310215

thirdGCN.attentionLayer.linear.bias f4 [5]
0	0xbe168101	-0.14697649
1	0xbe43025d	-0.1904387
2	0xbde69a26	-0.1125987
3	0x3e031c42	0.12803748
4	0xbdf79546	-0.120890185

thirdGCN.attentionLayer.inAttention.W_sum f4 [5, 5]
0	0x3ecc4ad2	0.39900833
1	0x3f7935f7	0.9734797
2	0x3f44fd77	0.76949257
3	0x3f7d2bb8	0.98894835
4	0x3cec7d40	0.028868318
5	0x3f3f5644	0.74741006
6	0x3e8aae8e	0.270863
7	0x3e2fc6dc	0.17165703
8	0x3eea6a32	0.45784146
9	0x3f5b2a0b	0.8561103
10	0x3f3631a6	0.7116951
11	0x3f0a2e42	0.53976834
12	0x3ebab304	0.36464703
13	0x3eaa31c2	0.33241087
14	0x3ede49c6	0.4341566
15	0x3f41baa2	0.75675404
16	0x3da97328	0.082739174
17	0x3ee6da9c	0.4508866
18	0x3f756a71	0.9586554
19	0x3f6e8e1c	0.9318559
20	0x3eea5932	0.45771176
21	0x3f7c0028	0.9843774
22	0x3f39ef62	0.72630894
23	0x3f4644c8	0.774487
24	0x3f00034b	0.50005025

thirdGCN.attentionLayer.inAttention.W_alpha f4 [5, 5]
0	0x3dfd0120	0.1235373
1	0x3f12ba3f	0.5731544
2	0x3ecf4b02	0.40486914
3	0x3f62a20b	0.8852851
4	0x3ea7afb0	0.32751226
5	0x3e356b34	0.17716676
6	0x3f75ee8e	0.9606713
7	0x3f61fa8d	0.88272935
8	0x3eedfb6a	0.46480876
9	0x3e4c6f98	0.19964445
10	0x3e818928	0.25299954
11	0x3f6f69ea	0.9352099
12	0x3f010072	0.50391304
13	0x3ec03c5a	0.37546045
14	0x3f574cc6	0.8410152
15	0x3f6b58c0	0.91932297
16	0x3f431115	0.7619794
17	0x3f53e886	0.8277668
18	0x3e843068	0.2581818
19	0x3ec61fb8	0.38696074
20	0x3c186740	0.0093019605
21	0x3f450e74	0.7697518
22	0x3f7bbe48	0.9833722
23	0x3f35ee1b	0.71066445
24	0x3f2c9cda	0.67426836

thirdGCN.attentionLayer.inAttention.a_alpha f4 [5, 1]
0	0x3f3d3aa9	0.73917633
1	0x3f1289c9	0.57241493
2	0x3ee667c0	0.4500103
3	0x3e7a3eec	0.24438065
4	0x3f3bbc7a	0.7333447

thirdGCN.attentionLayer.inAttention.b_alpha f4 [5, 1]
0	0x3f55c6ac	0.83506274
1	0x3eac3bd6	0.336394
2	0x3e204e88	0.15654957
3	0x3edcacc8	0.43100572
4	0x3f341e76	0.7035898

thirdGCN.attentionLayer.outAttention.W_sum f4 [5, 5]
0	0x3edd9236	0.43275613
1	0x3c970ec0	0.01843965
2	0x3f30ecff	0.6911163
3	0x3e3c67d8	0.18398988
4	0x3e4b92d4	0.19880229
5	0x3e8b215e	0.27173895
6	0x3f1b99bb	0.6078145
7	0x3ec4cec4	0.38439
8	0x3ea17a8c	0.31538808
9	0x3d62dab0	0.055384338
10	0x3f116704	0.56797814
11	0x3e995532	0.2994781
12	0x3f3fc84e	0.74915016
13	0x3eb598ba	0.35468084
14	0x3ea74a24	0.32673752
15	0x3e2075fc	0.15670007
16	0x3f08f003	0.5349123
17	0x3e97109e	0.29504865
18	0x3e5f3d8c	0.21800822
19	0x3ebf293a	0.3733614
20	0x3f57a536	0.84236467
21	0x3f7d7c45	0.99017745
22	0x3f337f25	0.7011588
23	0x3eacb5ea	0.3373254
24	0x3ed7be34	0.421373

thirdGCN.attentionLayer.outAttention.W_alpha f4 [5, 5]
0	0x3f1df2dd	0.61698705
1	0x3f1548dd	0.58314306
2	0x3f4b4bb9	0.7941242
3	0x3ec0cea6	0.3765766
4	0x3edb9954	0.42890418
5	0x3ef26dda	0.47349435
6	0x3f333c8f	0.7001428
7	0x3dd1c7a8	0.102431595
8	0x3f5ed66c	0.8704593
9	0x3f42e22e	0.7612637
10	0x3d46d260	0.048540473
11	0x3c7cfb00	0.015440702
12	0x3ed940ae	0.4243216
13	0x3f11f534	0.57014775
14	0x3c309f00	0.010780096
15	0x3f7a2856	0.977178
16	0x3dc118c8	0.09428555
17	0x3f6b4ea1	0.91916853
18	0x3df83e80	0.12121296
19	0x3f5d28d3	0.8639042
20	0x3f712217	0.9419264
21	0x3f1ac2b5	0.6045335
22	0x3f445e14	0.7670605
23	0x3f18e836	0.59729326
24	0x3d0c9a70	0.03432697

thirdGCN.attentionLayer.outAttention.a_alpha f4 [5, 1]
0	0x3e9d5642	0.30729872
1	0x3e3a43c8	0.18189919
2	0x3f6b305a	0.91870654
3	0x3de82e48	0.113369524
4	0x3f161572	0.5862647

thirdGCN.attentionLayer.outAttention.b_alpha f4 [5, 1]
0	0x3e5b33dc	0.21406502
1	0x3d300200	0.042970657
2	0x3f1f03eb	0.62115353
3	0x3f65aab4	0.897136
4	0x3f66894a	0.90053236

thirdGCN.linearLayer.weight f4 [5, 10]
0	0xbe5b55c2	-0.21419433
1	0xbdbca083	-0.09210303
2	0x3ddbe382	0.10736753
3	0xbd948d9c	-0.07253572
4	0x3e377795	0.1791671
5	0x3e64c0f2	0.22339228
6	0xbdf4cd12	-0.119531766
7	0xbe814887	-0.25250646
8	0x3e3ec491	0.18629672
9	0xba841313	-0.0010076485
10	0xbde9f390	-0.11423409
11	0xbde3e3d0	-0.11127436
12	0x3e9986eb	0.29985747
13	0x3ea0eda9	0.3143132
14	0xbe9d4d56	-0.30723065
15	0xbd4c0248	-0.049806863
16	0xbe9fdfd6	-0.3122546
17	0xbe24d9be	-0.16098687
18	0xbe2523de	-0.16126963
19	0x3e15ae60	0.146173
20	0x3e1469d4	0.14493495
21	0xbe7f8bb0	-0.2495563
22	0xbcd8c1c0	-0.026459575
23	0x3e0ac01b	0.13549845
24	0xbd3dd7fa	-0.04634855
25	0x3e3db4b3	0.18525963
26	0xbe2c2423	-0.1681066
27	0xbc888935	-0.016666988
28	0x3e7ad290	0.24494386
29	0x3e8277f4	0.25482142
30	0xbd2a0f79	-0.041518662
31	0x3d402a5e	0.046915404
32	0xbe9d18ca	-0.30682975
33	0x3e57f385	0.21088989
34	0xbea0506a	-0.3131135
35	0xbd7c6491	-0.061619345
36	0xbe9ba4d6	-0.30399197
37	0x3bcdfe75	0.006286437
38	0xbe6c930b	-0.23102967
39	0xbe083707	-0.13302241
40	0xbe34e5e3	-0.1766582
41	0xbc397698	-0.011319779
42	0x3e70fe77	0.2353457
43	0xbe82af8a	-0.2552455
44	0x3d23d19d	0.039994825
45	0x3caab2b9	0.020837175
46	0xbe9b6be3	-0.3035575
47	0xbd8dadfb	-0.0691795
48	0x3e0dfb59	0.13865413
49	0x3e25d73f	0.16195391

thirdGCN.linearLayer.bias f4 [5]
0	0xbe812972	-0.25226933
1	0xbd1c2b0e	-0.038126998
2	0x3e98283d	0.297182
3	0x3dd7d022	0.10537745
4	0x3de03ff3	0.10949697

ff4.weight f4 [5, 5]
0	0xbe537398	-0.20649564
1	0xbe37ed8f	-0.17961715
2	0x3e64c9c1	0.22342588
3	0x3f0ac5e8	0.5420823
4	0xbe95418c	-0.2915157
5	0xbedaec55	-0.42758432
6	0xbd6c17da	-0.057639934
7	0xbeee622c	-0.46559274
8	0x3ce76652	0.028247032
9	0xbe9eb99d	-0.31000987
10	0xbd41e963	-0.047341716
11	0xbd71e182	-0.05905295
12	0xbe024985	-0.12723358
13	0x3eca19a4	0.39472687
14	0x3e7722ef	0.2413442
15	0x3dbd1e8b	0.09234341
16	0xbeaeb253	-0.34120426
17	0x3e7b3cdd	0.24534936
18	0x3f2d454d	0.6768387
19	0x3ecd47fa	0.40093976
20	0xbe5bab81	-0.21452142
21	0xbe23c075	-0.15991385
22	0xbf004b05	-0.5011447
23	0x3f347354	0.70488477
24	0xbe50e684	-0.20400435

ff4.bias f4 [5]
0	0xbce88e2d	-0.028388107
1	0x3d6ed652	0.05830986
2	0x3edc1621	0.42985633
3	0x3eabb780	0.33538437
4	0x3daa98eb	0.08329948

ff5.weight f4 [5, 5]
0	0x3ebd4400	0.36965942
1	0x3edcb887	0.43109533
2	0xbed7149a	-0.42007905
3	0xbd68223f	-0.056673285
4	0x3cb1b828	0.021694258
5	0x3ea5142b	0.3224195
6	0x3ea2cfcc	0.3179916
7	0xbeb093e0	-0.3448782
8	0xbeb5da3b	-0.3551806
9	0x3e16e61a	0.14736214
10	0xbe134267	-0.14380799
11	0xbe46bfd0	-0.19409108
12	0xbe6e01dc	-0.23242897
13	0x3e57727a	0.21039763
14	0x3e5970bf	0.21234415
15	0x3ec6bfa3	0.38818082
16	0xbed3c3dc	-0.41360366
17	0xbeaa71ee	-0.33290046
18	0xbe8e191a	-0.27753526
19	0x3d7400ac	0.059570953
20	0x3d878a0b	0.066181265
21	0xbeab05e4	-0.33402932
22	0x3ece5db1	0.40305856
23	0xbc9462e2	-0.018113557
24	0x3d3edbd1	0.046596352

ff5.bias f4 [5]
0	0xbecb8c9c	-0.39755714
1	0xbe327378	-0.1742686
2	0x3dfbdfd0	0.12298548
3	0xbe0982fa	-0.1342887
4	0x3d3bdf88	0.045867473

ff6.weight f4 [30, 5]
0	0xbdf19652	-0.117962494
1	0x3e0c8b72	0.13725069
2	0x3e144f33	0.14483337
3	0xbc4752da	-0.012165749
4	0xbee5cfb7	-0.44885036
5	0xbebf2dee	-0.3733973
6	0xbecaca3f	-0.39607427
7	0x3e8b84bb	0.27249703
8	0xbd52aeed	-0.051436353
9	0xbecddcae	-0.40207428
10	0xbf041d87	-0.51607555
11	0x3debd21a	0.11514683
12	0x3e2b91eb	0.16754882
13	0xbea87abc	-0.3290614
14	0x3df8244b	0.12116297
15	0x3b1944dd	0.0023386993
16	0xbea50432	-0.32229763
17	0xbf0c1519	-0.5471969
18	0xbe421ae5	-0.18955572
19	0x3d7b7ad8	0.06139645
20	0xbe83349a	-0.2562607
21	0xbee7b54c	-0.45255506
22	0xbebc8c63	-0.36825857
23	0xbe593219	-0.21210517
24	0x3e3d82f8	0.18506992
25	0xbe5328af	-0.20620988
26	0xbd26c8be	-0.040718786
27	0x3b8488e7	0.0040446403
28	0xbebf5036	-0.37365884
29	0x3d8e2056	0.06939761
30	0xbed85e53	-0.42259464
31	0xbebccb53	-0.36873874
32	0xbebb8520	-0.36625004
33	0xbed0cd4e	-0.40781635
34	0x3e832121	0.25611213
35	0xbee82165	-0.45337978
36	0x3d89b3ef	0.06723773
37	0xbdaed73b	-0.08537146
38	0xbe163872	-0.1466997
39	0xbe2a7014	-0.16644317
40	0xbec13379	-0.37734583
41	0xbc977f63	-0.01849336
42	0xbf106689	-0.56406456
43	0x3db13a70	0.08653724
44	0x3da4a100	0.08038521
45	0x3d656803	0.056007396
46	0x3d88dae3	0.06682374
47	0xbe998c6f	-0.29989955
48	0x3e38a293	0.18030767
49	0xbef442c6	-0.47707194
50	0x3e10dea6	0.14147434
51	0x3e2860ee	0.16443226
52	0xbd8fa543	-0.07013943
53	0xbecd10d2	-0.40051895
54	0xbeabb9af	-0.33540103
55	0x3d91af0e	0.07113467
56	0xbc84d175	-0.016213158
57	0xbe4ab0e1	-0.19794036
58	0xbf0357b5	-0.51305705
59	0x3e12b3a3	0.14326338
60	0xbe76093b	-0.24026959
61	0x3d8f353a	0.06992574
62	0x3e4fe839	0.2030343
63	0xbed473a2	-0.4149447
64	0xbeae606e	-0.34057945
65	0xbc5c13a8	-0.013432421
66	0x3e03cfe1	0.12872268
67	0x3e754005	0.23950203
68	0xbee39d27	-0.44455835
69	0xbe28d946	-0.16489133
70	0xbd1203b0	-0.035648048
71	0x3c085d03	0.008322957
72	0xbe9e858b	-0.3096126
73	0xbe02464d	-0.1272213
74	0xbecb06f4	-0.39653742
75	0xbe073bd0	-0.1320641
76	0x3e040479	0.12892331
77	0x3e0a6461	0.13514854
78	0xbee79da6	-0.45237464
79	0x3d409713	0.047019076
80	0xbe37ac88	-0.17936909
81	0x3eb4a978	0.35285544
82	0xbed949d9	-0.42439154
83	0xbe5f21c0	-0.21790218
84	0xbe7b5c4a	-0.24546924
85	0x3b9c489a	0.004769397
86	0x3e678b01	0.2261162
87	0xbe815619	-0.25261
88	0x3d9c5a78	0.07634443
89	0xbebaa1cc	-0.36451566
90	0xbd7d75b1	-0.061879817
91	0x3daac855	0.083389916
92	0x3dcbb6e0	0.0994699
93	0xbc055be1	-0.008139581
94	0xbee0d92b	-0.43915686
95	0x3e0ef3e2	0.13960221
96	0x3db18ec0	0.086698055
97	0x3e641c23	0.22276358
98	0xbe7226c8	-0.23647606
99	0xbef7339a	-0.48281556
100	0xbe9ed7f1	-0.31024125
101	0xbebe3a07	-0.37153646
102	0xbe39f452	-0.18159607
103	0xbf0aace8	-0.54170084
104	0x3ea59b31	0.32344964
105	0x3df9e2da	0.122014716
106	0xbed840b4	-0.42236865
107	0xbeecc664	-0.4624511
108	0x3e1154f2	0.1419256
109	0xbe9ad2db	-0.30238995
110	0xbc249a21	-0.010046513
111	0xbec7dc3e	-0.3903522
112	0xbed2cda8	-0.41172528
113	0xbb008a4f	-0.0019613688
114	0xbedc1fd0	-0.4299302
115	0x3dc0f337	0.094213895
116	0xbc38cb2d	-0.01127891
117	0x3e56568d	0.20931454
118	0xbd439602	-0.04775048
119	0xbf1f59b4	-0.6224625
120	0xbde4f76b	-0.11180004
121	0x3e0fbae0	0.14036131
122	0xbdc75cb9	-0.09734482
123	0xbe5c2e43	-0.21502022
124	0xbe027f2a	-0.12743822
125	0x3ee94384	0.45559323
126	0x3ee0ebb5	0.4392983
127	0xbedf7d0e	-0.43650097
128	0xbf0b9c8d	-0.5453575
129	0x3ea9dbc8	0.33175492
130	0xbcd72186	-0.026261102
131	0xbebd79df	-0.37007043
132	0xbe909dae	-0.282453
133	0x3e33c499	0.17555465
134	0xbee7331b	-0.45156178
135	0x3d7af45e	0.061268203
136	0xbed5618a	-0.4167598
137	0xbeb71103	-0.35755166
138	0xbebbe4b4	-0.36697924
139	0x3d7a763e	0.06114792
140	0x3cac5f44	0.02104152
141	0x3ec2aa44	0.38020527
142	0xbdd04edf	-0.101712935
143	0xbead19ad	-0.33808652
144	0xbe1f090b	-0.15530793
145	0xbee2f48f	-0.44327208
146	0xbe34787f	-0.1762409
147	0x3ea14ce8	0.31503987
148	0xbd9d4d15	-0.07680718
149	0xbe47992e	-0.19492027

ff6.bias f4 [30]
0	0xbe94f564	-0.29093468
1	0x3e275ef0	0.1634481
2	0xbe14ef78	-0.14544475
3	0x3e533b79	0.20628156
4	0xbe4ac800	-0.19802856
5	0xbde47333	-0.11154785
6	0xbea15a3f	-0.31514165
7	0xbd0a9384	-0.033832088
8	0x3ca567fa	0.020191181
9	0xbe8b2194	-0.27174056
10	0xbe0e8ba9	-0.13920464
11	0xbe863dcb	-0.2621902
12	0xbdd5d2f1	-0.104406245
13	0xbebaade4	-0.36460793
14	0xbec8b855	-0.39203134
15	0xbee7794e	-0.45209736
16	0x3eb03e26	0.34422415
17	0xbe30ebc4	-0.17277437
18	0xbe9d3f6c	-0.3071245
19	0xbd17d773	-0.037070703
20	0x3e4b64b8	0.1986264
21	0xbed91ebd	-0.42406264
22	0x3e30d3ed	0.17268343
23	0x3e24652b	0.16054218
24	0xbee4e7eb	-0.4470819
25	0x3d2c82ef	0.042117056
26	0xbe8e10da	-0.27747232
27	0xbe9d14ce	-0.30679935
28	0x3e953c2c	0.2914747
29	0xbe0167cc	-0.12637252
