code/ml_model/useless_models/model_weights_m6p8n10_lr0.100000_bs10_epochs10.pth (torch, 21874 bytes, 48 tensors)

ff1.weight f4 [5, 5]
0	0x3ec649c5	0.38728157
1	0xbead3873	-0.3383213
2	0xbd7f8f0b	-0.062392276
3	0xbecd2051	-0.40063718
4	0xbeb2fcbe	-0.34958452
5	0x3e475283	0.1946507
6	0xbda68e9a	-0.08132668
7	0x3e97ea53	0.29670963
8	0xbc14e0a9	-0.009086766
9	0x3ed257dd	0.4108266
10	0xbe9e82d9	-0.30959204
11	0x3eb557fc	0.3541869
12	0x3e7145ff	0.23561858
13	0xbee43f92	-0.4457975
14	0x3eb19658	0.34685016
15	0x3e35372f	0.17696832
16	0xbe0c7045	-0.13714702
17	0x3e540cb3	0.2070797
18	0xbebfe58f	-0.37479827
19	0xbea970b1	-0.3309379
20	0xbec4c619	-0.38432387
21	0xbd340477	-0.04394957
22	0xbdaac5c1	-0.083385
23	0x3ec58736	0.3857972
24	0xbe913eb2	-0.28368145

ff1.bias f4 [5]
0	0x3e0613ba	0.13093463
1	0x3e1649bb	0.14676563
2	0xbcc8b206	-0.02449895
3	0xbeb361c4	-0.35035527
4	0xbe11a221	-0.14222004

ff2.weight f4 [5, 5]
0	0x3ece91b5	0.4034554
1	0x3e65b230	0.22431254
2	0xbd036a89	-0.03208402
3	0xbdbeeab0	-0.09322107
4	0xbedf801f	-0.43652436
5	0xbe84d98d	-0.25947228
6	0xbe8c33ba	-0.27383214
7	0x3ec540f4	0.38526118
8	0xbebc829e	-0.36818403
9	0xbe459301	-0.19294359
10	0x3e85cbec	0.26132143
11	0x3da0bfac	0.078490585
12	0xbe985563	-0.29752645
13	0x3edd98f4	0.43280756
14	0x3cc83596	0.024439614
15	0xbd2553cb	-0.040363114
16	0x3eae3d42	0.3403111
17	0xbed56689	-0.4167979
18	0xbe9d4b61	-0.30721572
19	0xbed57da5	-0.41697422
20	0x3e9cd674	0.30632365
21	0x3e88420c	0.2661289
22	0x3e4ce2fc	0.20008463
23	0xbe803476	-0.25040025
24	0x3d418880	0.047249317

ff2.bias f4 [5]
0	0x3e586a9f	0.21134423
1	0xbea31531	-0.31852105
2	0xbd323a2f	-0.04351252
3	0xbed5242e	-0.41629165
4	0xbec5f368	-0.38662267

ff3.weight f4 [5, 5]
0	0x3e51af7b	0.20477097
1	0xbebb2e7f	-0.3655891
2	0x3e3c7f89	0.18408026
3	0xbe8fba41	-0.28071788
4	0xbe275bbf	-0.16343592
5	0xbe5dc689	-0.21657766
6	0x3d412fe6	0.04716482
7	0xbec9c00e	-0.3940434
8	0xbe5dfc0c	-0.2167818
9	0xbe007393	-0.12544088
10	0xbed9e6e8	-0.4255898
11	0x3e207802	0.1567078
12	0x3e1777c1	0.14791776
13	0x3e40868f	0.1880133
14	0xbeaf4b03	-0.34236917
15	0x3d881279	0.066441484
16	0x3c56f365	0.013119553
17	0xbe2a6f79	-0.16644086
18	0x3e581604	0.21102148
19	0xbe17f72b	-0.14840381
20	0x3dded4a3	0.10880401
21	0xbe38f415	-0.1806186
22	0xbe2e3652	-0.17012909
23	0xbea6e3c8	-0.32595658
24	0xbedb436b	-0.42824873

ff3.bias f4 [5]
0	0x3ea04217	0.31300423
1	0x3edd479c	0.43218696
2	0x3eafd46f	0.3434176
3	0xbe6353ab	-0.22199886
4	0xbeb491bb	-0.35267434

firstGCN.attentionLayer.linear.weight f4 [5, 10]
0	0x3e26658e	0.16249678
1	0x3eea6054	0.45776618
2	0x3ee4601c	0.44604576
3	0x3efb4806	0.49078387
4	0x3ee88730	0.4541564
5	0x3e0df816	0.13864169
6	0xbe50f6a1	-0.20406581
7	0xbd9c13e2	-0.0762098
8	0xbe8efe2c	-0.27928293
9	0xbbb7a96e	-0.0056049144
10	0xbe9b161d	-0.3029031
11	0xbe874a02	-0.2642365
12	0x3e80b9e5	0.25141826
13	0xbe559f39	-0.2086152
14	0x3da96b42	0.08272411
15	0x3dfb801a	0.12280293
16	0xbe9a1194	-0.30091536
17	0x3de3a6fb	0.11115833
18	0xbde70f10	-0.1128217
19	0xbe8faabd	-0.2805995
20	0x3e30d344	0.17268091
21	0xbdc892c1	-0.09793616
22	0xbd8a81ac	-0.06763014
23	0xbe71ca85	-0.23612411
24	0xbe3cb833	-0.18429641
25	0x3e9b6dc1	0.30357173
26	0x3d70ca5e	0.058786742
27	0xbe3f1df6	-0.18663773
28	0xbda67a52	-0.081287995
29	0xbe12e407	-0.14344798
30	0x3dbf3db9	0.093379445
31	0x3f1b26eb	0.6060626
32	0xbe3d6723	-0.18496375
33	0x3e760732	0.24026182
34	0x3f0e177d	0.5550459
35	0x3e89f8a4	0.2694751
36	0x3eb87973	0.36030158
37	0x3e411158	0.18854272
38	0xbe035327	-0.12824689
39	0xbe052d7b	-0.1300563
40	0xbe4f8601	-0.20265962
41	0xbe23a0a5	-0.1597925
42	0x3ea6c8e5	0.32575145
43	0x3cdbeb24	0.026845522
44	0xbe872bd8	-0.26400638
45	0x3dafe3bb	0.08588358
46	0x3e646925	0.22305734
47	0x3e186545	0.14882381
48	0xbe41d011	-0.18927027
49	0x3e032c55	0.1280988

firstGCN.attentionLayer.linear.bias f4 [5]
0	0xbe41978b	-0.18905465
1	0x3e9d11fa	0.30677778
2	0xbdd5a848	-0.10432488
3	0x3e5e4b66	0.2170845
4	0xbe917d4b	-0.28415903

firstGCN.attentionLayer.inAttention.W_sum f4 [5, 5]
0	0x3e17934d	0.14802285
1	0x3f64321f	0.8913898
2	0x3eab74d6	0.33487576
3	0x3f4d74d0	0.80256367
4	0x3da6d982	0.08146955
5	0x3f475eb0	0.77878857
6	0xbe7a65c8	-0.24452889
7	0x3ed6ad62	0.41929156
8	0x3e804c91	0.25058416
9	0xbe3c1d79	-0.18370618
10	0x3f8944a1	1.0724069
11	0x3f6c0af6	0.92204225
12	0x3f61ab1e	0.8815173
13	0x3f906a33	1.128241
14	0x3f95abc9	1.169305
15	0x3e0dee8e	0.13860533
16	0x3f2927a4	0.6607611
17	0x3f64a3ee	0.89312637
18	0x3f76bd33	0.96382445
19	0x3f26a95d	0.6510218
20	0x3eebc599	0.46049193
21	0x3f106a0a	0.564118
22	0x3f67c091	0.9052821
23	0x3f36c4ec	0.7139423
24	0x3f475e16	0.7787794

firstGCN.attentionLayer.inAttention.W_alpha f4 [5, 5]
0	0x3edd7e19	0.43260267
1	0x3f263d00	0.6493683
2	0x3e61b95a	0.22043362
3	0x3ecbd92d	0.3981413
4	0x3f67c8aa	0.90540564
5	0x3f4eabfb	0.8073117
6	0x3f196e63	0.5993406
7	0x3f1aa46e	0.6040715
8	0x3f5e569a	0.86850893
9	0x3efea0ad	0.4973196
10	0x3eff11b2	0.49818188
11	0x3f05db51	0.52287775
12	0x3f4f50bb	0.8098256
13	0x3c288593	0.010285753
14	0x3d8b5c02	0.068046585
15	0x3f009713	0.5023052
16	0x3f11d605	0.5696719
17	0x3ea09b24	0.31368363
18	0x3ee2b96a	0.44282085
19	0x3f538a58	0.8263297
20	0x3eb34c8b	0.35019335
21	0x3b5bff1c	0.0033568805
22	0x3f17f3e9	0.5935655
23	0x3f74fd86	0.95699346
24	0x3f50f7c3	0.81628054

firstGCN.attentionLayer.inAttention.a_alpha f4 [5, 1]
0	0x3e957c0e	0.2919621
1	0x3e3a0984	0.18167692
2	0x3f047d54	0.51753736
3	0x3f00f8fa	0.5037991
4	0x3ebae9be	0.36506456

firstGCN.attentionLayer.inAttention.b_alpha f4 [5, 1]
0	0x3f5be571	0.85896975
1	0x3f0e5046	0.5559124
2	0x3f607111	0.87672526
3	0x3eb33e66	0.35008544
4	0x3e579cc6	0.21055898

firstGCN.attentionLayer.outAttention.W_sum f4 [5, 5]
0	0x3dc80710	0.09766972
1	0x3f180a16	0.5939039
2	0x3ef71f2c	0.4826597
3	0x3ec5a373	0.38601264
4	0x3e60b4f0	0.21944022
5	0x3dc38cde	0.09548353
6	0xbbb582f5	-0.005539293
7	0x3e97a5b8	0.2961862
8	0x3ee9e8fb	0.45685562
9	0x3ecb6ae6	0.39729995
10	0x3f58c6bc	0.84678245
11	0x3f5730f7	0.8405909
12	0x3f2128ad	0.6295269
13	0x3ed2b0d2	0.41150528
14	0x3ef0b878	0.47015738
15	0x3f48ff8f	0.7851495
16	0x3e89a431	0.2688308
17	0x3f7cb3d7	0.98711914
18	0x3f64b3a1	0.8933659
19	0x3f0a1ab9	0.53947026
20	0x3da12568	0.07868463
21	0x3f66205b	0.8989312
22	0x3ddb79e6	0.1071661
23	0x3ec1ca8b	0.3784984
24	0x3ed5c6e3	0.417533

firstGCN.attentionLayer.outAttention.W_alpha f4 [5, 5]
0	0x3edf70c1	0.43640712
1	0x3f56c144	0.8388865
2	0x3f04e8c4	0.5191767
3	0x3e2e3f27	0.17016278
4	0x3f4d1789	0.80114037
5	0x3ecce74f	0.40020224
6	0x3e16b212	0.14716366
7	0x3ec4894a	0.38385993
8	0x3f68166b	0.9065921
9	0x3eabbdbb	0.3354319
10	0x3f71286d	0.9420231
11	0x3dcc4bc1	0.099753864
12	0x3da11342	0.07865001
13	0x3ed21fce	0.4103989
14	0x3f588293	0.8457424
15	0x3ea8ff8d	0.3300747
16	0x3e9fc735	0.3120667
17	0x3f314789	0.6924978
18	0x3da8f6dc	0.0825021
19	0x3f4b5c31	0.7943755
20	0x3eb7f272	0.3592716
21	0x3d2049c1	0.039132837
22	0x3d52888e	0.05139976
23	0x3f7df4da	0.9920174
24	0x3f3947e2	0.7237531

firstGCN.attentionLayer.outAttention.a_alpha f4 [5, 1]
0	0x3e7fa78c	0.24966258
1	0x3e0cf6ac	0.13765973
2	0x3f30ff6c	0.6913974
3	0x3f190c52	0.59784424
4	0x3daa76f0	0.08323467

firstGCN.attentionLayer.outAttention.b_alpha f4 [5, 1]
0	0x3f7de6e2	0.99180424
1	0x3f761f15	0.9614118
2	0x3f0e7e95	0.556619
3	0x3ec4b5b5	0.3841988
4	0x3e2552f3	0.16144924

firstGCN.linearLayer.weight f4 [5, 10]
0	0xbe918ae1	-0.2842627
1	0xbdcd8381	-0.10034848
2	0xbda311e6	-0.07962398
3	0xbd110255	-0.035402615
4	0xbe35e450	-0.17762876
5	0xbd51b3e4	-0.051196948
6	0x3bc406d1	0.005982258
7	0x3e127841	0.14303686
8	0xbe17ce93	-0.14824896
9	0xbe99250c	-0.29911077
10	0x3e3dc561	0.18532325
11	0xbe348897	-0.1763023
12	0x3ddf33e3	0.108985685
13	0xbe5146e2	-0.20437196
14	0xbe38d21b	-0.18048899
15	0xbdb8e5c8	-0.09028202
16	0xbc95b2c6	-0.018273722
17	0x3e9da33d	0.30788603
18	0xbe49bc88	-0.19700825
19	0x3e35ac4d	0.17741509
20	0x3e851881	0.25995257
21	0xbe4876f2	-0.19576624
22	0x3df0c37b	0.11756035
23	0x3dc91c45	0.09819845
24	0x3bd3d910	0.006465085
25	0x3df15f61	0.1178577
26	0x3e568702	0.20949939
27	0x3e6556fa	0.2239646
28	0xbd798b8b	-0.060924094
29	0xbe0687a5	-0.13137682
30	0xbe5353e6	-0.20637473
31	0xbb168e79	-0.0022973104
32	0xbe41e110	-0.18933511
33	0xbd0565b7	-0.032567706
34	0x3ea009ff	0.31257626
35	0xbe19c16c	-0.15015191
36	0x3e9babd1	0.30404523
37	0x3e8706b8	0.26372313
38	0xbda66e65	-0.08126525
39	0x3c351fd8	0.011054955
40	0x3e22f958	0.1591543
41	0xbd476d64	-0.048688307
42	0xbe47e314	-0.19520217
43	0xbe047eae	-0.1293895
44	0xbd96cbc8	-0.07363087
45	0xbdc8e7c7	-0.09809833
46	0xbe7b4122	-0.24536565
47	0x3e9eedf0	0.31040907
48	0x3e968468	0.29397893
49	0x3e16967f	0.14705847

firstGCN.linearLayer.bias f4 [5]
0	0xbe9b202a	-0.30297977
1	0x3e9fd4b6	0.31216973
2	0xbe01d70c	-0.1267969
3	0xbe0e41e8	-0.13892329
4	0xbd590a72	-0.052988477

secondGCN.attentionLayer.linear.weight f4 [5, 10]
0	0x3d307b39	0.043086264
1	0x3e4ae8e6	0.19815406
2	0xbd40edc2	-0.047101744
3	0x3d877575	0.066142
4	0xbe117200	-0.14203644
5	0xbe9c26ac	-0.30498254
6	0xbe0f7f18	-0.14013326
7	0xbe8325af	-0.25614688
8	0xbe0335e7	-0.12813531
9	0x3e8e6edf	0.27818963
10	0xbc8218df	-0.015881
11	0x3e2ad1b7	0.16681562
12	0x3e3b4269	0.18287052
13	0x3e5c9d54	0.21544391
14	0x3e9b13f2	0.30288655
15	0x3da5c3ee	0.08094011
16	0x3d1ad84c	0.037803933
17	0xbcff2659	-0.031146215
18	0x3c18ad98	0.009318732
19	0xbe89993d	-0.26874724
20	0x3e70e8c9	0.235263
21	0xbdc68bd8	-0.09694642
22	0xbe56bf7a	-0.2097148
23	0x3dfa3c6f	0.12218558
24	0xbdb809ba	-0.0898623
25	0x3b349a65	0.0027557847
26	0xbe7f2d25	-0.24919565
27	0xbe9c79fc	-0.30561817
28	0x3e8b8be5	0.2725517
29	0x3e3062bc	0.17225164
30	0xbd2e2d43	-0.042523634
31	0xbe226cfc	-0.15861887
32	0x3ea1cddf	0.3160238
33	0xbe0d69e5	-0.13809927
34	0xbe9813f5	-0.29702726
35	0xbb89a7ca	-0.00420091
36	0x3e8a5ddd	0.27024737
37	0xbe374a94	-0.17899543
38	0x3db3c418	0.08777636
39	0x3e987a43	0.29780778
40	0xbe7a9189	-0.2446958
41	0xbddf54d5	-0.10904852
42	0xbe281a57	-0.16416298
43	0x3e6d50ae	0.23175308
44	0xbd8e9353	-0.069616936
45	0x3e6d1415	0.23152192
46	0xbcd5c5d3	-0.026095307
47	0x3e93b06e	0.28845543
48	0x3dcaf48f	0.09909927
49	0xbe49e979	-0.19717969

secondGCN.attentionLayer.linear.bias f4 [5]
0	0xbbee91b3	-0.0072805523
1	0xbe2f1956	-0.17099509
2	0x3e45aa6e	0.19303295
3	0xbd2219c7	-0.039575364
4	0xbd54d2af	-0.051958736

secondGCN.attentionLayer.inAttention.W_sum f4 [5, 5]
0	0x3f6c0f9d	0.92211324
1	0x3d9762e0	0.07391906
2	0x3f08b19f	0.5339603
3	0x3ec54cb4	0.38535082
4	0x3f64c268	0.8935914
5	0x3f334236	0.70022905
6	0x3f2d6a93	0.67740744
7	0x3e9bb9ea	0.3041528
8	0x3f562e3a	0.83664286
9	0x3f16ff7c	0.5898359
10	0x3f027dad	0.50973016
11	0x3f0f2cd0	0.55927753
12	0x3f244717	0.64170974
13	0x3f1014fc	0.5628202
14	0x3e160c48	0.14653122
15	0x3e63727c	0.22211641
16	0x3b1c7300	0.0023872256
17	0x3f70fad2	0.9413272
18	0x3f0dab46	0.5533947
19	0x3ea5a70e	0.32354015
20	0x3eafc012	0.34326226
21	0x3e0b3c5c	0.13597244
22	0x3db29200	0.087192535
23	0x3e270464	0.16310269
24	0x3f6db337	0.92851585

secondGCN.attentionLayer.inAttention.W_alpha f4 [5, 5]
0	0x3f360701	0.7110444
1	0x3f62e940	0.8863716
2	0x3f681168	0.9065156
3	0x3f0cdd35	0.55025035
4	0x3e69ee4c	0.2284481
5	0x3e88d3ee	0.2672419
6	0x3f4887cf	0.7833223
7	0x3e13c9e0	0.14432478
8	0x3ddfc038	0.10925335
9	0x3f06690d	0.52504045
10	0x3f3dc283	0.74124926
11	0x3f66c74a	0.9014784
12	0x3ef616ee	0.4806437
13	0x3f4c0dd8	0.79708624
14	0x3e6ca3ec	0.23109406
15	0x3ebd734e	0.37002033
16	0x3f76b412	0.96368515
17	0x3ec81446	0.39077967
18	0x3e675560	0.22591162
19	0x3f001cd2	0.50043976
20	0x3f63fcf2	0.8905784
21	0x3f2b9a65	0.6703246
22	0x3e5db914	0.21652633
23	0x3f4b7ef5	0.79490596
24	0x3f4f6bc1	0.81023794

secondGCN.attentionLayer.inAttention.a_alpha f4 [5, 1]
0	0x3f06b832	0.5262481
1	0x3ec19bfc	0.3781432
2	0x3efcbf16	0.49364537
3	0x3f45bc59	0.7724052
4	0x3f394612	0.72372544

secondGCN.attentionLayer.inAttention.b_alpha f4 [5, 1]
0	0x3f6b0b7c	0.918144
1	0x3f61523b	0.880161
2	0x3f458c2b	0.77167004
3	0x3e80b41a	0.25137407
4	0x3ebadace	0.3649506

secondGCN.attentionLayer.outAttention.W_sum f4 [5, 5]
0	0x3f5dae35	0.86593944
1	0x3ecb5ed2	0.3972078
2	0x3eb190c4	0.3468076
3	0x3e5348d8	0.20633256
4	0x3def9d50	0.11699927
5	0x3f5837a4	0.844599
6	0x3f76b27b	0.9636609
7	0x3dc15e80	0.094418526
8	0x3e960b02	0.29305273
9	0x3f4dc0d5	0.80372363
10	0x3f7999d5	0.97500354
11	0x3cf99300	0.030465603
12	0x3edb073a	0.4277895
13	0x3dacb458	0.08432835
14	0x3f7812b4	0.9690354
15	0x3ec864be	0.3913936
16	0x3ef2880c	0.4736942
17	0x3f66b599	0.90120846
18	0x3e34bd2c	0.17650288
19	0x3f0296eb	0.5101153
20	0x3e8bff7a	0.2734335
21	0x3f561973	0.8363258
22	0x3c425c40	0.011862814
23	0x3ec4522a	0.38343936
24	0x3f4ae063	0.79248637

secondGCN.attentionLayer.outAttention.W_alpha f4 [5, 5]
0	0x3f49eee1	0.78880125
1	0x3f4db538	0.8035464
2	0x3e932432	0.28738552
3	0x3e2a8bac	0.16654843
4	0x3f67b3b7	0.905086
5	0x3dbace38	0.09121364
6	0x3f394f19	0.7238632
7	0x3f037171	0.5134497
8	0x3f1c0208	0.609406
9	0x3f1df542	0.6170236
10	0x3f0c2e5e	0.5475825
11	0x3f1d4975	0.6144021
12	0x3e883346	0.2660162
13	0x3e0b742c	0.13618535
14	0x3f72c480	0.94831085
15	0x3ef350e8	0.47522664
16	0x3e9088f0	0.28229475
17	0x3f55a8fe	0.83460987
18	0x3e591d64	0.21202618
19	0x3f2c09db	0.6720254
20	0x3f2cfa70	0.6756964
21	0x3e9c7468	0.3055756
22	0x3e4a6054	0.19763309
23	0x3e26e3bc	0.16297811
24	0x3ef4fb9c	0.47848213

secondGCN.attentionLayer.outAttention.a_alpha f4 [5, 1]
0	0x3f5d3d76	0.86421907
1	0x3eb612dc	0.35561264
2	0x3f1db1e6	0.61599576
3	0x3e5e3454	0.21699649
4	0x3ebd850c	0.3701557

secondGCN.attentionLayer.outAttention.b_alpha f4 [5, 1]
0	0x3f0a9d3e	0.5414618
1	0x3ea02cc6	0.3128416
2	0x3f5ed4b4	0.8704331
3	0x3ed53422	0.41641337
4	0x3de22888	0.11042887

secondGCN.linearLayer.weight f4 [5, 10]
0	0x3e436543	0.19081597
1	0x3de5f7c4	0.11228898
2	0xbd9c37ec	-0.07627854
3	0x3ea0ad25	0.313821
4	0x3e327e5c	0.17431015
5	0xbe8e69a8	-0.27814984
6	0x3e6bf407	0.23042308
7	0x3e3c9aeb	0.18418472
8	0xbd8b2bd2	-0.067954674
9	0x3d0de909	0.034646068
10	0x3d1d06ad	0.038336445
11	0xbe3642a5	-0.1779886
12	0x3de816fd	0.1133251
13	0x3de0a4e8	0.10968953
14	0x3e6c6fa5	0.23089464
15	0x3e93dc9f	0.28879258
16	0x3e3fabab	0.1871783
17	0x3e94d310	0.29067278
18	0x3e0ba6f4	0.13637906
19	0x3e80fa41	0.2519093
20	0xbe89645b	-0.26834378
21	0x3d0e391f	0.034722444
22	0xbe8977bf	-0.26849172
23	0xbe7bf62a	-0.24605623
24	0x3d98280c	0.07429513
25	0x3e981af6	0.2970807
26	0x3e9f8c65	0.311618
27	0xbe680f10	-0.22661996
28	0x3ea17ef8	0.31542182
29	0xbe1311d0	-0.14362264
30	0x3e943a41	0.28950694
31	0xbe9655fb	-0.29362473
32	0xbe991f41	-0.29906657
33	0x3dc70c54	0.09719148
34	0x3e31f0c7	0.17377006
35	0x3e609177	0.2193049
36	0xbdb13b69	-0.0865391
37	0x3cf119e3	0.029431289
38	0x3e44f159	0.19232692
39	0x3e7a162e	0.24422523
40	0x3e93486f	0.287662
41	0xbe2829d1	-0.16422202
42	0x3d935fac	0.07195982
43	0xbe3345d9	-0.17507114
44	0x3e53f896	0.20700297
45	0xbe488af2	-0.19584253
46	0x3db2f5df	0.087383024
47	0xbcc282ba	-0.023743976
48	0xbd89a5f9	-0.0672111
49	0x3e7ab5e0	0.24483442

secondGCN.linearLayer.bias f4 [5]
0	0x3d9f3332	0.077734366
1	0xbe6b7700	-0.22994614
2	0x3e955199	0.29163817
3	0x3e95fed6	0.29295987
4	0xbdde4aa6	-0.10854082

thirdGCN.attentionLayer.linear.weight f4 [5, 10]
0	0xbdb6fb41	-0.08934642
1	0x3ddac9d4	0.10683027
2	0x3e31fb0b	0.17380922
3	0x3e448c5a	0.19194165
4	0xbce7d3f7	-0.028299315
5	0x3e516dcf	0.20452045
6	0x3e38b7c5	0.18038853
7	0xbe379b25	-0.17930277
8	0xbe67bfc2	-0.22631744
9	0x3c697ad8	0.01425048
10	0xbe22a556	-0.15883383
11	0xbe78cd6e	-0.24297115
12	0x3dace268	0.08441621
13	0xbe890134	-0.2675873
14	0xbe27b14b	-0.16376226
15	0xbd9fd7df	-0.07804846
16	0x3e1ce7c9	0.15322794
17	0xbd9d39ab	-0.07677015
18	0x3e99b6a9	0.3002217
19	0xbe8ea93d	-0.27863494
20	0x3e91ea13	0.28498897
21	0xbd55b88b	-0.052177947
22	0x3e86c5e3	0.2632285
23	0x3e0b8db7	0.13628279
24	0xbda772f2	-0.08176221
25	0xbe7cdf13	-0.24694471
26	0x3e41d6b8	0.18929565
27	0xbc9f75d8	-0.019465372
28	0xbe86f133	-0.26355895
29	0xbd0276df	-0.031851646
30	0xbcd0a094	-0.025467195
31	0xbe9ee157	-0.31031296
32	0x3e9f3fb3	0.31103286
33	0x3d2d3d9a	0.042295076
34	0xbd9610e4	-0.073274404
35	0xbdf68608	-0.12037283
36	0x3e325dae	0.17418548
37	0x3cb42caa	0.021993954
38	0x3d0bc383	0.034122
39	0xbe2ce4e8	-0.16884196
40	0xbea052d7	-0.31313202
41	0x3c048d9c	0.008090403
42	0x3d81161e	0.06303047
43	0x3ea13e39	0.31492785
44	0xba9efd0b	-0.0012129856
45	0xbe2fe537	-0.17177282
46	0x3e4c76cd	0.19967194
47	0xbd549574	-0.051900342
48	0xbe21edce	-0.15813372
49	0xbd4f171c	-0.05055915

thirdGCN.attentionLayer.linear.bias f4 [5]
0	0xbda7c706	-0.081922576
1	0xbe373d30	-0.17894435
2	0x3da0d6e9	0.07853491
3	0xbe2b5a81	-0.16733743
4	0x3de724bd	0.11286304

thirdGCN.attentionLayer.inAttention.W_sum f4 [5, 5]
0	0x3e991b3e	0.29903597
1	0x3c604240	0.01368767
2	0x3e891a8c	0.26778066
3	0x3f0a59e9	0.5404344
4	0x3f6b2f79	0.9186931
5	0x3ed08582	0.40726858
6	0x3f598d2f	0.84981054
7	0x3ee5b5de	0.44865316
8	0x3d8a23b0	0.06745088
9	0x3e102e68	0.14080203
10	0x3f48f4f6	0.7849878
11	0x3e907e7a	0.28221494
12	0x3e2225cc	0.15834731
13	0x3e465a90	0.19370484
14	0x3daf7668	0.08567506
15	0x3e39193c	0.18076032
16	0x3f1c660e	0.61093223
17	0x3cb33b20	0.021878779
18	0x3f15ff7f	0.5859298
19	0x3f096b54	0.53679395
20	0x3f767c7c	0.962837
21	0x3dc4acf0	0.09603298
22	0x3f7e2d2f	0.99287695
23	0x3f1b9d2d	0.60786706
24	0x3ed866da	0.4226597

thirdGCN.attentionLayer.inAttention.W_alpha f4 [5, 5]
0	0x3e01b080	0.12664986
1	0x3d219e00	0.03945732
2	0x3ecd339c	0.40078437
3	0x3ea83fe4	0.32861245
4	0x3f693c51	0.9110766
5	0x3e1be258	0.15223062
6	0x3eacfbf0	0.33785963
7	0x3f6be71f	0.9214954
8	0x3ece6f90	0.4031949
9	0x3d831110	0.06399739
10	0x3f476ac0	0.7789726
11	0x3f46301b	0.77417153
12	0x3edfdebc	0.4372462
13	0x3d5806d0	0.052740872
14	0x3eda5b0c	0.42647588
15	0x3e462cd8	0.19353044
16	0x3ef4ae0c	0.47789037
17	0x3f69ecca	0.91376936
18	0x3daf3fa0	0.085570574
19	0x3e3d62a0	0.18494654
20	0x3f34b83a	0.7059361
21	0x3baa3100	0.0051938295
22	0x3c3c7680	0.011502862
23	0x3eb5be08	0.35496545
24	0x3f72c462	0.94830906

thirdGCN.attentionLayer.inAttention.a_alpha f4 [5, 1]
0	0x3f53a3e6	0.82671964
1	0x3f4ed8c4	0.8079951
2	0x3e564540	0.20924854
3	0x3ebfa270	0.37428617
4	0x3e51a710	0.20473886

thirdGCN.attentionLayer.inAttention.b_alpha f4 [5, 1]
0	0x3ee60dd0	0.44932413
1	0x3ef4fb04	0.4784776
2	0x3f0d76df	0.5525951
3	0x3f4c822e	0.7988614
4	0x3eb4d3ec	0.35317934

thirdGCN.attentionLayer.outAttention.W_sum f4 [5, 5]
0	0x3f7f638e	0.99761283
1	0x3edd6eb2	0.43248516
2	0x3f477f8e	0.7792901
3	0x3f4e1d96	0.80513895
4	0x3eeaf064	0.45886528
5	0x3e892cce	0.26791996
6	0x3e90992a	0.28241855
7	0x3e9d579c	0.30730903
8	0x3ebd0472	0.36917454
9	0x3f6582d2	0.8965274
10	0x3e8e6e6e	0.27818626
11	0x3f53b9b7	0.82705253
12	0x3c604500	0.013688326
13	0x3eec1da4	0.46116364
14	0x3e71c474	0.23610097
15	0x3f48a5df	0.783781
16	0x3e4a28fc	0.19742197
17	0x3d886b08	0.066610396
18	0x3f074cff	0.5285186
19	0x3ecd75aa	0.40128833
20	0x3be02c00	0.0068411827
21	0x3ed110ac	0.40833032
22	0x3ce1dbe0	0.027570665
23	0x3f70b71b	0.94029397
24	0x3f3a7aff	0.7284393

thirdGCN.attentionLayer.outAttention.W_alpha f4 [5, 5]
0	0x3ef43e60	0.47703838
1	0x3ee864e2	0.45389467
2	0x3f0c38eb	0.5477435
3	0x3e01ba2c	0.12668675
4	0x3f720e63	0.945532
5	0x3f5f9e57	0.8735098
6	0x3f11debf	0.5698051
7	0x3f0e3970	0.5555639
8	0x3e9234b2	0.28555828
9	0x3f52419a	0.8213135
10	0x3e802b42	0.25033003
11	0x3e109018	0.14117467
12	0x3eed7b14	0.46382964
13	0x3db8d740	0.09025431
14	0x3ef2a5e4	0.4739219
15	0x3f7379ba	0.95107615
16	0x3f49fa98	0.78898
17	0x3e3bfd4c	0.18358344
18	0x3f4deb8b	0.80437535
19	0x3ee38b5c	0.4444226
20	0x3e782790	0.24233842
21	0x3ea4e9c8	0.3220961
22	0x3d8f8410	0.07007611
23	0x3df5f600	0.120098114
24	0x3f34e247	0.7065777

thirdGCN.attentionLayer.outAttention.a_alpha f4 [5, 1]
0	0x3f0ce42c	0.5503566
1	0x3f4ac1b2	0.79201806
2	0x3ec38b5a	0.38192254
3	0x3e73f434	0.23823625
4	0x3f6d11be	0.926052

thirdGCN.attentionLayer.outAttention.b_alpha f4 [5, 1]
0	0x3e41dc8c	0.18931788
1	0x3d9469d8	0.072467506
2	0x3f13e673	0.5777351
3	0x3e1aecd8	0.15129411
4	0x3e95ef06	0.29283923

thirdGCN.linearLayer.weight f4 [5, 10]
0	0x3e866ded	0.26255742
1	0x3e2d6574	0.16933233
2	0xbe10b465	-0.14131315
3	0xbe91ccaf	-0.28476474
4	0x3c80731a	0.015679885
5	0xbe5a0d83	-0.21294217
6	0x3e4e7279	0.20160855
7	0xbe8da6b3	-0.27666244
8	0xbe21830c	-0.15772647
9	0x3dad53a8	0.08463222
10	0x3e31d72a	0.17367235
11	0x3e06d054	0.13165408
12	0xbde8d213	-0.113681935
13	0xbe280096	-0.16406474
14	0x3e18c36f	0.14918302
15	0x3e5fa718	0.21841085
16	0x3db6e537	0.08930438
17	0xbe1f4580	-0.15553856
18	0xbd884c46	-0.06655173
19	0x3dc086a0	0.09400678
20	0xbbdee5b8	-0.006802287
21	0x3e820d82	0.2540093
22	0xbc1431b0	-0.00904505
23	0x3e47cde6	0.19512138
24	0x3e81d6f8	0.2535932
25	0xbe7bf359	-0.24604549
26	0xbe5c66c0	-0.21523571
27	0xbdfb80b9	-0.12280411
28	0xbe5518b0	-0.20810199
29	0x3d082362	0.03323687
30	0xbe122a8a	-0.1427404
31	0xbd464eee	-0.048415117
32	0xbe0e357c	-0.1388759
33	0xbe765976	-0.24057564
34	0x3e1bb5b0	0.15206027
35	0xbe2563c4	-0.16151339
36	0x3d7bb8a8	0.0614554
37	0x3e5b2547	0.21400939
38	0xbd1d5255	-0.038408596
39	0xbe664b94	-0.22489768
40	0x3e3506d3	0.17678384
41	0x3d2ac03e	0.041687243
42	0x3df2fa9d	0.11864207
43	0xbd3db5dd	-0.046316016
44	0x3e82cd04	0.2554704
45	0xbe29b975	-0.16574652
46	0x3e507182	0.203558
47	0x3e4072ef	0.18793844
48	0x3e947315	0.2899405
49	0x3e22b947	0.1589099

thirdGCN.linearLayer.bias f4 [5]
0	0xbde5fbb8	-0.11229652
1	0xbd8d0ca5	-0.068871774
2	0xbe6eda90	-0.23325562
3	0x3cc45853	0.023967898
4	0x3d1408bc	0.036141142

ff4.weight f4 [5, 5]
0	0xbe9d127f	-0.30678174
1	0x3ed1e597	0.40995476
2	0x3e2448e5	0.16043432
3	0x3cec062b	0.028811535
4	0xbe9af91b	-0.30268177
5	0xbe8cf314	-0.27529204
6	0xbe827613	-0.25480708
7	0x3e55b44b	0.20869558
8	0xbe8bbc1f	-0.27291963
9	0x3cb8989e	0.022533711
10	0xbe838c91	-0.2569318
11	0x3ee4b191	0.44666722
12	0xbe270679	-0.16311063
13	0x3e731238	0.23737419
14	0xbcdce6e2	-0.026965562
15	0xbe95907e	-0.292118
16	0x3e93bf8d	0.2885708
17	0xbe7f7782	-0.24947932
18	0xbeaf7dd4	-0.34275687
19	0xbed36563	-0.4128829
20	0x3f4d942e	0.8030423
21	0xbebc3ee8	-0.36766744
22	0xbedf48f1	-0.43610337
23	0x3f76c089	0.96387535
24	0xbe41ebd7	-0.18937622

ff4.bias f4 [5]
0	0x3ed736b7	0.42033932
1	0x3ed1fc7e	0.4101295
2	0x3df32756	0.11872737
3	0xbeb9f701	-0.36321262
4	0x3dfdf312	0.123998776

ff5.weight f4 [5, 5]
0	0xbe76007e	-0.24023625
1	0x3deb7373	0.114966296
2	0x3e43b169	0.19110645
3	0xbe67ac67	-0.2262436
4	0x3e22c29c	0.1589455
5	0x3ee446f5	0.44585386
6	0x3e453a9c	0.19260639
7	0xbe00c8c1	-0.12576582
8	0xbe9b3285	-0.3031198
9	0xbd79712e	-0.060898952
10	0x3e2bb04b	0.16766469
11	0xbe3b8b4d	-0.18314858
12	0x3dc388a5	0.09547547
13	0xbe4e2253	-0.20130281
14	0x3e246a72	0.1605623
15	0xbdf33b4f	-0.118765466
16	0xbed0facd	-0.40816346
17	0x3edd134b	0.43178782
18	0xbe91839b	-0.2842072
19	0xbe36926f	-0.17829297
20	0xbe0c0786	-0.13674745
21	0x3eb2acee	0.3489756
22	0xbdd04055	-0.1016852
23	0x3a635696	0.0008672265
24	0x3e9e5746	0.3092596

ff5.bias f4 [5]
0	0x3d9d590f	0.07683002
1	0x3eb9eb40	0.36312294
2	0xbe948e90	-0.29015017
3	0xbe9035d1	-0.2816606
4	0x3ec8b4c8	0.39200425

ff6.weight f4 [10, 5]
0	0x3e85e7d5	0.26153436
1	0xbb0c88db	-0.0021443877
2	0xbda4c482	-0.080452934
3	0xbe0d511b	-0.1380047
4	0xbef3d00f	-0.47619674
5	0x3e603807	0.21896373
6	0xbec2a436	-0.38015908
7	0x3eb13196	0.34608144
8	0x3e5e4fd4	0.2171014
9	0xbf04a53f	-0.51814646
10	0x3dfae9bc	0.122516125
11	0xbe1a4860	-0.15066671
12	0x3e72df86	0.2371808
13	0xbe035e5d	-0.12828965
14	0xbee5c3af	-0.44875857
15	0x3c98fea0	0.018676102
16	0x3cedc3b0	0.029023975
17	0xbc100f47	-0.008792705
18	0x3e78de2d	0.24303503
19	0xbefc60b0	-0.49292517
20	0x3eaf2b6a	0.3421281
21	0x3eb4a42b	0.352815
22	0x3e7a24bb	0.24428074
23	0x3e55d2d8	0.20881212
24	0xbef849e6	-0.4849388
25	0xbdab47d8	-0.083633125
26	0x3c7706cc	0.015077304
27	0xbedcbebd	-0.43114272
28	0x3d211143	0.039323103
29	0xbec80fe9	-0.39074638
30	0x3dc4da1b	0.09611913
31	0xbdd1e8ab	-0.10249456
32	0xbe02ed99	-0.12785949
33	0x3eaf3a7c	0.34224308
34	0xbed116ca	-0.408377
35	0x3cc46a25	0.023976395
36	0x3d2bf9b0	0.041986167
37	0x3d8ce33d	0.0687928
38	0x3e2aec42	0.16691688
39	0xbed98711	-0.4248586
40	0xbeb087c7	-0.3447859
41	0x3e0a4f1e	0.13506743
42	0x3d9d9398	0.07694167
43	0x3e4537bf	0.19259547
44	0xbeef3226	-0.46717948
45	0xbebdaf35	-0.37047735
46	0xbb9b906b	-0.0047474406
47	0x3ed9172c	0.4240049
48	0xbec76e3a	-0.38951284
49	0xbe1bcc0b	-0.15214555

ff6.bias f4 [10]
0	0xbe6c6d3b	-0.23088543
1	0xbcab7f76	-0.020934802
2	0xbe9dcaa6	-0.3081867
3	0xbdd54787	-0.104140334
4	0xbd28ea38	-0.041238993
5	0xbee5af46	-0.44860286
6	0xbe3bfffe	-0.18359372
7	0x3e96c4c7	0.29447004
8	0x3e139ee2	0.14416078
9	0x3f5a0f7c	0.8517988
