code/ml_model/useless_models/model_weights_m6p8n10_lr0.100000_bs20_epochs10.pth (torch, 21874 bytes, 48 tensors)

ff1.weight f4 [5, 5]
-0.036043294 0.3483152 0.18383598 0.16943939 0.22190976 0.033312544 0.38651183 -0.28810042
0.19357182 -0.4311477 0.4054704 -0.044428475 0.36851034 0.24556634 -0.41608423 0.10096256
0.3998062 0.1696287 -0.06194856 0.32226568 -0.1194944 -0.43240106 -0.26777512 -0.17200428
0.18210141
00000000: 22a2 13bd 5f56 b23e 803f 3c3e 8581 2d3e
00000010: 503c 633e bc72 083d e1e4 c53e e681 93be
00000020: b137 463e 64bf dcbe d199 cf3e a2fa 35bd
00000030: 63ad bc3e be75 7b3e fe08 d5be 75c5 ce3d
00000040: 66b3 cc3e 25b3 2d3e c6bd 7dbd 0200 a53e
00000050: 7bb9 f4bd ac63 ddbe d219 89be e421 30be
00000060: cb78 3a3e

ff1.bias f4 [5]
0.029437136 0.16377547 0.1772617 -0.19583347 -0.11274633
00000000: 2626 f13c c2b4 273e 1784 353e 9288 48be
00000010: 8ce7 e6bd

ff2.weight f4 [5, 5]
0.21779813 -0.04080683 -0.40336365 0.13658501 0.25144973 -0.43429706 0.20835002 0.189591
-0.07760385 0.41179484 0.27179325 0.24680984 -0.19718467 0.1267845 0.4323237 0.19096956
-0.19651656 -0.0090131955 0.25342014 -0.3226713 0.34122905 -0.17693421 0.22130825 0.37626457
0.30494562
00000000: 7906 5f3e 1025 27bd ae85 cebe f1dc 0b3e
00000010: 05be 803e 2f5c debe b559 553e 2524 423e
00000020: c4ee 9ebd c6d6 d23e 7c28 8b3e b8bb 7c3e
00000030: c7ea 49be ccd3 013e 8859 dd3e 868d 433e
00000040: a33b 49be 15ac 13bc 49c0 813e 2c35 a5be
00000050: 93b5 ae3e 3e2e 35be a19e 623e c0a5 c03e
00000060: d521 9c3e

ff2.bias f4 [5]
0.04804916 0.2388287 -0.33171675 -0.18179637 -0.42996192
00000000: 32cf 443d 838f 743e c7d6 a9be d428 3abe
00000010: f823 dcbe

ff3.weight f4 [5, 5]
-0.1918042 0.22741935 0.07843829 0.25316986 -0.39542252 0.08471108 0.14840561 0.071159974
0.19748476 -0.25515494 0.2528799 0.36318916 0.034564152 0.3952608 -0.1221945 0.38098702
-0.27433372 0.2693454 -0.28189585 -0.01959771 -0.3048041 0.20654103 -0.34504086 -0.3059045
0.31607074
00000000: 5268 44be 9ee0 683e 41a4 a03d 7b9f 813e
00000010: d274 cabe 017d ad3d a4f7 173e 52bc 913d
00000020: 7239 4a3e aba3 82be 7979 813e eef3 b93e
00000030: 2493 0d3d a05f ca3e 1c41 fabd bb10 c33e
00000040: 7875 8cbe a4e7 893e a754 90be 608b a0bc
00000050: 480f 9cbe 7e7f 533e 32a9 b0be 849f 9cbe
00000060: 06d4 a13e

ff3.bias f4 [5]
-0.26154047 0.24418673 -0.29377773 -0.32484883 0.16331027
00000000: a2e8 85be 160c 7a3e 096a 96be 9652 a6be
00000010: cf3a 273e

firstGCN.attentionLayer.linear.weight f4 [5, 10]
-0.15954691 0.39019912 -0.15090002 0.22993979 -0.18102464 0.34687644 -0.09511286 0.24064991
0.102211826 -0.19481675 -0.1597942 0.21445686 0.158591 0.538423 0.25188565 0.36119047
-0.14226708 -0.057491735 -0.17338414 0.4475083 0.43157366 0.17782624 0.34532785 -0.07224941
0.062977836 0.22565046 -0.05069589 0.21411961 0.2996729 0.35462457 -0.02870231 -0.28783804
-0.13869706 -0.18798456 -0.16584252 -0.13885234 0.19270518 0.2589235 0.25864854 -0.109827645
-0.1211143 -0.2599962 -0.21445698 -0.21179071 -0.21560805 0.07324701 0.07297846 -0.16049953
0.28218308 0.37714347
00000000: 4460 23be 2ec8 c73e 8985 1abe 5675 6b3e
00000010: 865e 39be ca99 b13e 88ca c2bd ee6c 763e
00000020: 6f54 d13d 0b7e 47be 17a1 23be 949a 5b3e
00000030: ae65 223e 17d6 093f 28f7 803e f5ed b83e
00000040: 76ae 11be 747c 6bbd 9d8b 31be cf1f e53e
00000050: 39f7 dc3e 1518 363e d0ce b03e 80f7 93bd
00000060: 86fa 803d ea10 673e 7ea6 4fbd 2c42 5b3e
00000070: ba6e 993e 5a91 b53e 1b21 ebbc 825f 93be
00000080: 9a06 0ebe 067f 40be 9fd2 29be 4f2f 0ebe
00000090: 8254 453e 9f91 843e 956d 843e 51ed e0bd
000000a0: c60a f8bd 391e 85be 9c9a 5bbe aadf 58be
000000b0: 5bc8 5cbe 8702 963d bb75 953d fd59 24be
000000c0: 4d7a 903e f318 c13e

firstGCN.attentionLayer.linear.bias f4 [5]
-0.080036394 0.1620365 0.19142462 0.015959574 -0.11961962
00000000: 1fea a3bd e5ec 253e d104 443e a7bd 823c
00000010: 22fb f4bd

firstGCN.attentionLayer.inAttention.W_sum f4 [5, 5]
0.61793923 0.4637765 0.34605008 0.78771037 0.8406658 0.80356336 0.60832566 0.4387952
0.37869033 0.49914157 0.3693284 1.0220698 0.4589562 0.8031487 0.57831633 -5.681524e-05
0.3683917 0.525056 1.0142405 0.23395252 0.2574311 0.44561434 0.87976646 0.0731827
0.520615
00000000: 4431 1e3f 1d74 ed3e 7a2d b13e 63a7 493f
00000010: e035 573f 54b6 4d3f 3bbb 1b3f c4a9 e03e
00000020: b3e3 c13e 7c8f ff3e 9d18 bd3e 2fd3 823f
00000030: 4ffc ea3e 279b 4d3f 8a0c 143f e64c 6eb8
00000040: d69d bc3e 126a 063f a2d2 813f 4091 6f3e
00000050: 02ce 833e 9027 e43e 6038 613f d0e0 953d
00000060: 0647 053f

firstGCN.attentionLayer.inAttention.W_alpha f4 [5, 5]
0.18477115 0.813058 0.8735234 0.9490868 0.30581594 0.7170636 0.9178717 0.83805835
0.31721905 0.31434628 0.79828674 0.50290555 0.12525414 0.6389593 0.3995839 0.2625328
0.06649779 0.88541603 0.9544975 0.9435718 0.095414355 0.33197176 0.20606281 0.4369922
0.6451467
00000000: a634 3d3e 9224 503f 3b9f 5f3f 5af7 723f
00000010: e893 9c3e 7b91 373f a4f9 6a3f fe8a 563f
00000020: 896a a23e fff1 a03e 855c 4c3f 6bbe 003f
00000030: 9f42 003e d692 233f 4396 cc3e b36a 863e
00000040: fe2f 883d a0aa 623f f359 743f ec8d 713f
00000050: 9a68 c33d 34f8 a93e 2102 533e 71bd df3e
00000060: 5628 253f

firstGCN.attentionLayer.inAttention.a_alpha f4 [5, 1]
0.946568 0.23591119 0.07661998 0.36292142 0.19353491
00000000: 4852 723f b492 713e f0ea 9c3d d6d0 b93e
00000010: 042e 463e

firstGCN.attentionLayer.inAttention.b_alpha f4 [5, 1]
0.2547095 0.0755826 0.48520437 0.6992364 0.9521272
00000000: 4969 823e 0dcb 9a3d b56c f83e 2801 333f
00000010: 9cbe 733f

firstGCN.attentionLayer.outAttention.W_sum f4 [5, 5]
0.018494522 0.80380815 0.5263395 0.923356 0.50635004 -0.001751082 0.22241877 0.072155096
0.6589265 0.9713174 0.71242857 0.017597651 0.677736 0.45194903 0.88426393 0.9294549
0.6587635 0.7170645 0.15068683 0.6927969 0.5365237 0.07655234 0.8927846 0.25438803
0.9962157
00000000: d381 973c 5fc6 4d3f 2fbe 063f 0f61 6c3f
00000010: 28a0 013f 9084 e5ba bfc1 633e 0dc6 933d
00000020: 68af 283f 42a8 783f b861 363f f328 903c
00000030: 1b80 2d3f dd65 e73e 1f5f 623f c2f0 6d3f
00000040: baa4 283f 8a91 373f a64d 1a3e 235b 313f
00000050: 9e59 093f 79c7 9c3d 888d 643f 263f 823e
00000060: fe07 7f3f

firstGCN.attentionLayer.outAttention.W_alpha f4 [5, 5]
0.43408164 0.98868686 0.4646743 0.64274055 0.118930355 0.2724974 0.5491807 0.15687053
0.5343463 0.19847202 0.51759607 0.55906105 0.104206696 0.39278653 0.54650223 0.0987686
0.8561328 0.54092973 0.57518667 0.40126666 0.5642377 0.6454021 0.9178127 0.923651
0.5050048
00000000: f33f de3e 951a 7d3f cae9 ed3e a58a 243f
00000010: c291 f33d c784 8b3e 1b97 0c3f aba2 203e
00000020: ebca 083f 403c 4b3e 2d81 043f a01e 0f3f
00000030: 526a d53d 511b c93e 92e7 0b3f 3147 ca3d
00000040: 852b 5b3f 5f7a 0a3f 6f3f 133f d372 cd3e
00000050: e271 103f 1239 253f c6f5 6a3f 6474 6c3f
00000060: ff47 013f

firstGCN.attentionLayer.outAttention.a_alpha f4 [5, 1]
0.54038656 0.0665732 0.967403 0.14377654 0.8810868
00000000: c656 0a3f 8857 883d b9a7 773f 283a 133e
00000010: e88e 613f

firstGCN.attentionLayer.outAttention.b_alpha f4 [5, 1]
0.089667894 0.35528123 0.5595463 0.6482755 0.22162741
00000000: cda3 b73d 6ce7 b53e 6d3e 0f3f 62f5 253f
00000010: 4cf2 623e

firstGCN.linearLayer.weight f4 [5, 10]
-0.20113282 0.28703347 0.14131416 -0.25674564 -0.020857532 -0.14880231 0.20564243 -0.051815674
-0.16502553 -0.07842709 -0.052062515 -0.034890648 -0.17482114 -0.060232688 0.10300885 0.027790213
-0.15617895 0.03747148 -0.12396915 0.23710342 -0.28800917 -0.25455603 0.14439602 -0.22236827
-0.0033345511 -0.23414761 0.26315477 -0.1936666 0.26532957 -0.1472318 0.17384703 0.066847466
-0.28665805 0.060926206 0.18427539 -0.15177335 0.2075921 -0.29422128 0.16127296 -0.1437364
-0.0950182 0.028658269 0.23884797 -0.2328748 0.2356419 0.109232 0.19134963 -0.22150093
0.2812442 0.0058039497
00000000: c3f5 4dbe 0df6 923e a9b4 103e 2a74 83be
00000010: 6add aabc a25f 18be ee93 523e ac3c 54bd
00000020: 74fc 28be 629e a0bd 813f 55bd 7fe9 0ebd
00000030: 5004 33be 8db6 76bd 4ef6 d23d 4da8 e33c
00000040: 60ed 1fbe b27b 193d 8ae3 fdbd 3dcb 723e
00000050: f075 93be 2b55 82be 8ddc 133e 82b4 63be
00000060: 7c88 5abb 64c4 6fbe 39bc 863e 8a50 46be
00000070: 47d9 873e efc3 16be f504 323e 53e7 883d
00000080: d8c4 92be c28d 793d b0b2 3c3e 796a 1bbe
00000090: 0693 543e 2ca4 96be bd24 253e a32f 13be
000000a0: e798 c2bd bfc4 ea3c 9094 743e bb76 6ebe
000000b0: 1c4c 713e 07b5 df3d 28f1 433e 24d1 62be
000000c0: 3dff 8f3e 0f2f be3b

firstGCN.linearLayer.bias f4 [5]
0.096813604 -0.12821451 -0.02288787 -0.007040044 0.05228987
00000000: 3646 c63d aa4a 03be 587f bbbc 2bb0 e6bb
00000010: e72d 563d

secondGCN.attentionLayer.linear.weight f4 [5, 10]
0.31517747 -0.30802152 0.28425533 0.24767107 -0.07568982 0.29466808 0.10925217 0.13602866
0.10726639 0.23328367 -0.08389814 -0.14622837 0.118479595 0.29164886 0.22266905 -0.038687896
-0.31602845 0.037100274 -0.20008856 -0.11192358 -0.29641122 -0.1392425 -0.13642882 -0.028172087
-0.25569516 -0.08750317 0.253523 -0.113888025 -0.1286861 -0.03980543 -0.016106052 -0.24411418
-0.2879647 -0.22299077 0.14411722 0.20774207 0.07637618 -0.19050746 -0.05490297 -0.2413674
0.16645283 0.2536598 -0.2746035 -0.21062164 -0.056579106 -0.11140287 -0.2380756 -0.072814986
0.2212813 0.28073233
00000000: f15e a13e ffb4 9dbe ea89 913e 7c9d 7d3e
00000010: 4403 9bbd bcde 963e 9abf df3d 194b 0b3e
00000020: 7bae db3d eae1 6e3e cad2 abbd e4bc 15be
00000030: 6ea5 f23d 0053 953e 5b03 643e 3377 1ebd
00000040: 7bce a1be 75f6 173d 04e4 4cbe 3138 e5bd
00000050: 36c3 97be 9695 0ebe ffb3 0bbe 26c9 e6bc
00000060: 7aea 82be dd34 b3bd c4cd 813e 203e e9bd
00000070: 4ac6 03be 050b 23bd d7f0 83bc 11f9 79be
00000080: 1c70 93be b157 64be 7793 133e 56ba 543e
00000090: 1d6b 9c3d 6314 43be f0e1 60bd 0429 77be
000000a0: 9c72 2a3e b3df 813e d498 8cbe 33ad 57be
000000b0: 7ebf 67bd 3027 e4bd 17ca 73be 0620 95bd
000000c0: 9197 623e 26bc 8f3e

secondGCN.attentionLayer.linear.bias f4 [5]
-0.097197816 0.25546405 0.24047703 -0.3068417 0.07547008
00000000: a60f c7bd 2fcc 823e 9c3f 763e 5b1a 9dbe
00000010: 0f90 9a3d

secondGCN.attentionLayer.inAttention.W_sum f4 [5, 5]
0.9064532 0.8460848 0.19589365 0.1647476 0.21863353 0.5004555 0.26055193 0.9293653
0.6294281 0.7214685 0.19363046 0.97182345 0.34075093 0.3480448 0.89497846 0.031933546
0.34783232 0.53220457 0.77513635 0.72431546 0.7102907 0.46971154 0.13673592 0.91191345
0.2096793
00000000: 510d 683f 0399 583f 5898 483e 98b3 283e
00000010: 78e1 5f3e da1d 003f 1067 853e e2ea 6d3f
00000020: 3322 213f 29b2 383f 1047 463e 6cc9 783f
00000030: e876 ae3e ee32 b23e 4f1d 653f c0cc 023d
00000040: 1417 b23e 8f3e 083f 566f 463f bd6c 393f
00000050: 9cd5 353f 087e f03e 8004 0c3e 2973 693f
00000060: 2cb6 563e

secondGCN.attentionLayer.inAttention.W_alpha f4 [5, 5]
0.6462083 0.7060617 0.8158033 0.83853585 0.436746 0.9323704 0.37084514 0.4552688
0.27360064 0.07548016 0.9375158 0.064367235 0.94654274 0.34015793 0.62108904 0.7720609
0.20535994 0.59834975 0.29753596 0.48329043 0.75388086 0.06588602 0.03647715 0.93595856
0.043999553
00000000: e86d 253f 76c0 343f 7cd8 503f 49aa 563f
00000010: 2c9d df3e d4af 6e3f 6adf bd3e fe18 e93e
00000020: 6215 8c3e 5895 9a3d 0901 703f f8d2 833d
00000030: a050 723f 2e29 ae3e b1ff 1e3f c8a5 453f
00000040: e049 523e 732d 193f a256 983e d871 f73e
00000050: 56fe 403f 40ef 863d 1069 153d fb9a 6f3f
00000060: e038 343d

secondGCN.attentionLayer.inAttention.a_alpha f4 [5, 1]
0.78686285 0.57616675 0.34183103 0.19074982 0.01909995
00000000: d86f 493f aa7f 133f 7a04 af3e ec53 433e
00000010: 8077 9c3c

secondGCN.attentionLayer.inAttention.b_alpha f4 [5, 1]
0.9546907 0.17088354 0.08165592 0.13233984 0.47938335
00000000: 9c66 743f 18fc 2e3e 383b a73d 1884 073e
00000010: bc71 f53e

secondGCN.attentionLayer.outAttention.W_sum f4 [5, 5]
0.9543522 0.61742425 0.96952736 0.54328054 0.44090927 0.92845577 0.6355525 0.32871485
0.6184656 0.41920298 0.25327456 0.47407395 0.7219427 0.32225674 0.706761 0.5120125
0.49677372 0.3525402 0.46868712 0.4946956 0.43587017 0.6558613 0.8329666 0.026115775
0.6372942
00000000: 6d50 743f 840f 1e3f f232 783f 6f14 0b3f
00000010: dcbe e13e 47af 6d3f 92b3 223f 504d a83e
00000020: c353 1e3f c6a1 d63e 34ad 813e d2b9 f23e
00000030: 3dd1 383f d6fe a43e 4aee 343f 4013 033f
00000040: 2059 fe3e 2680 b43e c2f7 ef3e be48 fd3e
00000050: 602a df3e 87e6 273f 4d3d 553f c0f0 d53c
00000060: b625 233f

secondGCN.attentionLayer.outAttention.W_alpha f4 [5, 5]
0.37890023 0.13050771 0.8827347 0.5788334 0.76579154 0.9558994 0.5002979 0.89104307
0.7777621 0.39236575 0.82436234 0.33160317 0.13830107 0.90494376 0.3628595 0.2885943
0.07472366 0.08843458 0.50665754 0.2151146 0.2136184 0.7882342 0.2866559 0.5134345
0.590481
00000000: 36ff c13e d0a3 053e e7fa 613f 6d2e 143f
00000010: ea0a 443f d3b5 743f 8613 003f 661b 643f
00000020: 6b1b 473f 2ae4 c83e 6909 533f e4c7 a93e
00000030: cc9e 0d3e 65aa 673f b8c8 b93e a2c2 933e
00000040: b808 993d 301d b53d 4fb4 013f 0047 5c3e
00000050: c8be 5a3e b7c9 493f 90c4 923e 7270 033f
00000060: c329 173f

secondGCN.attentionLayer.outAttention.a_alpha f4 [5, 1]
0.98639256 0.5357821 0.18095255 0.2608055 0.021267831
00000000: 3984 7c3f 0429 093f a04b 393e 4c88 853e
00000010: e039 ae3c

secondGCN.attentionLayer.outAttention.b_alpha f4 [5, 1]
0.11272025 0.4830264 0.32062733 0.09815031 0.56527597
00000000: e0d9 e63d 3c4f f73e 4429 a43e 0803 c93d
00000010: edb5 103f

secondGCN.linearLayer.weight f4 [5, 10]
-0.051634014 0.10894418 0.011699391 0.099297106 -0.25559312 -0.17204446 0.10980307 0.1611109
-0.18971175 0.30043882 0.22594374 0.30283147 0.25369054 0.1789661 -0.16506703 0.23880021
0.24278153 -0.28298834 -0.0966984 0.18191361 0.09085804 -0.27776888 0.021866726 0.024887938
0.058614872 -0.0062192986 0.060038734 0.23473026 -0.024741823 -0.06809129 0.30130774 0.096436106
0.05373085 -0.119885325 0.21806848 0.120829 0.055814262 0.074925244 -0.3099045 0.11204086
-0.24727441 -0.25894022 0.11322425 0.12619114 -0.22258396 0.15518619 0.19213949 0.15694983
-0.081469946 0.01627769
00000000: 307e 53bd 201e df3d cdae 3f3c 485c cb3d
00000010: 1add 82be 6c2c 30be 6fe0 e03d 41fa 243e
00000020: cc43 42be 1ed3 993e cc5d 673e ba0c 9b3e
00000030: bae3 813e e442 373e 5507 29be 0b88 743e
00000040: b99b 783e d9e3 90be d009 c6bd 9047 3a3e
00000050: c813 ba3d b937 8ebe d921 b33c cae1 cb3c
00000060: 2616 703d 42cb cbbb 2deb 753d 215d 703e
00000070: 5daf cabc 7273 8bbd 0245 9a3e 4b80 c53d
00000080: e114 5c3d 7086 f5bd 584d 5f3e 3275 f73d
00000090: 7f9d 643d 6872 993d cdab 9ebe ae75 e53d
000000a0: 8135 7dbe d093 84be 1ee2 e73d 4038 013e
000000b0: 0ded 63be 21e9 1e3e 37c0 443e 75b7 203e
000000c0: b7d9 a6bd ca58 853c

secondGCN.linearLayer.bias f4 [5]
-0.24743062 0.2902109 0.23770809 -0.058640957 0.03937855
00000000: 745e 7dbe 8696 943e c069 733e 8031 70bd
00000010: 674b 213d

thirdGCN.attentionLayer.linear.weight f4 [5, 10]
0.16926979 -0.27206713 0.11840341 0.030988866 -0.17599869 0.15217732 -0.055274967 -0.08639091
0.01062302 0.3117457 0.26934424 -0.18379803 0.23536806 -0.2783984 0.2232224 0.26286206
-0.2404842 0.27163985 0.03237511 0.068094045 0.2876557 0.23228541 -0.10581187 0.12683327
0.2172546 -0.20648772 0.024040578 0.2132367 -0.066972174 -0.11884462 -0.28878137 0.29166093
0.18327716 0.22360659 -0.17201675 0.177205 -0.09272865 -0.30070722 0.058899824 0.21507286
0.05630335 -0.047390014 -0.17483233 0.25222886 -0.2613396 0.20460492 0.08916174 -0.15413795
-0.13694999 -0.30704132
00000000: 0f55 2d3e 624c 8bbe 7d7d f23d 5ddc fd3c
00000010: 0039 34be 5fd4 1b3e 0168 62bd b8ed b0bd
00000020: 2d0c 2e3c 229d 9f3e 7de7 893e 8d35 3cbe
00000030: 5304 713e 3c8a 8ebe 6a94 643e db95 863e
00000040: 7d41 76be 6114 8b3e c39b 043d e474 8b3d
00000050: 9c47 933e 3adc 6d3e e5b3 d8bd 95e0 013e
00000060: fd77 5e3e 8471 53be bff0 c43c b95a 5a3e
00000070: b528 89bd cf64 f3bd 27db 93be 9554 953e
00000080: 02ad 3b3e 20f9 643e 2925 30be 3a75 353e
00000090: 85e8 bdbd 4cf6 99be f140 713d 0f3c 5c3e
000000a0: 579e 663d 081c 42bd 3f07 33be 2424 813e
000000b0: 4ece 85be f483 513e 6e9a b63d 57d6 1dbe
000000c0: 9e3c 0cbe 8534 9dbe

thirdGCN.attentionLayer.linear.bias f4 [5]
0.2309352 0.2126988 0.124235824 0.3120921 0.30985337
00000000: 477a 6c3e b7cd 593e 5a6f fe3d 89ca 9f3e
00000010: 1aa5 9e3e

thirdGCN.attentionLayer.inAttention.W_sum f4 [5, 5]
0.22563756 0.62623405 0.19266856 0.67829627 0.73024535 0.07593602 0.62334347 0.7506842
0.47782987 0.14869565 0.5806843 0.5545492 0.8028128 0.96001756 0.5720454 0.31719637
0.76061213 0.7992271 0.66980267 0.09158617 0.37907088 0.1362353 0.5373039 0.69832045
0.20262504
00000000: 880d 673e e050 203f e84a 453e d3a4 2d3f
00000010: 5cf1 3a3f 5884 9b3d 7093 1f3f d72c 403f
00000020: 1ea6 f43e ac43 183e baa7 143f f0f6 0d3f
00000030: 2485 4d3f b6c3 753f 9171 123f 9067 a23e
00000040: 7ab7 423f 269a 4c3f 3078 2b3f 8891 bb3d
00000050: 9415 c23e 4481 0b3e c08c 093f 21c5 323f
00000060: f07c 4f3e

thirdGCN.attentionLayer.inAttention.W_alpha f4 [5, 5]
0.041222095 0.94068784 0.9380748 0.42241257 0.8671402 0.43840683 0.5773923 0.5901472
0.1497435 0.1988042 0.41427177 0.3582986 0.066648364 0.7865572 0.35152632 0.4889344
0.28062755 0.89258397 0.47061878 0.39782137 0.48460752 0.7884527 0.14940959 0.23567796
0.077653944
00000000: 80d8 283d ebd0 703f ac25 703f 7646 d83e
00000010: e6fc 5d3f dc76 e03e fbcf 133f e313 173f
00000020: 5c56 193e 5493 4b3e 6e1b d43e ea72 b73e
00000030: f07e 883d d05b 493f 42fb b33e 9c55 fa3e
00000040: 6aae 8f3e 6280 643f f2f4 f03e 3eaf cb3e
00000050: 7a1e f83e 09d8 493f d4fe 183e 9055 713e
00000060: 0809 9f3d

thirdGCN.attentionLayer.inAttention.a_alpha f4 [5, 1]
0.059561074 0.94103 0.74919856 0.8742432 0.065181136
00000000: 50f6 733d 58e7 703f 7acb 3f3f 67ce 5f3f
00000010: b07d 853d

thirdGCN.attentionLayer.inAttention.b_alpha f4 [5, 1]
0.9008817 0.8052322 0.24082619 0.64623463 0.89818066
00000000: 2fa0 663f b323 4e3f 249b 763e a26f 253f
00000010: 2bef 653f

thirdGCN.attentionLayer.outAttention.W_sum f4 [5, 5]
0.14202279 0.22340542 0.5305588 0.6856599 0.41542995 0.18428624 0.47233456 0.50882894
0.39118516 0.78699934 0.3496716 0.34564346 0.45264518 0.16290694 0.245431 0.7833416
0.38555676 0.55714697 0.4878376 0.7727926 0.025559485 0.19208115 0.47433007 0.22485328
0.6787406
00000000: 6c6e 113e 64c4 643e b4d2 073f 6887 2f3f
00000010: 3cb3 d43e 88b5 3c3e d6d5 f13e 9d42 023f
00000020: 6c49 c83e ca78 493f 2808 b33e 2ef8 b03e
00000030: 1cc1 e73e 14d1 263e 4452 7b3e 1389 483f
00000040: b267 c53e 2fa1 0e3f dac5 f93e bcd5 453f
00000050: 2062 d13c ecb0 443e 64db f23e f03f 663e
00000060: f2c1 2d3f

thirdGCN.attentionLayer.outAttention.W_alpha f4 [5, 5]
0.5918451 0.47388756 0.77327055 0.9369981 0.14953369 0.7897773 0.53940326 0.6530765
0.21002024 0.802251 0.24956751 0.34179604 0.24677348 0.016007423 0.038752973 0.34309173
0.32220328 0.18386996 0.56059337 0.7376897 0.7607457 0.02047193 0.43278444 0.8686479
0.51317924
00000000: 2983 173f 64a1 f23e 0ff5 453f 1cdf 6f3f
00000010: 5c1f 193e d82e 4a3f 5516 0a3f 0630 273f
00000020: 8c0f 573e 5260 4d3f a08e 7f3e e4ff ae3e
00000030: 30b2 7c3e 0022 833c 70bb 1e3d b8a9 af3e
00000040: d4f7 a43e 6848 3c3e 0c83 0f3f 3bd9 3c3f
00000050: 3bc0 423f c0b4 a73c ec95 dd3e b55f 5e3f
00000060: b75f 033f

thirdGCN.attentionLayer.outAttention.a_alpha f4 [5, 1]
0.86915255 0.19440848 0.05144757 0.036005378 0.727412
00000000: c880 5e3f 0413 473e b0ba 523d 607a 133d
00000010: ac37 3a3f

thirdGCN.attentionLayer.outAttention.b_alpha f4 [5, 1]
0.7682525 0.4238745 0.7568718 0.8434645 0.9302919
00000000: 32ac 443f 1406 d93e 5ac2 413f 4aed 573f
00000010: 9c27 6e3f

thirdGCN.linearLayer.weight f4 [5, 10]
-0.005214515 -0.27213874 -0.0743729 -0.20329529 -0.0623584 0.057988115 0.0015251192 -0.16856338
-0.08087184 -0.08535789 -0.01898835 -0.137257 0.27148154 -0.1827381 0.056320615 0.041719135
0.27063066 -0.15267971 0.0029869822 -0.23973031 0.16557716 0.109557286 -0.25830388 0.18424918
-0.12937121 -0.22998083 -0.25146914 -0.23174746 0.27244413 0.17023046 -0.22303407 -0.17403202
-0.20235029 0.31434193 0.16183178 -0.17789647 -0.21058024 -0.14902021 0.07197901 0.15050744
-0.13937712 0.30414578 -0.2915763 -0.18533996 0.08831705 -0.0680004 -0.12220416 -0.021069767
-0.19936264 0.19465996
00000000: 86de aabb c555 8bbe d250 98bd a42c 50be
00000010: 866b 7fbd f284 6d3d 82e6 c73a e19b 2cbe
00000020: 23a0 a5bd 1ed0 aebd 758d 9bbc 198d 0cbe
00000030: a1ff 8a3e b21f 3bbe 72b0 663d afe1 2a3d
00000040: 1a90 8a3e 1258 1cbe 3fc1 433b dd7b 75be
00000050: 0f8d 293e 925f e03d 6840 84be d1ab 3c3e
00000060: e379 04be 1880 6bbe 90c0 80be 354f 6dbe
00000070: cc7d 8b3e e550 2e3e 0b63 64be 7335 32be
00000080: ea34 4fbe 6df1 a03e 3bb7 253e 7e2a 36be
00000090: 59a2 57be c198 18be bb69 933d 9f1e 1a3e
000000a0: e0b8 0ebe ffb8 9b3e 7d49 95be c2c9 3dbe
000000b0: 92df b43d cb43 8bbd 2d46 fabd 819a acbc
000000c0: b825 4cbe f154 473e

thirdGCN.linearLayer.bias f4 [5]
0.22186911 -0.2149704 0.13132687 -0.122416586 -0.019233797
00000000: a831 633e 3321 5cbe 8d7a 063e 8cb5 fabd
00000010: 3290 9dbc

ff4.weight f4 [5, 5]
0.18292898 -0.15014951 -0.43064895 0.3319389 0.21069632 -0.14634085 -0.36241442 -0.2850648
-0.11334417 -0.15979503 0.39840057 -0.022781167 -0.02666695 -0.37780106 0.035471655 0.3554505
0.7298324 0.6925218 0.006249206 0.15457486 -0.46912682 -0.28224078 0.5181026 0.0048359865
0.34553555
00000000: bc51 3b3e cbc0 19be 057e dcbe e5f3 a93e
00000010: c7c0 573e 60da 15be 628e b9be 03f4 91be
00000020: fd20 e8bd 4fa1 23be 29fb cb3e 929f babc
00000030: a674 dabc 246f c1be ba4a 113d 9cfd b53e
00000040: 4cd6 3a3f 1c49 313f 24c6 cc3b df48 1e3e
00000050: 6431 f0be dd81 90be 5fa2 043f 3277 9e3b
00000060: 09ea b03e

ff4.bias f4 [5]
0.36973646 -0.29621163 0.14666307 -0.21148533 0.17245473
00000000: 194e bd3e 0da9 97be d82e 163e 9c8f 58be
00000010: f997 303e

ff5.weight f4 [5, 5]
-0.068239056 0.002273491 -0.284835 -0.20278403 -0.1724842 -0.091407284 0.26867247 -0.1062823
0.08099401 -0.030692473 0.04052054 -0.42221227 0.33042303 -0.2937476 -0.35748413 0.27715147
-0.10012556 0.10174374 0.19606528 0.25260618 0.41033223 0.027218929 0.33513895 -0.29159242
-0.025597924
00000000: ebc0 8bbd d9fe 143b e5d5 91be 9ea6 4fbe
00000010: b39f 30be be33 bbbd 708f 893e 89aa d9bd
00000020: 30e0 a53d c86e fbbc def8 253d 352c d8be
00000030: 352d a93e 1666 96be 2908 b7be cce6 8d3e
00000040: a10e cdbd 065f d03d 56c5 483e 9955 813e
00000050: 1117 d23e 3bfa de3c 5597 ab3e 9a4b 95be
00000060: bdb2 d1bc

ff5.bias f4 [5]
0.31030443 -0.38404456 -0.17485876 0.12803322 0.20829426
00000000: 39e0 9e3e 7da1 c4be 2d0e 33be 241b 033e
00000010: 174b 553e

ff6.weight f4 [10, 5]
0.42917284 0.23177217 -0.3567712 -0.3935781 0.2179367 -0.2881011 -0.021771828 0.14083768
-0.4069323 0.15976915 -0.41603205 -0.0030900177 0.2086443 -0.39399838 0.27801773 0.31920573
0.2750734 0.24902865 -0.47159702 -0.023340575 -0.035436284 -0.21802242 0.25601634 -0.36157596
0.19725874 -0.09583341 0.28230336 -0.038494308 -0.51604176 0.39009675 -0.19171064 -0.23595013
-0.18490194 -0.22735113 0.6745697 0.33106878 0.40384138 0.08245636 -0.3249885 0.18421376
0.35183626 0.2852534 -0.21825217 -0.2655479 -0.17529944 -0.117851324 -0.3869707 0.04610169
-0.4198279 -0.12059998
00000000: 8bbc db3e af55 6d3e b7aa b6be 1283 c9be
00000010: cc2a 5f3e fd81 93be d55a b2bc c137 103e
00000020: 6e59 d0be 869a 233e 2702 d5be e581 4abb
00000030: daa6 553e 28ba c9be 5758 8e3e ef6e a33e
00000040: 6cd6 8c3e 5e01 7f3e 2a75 f1be bc34 bfbc
00000050: a325 11bd 4541 5fbe 9314 833e 7c20 b9be
00000060: 32fe 493e 4f44 c4bd 118a 903e 35ac 1dbd
00000070: 501b 04bf c3ba c73e cb4f 44be e99c 71be
00000080: ef56 3dbe bcce 68be 9ab0 2c3f d981 a93e
00000090: 4cc4 ce3e e1de a83d e564 a6be 88a2 3c3e
000000a0: e223 b43e bc0c 923e 7f7d 5fbe e5f5 87be
000000b0: b281 33be 095c f1bd 0621 c6be 20d5 3c3d
000000c0: aff3 d6be 1ffd f6bd

ff6.bias f4 [10]
-0.40011975 -0.36616042 -0.24670699 0.15846856 -0.39186805 0.41257742 0.17930432 -0.35032687
-0.34906015 -0.28418255
00000000: 7fdc ccbe 6179 bbbe c2a0 7cbe 9545 223e
00000010: eea2 c8be 593d d33e 8d9b 373e 0b5e b3be
00000020: 03b8 b2be 6080 91be
