code/ml_model/useless_models/model_weights_m7p8n30_lr0.100000_bs10_epochs20.pth (torch, 22322 bytes, 48 tensors)

ff1.weight f4 [5, 5]
-0.10603408 -0.32990637 -0.3387883 0.34866413 -0.39822662 -0.3234362 0.39631495 -0.36772138
0.2834915 0.23860656 0.38555434 0.15352666 -0.0754646 0.09404655 -0.26665848 -0.44281706
-0.1530905 0.1791507 -0.11034889 -0.23680317 0.032310758 0.30844152 0.31286395 -0.22397433
0.28366375
00000000: 6528 d9bd 7de9 a8be a975 adbe 1b84 b23e
00000010: 5ce4 cbbe 6e99 a5be cbe9 ca3e fa45 bcbe
00000020: cc25 913e 4755 743e 6167 c53e 1836 1d3e
00000030: 2f8d 9abd 7a9b c03d 7687 88be ebb8 e2be
00000040: c2c3 1cbe 4873 373e 99fe e1bd 887c 72be
00000050: 4958 043d 0cec 9d3e b42f a03e 8759 65be
00000060: 603c 913e

ff1.bias f4 [5]
-0.048170123 -0.19546781 -0.321969 -0.31484115 0.086604305
00000000: 094e 45bd b728 48be 1fd9 a4be dc32 a1be
00000010: 995d b13d

ff2.weight f4 [5, 5]
-0.16092114 -0.32344228 -0.40204856 -0.43185067 0.41732985 -0.2202185 -0.42925736 -0.014192351
-0.42455077 -0.22851954 -0.42143905 0.2691338 0.35889882 0.40965858 -0.14120567 0.38582546
0.19528249 -0.4312465 0.28813368 0.12778063 -0.20464239 -0.16957529 -0.22535516 0.21473476
-0.004062322
00000000: 83c8 24be 3a9a a5be 4fd9 cdbe 881b ddbe
00000010: 42ac d53e f580 61be 9fc7 dbbe 0987 68bc
00000020: b85e d9be 0701 6abe dcc6 d7be e8cb 893e
00000030: 96c1 b73e c5be d13e 3898 10be ea8a c53e
00000040: 22f8 473e 57cc dcbe 4286 933e edd8 023e
00000050: c68d 51be 25a5 2dbe 81c3 66be 6ee3 5b3e
00000060: 3a1d 85bb

ff2.bias f4 [5]
-0.010817008 -0.3814349 -0.18132189 -0.007937199 0.018109292
00000000: d239 31bc 6f4b c3be 72ac 39be 070b 02bc
00000010: f059 943c

ff3.weight f4 [5, 5]
0.25393417 -0.23283787 -0.24176674 0.38808498 -0.30038014 -0.4132023 0.43908745 0.3195558
0.17793317 0.25885695 -0.34487122 -0.19938982 -0.2873236 0.2239538 -0.26176897 0.21660618
0.2755456 0.054540962 0.116453804 -0.3369161 0.3788628 0.13502361 0.03699038 -0.20618826
0.08877868
00000000: a903 823e 0d6d 6ebe b391 77be 13b3 c63e
00000010: 6dcb 99be 408f d3be 12d0 e03e d19c a33e
00000020: 1d34 363e e688 843e f692 b0be d82c 4cbe
00000030: 141c 93be 2554 653e 9506 86be 03ce 5d3e
00000040: 5014 8d3e 5866 5f3d 557f ee3d 4480 acbe
00000050: 4efa c13e a143 0a3e 3a83 173d 0423 53be
00000060: 99d1 b53d

ff3.bias f4 [5]
0.1725913 0.0021177132 0.37425497 0.40320233 -0.28871682
00000000: c6bb 303e 55c9 0a3b 599e bf3e 8970 ce3e
00000010: b1d2 93be

firstGCN.attentionLayer.linear.weight f4 [5, 10]
-0.106959775 -0.14568649 -0.029791996 -0.15531543 0.1425474 -0.09261828 -0.20877525 -0.08424491
0.23023443 0.08029449 0.03334599 -0.14835927 0.11174892 -0.33852118 -0.21516836 0.10973999
-0.15843041 -0.19025388 -0.13585064 -0.11115895 -0.115385614 -0.19143932 0.12447111 0.22152226
0.32653147 0.30036587 0.12810788 0.17685035 -0.10926677 0.042337533 0.20353313 0.21622732
0.17801556 -0.24641943 -0.13306017 0.0785728 -0.080309905 0.23116235 -0.17510329 0.08871355
0.52948284 0.40585676 0.26118907 0.7035961 0.071722195 0.30345276 0.6131756 -0.09502925
0.12794815 0.10300685
00000000: ba0d dbbd d72e 15be 580e f4bc 020b 1fbe
00000010: f2f7 113e a7ae bdbd 2ec9 55be 9888 acbd
00000020: 93c2 6b3e 7071 a43d ce95 083d 7eeb 17be
00000030: 9edc e43d a652 adbe 1855 5cbe 5cbf e03d
00000040: 953b 22be ead1 42be 6e1c 0bbe 4ea7 e3bd
00000050: 4b4f ecbd ab08 44be b6ea fe3d bbd6 623e
00000060: 222f a73e 8ec9 993e b62e 033e 4218 353e
00000070: 42c7 dfbd 1f6a 2d3d fd6a 503e b26a 5d3e
00000080: b649 363e 6055 7cbe ed40 08be c7ea a03d
00000090: 8579 a4bd d3b5 6c3e 474e 33be 73af b53d
000000a0: 308c 073f 75cc cf3e 93ba 853e e01e 343f
000000b0: 16e3 923d 295e 9b3e 13f9 1c3f b29e c2bd
000000c0: d704 033e 41f5 d23d

firstGCN.attentionLayer.linear.bias f4 [5]
-0.07350059 -0.09662449 0.14167705 -0.1586765 0.31700635
00000000: 7a87 96bd 10e3 c5bd ca13 113e 187c 22be
00000010: a84e a23e

firstGCN.attentionLayer.inAttention.W_sum f4 [5, 5]
0.06414355 0.13051747 0.85621905 0.13142864 0.6374688 0.53740054 0.28274712 0.7059775
0.7418763 0.19346312 0.5575014 0.3363907 0.28998604 1.0081865 0.47343493 0.019023545
0.9353754 0.092525065 1.0014033 0.41364437 0.30243632 0.33403924 0.9008192 0.097588204
0.7925357
00000000: b25d 833d 5fa6 053e 2c31 5b3f 3b95 063e
00000010: 2831 233f 1593 093f 3bc4 903e f1ba 343f
00000020: 9beb 3d3f 321b 463e 69b8 0e3f 673b ac3e
00000030: 0d79 943e 410c 813f 1066 f23e 44d7 9b3c
00000040: c374 6f3f c87d bd3d fc2d 803f 32c9 d33e
00000050: efd8 9a3e 3107 ab3e 169c 663f 53dc c73d
00000060: 9fe3 4a3f

firstGCN.attentionLayer.inAttention.W_alpha f4 [5, 5]
0.14174426 0.4532611 0.97446525 0.2359094 0.9873591 0.35150427 0.29247764 0.6186745
0.884325 0.7226525 0.39400172 0.94404465 0.86271524 0.59251636 0.67622334 0.1505312
0.0201509 0.61017174 0.13308378 0.83820826 0.46263796 0.4450524 0.9394294 0.61498165
0.7662013
00000000: 6825 113e d711 e83e 8e76 793f 3c92 713e
00000010: 91c3 7c3f 5ef8 b33e a1bf 953e 7461 1e3f
00000020: 2063 623f c1ff 383f 98ba c93e e9ac 713f
00000030: e8da 5c3f 27af 173f f91c 2d3f da24 1a3e
00000040: 8013 a53c 3734 1c3f 1d47 083e d194 563f
00000050: e2de ec3e e8dd e33e 727e 703f 706f 1d3f
00000060: c525 443f

firstGCN.attentionLayer.inAttention.a_alpha f4 [5, 1]
0.022270322 0.61973894 0.43329585 0.35918635 0.60194796
00000000: 4070 b63c 36a7 1e3f f4d8 dd3e 46e7 b73e
00000010: 4319 1a3f

firstGCN.attentionLayer.inAttention.b_alpha f4 [5, 1]
0.8747642 0.74744004 0.92226547 0.018198183 0.39492747
00000000: 8cf0 5f3f 3b58 3f3f 9719 6c3f 5b14 953c
00000010: ef33 ca3e

firstGCN.attentionLayer.outAttention.W_sum f4 [5, 5]
0.104787774 0.391158 0.49331388 0.57723665 0.41487882 0.5184513 1.048509 0.27772805
0.033262644 0.66739833 0.30678788 0.07369498 0.5073062 0.04667018 0.6774453 0.6282575
0.5176375 0.91493255 0.57718813 0.57956654 0.21952768 0.2774537 0.3130227 0.5489158
0.19334528
00000000: f99a d63d dd45 c83e a393 fc3e c8c5 133f
00000010: ff6a d43e 39b9 043f 8b35 863f 5f32 8e3e
00000020: 693e 083d 9eda 2a3f 4d13 9d3e 65ed 963d
00000030: d2de 013f 3b29 3f3d 0e6d 2d3f 7cd5 203f
00000040: e483 043f 0539 6a3f 9ac2 133f 795e 143f
00000050: ddcb 603e 690e 8e3e 8344 a03e bf85 0c3f
00000060: 4efc 453e

firstGCN.attentionLayer.outAttention.W_alpha f4 [5, 5]
0.49881455 0.31158587 0.42695507 0.5672065 0.63960207 0.28068033 0.9398574 0.52172494
0.06936675 0.72024244 0.06576039 0.84685963 0.025920374 0.33001357 0.49870566 0.3582473
0.58309275 0.48194343 0.76633674 0.26983956 0.52371794 0.7743483 0.9833316 0.78602576
0.73850685
00000000: 9f64 ff3e 2f88 9f3e db99 da3e 7234 113f
00000010: f6bc 233f 55b5 8f3e 7f9a 703f c48f 053f
00000020: 2810 8e3d cf61 383f 62ad 863d cbcb 583f
00000030: f756 d43c 8af7 a83e 5956 ff3e 316c b73e
00000040: 9145 153f 4ac1 f63e a52e 443f 6928 8a3e
00000050: 6112 063f b13b 463f 9fbb 7b3f fc38 493f
00000060: c90e 3d3f

firstGCN.attentionLayer.outAttention.a_alpha f4 [5, 1]
0.1878196 0.71288264 0.7727607 0.86709726 0.7523435
00000000: c853 403e 7a7f 363f a5d3 453f 16fa 5d3f
00000010: 9599 403f

firstGCN.attentionLayer.outAttention.b_alpha f4 [5, 1]
0.082177155 0.4685905 0.115198046 0.41099697 0.24717116
00000000: 7f4c a83d 18eb ef3e f4ec eb3d 326e d23e
00000010: 701a 7d3e

firstGCN.linearLayer.weight f4 [5, 10]
0.29603702 0.23692168 0.24914567 -0.18819284 -0.12722461 0.19240619 0.22324502 0.120790474
0.25572312 -0.26623288 -0.31205207 0.15518232 -0.039269112 0.25503308 -0.07070432 0.28774536
0.24717104 -0.1582189 0.098188765 -0.1944385 0.06684332 0.016122676 0.29829103 0.1953101
0.111961395 0.2606376 0.10550698 -0.004319883 -0.16070342 0.27735308 0.11374987 0.12785438
-0.052661415 -0.114393055 -0.03411348 -0.13079862 -0.2205646 0.19823186 -0.14692238 -0.05353716
0.00535064 -0.2926571 0.15102951 -0.032586817 -0.009297772 -0.061411444 0.11039059 -0.24718013
-0.026535459 0.20849963
00000000: 2a92 973e 999b 723e 0b20 7f3e a0b5 40be
00000010: 2b47 02be 2106 453e 589a 643e ff60 f73d
00000020: 24ee 823e ad4f 88be 4ac5 9fbe 1de8 1e3e
00000030: a6d8 20bd b293 823e 6dcd 90bd 5c53 933e
00000040: 681a 7d3e 2304 22be 3117 c93d e31a 47be
00000050: 27e5 883d b413 843c 9ab9 983e 5fff 473e
00000060: 044c e53d 4b72 853e 0b14 d83d ce8d 8dbb
00000070: 708f 24be 3901 8e3e b1f5 e83d 42ec 023e
00000080: 7fb3 57bd e846 eabd 94ba 0bbd 13f0 05be
00000090: b0db 61be 4bfd 4a3e d272 16be c849 5bbd
000000a0: 6c54 af3b 27d7 95be 7ba7 1a3e c179 05bd
000000b0: af55 18bc 918a 7bbd 7614 e23d ca1c 7dbe
000000c0: e460 d9bc ed80 553e

firstGCN.linearLayer.bias f4 [5]
0.26817438 -0.2795425 -0.28514904 0.055211257 0.13069412
00000000: 274e 893e 3220 8fbe 0eff 91be 3325 623d
00000010: aed4 053e

secondGCN.attentionLayer.linear.weight f4 [5, 10]
0.13578111 0.29922736 -0.23460153 -0.0662992 -0.31395796 0.29572162 0.22636339 -0.29005876
-0.0011876908 -0.28806674 -0.25756684 0.08999948 -0.14091374 0.10544923 -0.061726857 -0.26212835
0.26058137 0.27164283 0.108483896 -0.11222852 0.112119645 0.013789404 -0.27300778 -0.09003288
-0.09785503 -0.27405468 -0.19057411 0.20068207 0.2469953 -0.22265258 0.25041237 -0.11541922
0.020040669 0.18476975 -0.28447405 0.20994735 0.028556071 -0.2760786 0.15289013 -0.109928794
0.050102673 -0.29121295 -0.2205421 -0.041537095 -0.14412065 0.14254083 -0.0017783695 -0.046371583
-0.11694829 0.11414278
00000000: 340a 0b3e 5434 993e 623b 70be e0c7 87bd
00000010: 19bf a0be d368 973e cecb 673e 9582 94be
00000020: 4aac 9bba 7c7d 93be cddf 83be a651 b83d
00000030: b14b 10be c4f5 d73d 4dd5 7cbd b035 86be
00000040: ec6a 853e c514 8b3e ce2c de3d 11d8 e5bd
00000050: fc9e e53d f4ec 613c adc7 8bbe 2963 b8bd
00000060: 3868 c8bd e550 8cbe dc25 43be 9a7f 4d3e
00000070: 56ec 7c3e 0aff 63be 0d36 803e e960 ecbd
00000080: 542c a43c 4834 3d3e 95a6 91be 70fc 563e
00000090: 6cee e93c 2d5a 8dbe 3b8f 1c3e 5922 e1bd
000000a0: 7638 4d3d dd19 95be cad5 61be cd22 2abd
000000b0: 5d94 13be 39f6 113e 2e18 e9ba 21f0 3dbd
000000c0: 9682 efbd b1c3 e93d

secondGCN.attentionLayer.linear.bias f4 [5]
0.2145555 -0.0858152 0.054264266 -0.105795965 -0.015832786
00000000: 70b4 5b3e e1bf afbd 3544 5e3d 8eab d8bd
00000010: c2b3 81bc

secondGCN.attentionLayer.inAttention.W_sum f4 [5, 5]
0.46861207 0.63262993 0.28220904 0.5598048 0.8168018 0.08988601 0.9592368 0.4074875
0.5842563 0.20716661 0.86602914 0.40336293 0.89237446 0.7275139 0.47547072 0.06682378
0.13256037 0.35920167 0.24198127 0.69889355 0.95167285 0.892855 0.3159091 0.28142536
0.45068842
00000000: eced ef3e 09f4 213f b47d 903e 5e4f 0f3f
00000010: ec19 513f 2816 b83d 8b90 753f 34a2 d03e
00000020: d291 153f 7c23 543e 16b4 5d3f 9685 ce3e
00000030: a772 643f 5a3e 3a3f e670 f33e e8da 883d
00000040: e8bd 073e 48e9 b73e f0c9 773e b0ea 323f
00000050: d5a0 733f 2592 643f d6be a13e fc16 903e
00000060: a2c0 e63e

secondGCN.attentionLayer.inAttention.W_alpha f4 [5, 5]
0.9635779 0.98733145 0.5864622 0.38189137 0.86848485 0.62023085 0.779798 0.82414687
0.2458399 0.71908945 0.15094954 0.9991086 0.16675895 0.9209956 0.29613417 0.49456787
0.468562 0.3652141 0.73470885 0.6765027 0.011355996 0.28195548 0.13296342 0.41262114
0.31280452
00000000: 0bad 763f c1c1 7c3f 6322 163f 4487 c33e
00000010: 0655 5e3f 73c7 1e3f d7a0 473f 4afb 523f
00000020: 74bd 7b3e 3f16 383f 8492 1a3e 95c5 7f3f
00000030: dcc2 2a3e 5ec6 6b3f e69e 973e 0038 fd3e
00000040: 5ce7 ef3e 58fd ba3e e115 3c3f 482f 2d3f
00000050: 800e 3a3c 785c 903e 9027 083e 1443 d33e
00000060: ea27 a03e

secondGCN.attentionLayer.inAttention.a_alpha f4 [5, 1]
0.6194555 0.6947347 0.61899316 0.42096657 0.79693663
00000000: a394 1e3f 22da 313f 5676 1e3f ee88 d73e
00000010: 0a04 4c3f

secondGCN.attentionLayer.inAttention.b_alpha f4 [5, 1]
0.73565876 0.6766369 0.7643775 0.5922158 0.2893021
00000000: 2254 3c3f 1338 2d3f 3eae 433f 749b 173f
00000010: 681f 943e

secondGCN.attentionLayer.outAttention.W_sum f4 [5, 5]
0.005051434 0.11544448 0.8704355 0.0054474473 0.8471673 0.65947187 0.941289 0.18809283
0.90563536 0.21707743 0.17186886 0.6525734 0.059949696 0.7874108 0.09337598 0.7073051
0.7773356 0.40311497 0.5658041 0.2959332 0.6946626 0.96901906 0.9121689 0.4899069
0.4771961
00000000: 8086 a53b 286e ec3d dcd4 5e3f 8080 b23b
00000010: f5df 583f 26d3 283f 51f8 703f 689b 403e
00000020: b8d7 673f 8c49 5e3e 64fe 2f3e 0d0f 273f
00000030: d08d 753d c193 493f e83b bf3d f211 353f
00000040: 77ff 463f 1665 ce3e 8ad8 103f 8e84 973e
00000050: 68d5 313f a211 783f e783 693f 14d5 fa3e
00000060: 0c53 f43e

secondGCN.attentionLayer.outAttention.W_alpha f4 [5, 5]
0.2690397 0.7162658 0.015072286 0.9562969 0.97209823 0.5318858 0.07675266 0.6023965
0.31605554 0.5046822 0.92558014 0.14978045 0.8615287 0.6226026 0.77664137 0.04882461
0.04210639 0.5905491 0.8966809 0.53710645 0.83271027 0.6824735 0.108857214 0.4160006
0.58718735
00000000: 92bf 893e 325d 373f c0f1 763c e0cf 743f
00000010: 6edb 783f ab29 083f 8030 9d3d a836 1a3f
00000020: 08d2 a13e da32 013f d2f2 6c3f 0c60 193e
00000030: 258d 5c3f e262 1f3f f8d1 463f 50fc 473d
00000040: c077 2c3d 3a2e 173f e18c 653f cf7f 093f
00000050: 802c 553f 95b6 2e3f 88f0 de3d 08fe d43e
00000060: e951 163f

secondGCN.attentionLayer.outAttention.a_alpha f4 [5, 1]
0.6458284 0.5375543 0.92983484 0.8103692 0.7457322
00000000: 0355 253f 299d 093f a809 6e3f 5b74 4f3f
00000010: 4ee8 3e3f

secondGCN.attentionLayer.outAttention.b_alpha f4 [5, 1]
0.9316071 0.895466 0.18441474 0.014695168 0.446795
00000000: ce7d 6e3f 433d 653f 38d7 3c3e 00c4 703c
00000010: 50c2 e43e

secondGCN.linearLayer.weight f4 [5, 10]
-0.081458785 -0.13078803 -0.028604174 -0.25637865 -0.121998675 -0.17379199 0.18306024 0.21708673
0.005147866 0.21202719 -0.1697534 0.28350362 -0.19404434 -0.039347336 0.21316803 -0.013274874
0.10592587 0.19068088 0.030083604 0.30896422 0.06783419 -0.06866629 -0.2697785 0.13412845
-0.12748443 0.2796009 -0.29107165 -0.061724633 0.09295627 -0.05872227 -0.032904983 -0.23960727
-0.024542669 0.06200073 0.1513073 -0.02395444 -0.27136132 -0.03760772 -0.1387814 -0.116807796
0.1787182 -0.17340344 -0.07164641 0.29083276 0.21951051 0.24508084 -0.037428994 0.15085116
-0.02206132 -0.039184824
00000000: ddd3 a6bd 4ced 05be 4d53 eabc 1044 83be
00000010: 71da f9bd 87f6 31be 2574 3b3e fc4b 5e3e
00000020: 6eaf a83b a81d 593e d6d3 2dbe 6327 913e
00000030: 8fb3 46be ac2a 21bd b848 5a3e db7e 59bc
00000040: aaef d83d d941 433e e471 f63c 8f30 9e3e
00000050: a7ec 8a3d e9a0 8cbd 6820 8abe f858 093e
00000060: 478b 02be d927 8f3e 5807 95be f8d2 7cbd
00000070: db5f be3d c386 70bd 60c7 06bd 9c5b 75be
00000080: b50d c9bc 7af4 7d3d 4df0 1a3e 1a3c c4bc
00000090: dfef 8abe 8d0a 1abd b61c 0ebe ed38 efbd
000000a0: e701 373e ac90 31be 5abb 92bd 08e8 943e
000000b0: 5dc7 603e 79f6 7a3e 254f 19bd ba78 1a3e
000000c0: f1b9 b4bc 4480 20bd

secondGCN.linearLayer.bias f4 [5]
0.124787405 0.17404555 -0.029233644 -0.07793145 -0.12079477
00000000: 8a90 ff3d ff38 323e 657b efbc 869a 9fbd
00000010: 4063 f7bd

thirdGCN.attentionLayer.linear.weight f4 [5, 10]
-0.06292627 0.16211016 -0.20209675 0.1750924 0.24174856 -0.21476217 -0.2817966 -0.18017007
-0.2988318 -0.21919374 0.14541562 0.26776138 -0.26188675 -0.05156137 -0.05502688 -0.09787524
0.20237574 -0.2539307 -0.3078653 -0.22581059 -0.10355923 0.1791348 0.26659212 0.18669902
0.055467 0.119149625 -0.15913616 -0.18624175 0.28732264 -0.10861128 0.023215573 -0.2753239
0.21705852 -0.12744005 -0.12992185 -0.2754697 0.22155283 0.30996346 -0.044432547 0.169751
0.16273327 -0.23012264 -0.2516387 0.22871299 -0.011804604 0.2657514 0.13305679 0.12308809
0.27367514 0.04120638
00000000: 7ddf 80bd 3500 263e 73f2 4ebe 6c4b 333e
00000010: ef8c 773e 9dea 5bbe a547 90be 817e 38be
00000020: 7b00 99be 5374 60be d5e7 143e 0518 893e
00000030: 0516 86be 0432 53bd de63 61bd d072 c8bd
00000040: 963b 4f3e 3403 82be 85a0 9dbe e43a 67be
00000050: dd16 d4bd 1d6f 373e c37e 883e 072e 3f3e
00000060: 5d31 633d b804 f43d 97f4 22be 28b6 3ebe
00000070: f41b 933e 976f debd 962e be3c 41f7 8cbe
00000080: 9744 5e3e a57f 02be 3c0a 05be 5d0a 8dbe
00000090: bfde 623e 88b3 9e3e e7fe 35bd 35d3 2d3e
000000a0: 8da3 263e 45a5 6bbe cad6 80be bd33 6a3e
000000b0: 1968 41bc 9110 883e 0a40 083e 9c15 fc3d
000000c0: 261f 8c3e 05c8 283d

thirdGCN.attentionLayer.linear.bias f4 [5]
-0.15043524 0.17350459 -0.16759452 0.07815967 0.11445096
00000000: b20b 1abe 30ab 313e e69d 2bbe 2d12 a03d
00000010: 4465 ea3d

thirdGCN.attentionLayer.inAttention.W_sum f4 [5, 5]
0.47509766 0.92246526 0.008308053 0.79641926 0.45128363 0.1556502 0.6969954 0.8992305
0.1391375 0.27715707 0.48012525 0.48039508 0.2413975 0.6131382 0.238208 0.9409304
0.116583526 0.3409738 0.6707314 0.1605159 0.7928524 0.93218964 0.21048105 0.69319695
0.98156005
00000000: 0040 f33e af26 6c3f 801e 083c 22e2 4b3f
00000010: a60e e73e c462 1f3e 4a6e 323f f833 663f
00000020: 107a 0e3e 88e7 8d3e fad2 f53e 58f6 f53e
00000030: e830 773e a0f6 1c3f ccec 733e d1e0 703f
00000040: 58c3 ee3d 1e94 ae3e 0eb5 2b3f 485e 243e
00000050: 60f8 4a3f fba3 6e3f 5888 573e 5b75 313f
00000060: 8547 7b3f

thirdGCN.attentionLayer.inAttention.W_alpha f4 [5, 5]
0.055041492 0.86165565 0.7246955 0.5802755 0.41721392 0.8376283 0.76972413 0.4759252
0.2562161 0.010289967 0.26300353 0.5059645 0.5895209 0.4748792 0.012258232 0.21985734
0.032451987 0.71028894 0.94525844 0.3758827 0.58762145 0.8781422 0.67145425 0.46709973
0.14809084
00000000: 3073 613d 7795 5c3f a585 393f ef8c 143f
00000010: 109d d53e cf6e 563f a40c 453f 78ac f33e
00000020: c22e 833e 4097 283c 66a8 863e e486 013f
00000030: d7ea 163f 5e23 f33e c0d6 483c 4822 613e
00000040: 60ec 043d 7fd5 353f 75fc 713f b273 c03e
00000050: 5c6e 163f edcd 603f 6de4 2b3f b227 ef3e
00000060: 20a5 173e

thirdGCN.attentionLayer.inAttention.a_alpha f4 [5, 1]
0.3308848 0.5481462 0.37298375 0.0015822649 0.061146915
00000000: bc69 a93e 4f53 0c3f baf7 be3e 0064 cf3a
00000010: 3075 7a3d

thirdGCN.attentionLayer.inAttention.b_alpha f4 [5, 1]
0.58852 0.54378897 0.4651863 0.3285247 0.4017644
00000000: 3fa9 163f c135 0b3f e62c ee3e 6434 a83e
00000010: 10b4 cd3e

thirdGCN.attentionLayer.outAttention.W_sum f4 [5, 5]
0.8772932 0.47914785 0.44109154 0.44492984 0.57316905 0.048924744 0.718953 0.41766042
0.62736905 0.98988324 0.66332847 0.49531066 0.8382263 0.18306851 0.96006954 0.17281377
0.28550714 0.33581126 0.5327333 0.20366901 0.5390893 0.1223495 0.20027173 0.033981025
0.3015175
00000000: 4a96 603f de52 f53e c0d6 e13e d8cd e33e
00000010: 35bb 123f 5065 483d 4e0d 383f 96d7 d53e
00000020: 429b 203f fd68 7d3f e5cf 293f 5c99 fd3e
00000030: 0096 563f 5076 3b3e 1ec7 753f 18f6 303e
00000040: fe2d 923e 74ef ab3e 3661 083f 9c8e 503e
00000050: c201 0a3f 6092 fa3d 0814 4d3e b02f 0b3d
00000060: 8060 9a3e

thirdGCN.attentionLayer.outAttention.W_alpha f4 [5, 5]
0.7485929 0.67340195 0.16368252 0.59739846 0.33392942 0.5155456 0.88241225 0.49330842
0.98871875 0.62373906 0.21104944 0.42527485 0.27042824 0.28051144 0.79606247 0.14706677
0.20813632 0.16816878 0.454122 0.10801816 0.7378382 0.5818602 0.21234596 0.03988552
0.6769424
00000000: c9a3 3f3f 1264 2c3f 649c 273e 1bef 183f
00000010: ccf8 aa3e ccfa 033f c5e5 613f ec92 fc3e
00000020: ac1c 7d3f 5dad 1f3f 581d 583e a0bd d93e
00000030: 9275 8a3e 329f 8f3e c0ca 4b3f ac98 163e
00000040: b021 553e 7034 2c3e ae82 e83e a038 dd3d
00000050: f7e2 3c3f caf4 143f 3871 593e 005f 233d
00000060: 194c 2d3f

thirdGCN.attentionLayer.outAttention.a_alpha f4 [5, 1]
0.89216346 0.23355812 0.45793837 0.06246704 0.6353425
00000000: d364 643f dc29 6f3e e676 ea3e 70dd 7f3d
00000010: cea5 223f

thirdGCN.attentionLayer.outAttention.b_alpha f4 [5, 1]
0.21837705 0.8010228 0.2774374 0.42705703 0.93892854
00000000: 3c9e 5f3e d50f 4d3f 460c 8e3e 38a7 da3e
00000010: 9f5d 703f

thirdGCN.linearLayer.weight f4 [5, 10]
0.2564879 0.18678361 -0.024531886 0.20995885 -0.027491614 0.11917662 -0.19659415 0.04361851
0.2723233 -0.034611687 0.24218822 0.122472 0.275898 -0.30589336 0.27474827 -0.009380706
-0.14993353 0.09260395 0.045611117 0.053195056 0.10076349 0.21748364 0.17081493 0.2793205
-0.17200956 -0.20708941 -0.12622243 0.2357675 -0.18989164 -0.19094321 -0.21564382 0.23860638
0.0613978 -0.01289677 0.17415676 -0.02138209 0.09849434 0.13615793 0.16461278 -0.0178036
-0.01811807 -0.2564471 -0.24679159 0.1618222 -0.30435866 -0.1792972 -0.1289217 0.24582061
0.214049 -0.10068297
00000000: 6252 833e 3444 3f3e 18f7 c8bc 74ff 563e
00000010: 1836 e1bc df12 f43d fa4f 49be 53a9 323d
00000020: f66d 8b3e fcc4 0dbd 3000 783e 9ad2 fa3d
00000030: 8142 8d3e 0e9e 9cbe ceab 8c3e 88b1 19bc
00000040: 2d88 19be 24a7 bd3d b9d2 3a3d 0fe3 593d
00000050: 175d ce3d 08b4 5e3e 1cea 2e3e 1903 8f3e
00000060: 4623 30be 3f0f 54be 7440 01be 096d 713e
00000070: f472 42be 9e86 43be bcd1 5cbe 3b55 743e
00000080: 427c 7b3d f94c 53bc 2656 323e 7e29 afbc
00000090: 67b7 c93d fc6c 0b3e 4190 283e dbd8 91bc
000000a0: 596c 94bc 094d 83be efb6 7cbe b8b4 253e
000000b0: e6d4 9bbe af99 37be 0d04 04be 66b8 7b3e
000000c0: a92f 5b3e df32 cebd

thirdGCN.linearLayer.bias f4 [5]
-0.09091402 -0.1440255 0.2290235 -0.2348469 0.24137188
00000000: 2131 babd 6c7b 13be 2385 6a3e b57b 70be
00000010: 312a 773e

ff4.weight f4 [5, 5]
0.34277073 0.061664946 -0.36574328 0.10204096 0.12640652 0.03821717 0.32374972 0.3564065
0.06274112 0.08386424 -0.45290375 -0.18742912 0.25137505 0.04015534 1.0087428 -0.2242274
0.35639465 -0.09942286 -0.395334 -0.38980982 -0.21065721 -0.095034115 0.48357758 -0.07579385
0.6162121
00000000: a57f af3e 6294 7c3d b442 bbbe dafa d03d
00000010: b670 013e 9b89 1c3d 86c2 a53e ea7a b63e
00000020: 6b7e 803d 04c1 ab3d 00e3 e7be 6bed 3fbe
00000030: 3bb4 803e ed79 243d 7c1e 813f de9b 65be
00000040: 5c79 b63e 369e cbbd 3869 cabe 2795 c7be
00000050: 86b6 57be 3fa1 c2bd 7b97 f73e ce39 9bbd
00000060: 14c0 1d3f

ff4.bias f4 [5]
-0.42181367 -0.4319444 0.35652974 0.42994952 0.04141396
00000000: f6f7 d7be d127 ddbe 118b b63e 5822 dc3e
00000010: afa1 293d

ff5.weight f4 [5, 5]
-0.19257158 -0.21380976 0.0992176 0.09543384 -0.28696668 0.39026046 0.0006490205 -0.10572572
0.4120177 -0.032829378 -0.14504722 -0.15248676 -0.23085259 0.07780334 0.3123414 -0.1860675
-0.14025736 0.24524742 0.3770596 -0.00055791024 -0.4173602 0.13028972 0.1482284 -0.15823443
0.41766232
00000000: 7c31 45be f2f0 5abe 9932 cb3d d172 c33d
00000010: 4ced 92be 38d0 c73e 0723 2a3a ba86 d8bd
00000020: fcf3 d23e 1978 06bd 4287 14be 7d25 1cbe
00000030: 9f64 6cbe 5c57 9f3d 36eb 9f3e 7b88 3ebe
00000040: a09f 0fbe 2422 7b3e f50d c13e b940 12ba
00000050: 3cb0 d5be ab6a 053e 30c9 173e 3508 22be
00000060: d6d7 d53e

ff5.bias f4 [5]
0.3608121 -0.28398368 0.1058976 0.42856053 -0.12201963
00000000: 5dbc b83e 4f66 91be d7e0 d83d 496c db3e
00000010: 6ee5 f9bd

ff6.weight f4 [30, 5]
0.291344 0.3897624 -0.39557442 0.22880109 0.08255242 0.13764946 0.42735347 -0.17258829
0.19759049 -0.37319225 -0.33210576 -0.15069218 -0.14245966 -0.28086042 -0.4293172 0.29679182
-0.3746744 -0.5463984 -0.12244863 0.13632432 0.22833827 0.40476593 -0.50529057 0.19101717
0.009191662 0.32083252 0.22565879 -0.46742448 -0.399875 -0.13496056 0.39788917 -0.22780055
-0.32026568 -0.014349195 0.03366621 0.031185912 0.03160212 -0.2277079 -0.3560916 -0.104031906
-0.3288686 -0.047007386 -0.21483962 0.43817294 -0.18201733 0.24722658 0.29516894 -0.084661394
-0.4428026 -0.43847218 -0.04105585 0.3339537 -0.2748263 0.23575073 -0.16835111 0.32733667
0.08600913 -0.041729994 -0.37979707 -0.41245046 -0.2501824 -0.009981751 -0.23239519 -0.38681087
-0.31686896 0.10858174 -0.47445482 -0.017956784 -0.0012152473 -0.061034594 -0.1829285 -0.3173827
-0.45385453 0.41099715 -0.21745308 0.19317025 0.355862 -0.19190854 0.32732922 -0.20727009
0.31003943 0.07376767 -0.4655492 -0.15243867 -0.41493654 0.3319305 0.23128656 -0.19780236
0.005247768 -0.16715625 -0.064615056 -0.3164064 -0.42432994 0.1678596 0.1699419 -0.100894116
-0.08605266 -0.0743001 0.28401902 -0.4757073 -0.1425105 0.027597386 -0.5140533 0.41114557
0.15632075 0.054433674 -0.09749641 0.06620823 0.29690793 -0.5606857 -0.26857558 -0.15603715
-0.18566261 0.43519062 -0.2854762 -0.30536485 0.054624416 -0.4811716 0.051841296 0.23807356
-0.24112383 -0.024386901 -0.029202979 0.30410117 -0.52712905 0.14296056 0.1683928 -0.39122197
-0.36547208 -0.28765965 0.041907873 -0.31869602 -0.36336792 0.12502052 0.049730837 0.2929286
0.40672636 -0.1382139 -0.3833684 -0.44137388 0.20927246 -0.44340304 0.050288618 -0.17848676
-0.44970328 0.3334242 0.062430266 -0.45945555 0.022910625 0.20540763
00000000: 0a2b 953e f08e c73e bb88 cabe d54a 6a3e
00000010: 3e11 a93d fbf3 0c3e 13ce da3e fcba 30be
00000020: 2955 4a3e 0e13 bfbe c409 aabe 0d4f 1abe
00000030: f2e0 11be f0cc 8fbe 77cf dbbe 19f5 973e
00000040: 53d5 bfbe c4e0 0bbf 59c6 fabd 9a98 0b3e
00000050: 82d1 693e 7b3d cf3e b95a 01bf 019a 433e
00000060: a098 163c 2944 a43e 1913 673e 4352 efbe
00000070: 6abc ccbe 1a33 0abe 21b8 cb3e 8c44 69be
00000080: ddf9 a3be e318 6bbc 94e5 093d 9979 ff3c
00000090: 3971 013d 422c 69be a351 b6be ae0e d5bd
000000a0: 7761 a8be d18a 40bd ebfe 5bbe 3458 e03e
000000b0: c062 3abe f728 7d3e 6220 973e f462 adbd
000000c0: 06b7 e2be 6d7f e0be 2e2a 28bd fbfb aa3e
000000d0: 08b6 8cbe a468 713e 3c64 2cbe ac98 a73e
000000e0: 8e25 b03d 12ed 2abd c374 c2be b52c d3be
000000f0: e817 80be 808a 23bc 01f9 6dbe 130c c6be
00000100: a63c a2be 1a60 de3d beeb f2be 1b1a 93bc
00000110: ef48 9fba 69ff 79bd 9c51 3bbe fc7f a2be
00000120: 9f5f e8be 386e d23e 05ac 5ebe 6cce 453e
00000130: 8b33 b63e ac83 44be b297 a73e 9c3e 54be
00000140: 7dbd 9e3e 8113 973d 775c eebe e218 1cbe
00000150: 9072 d4be cbf2 a93e 62d6 6c3e b48c 4abe
00000160: 78f5 ab3b 022b 2bbe e654 84bd 0500 a2be
00000170: c641 d9be 63e3 2b3e 4005 2e3e 93a1 cebd
00000180: 613c b0bd a72a 98bd f16a 913e e88f f3be
00000190: 46ee 11be ea13 e23c ff98 03bf ac81 d23e
000001a0: 8c12 203e d8f5 5e3d 33ac c7bd 2e98 873d
000001b0: 5104 983e 1989 0fbf bd82 89be 34c8 1fbe
000001c0: 571e 3ebe 4ed1 de3e f029 92be c858 9cbe
000001d0: dabd 5f3d 205c f6be 8a57 543d 8ec9 733e
000001e0: 2ae9 76be 0ac7 c7bc 163b efbc 26b3 9b3e
000001f0: eef1 06bf 4164 123e 2a6f 2c3e 3f4e c8be
00000200: 281f bbbe 2048 93be 97a7 2b3d 202c a3be
00000210: 5c0b babe 6105 003e 90b2 4b3d bdfa 953e
00000220: 703e d03e f287 0dbe dd48 c4be c2fb e1be
00000230: 854b 563e b905 e3be 70fb 4d3d 3cc5 36be
00000240: 823f e6be 94b6 aa3e e1b6 7f3d c23d ebbe
00000250: 10af bb3c 6156 523e

ff6.bias f4 [30]
-0.3944463 0.21723622 0.0073628942 0.2560052 0.093973406 -0.050684072 -0.21404412 -0.47349235
0.0012291948 -0.32923055 -0.23219371 -0.4570049 -0.2576418 0.5454792 -0.06791698 -0.4351553
0.2047209 -0.5406195 0.13510899 -0.23083527 0.0685868 -0.2829026 -0.19696353 -0.35348257
0.13246068 0.3207287 -0.099209614 0.21368292 -0.4619658 -0.31090516
00000000: def4 c9be 2c73 5e3e 6f44 f13b 1d13 833e
00000010: 2175 c03d 1a9a 4fbd 622e 5bbe 976d f2be
00000020: ef1c a13a e890 a8be 30c4 6dbe 8cfc e9be
00000030: a0e9 83be 86a4 0b3f 0f18 8bbd adcc debe
00000040: 5ba2 513e 0a66 0abf 035a 0a3e 1560 6cbe
00000050: 3c77 8c3d 9cd8 90be cfb0 49be abfb b4be
00000060: c6a3 073e 8d36 a43e 692e cbbd b2cf 5a3e
00000070: c886 ecbe f62e 9fbe
