code/ml_model/useless_models/model_weights_m6p8n30_lr0.100000_bs30_epochs10.pth (torch, 22322 bytes, 48 tensors)

ff1.weight f4 [5, 5]
000000 57 d8 3f 3e a5 c6 e3 be ce c7 81 3e 4f 6a a0 3d
       0.18734871 -0.4448749 0.2534775 0.07832777
000010 f6 bd 94 3e db cf 11 be 4b a8 20 be 45 d4 e4 be
       0.2905118 -0.14239447 -0.15689199 -0.446932
000020 40 3c c3 3e 3b 08 b0 3d b6 e0 b7 3e b0 fb 2a 3e
       0.38131905 0.0859532 0.35913628 0.16697574
000030 e0 7a e7 bd c7 70 b2 be 1c f5 f9 bb 0b 05 36 3e
       -0.113027334 -0.34851667 -0.0076280963 0.17775361
000040 41 a9 81 3e be c8 a0 3e 13 ce 77 3e 42 15 c0 3c
       0.25324443 0.31403154 0.24199705 0.023447637
000050 5a 17 5c 3e a6 0a 98 3d 36 32 df be 7a 05 c6 3e
       0.21493283 0.07423906 -0.43592995 0.38676053
000060 de 58 8b 3e
       0.27216238

ff1.bias f4 [5]
000000 88 81 c0 be b9 0a a9 be 31 b8 f2 bd 6e 45 4e be
       -0.37598825 -0.33015993 -0.11851538 -0.20143673
000010 7f ce 0e 3e
       0.1394596

ff2.weight f4 [5, 5]
000000 61 13 3d be 83 54 92 3d a0 30 df 3d af 83 3b 3d
       -0.18464424 0.071450256 0.10897946 0.04577988
000010 ed e0 bd 3e 68 b9 cb 3e 55 e4 ac 3e 93 02 c5 3e
       0.37085667 0.3978989 0.33767954 0.38478526
000020 cd 6c 83 bd d7 01 df be a2 63 87 3e 13 8d 1d be
       -0.064172365 -0.4355609 0.264432 -0.15385847
000030 eb 09 08 bd f0 23 4b be 09 62 b3 3e 0c ec 75 3c
       -0.033212584 -0.19837928 0.35035732 0.015009891
000040 3e d9 9e 3c 29 24 e0 3e 6a b0 ee 3d 14 4e 10 bc
       0.019390699 0.43777588 0.11654742 -0.008807678
000050 57 f8 a7 bd a3 d7 e4 3e 9f ed fa bd 47 95 c7 3e
       -0.08201664 0.44695768 -0.12252354 0.38981077
000060 1d f5 d4 3e
       0.41593257

ff2.bias f4 [5]
000000 0e a2 f2 bd 2a 5f d4 be 10 11 e0 3e 82 2a cb 3e
       -0.11847316 -0.41478854 0.43763018 0.39680868
000010 e2 29 ce 3e
       0.4026633

ff3.weight f4 [5, 5]
000000 a5 99 da 3e b6 dd e7 bd 27 90 f9 bd c9 8e 94 be
       0.42695346 -0.11321585 -0.12185698 -0.29015186
000010 56 43 5e 3e 68 bd be be 5a 58 46 bd f0 7f b3 be
       0.21705374 -0.3725388 -0.048424102 -0.35058546
000020 f5 b3 5a be c3 74 b5 be e7 82 cb 3d 05 8d 4a be
       -0.2135771 -0.35440645 0.09937077 -0.19780357
000030 6c 60 8c be d0 19 fd 3d ed 88 e2 bd 25 9e d6 be
       -0.27417314 0.12358439 -0.11061273 -0.4191753
000040 d8 a3 25 3e 20 3f 6b bd c2 8e 9c be 17 a4 7e 3e
       0.16175783 -0.057433248 -0.30577666 0.24867283
000050 c4 dc 17 3e 04 f1 84 be 6e 5f d6 3e b9 7d 91 be
       0.14830309 -0.2596513 0.41869682 -0.2841623
000060 ae 6f 50 be
       -0.20355102

ff3.bias f4 [5]
000000 b9 e2 a8 3e 3b 9f c4 3e 97 fc a7 3d b1 9d 95 3e
       0.32985476 0.38402733 0.082024746 0.29221871
000010 12 47 60 b8
       -5.347195e-05

firstGCN.attentionLayer.linear.weight f4 [5, 10]
000000 ac 20 bb 3d c5 64 28 3e a7 ac fb 3e 97 20 fd 3e
       0.09137091 0.1644469 0.4915516 0.49438927
000010 e2 1f 7d 3e 11 38 89 3c 29 59 6d 3e 51 cb 04 be
       0.24719194 0.016750367 0.23178543 -0.12968184
000020 58 35 19 be 5c 2c 23 be f3 e1 a5 bd cd 89 9f 3d
       -0.14961755 -0.1593489 -0.08099737 0.07789955
000030 88 c6 b3 3d 6f f6 8c 3e 39 09 33 3e d6 92 95 bd
       0.08778101 0.27531764 0.17483987 -0.07303397
000040 d1 8b b8 3d 19 5f 06 be e2 8b 91 be 68 04 42 3d
       0.09011043 -0.13122214 -0.28427035 0.047367483
000050 51 77 24 3e b7 1c 78 3c 8a 3a e6 3e 73 07 8d 3e
       0.1606114 0.015143565 0.44966537 0.27544746
000060 72 99 8a 3d 1e f7 85 3d 9d e6 fb 3e 7a 7b 95 3e
       0.067675486 0.065412745 0.4919938 0.29195768
000070 48 ab ed 3d 3b 5c 95 bd df be 9a 3d 49 3e d8 bd
       0.11604935 -0.07292982 0.07555937 -0.10558755
000080 23 59 84 be 01 47 ac 3d 2b 83 4d bd 2f 1f a8 be
       -0.25849256 0.084119804 -0.05017392 -0.3283629
000090 34 3e 50 3e 7f 29 9c 3d 87 51 b0 3d 94 fd e3 bd
       0.20336229 0.07625102 0.086093 -0.111323506
0000a0 61 93 8f 3e 60 66 55 be 07 1a 37 be 18 0e 8f 3e
       0.2804213 -0.20839834 -0.17881022 0.2794044
0000b0 f2 da dd 3d 58 38 f0 3c 66 30 b0 3e 94 c2 f0 3d
       0.10832776 0.029323742 0.34411925 0.11755863
0000c0 c9 a7 b8 3e f1 17 c2 3c
       0.3606551 0.023693057

firstGCN.attentionLayer.linear.bias f4 [5]
000000 04 11 ae 3e 11 ef cb bc 59 40 25 be ce 15 01 3e
       0.33997357 -0.02489427 -0.16137828 0.12605974
000010 50 2f 51 bd
       -0.05107051

firstGCN.attentionLayer.inAttention.W_sum f4 [5, 5]
000000 ab ae 0d 3d 6f dc 64 3f 8d 5c df 3c 81 dc 36 3f
       0.034590404 0.89398855 0.027265811 0.7143021
000010 57 20 79 3f 81 80 60 3f 09 ac bc 3e 48 0f 47 3f
       0.9731497 0.8769608 0.36850002 0.7775769
000020 45 28 30 3f fe 2f 5e 3f aa b2 24 3e f6 75 1f 3f
       0.68811446 0.8679198 0.1608378 0.6228937
000030 9f a5 75 3f a9 8e 81 3f 82 60 6e 3f 10 82 65 3f
       0.9595584 1.0121661 0.9311601 0.89651585
000040 6c 97 bd 3e 72 d9 4c 3e 4f 6a 3d 3f 3f 69 07 3e
       0.37029588 0.20004824 0.7399034 0.13223742
000050 42 b3 0d 3f 13 f6 4d 3f 4b 1d 71 3f 2a cd 4a 3e
       0.5535165 0.80453604 0.9418532 0.19804826
000060 bf 7d 53 3f
       0.8261375

firstGCN.attentionLayer.inAttention.W_alpha f4 [5, 5]
000000 d6 91 1b 3f 0f 47 c3 3d 8e 96 19 3f ac e6 cb 3d
       0.60769403 0.09535038 0.59995353 0.099561065
000010 15 f7 8c 3e e2 10 72 3f 19 c6 f7 3e b6 31 04 3f
       0.2753226 0.9455701 0.48393324 0.5163835
000020 80 d4 37 3f 74 c4 49 3e c1 6d 72 3f f8 ac 15 3f
       0.71808624 0.19703847 0.9469872 0.58467054
000030 e7 dc 4b 3f bd 1d 2e 3f 0e 2d 59 3f 53 ee 7c 3f
       0.79633945 0.68014127 0.84834373 0.98801154
000040 9f 90 09 3f 4d 91 8c 3e 5c 01 78 3d 0c 79 60 3f
       0.537363 0.27454606 0.06054817 0.876847
000050 5c f4 52 3f 5a 7c 24 3f 84 56 a1 3e 3e d8 d3 3e
       0.8240411 0.64252245 0.3151132 0.41375917
000060 6c 53 33 3f
       0.70049167

firstGCN.attentionLayer.inAttention.a_alpha f4 [5, 1]
000000 08 c1 83 3d 79 ca 33 3f 40 65 5f 3c 08 07 03 3f
       0.06433302 0.70230824 0.01363498 0.51182604
000010 bc a7 5a 3e
       0.21353048

firstGCN.attentionLayer.inAttention.b_alpha f4 [5, 1]
000000 34 63 aa 3e b8 e6 6c 3e aa 32 4f 3f e7 b9 11 3f
       0.3327881 0.23134887 0.8093668 0.5692429
000010 a0 ba 16 3f
       0.5887852

firstGCN.attentionLayer.outAttention.W_sum f4 [5, 5]
000000 ab 54 43 3f 95 3d 76 3f 48 b2 08 3f 15 8c 7d 3f
       0.7630107 0.96187717 0.53397036 0.99041873
000010 32 a6 54 3f e1 bb bd 3e b6 f9 72 3f 6d 2c c3 3e
       0.83066094 0.37057403 0.9491228 0.38119832
000020 e9 07 1c 3f 6f 9e 2d 3f f2 3f 13 3f 93 c4 43 3f
       0.6094957 0.67819875 0.5751945 0.76471823
000030 55 3b 14 3f d7 45 d9 3e 90 7b ba bc 8d be 54 3f
       0.57903033 0.42436096 -0.022763997 0.8310326
000040 df 50 62 3f 6c b0 5f 3f 72 4f 7a 3d 26 63 30 3f
       0.8840465 0.87378573 0.06111092 0.6890129
000050 a5 92 2b 3e 16 88 1e 3e 29 68 1d 3f 79 0d 19 3e
       0.16755159 0.154816 0.6148706 0.14946546
000060 8d 81 f9 3e
       0.48731652

firstGCN.attentionLayer.outAttention.W_alpha f4 [5, 5]
000000 08 36 b4 3e 9f cb 87 3d 2a ad 1a 3e c2 10 e1 3e
       0.35197473 0.066306345 0.1510512 0.43958098
000010 2c 7b 99 3e c5 1a e1 3e e4 00 59 3f bd 97 f0 3e
       0.29976785 0.43965736 0.84766984 0.46990767
000020 62 55 c9 3e 5a d7 17 3f 23 0a 99 3e 8a d2 56 3f
       0.39322954 0.59312975 0.29890546 0.8391501
000030 d0 b7 49 3f b4 a9 d0 3c 11 ef 45 3f c1 c6 07 3f
       0.787961 0.025471546 0.7731791 0.5303765
000040 ee 5c 10 3f aa 48 00 3d 8b c3 72 3f e1 ab 88 3d
       0.563918 0.031319298 0.94829625 0.06673408
000050 90 4e 9c 3e b4 a5 05 3f 08 78 1d 3f f2 5d ec 3e
       0.30528688 0.5220597 0.6151128 0.46165425
000060 06 6f 83 3e
       0.25670642

firstGCN.attentionLayer.outAttention.a_alpha f4 [5, 1]
000000 58 f3 af 3e da ff bf 3e 26 6d 38 3f c0 b0 ac 3d
       0.34365344 0.37499887 0.7204155 0.0843215
000010 3a 41 01 3f
       0.5049015

firstGCN.attentionLayer.outAttention.b_alpha f4 [5, 1]
000000 dc 69 1f 3f fd 53 0d 3f e8 0c 6d 3f 14 59 85 3e
       0.62270904 0.5520628 0.9259782 0.26044524
000010 10 1d f9 3e
       0.48654985

firstGCN.linearLayer.weight f4 [5, 10]
000000 8e 3c d1 bc 1f 84 85 be 7d 7f 4e 3e 73 fb 82 bd
       -0.02554157 -0.26077363 0.2016582 -0.063956164
000010 a1 73 8f bd fa ca 31 bc e9 0a fb bd 3d 25 91 bc
       -0.07004476 -0.010851616 -0.1225794 -0.017717952
000020 99 78 0d 3e 60 8c 1c bd b9 5b 2a bd c8 68 60 3e
       0.13815536 -0.03821981 -0.04159138 0.21914971
000030 03 d8 2c bc d2 ad a3 bd c6 fc 69 bd 2b 82 4e 3c
       -0.010549548 -0.07992138 -0.05712583 0.012604277
000040 a9 56 4d be 6d bf 27 3e b7 d8 a0 be 88 f5 56 be
       -0.2005259 0.16381617 -0.3141534 -0.209921
000050 52 ff 5f bc ec d5 82 3e e1 4b 35 bd f5 42 82 be
       -0.013671713 0.25553834 -0.044261817 -0.2544171
000060 cf be 64 be d0 65 c9 bd 35 6d c3 bd 2b c4 85 be
       -0.22338413 -0.09833872 -0.09542314 -0.26126227
000070 89 95 4e be b7 69 a7 3b ea 65 99 3d 30 c3 80 bd
       -0.2017423 0.0051090377 0.07490142 -0.06287229
000080 29 c2 77 3d 7e 6f 92 3e ed a6 d4 3b 14 a3 35 bc
       0.0604879 0.28600687 0.0064896257 -0.011086244
000090 19 ce 32 be c2 f6 86 3e 1d 9e d1 bd c6 6b 94 3d
       -0.17461433 0.26360136 -0.10235236 0.07247119
0000a0 85 15 77 be 70 47 61 3e 06 ec 97 be 5b e8 0d be
       -0.24129303 0.21999907 -0.2967226 -0.13858168
0000b0 a4 0a 39 3e 86 02 2b be c8 8d 3d 3e 43 da 77 3e
       0.18070465 -0.16700181 0.18511117 0.24204354
0000c0 a5 b9 71 be 42 0c a8 3d
       -0.23605974 0.08205463

firstGCN.linearLayer.bias f4 [5]
000000 fe 9e 9c bd da 11 c5 3d 61 49 4d 3e dd 47 6d be
       -0.07647513 0.096225455 0.20047523 -0.23171945
000010 d3 9e 4e 3e
       0.20177774

secondGCN.attentionLayer.linear.weight f4 [5, 10]
000000 54 36 67 3d a6 35 39 3e b9 e4 75 3e 7a 92 35 3c
       0.056448296 0.18086872 0.24013032 0.011082286
000010 b1 fa 46 3e 5a b1 e9 bd bc 2a 1b be b1 e3 1c bd
       0.19431569 -0.1141078 -0.1515302 -0.03830308
000020 14 b0 61 3c 69 6d 3d bd f8 3e 9d 3e 3c b7 9e bc
       0.01377489 -0.04624692 0.30712104 -0.019374482
000030 ab cf 84 be e8 ef dc bd 86 92 3e be 2c ab 84 3e
       -0.25939688 -0.10787946 -0.18610582 0.25911844
000040 49 10 46 be 5c aa e0 bd ed 84 8c be de 55 a9 bd
       -0.1934215 -0.109699935 -0.27445164 -0.08268331
000050 21 34 01 3e f4 9a 9e 3e 11 de 4a 3e b1 48 b1 bb
       0.12617542 0.30977595 0.19811274 -0.005410277
000060 5a 33 25 3e 40 b9 7d be 90 6a 6a 3e 74 a4 7a 3e
       0.1613287 -0.24777699 0.22892213 0.24476796
000070 b5 92 c1 3d 4b a8 a1 be d7 37 9f be 49 69 58 3e
       0.0945181 -0.3157371 -0.3109729 0.21133913
000080 23 bc bb 3d 92 43 1d be 7e 0c 14 bd ae 43 97 3e
       0.091667436 -0.15357807 -0.036144726 0.29543823
000090 c8 c5 8e 3e 60 db 68 be 4e 38 67 3d 7b 9b b0 bc
       0.2788527 -0.22739935 0.05645018 -0.021558514
0000a0 d6 93 b4 bc dd ba 99 3b dc b4 aa bc 6e ab 08 be
       -0.02204315 0.0046914653 -0.020838194 -0.13346645
0000b0 f5 7e 43 3d 1a 9d 69 3e 62 75 33 be 16 e7 93 3e
       0.047728498 0.22813836 -0.17525247 0.28887242
0000c0 de 22 4d 3e 2a 69 0a 3e
       0.20032832 0.1351668

secondGCN.attentionLayer.linear.bias f4 [5]
000000 2b b9 64 be 58 db 1e 3e a3 5f 7e 3d d7 44 82 3e
       -0.22336261 0.1551336 0.062102925 0.25443146
000010 32 b1 c9 bd
       -0.098482504

secondGCN.attentionLayer.inAttention.W_sum f4 [5, 5]
000000 a8 29 f4 3e c8 26 4f 3e c8 1c 43 3e b0 0d 96 3e
       0.4768803 0.20229638 0.19053948 0.29307318
000010 62 82 9b 3e 50 f7 a0 3e 1b 55 7c 3f b8 99 0e 3f
       0.30372912 0.31438684 0.9856736 0.55703306
000020 78 b7 f7 3e 89 7f 5b 3f 3a d5 54 3f 91 5d 73 3f
       0.48382163 0.8574148 0.8313786 0.95064646
000030 69 8f 68 3f eb 1e 1d 3f 50 3c 36 3f d1 0a 71 3f
       0.90843827 0.613753 0.7118578 0.9415713
000040 b6 8c d9 3e 54 a6 21 3e 20 7f 38 3e 70 97 8d 3e
       0.42490166 0.15786105 0.18017244 0.276546
000050 a2 54 b7 3e 53 6e 62 3f 0d 0b 18 3f d9 61 56 3f
       0.35806757 0.8844959 0.5939186 0.83743054
000060 fa f2 0c 3f
       0.5505825

secondGCN.attentionLayer.inAttention.W_alpha f4 [5, 5]
000000 c4 a4 69 3f 40 45 6b 3e c8 ac 0d 3e 10 e7 ab 3e
       0.9126704 0.22975636 0.13835442 0.33574724
000010 d7 f0 23 3f 9e 69 6a 3f 79 54 42 3f 6e cf 9a 3e
       0.6403937 0.9156741 0.75910145 0.3023638
000020 9c 68 45 3f 0e 52 03 3f 92 10 b8 3e 7d 7d 32 3f
       0.77112746 0.5129708 0.35950142 0.6972273
000030 58 9d 48 3f ec 6b 15 3e b0 a7 68 3f b1 de 3c 3f
       0.7836509 0.1459195 0.9088087 0.737773
000040 c7 76 02 3f f9 d9 66 3f a4 d2 ed 3e b4 87 51 3f
       0.5096249 0.9017635 0.4644977 0.8184769
000050 32 39 d3 3e 0e 0b da 3e 28 39 a9 3d 56 e2 b3 3e
       0.41254574 0.4258656 0.08262855 0.35133618
000060 26 cf 51 3f
       0.8195671

secondGCN.attentionLayer.inAttention.a_alpha f4 [5, 1]
000000 3b 78 7d 3f f2 4f 1c 3f c0 90 46 3c 00 6a 56 3e
       0.9901158 0.61059487 0.012119472 0.20938873
000010 61 94 01 3f
       0.50617033

secondGCN.attentionLayer.inAttention.b_alpha f4 [5, 1]
000000 54 86 18 3f 9e c4 51 3f 48 15 8a 3e 12 26 c5 3e
       0.5957997 0.8194064 0.2696936 0.38505608
000010 06 f1 65 3f
       0.898209

secondGCN.attentionLayer.outAttention.W_sum f4 [5, 5]
000000 08 b3 5d 3e 74 15 71 3f ba 69 b0 3e a0 65 ee 3c
       0.21650326 0.9417336 0.34455663 0.029101193
000010 f0 c1 dd 3e 62 43 0b 3f 3a 0e c8 3e a4 40 63 3f
       0.43312025 0.54399693 0.39073354 0.8877051
000020 28 9e c3 3e 8a d2 cf 3e 76 0e d0 3e 49 01 18 3f
       0.382066 0.40590316 0.40636033 0.5937696
000030 c0 1f 9b 3d fe a3 ec 3e 72 d2 ce 3e ca 83 c7 3e
       0.07574415 0.46218866 0.40394932 0.38967735
000040 75 29 33 3f 40 c0 06 3f 0a 04 dc 3e 84 51 43 3e
       0.69985133 0.526371 0.42971832 0.19074064
000050 68 9a 5b 3f b8 6d 89 3e 41 a7 00 3f 00 41 12 3b
       0.8578248 0.2684152 0.5025521 0.0022316575
000060 ea c7 e3 3e
       0.4448846

secondGCN.attentionLayer.outAttention.W_alpha f4 [5, 5]
000000 0a 53 74 3f d0 3d 5e 3d 68 e8 99 3d e4 37 a9 3e
       0.9543921 0.054258168 0.07515031 0.33050454
000010 70 8b 0a 3e 00 8d 3f 3b cd 1d 05 3f b8 89 c0 3d
       0.13529754 0.002922833 0.519986 0.09401268
000020 96 3b 88 3e 88 fd 09 3f 70 9a 0a 3d c8 95 52 3f
       0.2660796 0.53902483 0.03383869 0.822598
000030 92 db 4c 3f e0 ff dc 3d d0 8f 7f 3d 61 2d 4c 3f
       0.8002254 0.10790992 0.06239301 0.7975674
000040 f0 61 21 3e d8 a4 c2 3e c0 e6 4f 3e b2 d1 20 3f
       0.15760016 0.3801639 0.20302868 0.6281997
000050 27 70 75 3f 91 b9 25 3f 60 e2 49 3f 0a 1b 6d 3f
       0.95874256 0.64736277 0.78861046 0.92619383
000060 bc de 4c 3f
       0.80027366

secondGCN.attentionLayer.outAttention.a_alpha f4 [5, 1]
000000 3c 9b d9 3e 45 b1 26 3f b8 71 d2 3e e8 f1 bc 3d
       0.42501247 0.6511424 0.41102386 0.092258275
000010 04 74 fb 3e
       0.4911195

secondGCN.attentionLayer.outAttention.b_alpha f4 [5, 1]
000000 2e 2f d8 3e c4 3f f9 3e ec 8b 47 3f cd c2 21 3f
       0.42223495 0.48681462 0.7794788 0.6318787
000010 f1 3e 76 3f
       0.9618979

secondGCN.linearLayer.weight f4 [5, 10]
000000 9e 3a 74 be 1a 90 16 3e 11 55 6d 3e 08 f9 85 3e
       -0.23850486 0.14703408 0.23176982 0.26166558
000010 65 56 92 3d 95 49 97 be d3 98 5e 3e 3d 94 25 3e
       0.07145385 -0.29548326 0.21737985 0.1616983
000020 8a cd c0 3c 47 1f 26 3e 8b 58 8c be ae d0 5e be
       0.023535509 0.16222869 -0.27411303 -0.21759292
000030 f0 00 5c be db 62 dd 3d a4 58 a7 bb 02 63 2c 3c
       -0.21484733 0.10809871 -0.0051070023 0.010521652
000040 a4 14 5c 3d d2 42 47 bd d1 02 8c be e4 09 dc bd
       0.053730622 -0.04864771 -0.273459 -0.10744074
000050 a6 ce 62 3e ad f0 80 be c7 d7 09 be a2 8f 97 be
       0.22149143 -0.2518362 -0.13461219 -0.2960177
000060 a8 88 27 be ff 0e 79 be 87 33 91 3d 7e 85 62 3d
       -0.16360724 -0.24322127 0.07089906 0.05530309
000070 69 cc 17 be 10 83 10 3e aa 60 82 3e fb 3c 0d be
       -0.1482407 0.14112496 0.25464374 -0.13792793
000080 b6 da 43 3e c7 50 84 3d 22 21 f3 bd b9 d7 0d 3d
       0.191264 0.064607196 -0.11871554 0.034629557
000090 2b 78 91 3c f0 1a 7b bd ae f5 01 3e 3e 62 13 bc
       0.017757496 -0.061304986 0.12691376 -0.008995591
0000a0 5e 4d 07 3e ab d4 ff 3d b1 a2 89 be f7 54 d4 3d
       0.13213107 0.12491735 -0.26881936 0.10367768
0000b0 15 b2 25 3d 39 44 2a 3e 14 0b 99 3e a4 e4 73 bd
       0.040453035 0.16627587 0.29891264 -0.05954422
0000c0 62 7f 11 be 39 4f 1f bd
       -0.14208749 -0.038893912

secondGCN.linearLayer.bias f4 [5]
000000 99 8b 70 be 58 46 3b 3d c5 15 83 3e 7f a7 9b 3e
       -0.23490752 0.045721382 0.25602546 0.30401227
000010 9c 60 9e bd
       -0.077332705

thirdGCN.attentionLayer.linear.weight f4 [5, 10]
000000 92 23 ba 3c 94 61 26 be 05 98 72 be 76 b4 9a 3e
       0.02272204 -0.1624816 -0.23690803 0.30215806
000010 b0 11 21 bd 2d ef 44 3e ef 6f af 3c a5 6b 71 3e
       -0.03932351 0.19231863 0.021415679 0.2357622
000020 77 9b b1 bc 51 b5 eb bc 33 5c 7e bc a2 94 74 be
       -0.021680577 -0.028772982 -0.015524912 -0.23884824
000030 6f 63 21 bd 11 65 95 be cf 20 14 be 51 18 5c bd
       -0.039401468 -0.2917867 -0.1446564 -0.053734127
000040 3d 48 78 3e 67 ca ba bd 56 80 4a 3e c0 a9 bd 3d
       0.24246307 -0.091206364 0.19775519 0.09260893
000050 af d3 bc bc da b1 6f 3e 16 bd 1e bd b8 26 a0 3e
       -0.023050157 0.23407689 -0.038754545 0.3127954
000060 92 3b 33 3e 6a fc 99 be 33 be 64 3e 05 23 59 3e
       0.17503193 -0.3007539 0.2233818 0.21204765
000070 92 21 b9 bd b6 70 3d be 67 cf 3a be d6 cf 54 be
       -0.09039606 -0.18500027 -0.1824318 -0.20782408
000080 df b4 82 bd d1 70 96 3e d2 0b 13 be 2f 7c 28 3e
       -0.06382155 0.29382947 -0.14359978 0.16453622
000090 83 21 8a 3e c9 6f 1f be 8d a2 9c bd 65 7d 3b be
       0.26978692 -0.15569986 -0.076481916 -0.18309553
0000a0 f1 ad 8a bd e3 58 b2 bc 6e 34 10 3d 5d be d7 bd
       -0.06771458 -0.0217709 0.03520625 -0.10534356
0000b0 ce b8 44 3e 0d 8d 10 be 02 72 39 bb c1 06 30 3e
       0.19211122 -0.14116307 -0.0028296714 0.17190076
0000c0 8d 75 dd bd 44 90 4c 3e
       -0.10813437 0.19976908

thirdGCN.attentionLayer.linear.bias f4 [5]
000000 b2 b6 5f be 9f 19 4f be 13 f9 87 be 53 48 0d be
       -0.21847036 -0.20224617 -0.26557216 -0.13797121
000010 d5 89 17 3d
       0.03699668

thirdGCN.attentionLayer.inAttention.W_sum f4 [5, 5]
000000 3a dd b5 3e 54 d6 c5 3e 54 61 3a 3f 1b 5a 40 3f
       0.35520345 0.38640082 0.7280476 0.7513749
000010 1b 25 6b 3f 53 9d 2e 3f a0 0d 58 3e 50 3a 9f 3d
       0.91853493 0.6820881 0.21098948 0.07774794
000020 e0 2b 5c 3e f8 39 75 3e 40 e9 60 3e 45 3f 7b 3f
       0.21501112 0.23947895 0.21963978 0.98143417
000030 d2 be 3b 3f 22 ac ba 3e c0 32 1b 3d 88 5f 37 3f
       0.73338044 0.36459452 0.037890196 0.71630144
000040 65 82 6b 3f 06 43 07 3f 90 0a 32 3f 40 6c 97 3d
       0.9199584 0.52836645 0.6954737 0.07393694
000050 ba a5 40 3f 56 7d 8e 3e d6 b0 96 3e 44 88 2a 3e
       0.7525288 0.2783 0.2943179 0.16653544
000060 40 78 af 3e
       0.3427143

thirdGCN.attentionLayer.inAttention.W_alpha f4 [5, 5]
000000 1c b4 3e 3e 66 27 b4 3e 90 e8 0c 3d 74 04 b2 3e
       0.18623394 0.3518631 0.034401476 0.34769022
000010 78 98 0f 3e 99 d5 5b 3f b8 27 cf 3d 7b 2e 25 3f
       0.14023006 0.858728 0.101149976 0.6452405
000020 32 97 a9 3e 98 e8 99 3e a6 05 a0 3e b6 d8 a0 3e
       0.33123165 0.30060267 0.3125431 0.31415337
000030 20 45 0a 3f 11 6d 44 3f 89 91 7c 3f 58 43 56 3f
       0.54011726 0.7672892 0.9865957 0.8369651
000040 16 7a a7 3e 36 09 f8 3e 49 cb 6b 3f 8e b8 9c 3e
       0.32710332 0.48444527 0.92107064 0.30609554
000050 70 ae 10 3d aa b1 1f 3f 2f ad 2c 3f 04 02 dc 3e
       0.035322607 0.6238047 0.6745176 0.42970288
000060 de 15 e2 3e
       0.44157308

thirdGCN.attentionLayer.inAttention.a_alpha f4 [5, 1]
000000 ec 45 64 3f 50 2c 29 3e 0b 5f 5b 3f a1 86 38 3f
       0.8916919 0.1652081 0.856919 0.7208043
000010 68 32 bb 3e
       0.36561894

thirdGCN.attentionLayer.inAttention.b_alpha f4 [5, 1]
000000 3c 67 74 3f f3 1d 78 3f 57 b8 7d 3f 40 54 52 3c
       0.95470023 0.969207 0.99109405 0.01283747
000010 79 ce 42 3f
       0.760963

thirdGCN.attentionLayer.outAttention.W_sum f4 [5, 5]
000000 58 31 a8 3e 04 1f d3 3e e3 2c 19 3f 99 a8 0a 3f
       0.32850146 0.412346 0.59834117 0.5416351
000010 a8 a8 38 3e e8 6d ca 3e 3a ba c6 3e 67 c8 68 3f
       0.18033087 0.39536977 0.38813955 0.9093079
000020 70 87 89 3e ef 9e 33 3f 38 0c 4e 3e b1 1d 11 3f
       0.26861143 0.7016439 0.20121849 0.5668593
000030 9c 8f df 3e 48 b2 80 3e b9 71 4d 3f e7 e4 06 3f
       0.43664253 0.25136018 0.8025165 0.5269303
000040 b8 12 a9 3d 40 43 7b 3d 58 dc 44 3e 2d 23 1a 3f
       0.082555234 0.06134343 0.1922468 0.60209924
000050 ee 59 98 3e d8 ab b5 3d f5 f5 41 3f b8 45 cf 3d
       0.2975611 0.08870667 0.75765926 0.1012072
000060 d0 c9 ce 3d
       0.100970864

thirdGCN.attentionLayer.outAttention.W_alpha f4 [5, 5]
000000 b2 ce 52 3f 41 89 3c 3f a4 01 07 3e 5c 8d eb 3e
       0.8234664 0.7364693 0.1318422 0.46006286
000010 6a 3d 23 3f 20 9a 25 3e aa 2e 3f 3f 18 5c 98 3e
       0.63765585 0.16172075 0.7468058 0.29757762
000020 30 ef 44 3e 33 b3 66 3f 4e 93 a0 3e 50 92 2f 3e
       0.19231868 0.90117186 0.31362385 0.17145658
000030 80 4d 1e 3d 06 5e c5 3e 70 54 fc 3d 76 c4 a1 3e
       0.03864813 0.38548297 0.12320793 0.315952
000040 b3 4e 10 3f 46 2e 7f 3f 06 b9 71 3f b5 f3 4e 3f
       0.56370085 0.9967998 0.9442295 0.8084062
000050 70 17 93 3e 33 4d 03 3f a0 c0 6f 3d 15 52 3d 3f
       0.2872882 0.5128967 0.05853331 0.7395337
000060 08 24 12 3f
       0.5708623

thirdGCN.attentionLayer.outAttention.a_alpha f4 [5, 1]
000000 60 95 78 3f 16 a5 bd 3e 70 3f 25 3f 3c 8f ae 3e
       0.9710293 0.37040013 0.6454992 0.34093654
000010 fc 2b 0d 3f
       0.5514524

thirdGCN.attentionLayer.outAttention.b_alpha f4 [5, 1]
000000 f3 c0 77 3f b5 a2 5f 3f 6d 00 29 3f 05 4e 05 3f
       0.9677879 0.87357646 0.66016275 0.52072173
000010 da 48 ea 3e
       0.45758706

thirdGCN.linearLayer.weight f4 [5, 10]
000000 7d a1 a0 3e 66 c8 e3 bb f1 ff 8d bd d5 40 8b 3e
       0.31373206 -0.0069513796 -0.069335826 0.271979
000010 f3 62 61 be aa 37 56 bd 87 be ae 3d c6 80 43 bd
       -0.22010402 -0.05229918 0.08532434 -0.04773023
000020 b8 d8 b8 3d 95 f5 95 be b2 7b 95 3e c9 c7 90 be
       0.09025711 -0.29288927 0.29195935 -0.28277424
000030 cf 36 a0 be a1 b2 4e 3d cf 6c cf bc 9d dc 8f 3e
       -0.31291816 0.050463323 -0.025320439 0.28098002
000040 30 ff 46 be af 38 94 3e 62 7a 94 3e 30 ec 62 3d
       -0.19433284 0.28949496 0.2899962 0.055401027
000050 9a f1 6f 3e ec 85 8d be 70 5d 75 3e 47 36 64 be
       0.23432007 -0.27641237 0.23961425 -0.2228633
000060 71 78 eb bc 9e 5c 01 3e 3f 0d 03 be ab aa 5d 3e
       -0.028743954 0.12632987 -0.12798022 0.21647136
000070 cd 1b 93 3c 67 11 8c 3d ce 6a 04 be fc e9 28 3e
       0.017957592 0.06839257 -0.12931368 0.16495508
000080 cd e4 51 3e 04 67 9c 3e f3 d8 1c 3e aa 93 7f be
       0.20497437 0.30547345 0.15317135 -0.24958673
000090 fd 77 07 3e e4 48 8f be c0 81 79 3e 42 75 2d 3d
       0.13229366 -0.279853 0.24365902 0.042348154
0000a0 9b 0c 96 be 5f 4b 96 be 61 d3 99 be d1 35 6b be
       -0.29306492 -0.2935438 -0.30044082 -0.22969748
0000b0 5c 7c 33 3e 62 e5 17 be d9 3c 0e 3e d7 47 9b be
       0.17527908 -0.14833596 0.13890399 -0.30328247
0000c0 29 3a b0 bd 94 df c5 3d
       -0.08604843 0.09661785

thirdGCN.linearLayer.bias f4 [5]
000000 ee d5 6b 3e 3b 73 13 3e a1 8d 1f 3e ee b7 e5 bc
       0.23030826 0.14399426 0.15581371 -0.028041806
000010 67 b4 67 be
       -0.22627412

ff4.weight f4 [5, 5]
000000 89 8e 77 3e 13 70 df bd 1f 18 c8 be 6c 11 2d 3d
       0.24175467 -0.10910048 -0.39080903 0.042252943
000010 d0 0d 4b 3c 97 9b 6b be 4b 86 c3 3e 2f a0 a4 bc
       0.01239343 -0.23008572 0.38188395 -0.020095913
000020 3e 4a d4 3d b7 e7 4b be f2 48 30 3f 85 91 ea 3d
       0.10365723 -0.19912611 0.68861306 0.11453537
000030 2b 34 27 3f 95 4e b3 bd b0 1f 8f 3e 70 59 79 be
       0.65313977 -0.08755223 0.27953863 -0.24350524
000040 e7 5f 67 be f3 f5 db be 55 f8 22 bc 5d 87 72 3e
       -0.22595178 -0.42961082 -0.009946902 0.2368445
000050 66 11 83 bc f8 c1 05 bd 88 ea 4c 3e 0f 66 c5 3d
       -0.015999507 -0.032655686 0.20011342 0.09638607
000060 18 93 a5 be
       -0.32338786

ff4.bias f4 [5]
000000 7f 5d ce 3e 9b ab 07 3e 86 34 82 be 94 9b c8 be
       0.40305707 0.13249056 -0.25430697 -0.39181197
000010 7e 2f 5f be
       -0.2179546

ff5.weight f4 [5, 5]
000000 ee a2 84 be c1 54 5a 3c 3c ab 83 3e 89 fa d5 be
       -0.25905555 0.013325871 0.2571658 -0.41792706
000010 60 e1 6a be c6 5d 88 3e 00 37 ab be b2 42 d8 3d
       -0.22937536 0.26634043 -0.334404 0.10559596
000020 2a 55 a4 3e 3c 1f 86 3e 34 25 4f be 27 bf 00 3e
       0.32096225 0.26195705 -0.20229036 0.12572919
000030 b8 f5 e7 3d 9e 2d 12 be be 3f 74 be d2 c5 bf be
       0.11326164 -0.14275214 -0.2385244 -0.37455612
000040 ea ce 61 3e e2 35 07 be e5 7d 8c 3e e1 6b c7 3e
       0.22051588 -0.13204148 0.274398 0.38949493
000050 b6 04 22 3e 9d d2 14 be 65 00 4f 3e 3b 89 94 3d
       0.1582211 -0.14533468 0.20214994 0.07252737
000060 14 bb 9a bd
       -0.075552136

ff5.bias f4 [5]
000000 ed 52 36 be 6a 90 dc 3e 92 fa 84 bd cb 63 5a be
       -0.17805071 0.4307893 -0.06493105 -0.2132713
000010 82 a0 55 3e
       0.2086201

ff6.weight f4 [30, 5]
000000 3c c1 89 be 0f e8 60 3e e8 71 83 be 88 2f 75 be
       -0.2690524 0.21963523 -0.2567284 -0.23943913
000010 71 48 1b bd b6 8f 9d 3e cc 04 21 3d 3d 59 de be
       -0.037910882 0.30773705 0.039311215 -0.43427458
000020 05 90 92 bd cf 59 f5 bc 63 8e db bd 87 c5 a0 3e
       -0.07156376 -0.02995005 -0.107205175 0.314007
000030 32 67 dc be 79 35 48 be 87 b9 5a be 5f e7 6f be
       -0.43047482 -0.19551648 -0.21359836 -0.23428105
000040 62 20 aa be 1f 4a 9e be 51 a2 cd be 0f f2 a3 3e
       -0.3322783 -0.30915925 -0.401629 0.32020614
000050 a4 63 b1 3e f9 71 62 be b0 b5 01 be 9f 53 1c 3e
       0.34646332 -0.2211379 -0.12666965 0.15266274
000060 1b 3b 73 3e f2 76 99 3d 48 db b7 be e0 1e 3f be
       0.23753016 0.0749339 -0.35909486 -0.18664122
000070 53 8b d7 be 83 92 a5 3d 0f 31 dd be 16 cc a4 3e
       -0.42098483 0.080845855 -0.4320149 0.32186955
000080 1d aa b9 be 6b 4e fd 3c 4f ba 98 be 9d fb a7 be
       -0.362626 0.030921182 -0.29829642 -0.32809153
000090 6b f2 38 3e df ee 7f be a6 fe 47 3e ba 55 dd 3e
       0.18061225 -0.24993466 0.19530734 0.43229467
0000a0 b6 4b 5a 3d 16 e3 0f be 9f 01 65 be 99 94 db bd
       0.05329486 -0.1405147 -0.223639 -0.10721702
0000b0 74 73 b6 3e d8 51 00 3e 42 95 98 3e 54 12 a4 be
       0.3563496 0.12531221 0.29801375 -0.32045233
0000c0 dc 30 a5 3e db a9 bf be 0b e0 6c 3e 89 ac 67 bd
       0.3226384 -0.37434277 0.2313234 -0.056561027
0000d0 1a 25 3e be 22 8f 44 be b9 9e 33 3d 99 93 9e 3b
       -0.1856884 -0.19195226 0.04385254 0.0048393724
0000e0 78 d1 b4 be 4e f6 a1 be f5 7c 49 3e 7c b7 16 bd
       -0.35316062 -0.31633228 0.19676574 -0.036796078
0000f0 e7 6e cc 3e 67 d1 a4 3e 0e 03 87 be 4e 48 93 be
       0.39928362 0.3219101 -0.26369518 -0.28766102
000100 8d dc d6 be f8 e2 9e 3d a9 27 ac 3d 62 a1 60 be
       -0.41965142 0.077581346 0.08406002 -0.21936563
000110 eb 80 db bd 3c 05 8c 3e 34 7b 88 be 77 55 d4 be
       -0.107179485 0.27347744 -0.26656497 -0.41471455
000120 5f 1b 44 be e2 08 d2 be 39 10 e0 3d 50 85 23 3d
       -0.19151066 -0.41022402 0.10940594 0.03992206
000130 8e 95 d1 3e 69 5a 41 be a2 9b 8b bd c6 1e e2 be
       0.40934414 -0.18882145 -0.06816794 -0.44164103
000140 2a e3 12 bd ec 35 93 be 7f 74 67 be f1 60 ad 3c
       -0.03586117 -0.28752077 -0.22603033 0.02116439
000150 1e e0 4b be 0d cb 71 3e 9a ba b9 3e de a3 da be
       -0.19909713 0.23612614 0.36275178 -0.42703146
000160 d6 4a dd be 5f b9 b2 3e a5 33 99 3e 86 80 73 be
       -0.43221158 0.34907052 0.29922214 -0.23779497
000170 c7 b2 96 be 45 55 3b be 11 e8 c6 3e 3f be 40 be
       -0.2943327 -0.18294246 0.38848928 -0.18822573
000180 60 dd 54 3e d4 23 cc be 36 eb 84 be c6 50 d6 3d
       0.20787573 -0.39871085 -0.25960702 0.10464625
000190 87 4f 50 be f1 c2 ae 3d 9d 3f bb be ba b8 89 3e
       -0.20342837 0.08533276 -0.3657197 0.26898748
0001a0 4a b5 c4 be a0 58 a3 3e 7e 2d 48 bc 5c 0b 62 be
       -0.38419563 0.31903553 -0.012217877 -0.22074646
0001b0 82 da 5e 3e be b5 3f be 69 47 44 be 5c 84 6a be
       0.21763042 -0.18721673 -0.19167866 -0.22902054
0001c0 be cc 96 be 9a 77 d5 bd 98 58 68 3e 52 ea ba be
       -0.2945308 -0.10423203 0.22690046 -0.36506897
0001d0 44 23 73 3e 57 8c d3 be 78 fc 29 be 27 90 bb 3b
       0.23743922 -0.41318008 -0.16600215 0.0057239714
0001e0 34 6e be bd 6b 22 27 3e 8c 6d 41 be c8 4e 82 bd
       -0.09298363 0.16321723 -0.18889445 -0.063626826
0001f0 44 bf ad be 8a e0 6d 3d 0c 93 84 3d a0 0f 89 be
       -0.33934987 0.058075465 0.064733595 -0.26769733
000200 1b 6a 87 3e 43 58 79 3d 2c 3e a2 3e d0 b6 c2 3e
       0.2644814 0.06087519 0.31688058 0.380301
000210 1a cc 48 be 1d 0e f4 3d e0 28 9d 3d b1 b2 93 3e
       -0.19609109 0.119167544 0.07673812 0.28847268
000220 06 80 5c 3e b9 07 c8 be 2d d9 c9 3e 4b 9a f6 3d
       0.21533212 -0.39068392 0.39423504 0.12041148
000230 2c 75 da be 6d fb 86 3e 20 cf b2 be 32 4e 8b be
       -0.4266752 0.26363698 -0.3492365 -0.27208096
000240 12 d0 d3 3e 12 3a 60 3e 2f 34 91 3e f5 b1 2d be
       0.41369683 0.21897152 0.28360125 -0.16962416
000250 7f e3 b1 3e c7 c7 56 3e
       0.34743878 0.20974647

ff6.bias f4 [30]
000000 a7 d7 3b be cc 53 14 3e a8 23 84 3e d8 ba bd 3d
       -0.18343984 0.14485091 0.25808454 0.09264153
000010 0a fd 2b be 90 5d 61 be e8 bf 4a be 94 5d c2 be
       -0.16795745 -0.22008348 -0.19799769 -0.3796202
000020 5c df 75 be 24 ef a8 3e 84 50 be be 0b d3 3c be
       -0.24010986 0.3299495 -0.37170804 -0.18439882
000030 08 dc fe 3d 5a 3c d3 bc 56 6a 6b be 0e cf 9a be
       0.124443114 -0.025785614 -0.22989783 -0.30236095
000040 c2 f4 49 3e b3 e1 86 3e ac b5 49 3e 69 da 58 be
       0.19722274 0.2634407 0.19698209 -0.21177067
000050 b3 37 fa 3c 59 dc 48 be 14 9f 77 3c af c1 d8 be
       0.030544138 -0.19615306 0.015113611 -0.4233527
000060 5c 50 80 3c b5 4f 88 3e 25 a8 97 3d e3 48 32 bd
       0.015663318 0.26623312 0.07405118 -0.04352654
000070 59 4e 77 3d a7 6e 06 bf
       0.060377453 -0.5251259
