code/ml_model/useless_models/model_weights_m8p8n10_lr0.100000_bs20_epochs10.pth (torch, 21874 bytes, 48 tensors)

ff1.weight f4 [5, 5]
00000000: a8ab cc3d b7d7 943e 0298 afbd 0f90 5e3e
00000010: d716 b93d 5d7b 2abe bb60 623e 0098 9abd
00000020: f489 93be 2b05 463d f197 f43d ab80 45be
00000030: fe0d 313c a1fb 8e3e 2d35 553e 5d2f b0be
00000040: 52ea 9dbc 0a2a e2be a25f 56be ea47 90be
00000050: 2485 ba3e 8287 40be 1014 adbe 14c8 493c
00000060: 3540 9abd
0.09993678 0.29070827 -0.08573915 0.21734641 0.090375595 -0.16648622 0.22107212 -0.07548523
-0.28816187 0.048344772 0.11943043 -0.19287364 0.010806559 0.27926353 0.20821066 -0.34411135
-0.019276772 -0.44172698 -0.20934919 -0.28179866 0.36429703 -0.18801692 -0.3380437 0.012315769
-0.07531778

ff1.bias f4 [5]
00000000: 8f2d 843e a907 113e 85b3 ef3d 005b bebe
00000010: 2c17 47be
0.25816008 0.14163078 0.117041625 -0.37178802 -0.19442433

ff2.weight f4 [5, 5]
00000000: 1916 8f3e b7d4 ad3e a4df 1cbe 7dab 0e3d
00000010: a988 1d3d 0478 d2be 960e e23d 2a49 7dbe
00000020: 5f34 1cbe 8da0 473e 4281 823e 3054 b83d
00000030: 7128 27be 8202 da3e 137e 83be b71f ef3c
00000040: 5705 d73d 64ba 5d3e 0bfd 7f3e 6a25 5ebd
00000050: 57b3 43be addc d03e 1279 debe a984 ca3d
00000060: 6f9d 2f3d
0.27946547 0.3395135 -0.15319687 0.034831513 0.038460407 -0.4110719 0.11037938 -0.24734941
-0.15254353 0.19494839 0.2548924 0.090004325 -0.16324021 0.42580038 -0.25682124 0.029189928
0.10499065 0.21653134 0.24998872 -0.0542349 -0.19111381 0.40793362 -0.43451744 0.09888584
0.04287475

ff2.bias f4 [5]
00000000: a5ce dfbe e7aa fa3d 7a6c d63d e419 d6be
00000010: 8437 983e
-0.43712345 0.12239628 0.10469909 -0.41816628 0.29729855

ff3.weight f4 [5, 5]
00000000: 57a8 d13e dff7 a1be 0bb6 01be a0ff 923d
00000010: e42e 9abe 54c6 9ebe 63d9 463e af19 173e
00000020: bc02 86be e6d7 713e 5d2c 61be 2af4 b0bd
00000030: 8b59 21be 5c04 d63e 7eab c6be d107 483e
00000040: dc10 4abe 7da3 503e fea7 a93e 3b0f c53e
00000050: 6777 d83e b1cb ddbe bc34 ef3c f766 1d3e
00000060: 1b97 aebe
0.40948746 -0.31634423 -0.126671 0.07177663 -0.301139 -0.31010687 0.19418864 0.14755891
-0.2617396 0.23617515 -0.2198958 -0.086403206 -0.15756814 0.418002 -0.38802713 0.19534232
-0.19732994 0.20374866 0.3313598 0.38488182 0.42278597 -0.43319467 0.02919995 0.15371309
-0.3409966

ff3.bias f4 [5]
00000000: 29ec cdbe ea0f 5bbd 2618 dabe 0e2b dbbe
00000010: 847a 8e3e
-0.40219238 -0.053481974 -0.4259655 -0.42806286 0.27827847

firstGCN.attentionLayer.linear.weight f4 [5, 10]
00000000: ddd5 193e 32c7 c23e e88e 8b3e 766b 853e
00000010: 0d2f 863e 586e 14be 21f6 1b3f 0683 1e3e
00000020: 91cb 293e 96ee 4dbe 5edf 1f3d 5744 b53e
00000030: e53d 38be e7f1 943e aaa6 243c 60df b03e
00000040: b533 023e 85d8 4d3e 75b3 ac3e a002 1dbe
00000050: e6e0 8dbc c3c5 d63e a7be aa3e ae05 0abb
00000060: 3430 583d 80f6 fb3c e7c8 263e 0aa3 cd3c
00000070: 8e82 6d3d 00ee 473e c396 373e 56cd 9abe
00000080: df3a c5bd df3a ac3d 3ec3 2a3e e89b 09bd
00000090: 3382 5b3e ddad b43d 086f 7c3c d643 063e
000000a0: 9167 103e 6d97 b93e c30d fd3b 7910 1b3e
000000b0: 0b2c a53e d1b1 1dbe efdc c4be af98 3abe
000000c0: 888f 843e fb8f 5dbd
0.15022989 0.380426 0.27257466 0.2605855 0.26207772 -0.14495218 0.6092244 0.15479669
0.1658156 -0.20110545 0.03903138 0.35403702 -0.17992361 0.29090807 0.010049501 0.34545422
0.12715037 0.20102127 0.33730665 -0.15333033 -0.017319154 0.41947755 0.3334858 -0.0021060514
0.052780345 0.030757189 0.16287576 0.025102157 0.057985835 0.19524384 0.17928605 -0.30234784
-0.096303694 0.08409666 0.16676041 -0.03359595 0.21436386 0.08822224 0.015407331 0.13111815
0.14102007 0.3624834 0.007722588 0.15143003 0.32260165 -0.15399863 -0.3844981 -0.18222307
0.25890756 -0.05409239

firstGCN.attentionLayer.linear.bias f4 [5]
00000000: 733d 15bd f139 61be ec31 11bd e4b4 503e
00000010: cb91 f1bd
-0.036435556 -0.21994759 -0.035448 0.20381504 -0.11795386

firstGCN.attentionLayer.inAttention.W_sum f4 [5, 5]
00000000: 2289 7e3f ff05 233f dbbf c03d d440 283f
00000010: c2ef 9e3e 3358 ed3e 23db 373f f77a 9c3e
00000020: 0c43 363f ecdb 3a3e 13c6 903e fa72 243f
00000030: 8ea7 303e 70a1 713f b7d4 823f abb8 d93e
00000040: 8167 7d3f abbf 3c3f 3a6b 5f3f b33c 283f
00000050: 26e2 323e cd7a 503f 525d 1b3f d5be 203f
00000060: 5fdc 923e
0.99428 0.63681024 0.094115935 0.6572392 0.31042296 0.46356353 0.7181875 0.30562565
0.71196055 0.18247956 0.2827612 0.6423794 0.17251417 0.9438696 1.0221165 0.42523703
0.9898606 0.7372996 0.8727299 0.6571762 0.17469081 0.8143738 0.6068927 0.62791187
0.28683755

firstGCN.attentionLayer.inAttention.W_alpha f4 [5, 5]
00000000: c8e7 6c3f 3412 3e3f cf86 5a3f 22bd 023f
00000010: 4d4c d43e 06ce 8a3d d360 473d 5908 753f
00000020: 2dc4 1a3f 18d0 473d 2c52 4d3f 177c a23e
00000030: 7509 cd3e c135 6c3f 6235 0c3d 3538 523c
00000040: cb5b 203f 75a7 593f 3c55 333f 8727 b13e
00000050: 243b 533f d465 9a3e 0c11 ed3d b876 8d3e
00000060: 6a4a 3e3f
0.9254117 0.74246526 0.8536195 0.51069844 0.41464463 0.06777577 0.048676323 0.9571586
0.6045559 0.048782438 0.8020351 0.31735298 0.40046278 0.9226952 0.034230597 0.012830784
0.62640065 0.85021144 0.7005193 0.3460047 0.82512116 0.30155814 0.11575517 0.27629638
0.74332297

firstGCN.attentionLayer.inAttention.a_alpha f4 [5, 1]
00000000: 3c85 603e b08d 1e3e d8b9 103e 5c75 e83e
00000010: 247f 403e
0.21925825 0.15483737 0.14133394 0.45402038 0.187985

firstGCN.attentionLayer.inAttention.b_alpha f4 [5, 1]
00000000: 13dc 953d ab77 b43d 183d 933e 3865 5c3f
00000010: a1b4 0d3f
0.073173665 0.08811887 0.28757548 0.8609195 0.5535374

firstGCN.attentionLayer.outAttention.W_sum f4 [5, 5]
00000000: 8f4c d73e bec3 503d cfdd 153e 0138 543f
00000010: a0a5 993e 50a0 323f ad62 883f ab4a 0c3f
00000020: fa54 9c3e 768b 953d 8032 583f 61c9 a3bd
00000030: 6a80 323e 6d36 933e b72a 4c3f f50b 373f
00000040: 57e0 7a3f 8365 0c3e 5506 053f 42ff 543f
00000050: c686 0e3f 00f4 633f 2cbe 893e a490 ac3e
00000060: da2b 5e3f
0.42050597 0.050967924 0.14635395 0.82897955 0.30009174 0.6977587 1.0655113 0.54801434
0.30533582 0.07301991 0.84452057 -0.07997394 0.17431799 0.2875246 0.7975268 0.7150262
0.97998565 0.13710599 0.51962787 0.8320199 0.556744 0.8904419 0.26902902 0.33704102
0.8678566

firstGCN.attentionLayer.outAttention.W_alpha f4 [5, 5]
00000000: 47c1 d43e b405 923e 416c 643e 7e6b 483f
00000010: 3ad1 893e ee4d 0f3f ae09 163e 95e1 ea3e
00000020: 1ba3 0b3f b950 633f 4b41 563f 4903 613f
00000030: 1dc3 873e f756 f03e 530d e23e ebce 983e
00000040: 1037 3f3f 5c7f 023e 8ee9 4e3f 839d 403f
00000050: 875d 4a3f c40d 3a3f 978c 8f3e a7ec 613f
00000060: 51bc f03e
0.4155371 0.28519976 0.2230692 0.7828902 0.2691744 0.55978286 0.1465213 0.4587523
0.54545754 0.8879505 0.8369338 0.8789564 0.26516047 0.4694135 0.4415079 0.29845366
0.74693394 0.12743896 0.80825126 0.75240344 0.7904896 0.72677255 0.2803695 0.8825173
0.47018674

firstGCN.attentionLayer.outAttention.a_alpha f4 [5, 1]
00000000: 588c fb3e e8e6 0a3e 3a8c 773f 18fc 033f
00000010: e708 4d3f
0.4913051 0.13564646 0.96698344 0.5155654 0.8009171

firstGCN.attentionLayer.outAttention.b_alpha f4 [5, 1]
00000000: 49ae 8b3d 106a 3f3f c507 6a3f 88c7 e23c
00000010: bf95 7e3f
0.06820352 0.74771214 0.91418105 0.027683035 0.99447244

firstGCN.linearLayer.weight f4 [5, 10]
00000000: c5ea 01be 079f 85be c6ee d53c 0fcd 083e
00000010: da1d 3c3c 110d 13be af2e 833e cefa 023e
00000020: eebf b13d 0eae e3bd 2014 8b3e e675 0bbe
00000030: 1cb3 77be ef25 b53c 4062 7abe 5e69 153d
00000040: 63c2 8abe 51d1 3d3e 6221 5bbe 2739 86bc
00000050: 6182 8abe 817f 87be cc87 343e f917 873d
00000060: a01f e23d 16a3 80be c73d 2a3e c040 e83c
00000070: 8938 3c3e 5686 883e 40e7 903e aefb 2bbd
00000080: 0753 7b3d 0e28 953e a6ad 6b3e bc7a eebd
00000090: b44f 48be 94d7 8c3d 8bcf a13e 5e37 2c3d
000000a0: b1b6 a1be 6c97 413e 836b 4dbe 350d a8bc
000000b0: 0568 073e 8ed8 4ebe f267 72be f5de 933e
000000c0: 234d 80be dd9c 473d
-0.12687214 -0.2609789 0.026114833 0.13359474 0.011481727 -0.14360453 0.25621554 0.12790987
0.08679186 -0.11117183 0.27163792 -0.13619193 -0.24189419 0.022112815 -0.24451542 0.03647744
-0.2710143 0.18536879 -0.21399453 -0.016384674 -0.27052596 -0.26464465 0.17629927 0.06596369
0.11041188 -0.25124425 0.16625129 0.028351188 0.18380941 0.2666499 0.2830143 -0.041988067
0.061358478 0.29132122 0.2301546 -0.116445035 -0.19561654 0.06877056 0.31603655 0.04204499
-0.31584695 0.18905419 -0.20060544 -0.02051411 0.13223274 -0.20199797 -0.23672464 0.2888104
-0.2505885 0.04873358

firstGCN.linearLayer.bias f4 [5]
00000000: 291b 153e c1bd 94be fd42 1cbe 357d 0c3e
00000010: f402 b9bd
0.14561142 -0.2905102 -0.15259929 0.13719638 -0.090337664

secondGCN.attentionLayer.linear.weight f4 [5, 10]
00000000: 329d 8dbe 60ba 373e a7af 2fbe 25d9 843e
00000010: fd81 8b3e 8c42 2ebe 14cb 843e 05a7 463e
00000020: 340c 39be 5920 33bd 6401 7cbe 020f 513e
00000030: 619b 9e3e 19ef 953e b9d1 32be 2ca3 31be
00000040: 6d2f ddbd c821 08be c2b1 69be 78ad 1cbe
00000050: 9f92 1ebe 6cee 5f3e 8b28 2fbe 17a2 98be
00000060: dfb4 ac3d df0b 50bd d34d 9e3e 22ae 96be
00000070: 3f1b a6bd ed5c f7bd 8110 ab3d f706 a03e
00000080: 782f 903d c84c 1abe bfaa 523c 7ebc 653e
00000090: 3363 ff3d de79 96be 86ec 9dbe 39b9 c3bd
000000a0: fafb d53c 4eb4 4fbe 898b 11bc 84d4 a6bd
000000b0: 3eb6 d43d 23dd 983e 1073 3a3d cdb4 5ebe
000000c0: f399 3f3e 8122 853e
-0.27658993 0.1794219 -0.1715685 0.25946918 0.2724761 -0.17017573 0.25936186 0.1939965
-0.18071061 -0.04373202 -0.24609905 0.20415881 0.3097792 0.2928398 -0.17462815 -0.17347401
-0.108000614 -0.13294137 -0.22821715 -0.15300548 -0.15485619 0.21868294 -0.1710531 -0.29811165
0.08432936 -0.05079257 0.3091875 -0.29429728 -0.081106655 -0.12078271 0.08352757 0.31255314
0.07040304 -0.15068352 0.012858092 0.22435185 0.124700926 -0.29389852 -0.30844516 -0.09556813
0.026121128 -0.20283625 -0.008883365 -0.08146003 0.103863224 0.29856214 0.04551989 -0.21748658
0.1871107 0.26002887

secondGCN.attentionLayer.linear.bias f4 [5]
00000000: 1a4c 34be 551d 28bb 514b 93be 02f2 973e
00000010: 0370 e93c
-0.17607155 -0.002565225 -0.287684 0.29676825 0.028495794

secondGCN.attentionLayer.inAttention.W_sum f4 [5, 5]
00000000: 40a2 7a3f b0b2 1c3d bac4 4b3f a4ea 043f
00000010: e00d 363d 2bc1 113f 0e41 483f a89a 003f
00000020: 8a21 423f 733c 103f 3368 763f eb5e 723f
00000030: 4e04 8d3e 856e 293f c0a6 8b3d cd41 273f
00000040: 3eee 5d3f df1d 6f3f 5d1b 223f ce49 ea3e
00000050: da49 153f 102e ab3e f925 7d3f 92c6 5d3f
00000060: b8e0 c13d
0.97903824 0.038256347 0.79597056 0.51920533 0.044446826 0.56935376 0.78224266 0.50235987
0.75832427 0.5634224 0.96252745 0.94676083 0.27542347 0.66184264 0.068189144 0.6533478
0.86691654 0.93404955 0.63323003 0.45759434 0.58315814 0.3343358 0.98886067 0.8663112
0.0946669

secondGCN.attentionLayer.inAttention.W_alpha f4 [5, 5]
00000000: 2fe5 0f3f 3043 843e 064a 3d3f 4226 663f
00000010: ba79 0a3f d0b5 fa3e 7011 cf3d 1460 4a3e
00000020: 989a 753f 6e9f 983e 325e 6f3f a889 fc3e
00000030: 5130 233f 8080 143e 0435 713e aa15 243f
00000040: 60fc d83e 1142 683f 8ec2 533f a48a 033f
00000050: 2851 cc3e 44c3 2c3e 95c0 653f e2df 843e
00000060: b6be c13e
0.5620908 0.2583251 0.73941076 0.89902127 0.5409199 0.48966837 0.10110748 0.19763213
0.95939016 0.29809135 0.93503106 0.49323773 0.637456 0.14502144 0.2355538 0.64095557
0.42380047 0.9072581 0.8271874 0.51383424 0.39905667 0.16871363 0.8974698 0.2595206
0.37840813

secondGCN.attentionLayer.inAttention.a_alpha f4 [5, 1]
00000000: ad7e 673f 0d06 3c3f c21f cd3e e804 763f
00000010: 8c60 a63e
0.90427667 0.7344673 0.40063292 0.96101236 0.32495534

secondGCN.attentionLayer.inAttention.b_alpha f4 [5, 1]
00000000: 2582 443f 386c c73d 820f f03e 80f1 7e3c
00000010: 20dc 4f3d
0.76761085 0.09737438 0.46886832 0.015560508 0.050747037

secondGCN.attentionLayer.outAttention.W_sum f4 [5, 5]
00000000: 699e 3e3f 007d 543f 53cd 163f fc70 e03e
00000010: c0bb 663e 1439 5a3e 2234 193f 3ac8 a13e
00000020: d87d 803d d1d2 573f e4ca 3b3e 5c1f 8e3e
00000030: c878 b83d 8949 113f a606 293f fa0c b13e
00000040: 5d32 0c3f 414d 073f 8799 2e3f bd94 463f
00000050: f842 fa3e 0eda 463f 4ef9 d53e 8c17 123e
00000060: 1fbc 7b3f
0.74460465 0.83003235 0.5890705 0.438362 0.22532558 0.21310836 0.59845173 0.31598073
0.06274003 0.84306055 0.18339115 0.277583 0.09007412 0.5675283 0.6602577 0.34580213
0.5476435 0.52852255 0.68203014 0.77570707 0.48879218 0.77676475 0.41791767 0.14266795
0.98333925

secondGCN.attentionLayer.outAttention.W_alpha f4 [5, 5]
00000000: 301d dc3e 6920 7c3f 8484 453e d8d9 b83d
00000010: 9c53 533e dfc3 0f3f a0b3 383e 7fe3 753f
00000020: e04d 193d 293b 113f c84e 363e 0515 093f
00000030: d2ac 133f 88dd ab3d 97cc 6b3f d838 753f
00000040: 84a0 773f b833 4c3f 8af7 5b3f b4f9 4f3e
00000050: 30de cf3e 7036 7c3f 549c 213f 3967 403f
00000060: 6217 c13e
0.42991018 0.98486954 0.19288832 0.090259254 0.20637363 0.5615825 0.18037271 0.96050256
0.037427783 0.56730896 0.1780349 0.535477 0.5768558 0.08391863 0.92109054 0.9578986
0.967293 0.79766417 0.8592459 0.20310098 0.40599203 0.98520565 0.6312916 0.75157505
0.37713152

secondGCN.attentionLayer.outAttention.a_alpha f4 [5, 1]
00000000: 080b 513f e31f 483f 102e b53e 8cd3 7b3f
00000010: 4c5b bd3e
0.8165746 0.78173655 0.35386705 0.9836967 0.36983716

secondGCN.attentionLayer.outAttention.b_alpha f4 [5, 1]
00000000: 0802 ee3e 5808 653e 805f db3c 3d5d 453f
00000010: 7808 e33d
0.46485925 0.22366464 0.026778936 0.77095395 0.110856

secondGCN.linearLayer.weight f4 [5, 10]
00000000: cf52 423e 1b48 12be 3fd3 5f3d d2a3 9d3d
00000010: b898 563e 2f31 53be c2bc 533c ec3d 7bbe
00000020: f775 623e 3859 6dbe b6c0 60be 58a3 96be
00000030: bcf8 9dbe dc57 41be b046 7bbe bb13 27be
00000040: c9d0 4fbe 46a2 82bd 9c4b 82be 221b 9a3e
00000050: 5487 1b3e 0095 983e ff79 e03d d241 7fbe
00000060: 1ffe 7d3c 1b98 19be a1d3 7f3e 7630 8b3e
00000070: a5d3 1c3b 38a6 31bd a6bb 82bb ea78 4fbe
00000080: 9e40 2c3d 158f 8bbe 7f79 cfbd 2af0 94be
00000090: 3ed1 eb3d 6709 7f3e 45a1 303e fb27 493e
000000a0: 075d 9abd b3bc 833e b42e 5b3d c6d8 993e
000000b0: 8cc2 1fbe 044e 5cbe 2e89 e73d 33b4 ac3d
000000c0: 06d0 b8bd b3c4 253d
0.18976901 -0.14285319 0.05464482 0.07697262 0.20956695 -0.20624231 0.012923421 -0.2453534
0.22115313 -0.23178566 -0.21948513 -0.29421496 -0.30853832 -0.18881172 -0.24538684 -0.1631612
-0.20294489 -0.063786075 -0.2544831 0.30098826 0.15188342 0.29801178 0.10960769 -0.24927452
0.015502482 -0.1499943 0.24983074 0.2718541 0.002392986 -0.04337141 -0.0039896546 -0.20260969
0.04205381 -0.272576 -0.101305954 -0.2908948 0.11514519 0.2490593 0.1724902 0.19644158
-0.07537275 0.25729904 0.053511336 0.30048198 -0.15601557 -0.21514136 0.11305462 0.08432808
-0.09024052 0.04047079

secondGCN.linearLayer.bias f4 [5]
00000000: 6ea0 a0be d514 a1be c9ec 59be aa06 5a3e
00000010: c306 913e
-0.31372398 -0.31461206 -0.21281733 0.21291605 0.2832547

thirdGCN.attentionLayer.linear.weight f4 [5, 10]
00000000: 1a22 9ebe 2cd2 513e abdc 91bd 5ba6 68be
00000010: 4369 973e 21cc 0ebe 7792 58be 23fd c73d
00000020: 410f b73d 0457 87be 9f1e 123e b167 31be
00000030: 2c57 87be 77dc 9abd 84a3 123e c2ad 29be
00000040: ec46 acbd 89cc 4a3e c0b4 593e deac b63c
00000050: 34fa 273e 490f 02be 5615 433d c9d5 5cbe
00000060: 9e9f 313d 7664 82be a847 21be 87a5 9e3c
00000070: c433 84be 6bb2 ef3d 288b 3f3e c72f 54be
00000080: 9eb2 0c3d 6d67 c13d 0e5c bdbd 32a0 913e
00000090: 0019 043d 3b1b 743d 3b8e 763e 0da7 6abe
000000a0: 54d6 803e 6157 a1bc 9a5c 823d 7a3b 85be
000000b0: 08e7 9a3e 2a19 6f3e de68 76be 4c0a 413d
000000c0: 07cb 36be b48c 21be
-0.30885392 0.2049033 -0.07122167 -0.2271971 0.29572496 -0.13945056 -0.21149622 0.09765079
0.08938456 -0.26433575 0.14269494 -0.17324711 -0.26433694 -0.075615816 0.14320189 -0.1657019
-0.08411965 0.19804586 0.21260357 0.022299226 0.16404039 -0.12701143 0.04762777 -0.21565928
0.043365113 -0.2546727 -0.15749991 0.019366039 -0.25820744 0.117039524 0.18705428 -0.2072135
0.03435003 0.09443555 -0.09246074 0.28442532 0.032250404 0.05959628 0.24077694 -0.22915287
0.2516352 -0.019694986 0.063653186 -0.2602194 0.30254388 0.23349443 -0.24063441 0.04712896
-0.17850886 -0.1577633

thirdGCN.attentionLayer.linear.bias f4 [5]
00000000: 1519 1b3e 52a9 6bbe 6b90 73be ec3b 933e
00000010: f1ed 2cbe
0.15146287 -0.2301381 -0.2378556 0.28756654 -0.16887642

thirdGCN.attentionLayer.inAttention.W_sum f4 [5, 5]
00000000: 2a5e a13e f499 df3e 9c0f 913e d444 803e
00000010: 9659 903e 1b48 683f 00fd 0d3c 4457 663e
00000020: 2040 503f 7cb5 5f3f 88e0 a83d e06d 063f
00000030: f6c0 d83e 7cee c63e aa5b 2e3f d78a 173f
00000040: 8e75 2b3f 804c 2a3d b4a8 b73e 2843 343f
00000050: 1313 633f d00e 4e3f 0667 0d3f 0088 333f
00000060: 9cf0 1b3f
0.31517154 0.43672144 0.28332222 0.25052512 0.2819335 0.90735024 0.008666277 0.22494227
0.81347847 0.873863 0.08245951 0.52511406 0.42334718 0.38853824 0.6810862 0.5919623
0.6697625 0.041576862 0.35870898 0.7041497 0.8870098 0.8049135 0.55235326 0.70129395
0.60914016

thirdGCN.attentionLayer.inAttention.W_alpha f4 [5, 5]
00000000: 1a03 cf3e f115 7e3f 78bf b23d 0629 d63e
00000010: 7e22 8b3e 8891 bf3d 0024 dd3e 002d 5c3b
00000020: 6026 da3c 83c7 503f 2627 943e 7a85 0c3f
00000030: dc84 0f3f 48c5 c63e 7b13 153f 06b9 b53e
00000040: b49c ad3e eab6 8d3e 10d5 5c3e 4880 d83d
00000050: dcc9 063f 845d 033f ac6d ef3e 1fc3 213f
00000060: 96c5 3f3f
0.40432054 0.9925223 0.08727926 0.41828173 0.27174753 0.0935393 0.43191528 0.0033596158
0.026629627 0.8155443 0.28936118 0.5489117 0.560621 0.3882239 0.5823285 0.35492724
0.33908617 0.27678615 0.21565652 0.10571343 0.5265176 0.5131457 0.4676336 0.63188356
0.7491087

thirdGCN.attentionLayer.inAttention.a_alpha f4 [5, 1]
00000000: dae8 263f 0ee9 673f 9b75 603f ce0c 9b3e
00000010: e181 643f
0.65199053 0.9058999 0.8767945 0.30283207 0.8926068

thirdGCN.attentionLayer.inAttention.b_alpha f4 [5, 1]
00000000: f2ce a43e df79 243f ee27 d33e 52ba 6d3f
00000010: 0382 3e3f
0.32189137 0.6424846 0.412414 0.9286243 0.7441713

thirdGCN.attentionLayer.outAttention.W_sum f4 [5, 5]
00000000: b0e4 9a3d 52ee 663f 2e5f 0c3f 0124 453f
00000010: 5fda 323f ae01 f83e c6c0 d03e 4a0c 3c3f
00000020: c88b e63e 80d8 993b e30e 163f 0dae 6b3f
00000030: a523 243f 0544 4b3f 1534 713f 0034 4e3e
00000040: f539 6a3f f85d c63d 1ccc 723e 27ec 223f
00000050: c0c5 c33e dafc 793f d4ff 7c3f 80b3 033d
00000060: 3ae2 7c3f
0.0756315 0.902074 0.5483273 0.7700806 0.6986446 0.48438781 0.40772074 0.7345625
0.4502852 0.0046949983 0.58616465 0.92062455 0.6411689 0.79400665 0.94220096 0.20137024
0.91494685 0.09685892 0.23710674 0.6364159 0.3823681 0.97651446 0.9882786 0.032153606
0.98782694

thirdGCN.attentionLayer.outAttention.W_alpha f4 [5, 5]
00000000: a036 543e 543f 0a3f b3e0 343f e036 e43c
00000010: 66ec d13e ccd4 413e 58b6 6d3f b631 f43e
00000020: 29a4 6a3f 72fd 273f 85d3 533f f7df 773f
00000030: 58b7 9d3e c873 633e 653f 583f 083b db3d
00000040: f48d 593e 34bf 023f 60f1 163f d85a c03d
00000050: 521b 863e 1081 953e e931 573f 508d 413d
00000060: a0b8 563d
0.20723963 0.5400288 0.70655364 0.027858198 0.4100067 0.18928832 0.9285636 0.47694176
0.9165674 0.656211 0.8274463 0.9682612 0.30803943 0.22212136 0.8447173 0.10704619
0.21245557 0.51073 0.5896206 0.09392327 0.2619272 0.2920003 0.8406053 0.047253907
0.052422166

thirdGCN.attentionLayer.outAttention.a_alpha f4 [5, 1]
00000000: f86e e73d 6337 503f bcdc e33e 280a 2a3e
00000010: cc08 283e
0.113004625 0.81334513 0.44504344 0.16605437 0.16409606

thirdGCN.attentionLayer.outAttention.b_alpha f4 [5, 1]
00000000: b05b ba3e 5832 cd3d 644a d13e 27d9 0c3f
00000010: 7916 313f
0.36398077 0.10019368 0.40877068 0.5501885 0.69174916

thirdGCN.linearLayer.weight f4 [5, 10]
00000000: f2da 93be f1a9 5bbe 3e0e 21be 0bd2 4ebe
00000010: ac58 f0bd f003 a53d 606d e1bd f376 d93c
00000020: b6c2 b0bd 8308 90be 1efb b03d 32d2 ff3d
00000030: 0117 51bd f04f 703d bb2f 21bd 6789 eb3d
00000040: 8f19 ef3d 5d84 96be 2e30 48be 2ad4 1abe
00000050: ff9e c3bd 15ac 323e 31ef 25bc 257c 99be
00000060: ac5e bbbd 9dde 413e a446 b53d 6d31 81be
00000070: d079 47be 7634 85be f7bb 0abe 2d54 583d
00000080: c80a 0fbe 50bc 943e 0c7e 43bc 4fce 293e
00000090: fa9e 28be 3861 97bd ae75 2bbe 204b 60be
000000a0: e029 8dbe 7b0e 03be dd9a 6dbe 671e 723e
000000b0: 3cf5 d1bd 11bf afbd 982d 1fbe 2aa7 8a3d
000000c0: c777 df3d 02f7 da3d
-0.2887798 -0.21451546 -0.15728089 -0.20197313 -0.11735663 0.08057392 -0.1100719 0.026545977
-0.08630888 -0.28131494 0.08641647 0.124912634 -0.05104733 0.058669984 -0.03935216 0.11500817
0.11674797 -0.2939786 -0.19549629 -0.15119997 -0.095518105 0.17448457 -0.010127828 -0.29977527
-0.091489166 0.18932576 0.08851364 -0.2523302 -0.19480062 -0.26016587 -0.13548265 0.05281465
-0.13968956 0.2904992 -0.011931907 0.16582607 -0.16466895 -0.0739159 -0.1674411 -0.21903658
-0.2757101 -0.12798493 -0.23203607 0.2364441 -0.10251853 -0.08581365 -0.15544736 0.06770165
0.109115176 0.10691644

thirdGCN.linearLayer.bias f4 [5]
00000000: fb42 0fbe b3a1 733e e963 75be 2ba0 febd
00000010: 2f72 ecbd
-0.13990395 0.23792152 -0.23963894 -0.12432893 -0.11545216

ff4.weight f4 [5, 5]
00000000: b006 263f a119 1d3f 85c8 e23e 771f 3c3d
00000010: 8cf3 913d 01b2 cabe 46b1 86be 6599 a0be
00000020: 7187 9b3e eda1 15be 8ac2 75be aef4 c5bd
00000030: a532 dcbe 1944 a5be 6c56 aabe b15b 2fbe
00000040: d812 bebe 41cf d4bd 034a 643e acef 8abe
00000050: f7f3 65be 32d6 5f3e 8c6b c13e 75c4 b9bc
00000060: 00a7 0f3f
0.64853954 0.6136723 0.4429361 0.045928445 0.07126531 -0.3958893 -0.26307124 -0.3136703
0.3037677 -0.14612551 -0.23999992 -0.096658096 -0.4300739 -0.32278517 -0.3326906 -0.17124821
-0.37123752 -0.10391093 0.22293858 -0.2713598 -0.22456346 0.21859053 0.37777364 -0.022676686
0.56114197

ff4.bias f4 [5]
00000000: 4803 64be 4b56 633e e56c 64be c36e 06be
00000010: 8ac7 e3be
-0.22266877 0.22200887 -0.22307165 -0.1312819 -0.44488174

ff5.weight f4 [5, 5]
00000000: 1c16 d73d 4c6a a8bd a2fa e4bc c10e 543d
00000010: 1aa8 c23e 23e7 ddbd 7639 9e3e f0c6 bdbc
00000020: dde1 25be 0801 dfbe a743 bd3e 6d71 383e
00000030: 946a 663e 4669 6bbd 36da 45be c432 b7be
00000040: 1b42 d43e edb5 b33e c361 42be fed5 023e
00000050: 0aa0 61be afa1 933c a054 5fbd 13eb 8dbd
00000060: 9c7f c23e
0.10502264 -0.082233995 -0.027951542 0.051771883 0.38018876 -0.108351015 0.30903214 -0.02316615
-0.16199441 -0.43555474 0.36965677 0.18012019 0.22501594 -0.057473443 -0.19321522 -0.3578092
0.41456684 0.35099736 -0.18982606 0.12776944 -0.22033706 0.018021433 -0.054524064 -0.069296025
0.37987983

ff5.bias f4 [5]
00000000: 5161 b2bd 7e3e cfbe 8129 10be 3073 bdbe
00000010: bfba b83e
-0.08709968 -0.40477365 -0.14078332 -0.37001944 0.36079976

ff6.weight f4 [10, 5]
00000000: 4b85 a5be fb6b 1d3e 00e3 ae3b 8f65 653e
00000010: 069c 3c3e 447e f1be bce7 a0be 9180 343e
00000020: abd0 df3d d144 c1bb 96cd bfbe fc5e b0be
00000030: 1b44 b13c be79 cc3e 415e 713e 716e babe
00000040: f4f1 cc3e 80d5 54be b8f4 793d b697 023e
00000050: 3749 64be 6352 12be 2020 5b3e 2b47 1b3e
00000060: 8b1f 1d3f efa0 b9be 8112 a9bd 0074 abbd
00000070: 8725 313d 23a0 36bc b82f 63be 701e c7be
00000080: bada 8bbe 6dac 3e3e 869e bfbe 693c b2be
00000090: d07c 98be a858 9abe e45c cbbd 6e30 5e3c
000000a0: cf55 02bf 68c5 c43e d177 943e 2e84 d7be
000000b0: 4b4b 5cbe af5b a8be 7263 793e 4577 a33e
000000c0: a0fa 49be 9990 f0bd
-0.32328257 0.15373223 0.005337119 0.22402023 0.18418893 -0.47166646 -0.314268 0.17627169
0.10928472 -0.005898096 -0.37461537 -0.34447467 0.02163892 0.39936632 0.23571111 -0.36412385
0.40028346 -0.20784569 0.061024398 0.12753186 -0.22293554 -0.1428924 0.21398973 0.15163867
0.61376256 -0.36255595 -0.082554825 -0.083717346 0.04324868 -0.011146578 -0.22186172 -0.3889041
-0.27315313 0.18620463 -0.3742563 -0.34811714 -0.29782724 -0.30145764 -0.09929827 0.013561351
-0.50912184 0.3843186 0.28997663 -0.42093033 -0.21513097 -0.3288245 0.24354342 0.31926933
-0.19724512 -0.1174633

ff6.bias f4 [10]
00000000: 0e77 f1be 66ca ae3d 4028 323e 5503 e4bc
00000010: 4a63 aabe 7678 2d3e 6afa 8cbe 060a 73be
00000020: afc9 333e 5363 98bd
-0.47161144 0.08534698 0.17398167 -0.02783362 -0.33278877 0.16940483 -0.275348 -0.23734292
0.17557405 -0.074408196
