code/ml_model/useless_models/model_weights_m6p8n20_lr0.100000_bs10_epochs10.pth (torch, 22066 bytes, 48 tensors)

ff1.weight f4 [5, 5]
-0.30968207 -0.09989243 -0.17517944 -0.24512704 0.16479096 -0.19571699 -0.35924754 0.18043089
0.059732273 -0.37951437 -0.26637748 -0.123771735 0.15722182 0.11896762 -0.40915787 0.1822717
-0.23513125 -0.048424847 0.21925126 0.13306236 0.2617525 0.39906293 -0.3971612 0.064907484
0.36654553
00000000: a68e 9ebe 6794 ccbd 3d62 33be 9502 7bbe
00000010: f6be 283e 096a 48be 4bef b7be e0c2 383e
00000020: d4a9 743d b54f c2be a162 88be 097c fdbd
00000030: c2fe 203e 4ca5 f33d 247d d1be 6fa5 3a3e
00000040: 3fc6 70be 2259 46bd 6783 603e 8041 083e
00000050: 6c04 863e fa51 cc3e b658 cbbe 37ee 843d
00000060: dbab bb3e

ff1.bias f4 [5]
0.31386814 -0.21415511 0.32449535 0.055193927 -0.28736418
00000000: 53b3 a03e 7a4b 5bbe 4124 a63e 0713 623d
00000010: 6621 93be

ff2.weight f4 [5, 5]
0.36523396 0.3500688 -0.04738793 -0.18977898 0.37575012 0.31881064 -0.049390756 -0.4022382
-0.4011617 0.3029658 -0.2749758 0.346974 -0.2867192 -0.20657958 -0.1377157 -0.11894678
-0.34996924 -0.091003075 0.08935744 -0.40714312 -0.14257264 0.41979614 0.005100574 -0.14110571
0.22536545
00000000: f2ff ba3e 383c b33e d919 42bd 6c55 42be
00000010: 5262 c03e 263b a33e f64d 4abd 2af2 cdbe
00000020: 1165 cdbe 551e 9b3e a1c9 8cbe 93a6 b13e
00000030: dccc 92be 9989 53be 5805 0dbe 5f9a f3bd
00000040: 2b2f b3be d25f babd 0901 b73d 1075 d0be
00000050: 90fe 11be 85ef d63e b722 a73b 047e 10be
00000060: 33c6 663e

ff2.bias f4 [5]
0.29459682 0.39089745 0.26539388 0.068744086 -0.3865032
00000000: 65d5 963e b623 c83e b5e1 873e b3c9 8c3d
00000010: bfe3 c5be

ff3.weight f4 [5, 5]
-0.09336501 0.24920727 -0.31171033 -0.13566618 0.26455784 -0.44261953 0.26854882 0.34452507
-0.39224023 -0.054823518 -0.055738352 -0.33697683 0.29947054 0.44458377 -0.25192693 0.0050716787
-0.24275205 -0.20719847 0.25853255 0.39852697 0.40256462 0.2560465 0.20293698 -0.329374
-0.03206606
00000000: 2836 bfbd 3130 7f3e 7f98 9fbe 13ec 0abe
00000010: 2074 873e 079f e2be 3b7f 893e 9765 b03e
00000020: b6d3 c8be a08e 60bd e64d 64bd 3a88 acbe
00000030: 3454 993e 7ca0 e33e 91fc 80be 5330 a63b
00000040: fe93 78be d62b 54be 615e 843e ba0b cc3e
00000050: f31c ce3e 8718 833e b6ce 4f3e b5a3 a8be
00000060: b357 03bd

ff3.bias f4 [5]
-0.000904385 0.3434692 -0.2731178 -0.0059389053 0.1418363
00000000: 4014 6dba 32db af3e 19d6 8bbe 269b c2bb
00000010: 893d 113e

firstGCN.attentionLayer.linear.weight f4 [5, 10]
0.1723561 0.18967983 -0.17639685 -0.25399098 0.09711253 -6.3321863e-06 0.19775487 0.052505925
-0.056117825 -0.07945998 -0.09237516 -0.024663376 -0.2799792 0.086752295 0.24747045 0.18232249
-0.10385934 0.08737957 -0.0950958 -0.29964042 0.36548144 0.45131123 0.6332774 0.72116613
-0.041734923 0.06846812 -0.056839373 0.17825224 0.37425017 0.20259172 0.16789629 -0.059249617
0.024769455 -0.21198188 0.23279889 -0.22333013 -0.22292289 0.10097443 0.29654437 0.18706323
0.402268 -0.06158105 -0.21122538 0.13518885 0.30639213 -0.04662771 0.10601107 -0.17436975
0.50416094 -0.14642596
00000000: 1e7e 303e 6e3b 423e 60a1 34be 1b0b 82be
00000010: efe2 c63d 1179 d4b6 4180 4a3e 7410 573d
00000020: cedb 65bd eabb a2bd 302f bdbd d90a cabc
00000030: 6f59 8fbe 30ab b13d e568 7d3e bfb2 3a3e
00000040: 35b4 d4bd 0ff4 b23d 96c1 c2bd 786a 99be
00000050: 6220 bb3e 4412 e73e 781e 223f 589e 383f
00000060: 3df2 2abd 0439 8c3d 67d0 68bd c187 363e
00000070: b89d bf3e 3474 4f3e 01ed 2b3e baaf 72bd
00000080: 50e9 ca3c c711 59be d562 6e3e a7b0 64be
00000090: e645 64be afcb ce3d aad4 973e 818d 3f3e
000000a0: 12f6 cd3e 693c 7cbd 774b 58be f26e 0a3e
000000b0: 6edf 9c3e b3fc 3ebd 551c d93d fc8d 32be
000000c0: b110 013f b0f0 15be

firstGCN.attentionLayer.linear.bias f4 [5]
-0.2632312 -0.2891495 0.3753616 -0.22252324 0.20126334
00000000: 3dc6 86be 670b 94be 652f c03e 22dd 63be
00000010: fa17 4e3e

firstGCN.attentionLayer.inAttention.W_sum f4 [5, 5]
0.30274454 0.17171252 0.39328974 0.9584573 0.46955466 0.6818643 -0.0153048495 0.573007
0.7883846 0.8228931 0.1655209 0.51324016 0.9086325 1.1386681 -0.01774347 0.34318325
0.7661 0.09760398 0.12977006 0.068439685 0.7162386 0.9182261 0.575918 0.50527084
0.71670765
00000000: 5501 9b3e 68d5 2f3e 465d c93e 755d 753f
00000010: 7869 f03e a98e 2e3f 31c1 7abc 96b0 123f
00000020: 93d3 493f 1fa9 523f 507e 293e b563 033f
00000030: 249c 683f e0bf 913f c15a 91bc b7b5 af3e
00000040: 211f 443f 98e4 c73d 71e2 043e 1b2a 8c3d
00000050: 6a5b 373f de10 6b3f 5d6f 133f 6e59 013f
00000060: 277a 373f

firstGCN.attentionLayer.inAttention.W_alpha f4 [5, 5]
0.39623144 0.26894027 0.8144583 0.5299978 0.9467862 0.8323398 0.52012837 0.854964
0.14097391 0.46067464 0.21350326 0.46030682 0.555462 0.17952827 0.14257772 0.66448087
0.16037697 0.2681866 0.16992877 0.1155923 0.45325655 0.9511136 0.8170865 0.38808638
0.29133692
00000000: d9de ca3e 8ab2 893e 5780 503f f0ad 073f
00000010: 9560 723f 3914 553f 2227 053f ecde 5a3f
00000020: 775b 103e 8cdd eb3e 99a0 5a3e 56ad eb3e
00000030: c232 0e3f 42d6 373e e5ff 113e 6b1b 2a3f
00000040: dc39 243e c14f 893e cf01 2e3e a8bb ec3d
00000050: 3e11 e83e 2e7c 733f 952c 513f 42b3 c63e
00000060: 1d2a 953e

firstGCN.attentionLayer.inAttention.a_alpha f4 [5, 1]
0.5558727 0.4778477 0.84026235 0.65026385 0.18975139
00000000: ac4d 0e3f 74a8 f43e 6f1b 573f b177 263f
00000010: 304e 423e

firstGCN.attentionLayer.inAttention.b_alpha f4 [5, 1]
0.9606222 0.26650053 0.7132956 0.27411595 0.33206403
00000000: 56eb 753f c272 883e 8a9a 363f ed58 8c3e
00000010: 4c04 aa3e

firstGCN.attentionLayer.outAttention.W_sum f4 [5, 5]
0.92908454 0.35112807 0.7475376 0.9341118 0.9856971 0.04056385 0.3108637 0.53181857
1.0174745 0.66338414 0.14002322 0.54919106 0.4139163 0.74646145 0.090705164 0.115019426
0.5148412 0.94330394 0.9338643 0.9718259 0.2894044 0.464929 0.07365815 0.07689966
0.009405635
00000000: 7cd8 6d3f 0fc7 b33e a05e 3f3f f321 6f3f
00000010: a556 7c3f 4826 263d 8729 9f3e 4325 083f
00000020: 9b3c 823f 8bd3 293f 3f62 0f3e c997 0c3f
00000030: d6ec d33e 1918 3f3f a1c3 b93d 4e8f eb3d
00000040: a2cc 033f 5e7c 713f bb11 6f3f 95c9 783f
00000050: d02c 943e 2d0b ee3e 16da 963d 927d 9d3d
00000060: 181a 1a3c

firstGCN.attentionLayer.outAttention.W_alpha f4 [5, 5]
0.0063561797 0.13037542 0.57422036 0.061080292 0.29366896 0.6494779 0.32297912 0.3152526
0.5024098 0.6535312 0.95985645 0.7406582 0.74385744 0.7995937 0.4183366 0.18439494
0.42689317 0.18230975 0.7454326 0.2919368 0.6676756 0.41426972 0.9419781 0.80607444
0.38134187
00000000: 8047 d03b 2281 053e 1b00 133f 542f 7a3d
00000010: c75b 963e 2f44 263f 855d a53e ca68 a13e
00000020: ee9d 003f d24d 273f 27b9 753f c79b 3d3f
00000030: 716d 3e3f 2cb2 4c3f 3730 d63e 07d2 3c3e
00000040: be91 da3e 68af 3a3e acd4 3e3f be78 953e
00000050: caec 2a3f 291b d43e 7a25 713f e55a 4e3f
00000060: 3e3f c33e

firstGCN.attentionLayer.outAttention.a_alpha f4 [5, 1]
0.5179169 0.9214234 0.44639945 0.0069721937 0.553081
00000000: 3496 043f 67e2 6b3f 788e e43e 0077 e43b
00000010: b796 0d3f

firstGCN.attentionLayer.outAttention.b_alpha f4 [5, 1]
0.3456503 0.56403273 0.060108934 0.39489254 0.02943537
00000000: 13f9 b03e 7364 103f c934 763d 5b2f ca3e
00000010: 7222 f13c

firstGCN.linearLayer.weight f4 [5, 10]
-0.070453964 -0.2592545 -0.119074084 -0.3073503 -0.058404293 -0.013867324 0.03302874 0.12684153
-0.10081137 -0.27118725 -0.03418522 -0.012552443 -0.21819465 0.23859069 -0.23103864 -0.052935548
0.028660757 0.0152327195 -0.22427036 0.03738391 -0.052958168 -0.043533504 -0.29781166 0.14844735
-0.25674215 0.2511091 0.10361224 0.29475588 0.026275612 0.28935385 0.30426267 -0.014598463
0.06340416 -0.27107894 0.008705322 0.19541655 -0.24677503 0.11133087 -0.13045022 0.2577923
-0.17328727 -0.1313628 0.11648424 -0.036074795 -0.10302653 -0.23748228 -0.14729035 0.04570879
0.30206814 0.16645817
00000000: 2b4a 90bd 01bd 84be 1ddd f3bd 055d 9dbe
00000010: 5739 6fbd c633 63bc 2549 073d bfe2 013e
00000020: 3176 cebd 0ed9 8abe cd05 0cbd c3a8 4dbc
00000030: 6b6e 5fbe 1e51 743e 6595 6cbe f2d2 58bd
00000040: f7c9 ea3c a892 793c 21a7 65be df1f 193d
00000050: aaea 58bd 3050 32bd c57a 98be 9502 183e
00000060: b573 83be 5f91 803e a732 d43d 3eea 963e
00000070: f43f d73c 3026 943e 51c8 9b3e 642e 6fbc
00000080: 0ada 813d dcca 8abe c4a0 0e3c 471b 483e
00000090: 98b2 7cbe 7001 e43d be94 05be 5afd 833e
000000a0: 3872 31be f883 06be 4a8f ee3d 2ac3 13bd
000000b0: 93ff d2bd 8e2e 73be 48d3 16be 2439 3b3d
000000c0: ada8 9a3e 0374 2a3e

firstGCN.linearLayer.bias f4 [5]
0.17890204 -0.13449427 0.2597812 -0.07940323 0.03370145
00000000: 1932 373e deb8 09be 0b02 853e 299e a2bd
00000010: 880a 0a3d

secondGCN.attentionLayer.linear.weight f4 [5, 10]
-0.06081794 0.15306821 -0.09073036 0.25495824 0.23406973 0.3059906 -0.16207293 -0.2785054
-0.3122709 -0.027609155 0.30789214 0.15766397 -0.11742709 0.3109521 -0.18705977 0.2682311
-0.07812039 0.13100761 -0.29256982 0.12521191 -0.29036582 -0.23488429 0.29693294 0.23785144
-0.2532502 0.14721334 -0.27127 -0.09015641 0.12807356 -0.035748903 0.2515151 -0.040151343
0.1482284 -0.09310099 0.20642518 0.21836662 0.24018487 0.12782215 0.12750688 0.25424302
0.041138146 0.224804 0.17113942 0.30484274 0.15064883 -0.12897968 -0.077705 0.22222574
-0.22113782 -0.07904846
00000000: 3b1c 79bd eabd 1c3e d7d0 b9bd e389 823e
00000010: faaf 6f3e cdaa 9c3e 72f6 25be 4398 8ebe
00000020: f9e1 9fbe 982c e2bc 0aa4 9d3e aa72 213e
00000030: 9d7d f0bd 1d35 9f3e 998c 3fbe 9655 893e
00000040: 95fd 9fbd dc26 063e b6cb 95be 8d37 003e
00000050: d4aa 94be 8285 70be 9807 983e 548f 733e
00000060: 03aa 81be 18bf 163e e7e3 8abe eda3 b8bd
00000070: b725 033e 716d 12bd 96c6 803e bc75 24bd
00000080: 30c9 173e bbab bebd 1f61 533e 809b 5f3e
00000090: 06f3 753e cfe3 023e 2a91 023e 242c 823e
000000a0: 7980 283d 0533 663e 2c3f 2f3e 5914 9c3e
000000b0: b043 1a3e 4013 04be cd23 9fbd 258f 633e
000000c0: f471 62be 29e4 a1bd

secondGCN.attentionLayer.linear.bias f4 [5]
-0.29891464 -0.056191914 0.15673134 0.11100524 0.15255688
00000000: 570b 99be 7e29 66bd 2e7e 203e b756 e33d
00000010: df37 1c3e

secondGCN.attentionLayer.inAttention.W_sum f4 [5, 5]
0.43535215 0.1095413 0.41753602 0.53490865 0.5933583 0.25139338 0.51292634 0.0835976
0.3538143 0.18869042 0.070344985 0.5134775 0.16746402 0.15536642 0.46961296 0.24971223
0.4169023 0.96849304 0.26227885 0.8190786 0.09265703 0.66699797 0.4127093 0.55423355
0.18873054
00000000: 7ae6 de3e 3057 e03d 48c7 d53e c6ef 083f
00000010: 54e6 173f a2b6 803e 244f 033f 3835 ab3d
00000020: 2627 b53e 1038 413e 0811 903d 4373 033f
00000030: b07b 2b3e 6018 1f3e 1c71 f03e 90b4 7f3e
00000040: 3874 d53e 29ef 773f 6a49 863e 23af 513f
00000050: f8c2 bd3d 61c0 2a3f a24e d33e 40e2 0d3f
00000060: 9442 413e

secondGCN.attentionLayer.inAttention.W_alpha f4 [5, 5]
0.59583163 0.37385303 0.96053797 0.2573037 0.2490558 0.2190274 0.5743078 0.26018357
0.24017674 0.22243857 0.17377073 0.33531994 0.5572285 0.7193889 0.97490466 0.81254566
0.79565406 0.47358882 0.5453606 0.33017516 0.88726056 0.7891078 0.071842015 0.42235655
0.70843315
00000000: 6c88 183f aa69 bf3e d1e5 753f 50bd 833e
00000010: 7c08 7f3e b848 603e d605 133f c836 853e
00000020: e4f0 753e f0c6 633e f4f0 313e 0eaf ab3e
00000030: 87a6 0e3f df29 383f 5a93 793f fe02 503f
00000040: fcaf 4b3f 3c7a f23e c19c 0b3f b80c a93e
00000050: 8223 633f f802 4a3f e821 933d 1e3f d83e
00000060: e05b 353f

secondGCN.attentionLayer.inAttention.a_alpha f4 [5, 1]
0.9811379 0.15942705 0.7326086 0.20907968 0.3489796
00000000: da2b 7b3f d840 233e 3d8c 3b3f fc18 563e
00000010: 74ad b23e

secondGCN.attentionLayer.inAttention.b_alpha f4 [5, 1]
0.41484344 0.2341131 0.18773353 0.51913464 0.5948339
00000000: 5c66 d43e 58bb 6f3e 383d 403e 02e6 043f
00000010: 0947 183f

secondGCN.attentionLayer.outAttention.W_sum f4 [5, 5]
0.47260553 0.023773313 0.31066245 0.2186526 0.2524926 0.53098387 0.3777029 0.10818803
0.16369236 0.8899773 0.484213 0.07057929 0.90936756 0.9821937 0.068490684 0.25443155
0.5761128 0.49641722 0.17729187 0.34660512 0.16712177 0.028543115 0.55752164 0.3663795
0.1336258
00000000: 5af9 f13e 40c0 c23c 260f 9f3e 78e6 5f3e
00000010: b646 813e 8fee 073f 4662 c13e b091 dd3d
00000020: f89e 273e 8dd5 633f c4ea f73e e08b 903d
00000030: 50cc 683f 0c71 7b3f d844 8c3d da44 823e
00000040: 217c 133f 662a fe3e 008c 353e 3a76 b13e
00000050: f821 2b3e 40d3 e93c bdb9 0e3f 1896 bb3e
00000060: 34d5 083e

secondGCN.attentionLayer.outAttention.W_alpha f4 [5, 5]
0.8991935 0.8818443 0.6021133 0.92364734 0.003192842 0.08025724 0.71443397 0.10364956
0.13766062 0.3209967 0.100051165 0.8157913 0.4303652 0.075030744 0.7902351 0.38224518
0.058096886 0.011603296 0.23481387 0.20684856 0.085188925 0.28408253 0.56898093 0.73065823
0.8888413
00000000: 8c31 663f 8cc0 613f 1924 1a3f 2774 6c3f
00000010: 003f 513b e85d a43d 25e5 363f 3846 d43d
00000020: e8f6 0c3e ae59 a43e a0e7 cc3d b3d7 503f
00000030: d458 dc3e b8a9 993d d94c 4a3f a4b5 c33e
00000040: 00f7 6d3d c01b 3e3c 0c73 703e 1cd0 533e
00000050: 8877 ae3d 4473 913e bca8 113f 6b0c 3b3f
00000060: 1a8b 633f

secondGCN.attentionLayer.outAttention.a_alpha f4 [5, 1]
0.7549169 0.971728 0.19641459 0.8379426 0.8115666
00000000: 3c42 413f 2bc3 783f e820 493e 6883 563f
00000010: d4c2 4f3f

secondGCN.attentionLayer.outAttention.b_alpha f4 [5, 1]
0.85406417 0.29598373 0.7371262 0.08211678 0.78977984
00000000: f3a3 5a3f 2e8b 973e 4db4 3c3f d82c a83d
00000010: 032f 4a3f

secondGCN.linearLayer.weight f4 [5, 10]
-0.26327798 -0.26325667 0.23413634 0.28031808 0.0034271358 0.07018304 -0.07710577 -0.27216864
0.24625768 0.23338586 -0.2598485 -0.30603507 -0.03558413 0.29695418 0.068082884 0.16429104
0.2819706 0.29095957 -0.05186129 0.0522265 0.06655041 0.25184855 0.28297865 0.23722771
-0.13569354 -0.034572974 -0.26107758 -0.1393234 -0.045622163 -0.19037141 -0.25355583 0.26101103
0.07547958 0.25668153 -0.049944833 -0.043236375 0.2867538 0.16807218 0.14284505 0.029691212
-0.0620935 -0.17410673 0.028084027 -0.09172651 -0.29620382 -0.29870632 -0.27261972 -0.07866131
0.29629448 0.206724
00000000: 5fcc 86be 94c9 86be 70c1 6f3e da85 8f3e
00000010: cc99 603b 20bc 8f3d a1e9 9dbd b059 8bbe
00000020: f92a 7c3e b4fc 6e3e dd0a 85be a1b0 9cbe
00000030: aac0 11bd 610a 983e 0a6f 8b3d e93b 283e
00000040: 735e 903e a7f8 943e 816c 54bd 74eb 553d
00000050: 954b 883d 4bf2 803e 94e2 903e d2eb 723e
00000060: 3ff3 0abe 649c 0dbd f6ab 85be cbaa 0ebe
00000070: 4ede 3abd b9f0 42be 12d2 81be 3da3 853e
00000080: 0a95 9a3d c36b 833e f492 4cbd a018 31bd
00000090: 65d1 923e 1d1b 2c3e f945 123e fc3a f33c
000000a0: c155 7ebd 0949 32be 7910 e63c 1cdb bbbd
000000b0: 07a8 97be 09f0 98be d094 8bbe 2e19 a1bd
000000c0: e9b3 973e 75af 533e

secondGCN.linearLayer.bias f4 [5]
-0.2042822 -0.071101494 -0.19426754 -0.26585394 -0.03424723
00000000: 5a2f 51be a99d 91bd 12ee 46be 021e 88be
00000010: d346 0cbd

thirdGCN.attentionLayer.linear.weight f4 [5, 10]
-0.23352112 -0.24449457 -0.01832514 0.15240003 -0.24088122 -0.30878356 -0.14459379 0.16250075
-0.025850387 -0.30097798 0.2553784 0.072015315 0.2509786 0.14874211 0.015573692 -0.13178165
0.17993024 0.15127085 -0.030948605 0.22845487 -0.12702817 -0.13418508 0.19418536 0.18999688
0.30201694 -0.053947456 -0.16609414 -0.1972908 0.13270882 0.16616459 -0.31535512 -0.22282109
-0.24356028 0.012634397 -0.20508851 0.019259017 -0.06918568 0.2843506 -0.31358263 0.23022471
0.060218588 -0.09522124 -0.2738799 -0.032730483 -0.29980958 0.20748481 -0.056122966 0.0756027
-0.20903696 -0.020330789
00000000: 2920 6fbe c95c 7abe 9b1e 96bc c10e 1c3e
00000010: 91a9 76be e118 9ebe 6510 14be 9966 263e
00000020: 31c4 d3bc c919 9abe f5c0 823e c47c 933d
00000030: 4480 803e da4f 183e cc28 7f3c c5f1 06be
00000040: a23f 383e bfe6 1a3e ee87 fdbc 13f0 693e
00000050: ac13 02be d067 09be 87d8 463e 8b8e 423e
00000060: f7a1 9a3e 02f8 5cbd 9514 2abe 9906 4abe
00000070: d2e4 073e 0d27 2a3e 3a76 a1be 362b 64be
00000080: de67 79be 8000 4f3c b902 52be 16c5 9d3c
00000090: 39b1 8dbd 6796 913e e78d a0be 07c0 6b3e
000000a0: c4a7 763d 5a03 c3bd fc39 8cbe 6610 06bd
000000b0: a480 99be e676 543e 32e1 65bd 97d5 9a3d
000000c0: c90d 56be c18c a6bc

thirdGCN.attentionLayer.linear.bias f4 [5]
-0.044345014 -0.033415403 -0.10550155 -0.09888074 -0.11187431
00000000: 1ea3 35bd 97de 08bd 3211 d8bd fc81 cabd
00000010: 5c1e e5bd

thirdGCN.attentionLayer.inAttention.W_sum f4 [5, 5]
0.94806945 0.4244281 0.356641 0.60509706 0.5328065 0.09849852 0.9745166 0.14161253
0.48323584 0.92514867 0.5239053 0.7050703 0.013795197 0.44889855 0.06217593 0.45350635
0.088035285 0.6654853 0.4864564 0.7939517 0.4244969 0.11301792 0.2682129 0.19190055
0.9948851
00000000: aeb4 723f a44e d93e a699 b63e a4e7 1a3f
00000010: 0266 083f 98b9 c93d eb79 793f e002 113e
00000020: b06a f73e 8bd6 6c3f a81e 063f 7d7f 343f
00000030: 4005 623c 08d6 e53e 30ac 7e3d fc31 e83e
00000040: d84b b43d 3f5d 2a3f d010 f93e 6b40 4b3f
00000050: a857 d93e f075 e73d 3453 893e 9481 443e
00000060: cab0 7e3f

thirdGCN.attentionLayer.inAttention.W_alpha f4 [5, 5]
0.1592229 0.3464877 0.108927846 0.16211975 0.53231597 0.036847174 0.5837572 0.063035965
0.1771363 0.7318563 0.8171234 0.4901988 0.59222245 0.19672853 0.30523837 0.07512629
0.3921492 0.4929992 0.9106374 0.78417104 0.3544817 0.047273874 0.4014079 0.29442638
0.5263086
00000000: 540b 233e d666 b13e 9015 df3d b802 263e
00000010: dc45 083f 10ed 163d 1d71 153f 0019 813d
00000020: 3863 353e ef5a 3b3f 002f 513f 56fb fa3e
00000030: e49b 173f 3473 493e 3448 9c3e d0db 993d
00000040: c8c7 c83e 646a fc3e 881f 693f 6fbf 483f
00000050: a07e b53e 40a2 413d 5685 cd3e 0ebf 963e
00000060: 29bc 063f

thirdGCN.attentionLayer.inAttention.a_alpha f4 [5, 1]
0.1336301 0.54964304 0.33984512 0.40384525 0.16277778
00000000: 54d6 083e 68b5 0c3f 2e00 ae3e cec4 ce3e
00000010: 38af 263e

thirdGCN.attentionLayer.inAttention.b_alpha f4 [5, 1]
0.23885447 0.7139801 0.182356 0.44028223 0.66123676
00000000: 4496 743e 66c7 363f 88bb 3a3e ac6c e13e
00000010: d046 293f

thirdGCN.attentionLayer.outAttention.W_sum f4 [5, 5]
0.7689549 0.44410807 0.7028793 0.19865566 0.34227282 0.45075876 0.54044205 0.9788347
0.27419788 0.38801086 0.40479314 0.7622237 0.040497363 0.20190614 0.14358574 0.12441367
0.43107027 0.29609144 0.975369 0.2857809 0.5397734 0.5069892 0.16514266 0.93132025
0.109897435
00000000: 3ada 443f 2262 e33e e6ef 333f 646c 4b3e
00000010: 623e af3e dac9 e63e 695a 0a3f e994 7a3f
00000020: aa63 8c3e 5ca9 c63e 0c41 cf3e 1821 433f
00000030: 90e0 253d 7cc0 4e3e 2408 133e 98cc fe3d
00000040: 3eb5 dc3e 4c99 973e c8b1 793f e051 923e
00000050: 972e 0a3f 0bca 013f 281b 293e 016b 6e3f
00000060: e811 e13d

thirdGCN.attentionLayer.outAttention.W_alpha f4 [5, 5]
0.5996285 0.018158615 0.5373528 0.5216004 0.21462423 0.6021817 0.63956946 0.21640211
0.5518757 0.35111523 0.76097316 0.2868672 0.09525007 0.345411 0.17798805 0.7918357
0.14001149 0.031979382 0.6051549 0.577053 0.115023434 0.24112022 0.2349692 0.8410819
0.1390621
00000000: 4181 193f 60c1 943c f48f 093f 9b87 053f
00000010: 74c6 5b3e 9428 1a3f d3ba 233f 8498 5d3e
00000020: ba47 0d3f 60c5 b33e 23cf 423f 42e0 923e
00000030: 7812 c33d b6d9 b03e 8042 363e bfb5 4a3f
00000040: 2c5f 0f3e d0fc 023d 6eeb 1a3f bfb9 133f
00000050: 6891 eb3d 38e8 763e c49b 703e 2551 573f
00000060: 4c66 0e3e

thirdGCN.attentionLayer.outAttention.a_alpha f4 [5, 1]
0.5195485 0.09336352 0.99713016 0.5535968 0.3310365
00000000: 2101 053f 6035 bf3d ec43 7f3f 85b8 0d3f
00000010: 9e7d a93e

thirdGCN.attentionLayer.outAttention.b_alpha f4 [5, 1]
0.29460603 0.64130676 0.40440774 0.5934766 0.544919
00000000: 9ad6 963e ae2c 243f 880e cf3e 15ee 173f
00000010: d07f 0b3f

thirdGCN.linearLayer.weight f4 [5, 10]
-0.15880291 -0.17326099 0.13240543 -0.11856615 -0.020806566 -0.03889587 0.0203165 -0.12817481
0.20355766 -0.31614575 0.19850898 0.2436726 0.23736373 0.2886668 0.29167244 -0.08801148
0.018918948 0.08297003 0.09520797 -0.09219512 0.28989097 0.03738994 -0.29538855 -0.03159602
0.29203033 0.23002048 -0.23006168 0.059203137 0.033637818 0.2264835 -0.2629971 -0.11208014
-0.31385878 -0.18465775 -0.23071988 0.124430865 -0.2637644 0.23229 -0.05342105 0.0431931
-0.12637126 -0.09565242 -0.15639952 -0.26685277 -0.11280664 0.23406215 0.0013785143 -0.11023991
-0.2898891 0.07092405
00000000: 3b9d 22be 546b 31be 4a95 073e cfd2 f2bd
00000010: 8872 aabc 4751 1fbd ca6e a63c 4240 03be
00000020: 6b71 503e dbdd a1be f045 4b3e 4f85 793e
00000030: 7a0f 733e 23cc 933e 1756 953e 5d3f b4bd
00000040: e9fb 9a3c 31ec a93d 65fc c23d ccd0 bcbd
00000050: 976c 943e 3226 193d 2b3d 97be d46a 01bd
00000060: 0085 953e 7d8a 6b3e 4a95 6bbe fd7e 723d
00000070: cfc7 093d 4aeb 673e 8ea7 86be 468a e5bd
00000080: 19b2 a0be ec16 3dbe d541 6cbe 9cd5 fe3d
00000090: 210c 87be 6edd 6d3e 08d0 5abd 3feb 303d
000000a0: 7867 01be 6ae5 c3bd 3227 20be eda0 88be
000000b0: 2b07 e7bd fdad 6f3e 44af b43a 76c5 e1bd
000000c0: 586c 94be a140 913d

thirdGCN.linearLayer.bias f4 [5]
0.027774569 -0.05666234 -0.28074455 0.08470358 -0.18078066
00000000: 7e87 e33c c516 68bd c0bd 8fbe 1279 ad3d
00000010: 911e 39be

ff4.weight f4 [5, 5]
-0.29055718 0.28142327 -0.16513902 0.17241463 -0.30627683 0.33353123 -0.45014402 0.86196524
-0.039757244 0.2777216 -0.21623032 0.33295745 0.3656902 -0.54712754 -0.5053804 0.27007344
0.22088741 -0.3625305 -0.43770033 0.32794198 -0.33717316 0.31300437 0.6982807 -0.05639566
0.22731316
00000000: e9c3 94be b616 903e 341a 29be 768d 303e
00000010: 51d0 9cbe 9bc4 aa3e 4779 e6be c1a9 5c3f
00000020: 7ed8 22bd 8731 8e3e 7b6b 5dbe 6679 aa3e
00000030: bf3b bb3e 8d10 0cbf 9c60 01bf 1147 8a3e
00000040: 4f30 623e 999d b9be 421a e0be 03e8 a73e
00000050: f6a1 acbe 1c42 a03e 86c2 323f 23ff 66bd
00000060: c8c4 683e

ff4.bias f4 [5]
0.24791466 -0.3075451 0.35041308 -0.32644668 -0.095039226
00000000: 57dd 7d3e 8d76 9dbe 5869 b33e 0524 a7be
00000010: eda3 c2bd

ff5.weight f4 [5, 5]
0.093807764 -0.07653148 -0.086824 -0.24169849 0.30258024 0.29053167 -0.36681327 -0.43501925
-0.19326405 0.0581295 -0.06515661 0.35717654 0.2670451 0.2447286 0.218398 -0.09878332
-0.07113854 0.093112096 0.30632955 -0.22205772 0.13333398 -0.0023479145 -0.13010557 0.0802542
-0.29970318
00000000: 491e c03d 89bc 9cbd c8d0 b1bd cf7f 77be
00000010: cceb 9a3e 91c0 943e f3ce bbbe d8ba debe
00000020: 03e7 45be 3319 6e3d d470 85bd d8df b63e
00000030: 23ba 883e 229a 7a3e baa3 5f3e e94e cabd
00000040: 15b1 91bd 8eb1 be3d 3ad7 9c3e 1963 63be
00000050: b488 083e 78df 19bb 653a 05be 505c a43d
00000060: b272 99be

ff5.bias f4 [5]
-0.1996883 -0.24829756 0.10318492 -0.34339067 0.18458337
00000000: 177b 4cbe b741 7ebe 9e52 d33d e7d0 afbe
00000010: 6c03 3d3e

ff6.weight f4 [20, 5]
0.22580805 -0.25744423 -0.12804465 -0.111982636 -0.41835493 0.44384977 -0.46966085 0.21955828
0.2978021 0.091484845 0.27064753 -0.4428751 0.002430515 0.36029917 -0.21199155 0.3450751
-0.16514267 0.27757514 -0.19785123 -0.42389962 -0.12432543 -0.20426528 0.18684733 -0.3002568
-0.34683642 0.427702 0.07150768 0.09513756 0.42628932 -0.6035564 -0.44367507 -0.11688298
-0.11154498 -0.30823988 -0.26672813 0.21408755 -0.14632742 -0.33172494 0.33029324 -0.18613227
0.43984506 -0.28066647 0.22089309 0.070174605 -0.22769688 0.016997123 0.08140266 -0.4335943
0.16230342 -0.5540433 -0.3215596 -0.40028057 -0.12338301 -0.23243004 0.02473797 -0.2603594
-0.35603237 0.15904951 0.17706701 -0.4302129 0.19788364 -0.3588883 -0.17802574 0.11433987
-0.19891918 0.38687322 -0.5779745 0.21065904 -0.23875274 0.15323284 0.17204557 -0.40770683
-0.05648148 -0.3968502 0.06193351 -0.29248554 -0.34829032 0.2939957 0.10607331 -0.11692433
-0.44605958 -0.39368787 -0.24747585 -0.444871 -0.15717712 0.22542329 -0.46678868 0.22500531
-0.17444944 -0.0851186 -0.28345382 -0.24865235 0.24386086 -0.24732067 -0.20875767 -0.28314596
-0.0050608893 -0.7686793 0.2648715 0.025884433
00000000: 3a3a 673e bbcf 83be 231e 03be 2757 e5bd
00000010: 9e32 d6be 4740 e33e 6377 f0be e3d3 603e
00000020: 8479 983e 685c bb3d 5092 8a3e 86c0 e2be
00000030: 4649 1f3b 2279 b83e 5014 59be afad b03e
00000040: 291b 29be 541e 8e3e 8399 4abe 5f09 d9be
00000050: 559e febd eb2a 51be e854 3f3e 42bb 99be
00000060: 8b94 b1be c2fb da3e 9e72 923d 7bd7 c23d
00000070: 9842 da3e ac82 1abf 6129 e3be 5860 efbd
00000080: b271 e4bd 9ed1 9dbe 9790 88be c439 5b3e
00000090: dbd6 15be dad7 a9be 321c a93e 7599 3ebe
000000a0: 5f33 e13e 84b3 8fbe cc31 623e b4b7 8f3d
000000b0: 5f29 69be 8d3d 8b3c 70b6 a63d 1200 debe
000000c0: de32 263e c8d5 0dbf 76a3 a4be 93f1 ccbe
000000d0: 3bb0 fcbd 2402 6ebe 49a7 ca3c d44d 85be
000000e0: e049 b6be e0dd 223e 0e51 353e dd44 dcbe
000000f0: 02a2 4a3e 35c0 b7be 614c 36be 062b ea3d
00000100: 78b1 4bbe 3f14 c63e 23f6 13bf 01b7 573e
00000110: 997b 74be 12e9 1c3e b72c 303e f3be d0be
00000120: 2059 67bd f32f cbbe fead 7d3d aac0 95be
00000130: 1c53 b2be 9b86 963e f73c d93d 0676 efbd
00000140: ec61 e4be 7591 c9be 4f6a 7dbe 22c6 e3be
00000150: 0af3 20be 5dd5 663e edfe eebe cb67 663e
00000160: e0a2 32be a952 aebd dc20 91be b99e 7ebe
00000170: a9b6 793e a141 7dbe 92c4 55be 82f8 90be
00000180: d1d5 a5bb 2bc8 44bf 3d9d 873e 970b d43c

ff6.bias f4 [20]
-0.15360403 -0.46697393 0.3795591 0.034918115 -0.20657924 -0.016185105 -0.37987623 -0.27329057
0.19871604 0.37067744 -0.19644326 0.06854101 -0.36718467 0.0975789 -0.3094052 -0.30769894
-0.051329333 -0.20596628 0.16554277 0.3211809
00000000: 604a 1dbe 3517 efbe 9255 c23e 4c06 0f3d
00000010: 8289 53be a096 84bc 237f c2be beec 8bbe
00000020: 387c 4b3e 6fc9 bd3e 6c28 49be 3b5f 8c3d
00000030: a1ff bbbe 72d7 c73d 5c6a 9ebe b78a 9dbe
00000040: b53e 52bd d3e8 52be 0b84 293e d371 a43e
