code/ml_model/useless_models/model_weights_m7p8n20_lr0.100000_bs10_epochs20.pth (torch, 22066 bytes, 48 tensors)

ff1.weight f4 [5, 5]
000000 b5 7a 8a 3d 81 aa ad be 37 03 4e be 9a 76 9c 3d
       0.06761686 -0.33919147 -0.20118414 0.07639809
000010 bf 96 15 3e 6d 5e 86 3e 8e e7 cd be a1 be 0b bc
       0.14608286 0.26243916 -0.40215725 -0.008529336
000020 ac f6 69 3e 15 15 d9 be 05 79 5a 3e 25 2e 10 3e
       0.22848004 -0.42398897 0.21335228 0.14080103
000030 94 ae 27 3d e9 d3 bf 3d 2e 22 1e be a9 53 b9 bc
       0.040937975 0.093665905 -0.15442726 -0.0226229
000040 0f c6 6d 3e 65 73 ce bd b0 ff 96 bd fb 6a 37 be
       0.23220085 -0.100806035 -0.07372987 -0.17911904
000050 9b 1b b9 be c5 23 69 3e 4d 6c a4 3c 15 1f b8 bd
       -0.36153874 0.22767551 0.020071173 -0.089903034
000060 59 42 f1 bd
       -0.11780233

ff1.bias f4 [5]
000000 65 36 9a be 83 8b 8b 3e f6 b9 b9 3c 78 da 84 3e
       -0.30119625 0.27254876 0.02267168 0.25947928
000010 ce 0a a9 3e
       0.33016056

ff2.weight f4 [5, 5]
000000 92 cd ae be 24 8e c9 be f1 d1 ae 3e 29 24 78 be
       -0.34141213 -0.39366257 0.34144548 -0.24232544
000010 0b ee b4 3e 62 8f e3 bb f5 ee 0c bc c0 45 37 3e
       0.35337862 -0.006944583 -0.008601894 0.17897701
000020 1c 0e 07 3e 57 ee 75 3e ba 94 e6 3c 1c 3d 69 bd
       0.13188976 0.240167 0.02814709 -0.056943044
000030 dd 06 d3 3e 75 d6 93 3c a3 e4 e1 3e 87 39 c6 3e
       0.41216174 0.018046597 0.44119748 0.38715765
000040 a7 d2 11 3d a9 6a 09 be a6 c0 87 3e 88 7d 13 be
       0.035601284 -0.13419594 0.26514167 -0.14403355
000050 3c 88 d6 be e3 8d 9d 3e 61 75 0a be 32 3d 4c 3e
       -0.41900814 0.30772313 -0.13521339 0.19945219
000060 24 c0 ba 3c
       0.022796698

ff2.bias f4 [5]
000000 a1 c1 a3 3e b4 96 c6 3e be 0d 50 bd e7 4c 1d bd
       0.31983665 0.38786852 -0.050794356 -0.038403418
000010 49 7a 2f 3e
       0.17136492

ff3.weight f4 [5, 5]
000000 af 2b 9b be 2e 61 43 be de a0 ad 3d 91 31 16 be
       -0.30306765 -0.1908004 0.084779486 -0.14667346
000010 a3 e1 93 bc 94 38 3b be dd 65 64 3e b7 09 8e be
       -0.018051928 -0.18283302 0.22304483 -0.27741787
000020 3a e3 d3 be 11 a7 5f 3e bb 4f 56 be d1 27 21 3e
       -0.41384298 0.21841075 -0.20928852 0.15737845
000030 f3 3b 26 3d 0e 8a d4 be ca 70 d9 be 4e 07 35 be
       0.040584516 -0.41511577 -0.42468864 -0.17678568
000040 bf ec b4 be c3 01 9c be eb 31 65 3e 47 76 67 be
       -0.35336873 -0.30470094 0.22382323 -0.22603713
000050 92 81 1b 3e 42 e1 75 3d 1d 4d 10 3e 3d 37 c7 3e
       0.15186146 0.060029276 0.14091916 0.3890933
000060 6a c2 b0 3c
       0.021577079

ff3.bias f4 [5]
000000 3b 63 70 3e 69 78 98 3d 23 b3 bb be fc 10 ae be
       0.23475353 0.074448414 -0.36660108 -0.33997333
000010 f7 fd c0 3e
       0.3769376

firstGCN.attentionLayer.linear.weight f4 [5, 10]
000000 f1 8e 2c be 7c 9b 74 bd b2 74 3d be 0d 15 21 3e
       -0.16851403 -0.059718594 -0.18501547 0.15730686
000010 86 5a 58 be 1c d1 7b 3e ce 67 0a bd fb ae a2 3d
       -0.21128282 0.24591488 -0.033790402 0.07943531
000020 3e ae 6f be a7 5b d9 bd 3e 1d 44 3e 14 73 95 be
       -0.23406312 -0.106131844 0.1915178 -0.2918936
000030 f6 0b 49 bd 6f 53 8d be 72 02 21 3d cd f0 45 be
       -0.049083672 -0.27602717 0.039308973 -0.1933014
000040 b1 53 5d 3e c9 7a 0a 3e 34 c1 e5 3d 34 e7 76 3e
       0.21613957 0.13523401 0.11218491 0.24111634
000050 66 11 5c bc 1a d6 d4 3e 0a b4 26 3f 6c 33 12 3f
       -0.0134318825 0.41569597 0.6511847 0.57109714
000060 62 81 da 3e 80 9e dd 3d 70 1c 86 3e 8d 90 0e bd
       0.42676836 0.10821247 0.2619357 -0.034805823
000070 b8 38 18 be c4 7d 17 3e 72 4b ab 3e 5b 24 da 3e
       -0.14865386 0.1479407 0.33455998 0.42605862
000080 04 5a 89 3d 57 12 60 3e 0b 6b a8 bd 1a 95 e9 3d
       0.06706622 0.21881996 -0.08223542 0.11405392
000090 d8 cb 96 3e d0 b1 03 3f 19 98 00 3f 0b 92 c4 3e
       0.29452395 0.51443195 0.5023208 0.38392672
0000a0 0d 57 f1 bd a5 d5 36 be 2d b2 16 3e ae bb a7 be
       -0.11784182 -0.17854936 0.14716406 -0.32760376
0000b0 fb 32 83 be a0 31 3b be b2 3e 5d 3e e2 0d c0 3c
       -0.25624833 -0.18280649 0.21605948 0.02344412
0000c0 a8 8f 45 3e 41 b2 30 3d
       0.19293082 0.043138746

firstGCN.attentionLayer.linear.bias f4 [5]
000000 a6 84 90 be 02 2f d1 3a a4 e9 9c 3e 72 72 ef 3d
       -0.28226203 0.0015959444 0.30647004 0.116917506
000010 e2 a7 9a be
       -0.3020621

firstGCN.attentionLayer.inAttention.W_sum f4 [5, 5]
000000 64 3c 43 3c d8 7f c9 3d f4 f2 80 3e ba 32 f4 3e
       0.011916254 0.098388374 0.2518536 0.4769495
000010 21 f4 2c 3f 9d 83 63 3f 53 e5 6e 3e 83 dd ba 3d
       0.6756001 0.888727 0.23329668 0.09124281
000020 6d 79 be 3e 83 5e 25 3f 8d 2a ac 3d 93 94 3f 3f
       0.37202016 0.6459734 0.084065534 0.7483608
000030 37 a7 6e 3f 9f 3f 38 3f 83 79 71 3e b1 6a 1c 3f
       0.932239 0.7197208 0.2358151 0.611003
000040 24 bd 97 3d fb b0 75 3f 79 27 78 3f 7c d1 6a 3f
       0.074091226 0.95973176 0.9693523 0.917259
000050 08 5b 8f 3e e8 9d fb 3e f8 ec 52 3f ba d5 4e 3f
       0.2799914 0.4914391 0.82392836 0.8079487
000060 36 c9 6f 3f
       0.936664

firstGCN.attentionLayer.inAttention.W_alpha f4 [5, 5]
000000 fd 93 d6 3d cf d4 ba 3e bb 93 36 3f 19 a2 aa 3e
       0.10477445 0.36490485 0.7131917 0.33326796
000010 6c 5d f8 3e 65 1e 6e 3f f9 db 37 3f 2b c4 85 3e
       0.48508775 0.9301513 0.71820027 0.26126227
000020 23 2f 27 3f a6 96 f1 3e b3 2a 10 3f 1b 60 80 3f
       0.653063 0.47185248 0.56315154 1.0029329
000030 a2 b5 57 3f 7e f1 68 3e 56 3d eb 3d 7a 72 8d 3e
       0.84261525 0.22748372 0.11486308 0.276264
000040 47 bc 86 3d 70 d6 41 3f bc 77 26 3e 3f d8 27 3f
       0.0657888 0.7571783 0.16256613 0.6556434
000050 b6 70 1c 3f b8 df 16 3f be c8 8d 3c d6 e5 17 3f
       0.61109483 0.5893512 0.017307635 0.59335077
000060 b2 be e8 3e
       0.4545799

firstGCN.attentionLayer.inAttention.a_alpha f4 [5, 1]
000000 8b ae 1c 3f 00 9e 5f 3c 9b 12 3c 3f 4e 48 1d 3f
       0.6120383 0.01364851 0.7346589 0.61438453
000010 18 ea 4a 3f
       0.7926345

firstGCN.attentionLayer.inAttention.b_alpha f4 [5, 1]
000000 f0 cc 2a 3f 3e b6 79 3f 72 fd 2e 3f 84 b9 52 3f
       0.6671896 0.97543705 0.68355477 0.82314324
000010 fc b5 7c 3e
       0.24678797

firstGCN.attentionLayer.outAttention.W_sum f4 [5, 5]
000000 12 c2 01 3e 61 20 60 3f 2e 96 a5 3d 2a eb 19 3e
       0.12671688 0.87549406 0.08085285 0.15031114
000010 c1 f7 4b 3f f5 8e 9e 3d d5 f5 b3 3e 12 27 3a 3f
       0.7967492 0.07742111 0.35148492 0.72715867
000020 07 ce 74 3f b0 f2 62 3e cf 4f 5b 3f 76 fc 26 3f
       0.9562687 0.2216289 0.85668653 0.65228975
000030 b4 fe 51 3f 40 2b 73 3e 11 41 d1 3d d5 bb 7a 3f
       0.8202927 0.23746967 0.102174886 0.9794286
000040 b9 74 9c 3e 39 90 37 3f 9a 88 34 3f 96 16 0d 3f
       0.30557802 0.7170444 0.7052094 0.5511259
000050 6a 73 02 3d 0e c1 57 3e 06 03 7f 3f d8 e8 3e 3f
       0.03184835 0.21069738 0.9961399 0.7457404
000060 40 93 f4 3e
       0.47768593

firstGCN.attentionLayer.outAttention.W_alpha f4 [5, 5]
000000 9d ae 16 3f 4d 5f 5b 3f 17 b6 aa 3e d2 55 69 3d
       0.5886019 0.8569229 0.3334205 0.05696661
000010 d5 42 12 3f a1 3e 1f 3f 29 a8 6a 3f a9 58 ec 3e
       0.5713323 0.6220494 0.9166284 0.46161392
000020 f9 83 60 3f 0d 3e 66 3e 64 b2 6f 3f ee b0 d1 3d
       0.87701374 0.22484608 0.9363158 0.10238825
000030 1b b8 a6 3d 04 1e 15 3f 35 fe 81 3d 3b ca 93 3e
       0.08140584 0.58248925 0.06347314 0.28865227
000040 bc e4 0a 3e 90 7e a0 3e 6d 30 35 3f 2a 32 6d 3f
       0.13563818 0.3134656 0.70777017 0.9265467
000050 4e 8e 42 3f 76 e9 23 3f c4 53 13 3c 0c 64 51 3f
       0.7599839 0.6402811 0.008992139 0.81793284
000060 8c a1 17 3e
       0.14807719

firstGCN.attentionLayer.outAttention.a_alpha f4 [5, 1]
000000 c2 02 26 3f 8c 4c 1d 3f fe b8 9f 3e 4a 9d f2 3e
       0.6484796 0.61444926 0.31195825 0.47385627
000010 55 64 5b 3f
       0.8569997

firstGCN.attentionLayer.outAttention.b_alpha f4 [5, 1]
000000 99 9d 34 3f fa f5 08 3f a8 a4 fc 3e a5 51 e5 3e
       0.70552975 0.5350033 0.49344373 0.44788852
000010 9e 80 a8 3e
       0.32910627

firstGCN.linearLayer.weight f4 [5, 10]
000000 77 12 77 be 71 ae 96 be ea f8 9e 3e b2 12 51 bd
       -0.24128138 -0.29429963 0.3104928 -0.05104322
000010 2e 9a 56 3e 61 2e 8d 3e fa 58 05 be 89 31 22 bd
       0.20957252 0.27574447 -0.13022223 -0.03959802
000020 4c 52 17 bd 10 eb 47 be 1c 43 76 3e 32 9a ca bd
       -0.03694372 -0.19523263 0.24049038 -0.09892692
000030 ce 95 e3 ba 5e 04 93 3e 03 d0 16 be 72 a0 91 be
       -0.0017363371 0.2871427 -0.14727788 -0.28442723
000040 84 fe 26 be e7 ad 81 3e 76 5e 49 3d f4 aa c3 bd
       -0.16308028 0.2532799 0.04916235 -0.09554091
000050 9b 6b 82 3d 22 bf 4d 3e 06 90 4b 3e e1 a0 12 be
       0.0636818 0.20092443 0.1987916 -0.14319183
000060 7a 73 93 3a 3f 81 92 bc 26 32 69 3d 47 e5 91 be
       0.0011249625 -0.017883895 0.05693259 -0.28495237
000070 ef 03 09 be ed 55 80 3e 62 10 49 3e c5 0f 85 be
       -0.13380407 0.25065556 0.19635156 -0.25988594
000080 03 48 16 3e 1c c4 e9 bd 6e 34 08 be 9e 4c 80 be
       0.14675908 -0.11414358 -0.1330125 -0.25058454
000090 b6 79 5d be 32 62 3c 3d e0 fa 64 3e 47 a0 6e 3e
       -0.2162846 0.045992084 0.22361326 0.23303328
0000a0 9a 9e 4a bd 46 af a1 3e 92 e0 88 3e 04 ea 95 bd
       -0.04946766 0.31579036 0.26733834 -0.073200256
0000b0 e0 85 03 3e d6 7f 16 3e 20 8d bf bd 90 52 99 3e
       0.12844038 0.14697203 -0.09353089 0.29945803
0000c0 56 ce 8e be 3e 9c 3f 3e
       -0.27891797 0.18711945

firstGCN.linearLayer.bias f4 [5]
000000 ac a5 9c 3d 48 ff 5c be 38 bf 5e bd cc 7a be bc
       0.07648787 -0.21581757 -0.05438158 -0.023251913
000010 50 b9 cb 3d
       0.09947455

secondGCN.attentionLayer.linear.weight f4 [5, 10]
000000 c6 48 bb 3d 12 9b 7b be 6f 90 15 be 19 10 01 be
       0.0914474 -0.24570873 -0.14605878 -0.12603797
000010 f6 c7 32 3c a6 e0 bc bd eb 3f 2e 3d 81 1b c6 bc
       0.010911932 -0.09222536 0.042541426 -0.024183037
000020 69 ca 3f 3e 40 15 9b 3e c8 f5 06 bc 20 23 ab bd
       0.18729557 0.3028965 -0.00823731 -0.08356309
000030 8a 65 7d 3c 58 b7 9c bc 58 2e fe bc 5d 1f fe 3d
       0.015466103 -0.019130394 -0.031027958 0.12408326
000040 70 c4 7b bc b4 bb 96 3e e7 ef 8d be 63 ab 09 bd
       -0.015366659 0.2944008 -0.27722093 -0.033610713
000050 aa 42 ce 3d aa 8a 84 3e 32 6c 98 3e c5 51 25 3e
       0.10071309 0.25887042 0.29770046 0.16144474
000060 e2 e0 9e 3e 9e 2f 9e 3e 9f 13 6f be 37 11 f5 3c
       0.31030947 0.30895704 -0.23347329 0.029915435
000070 0b a5 b6 bd 7c 1a fb bd 83 ce 0d be 69 04 ff 3d
       -0.08918198 -0.12260911 -0.13848309 0.12452013
000080 84 f9 82 3e 9c 00 61 3e 49 30 90 be 05 d8 8d 3e
       0.2558099 0.21972889 -0.2816184 0.27703872
000090 6a d0 5b be 2e e7 e1 3d 03 1a 9f 3e d6 d4 10 bd
       -0.21466222 0.11030422 0.31074533 -0.035359226
0000a0 49 4a 58 3e 26 80 59 3e e5 58 98 be 4b 8b 88 be
       0.21122088 0.21240291 -0.2975532 -0.26668772
0000b0 a6 16 d4 bc 03 76 01 bd b7 ff 95 3d 4c 12 3d 3e
       -0.025889706 -0.031606685 0.07324164 0.18464011
0000c0 d9 53 82 3d 72 fe 2e bd
       0.06363649 -0.042723127

secondGCN.attentionLayer.linear.bias f4 [5]
000000 64 7f 3b 3e b3 ea 27 3d 7f 48 0c be 6f f6 16 3e
       0.18310314 0.04099531 -0.1369953 0.14742444
000010 80 0d 1e 3d
       0.038587093

secondGCN.attentionLayer.inAttention.W_sum f4 [5, 5]
000000 37 5e 35 3f c4 0c 85 3e 87 12 03 3f b0 7f b0 3d
       0.70846885 0.25986302 0.51200145 0.086181045
000010 64 47 48 3f 08 82 eb 3e e0 41 56 3f 8e 04 12 3f
       0.78233933 0.45997643 0.8369427 0.570382
000020 20 20 f1 3c ae e7 7a 3f fb ab 66 3f 6c 53 22 3f
       0.029434264 0.98009765 0.9010617 0.6340854
000030 b8 b9 6d 3e 38 5e d9 3d 08 d8 36 3f 94 90 7d 3f
       0.23215377 0.10613674 0.7142339 0.99048734
000040 c7 3e 11 3f 8e ce ee 3e 5c 9d 36 3f ec 78 72 3e
       0.56736416 0.46641964 0.7133386 0.2367894
000050 b2 68 1f 3f f8 58 1d 3f b2 ee 97 3e 70 64 1b 3d
       0.6226913 0.6146388 0.29674298 0.03793758
000060 ea 50 c3 3e
       0.3814767

secondGCN.attentionLayer.inAttention.W_alpha f4 [5, 5]
000000 f5 d8 0b 3f 10 8f 2d 3f 0d ce 22 3f 78 6a 6d 3f
       0.54627925 0.6779642 0.6359566 0.92740583
000010 cf 4e 2d 3f 82 f4 94 3e 88 11 45 3e bc 1c 11 3e
       0.6769838 0.29092795 0.19244969 0.14171118
000020 c4 c1 29 3e e3 2c 78 3f 6c 76 61 3f 82 76 77 3f
       0.16577822 0.9694349 0.8807132 0.96665204
000030 3b e8 38 3f 5e 2d 69 3f 3b 24 5d 3f a0 a6 b5 3d
       0.72229356 0.9108485 0.8638341 0.08869672
000040 f4 e6 29 3f 4c 70 9d 3e c6 54 58 3f e8 5f 30 3e
       0.6636803 0.30749738 0.84504354 0.17224085
000050 e8 76 cf 3e 1c f3 0c 3e a2 16 a1 3e a0 60 ca 3e
       0.40520406 0.13764614 0.3146258 0.39526844
000060 67 c0 7f 3f
       0.9990296

secondGCN.attentionLayer.inAttention.a_alpha f4 [5, 1]
000000 b0 3a 18 3f 71 b0 31 3f 9c 26 75 3e f3 d2 18 3f
       0.5946455 0.69409853 0.2394051 0.5969688
000010 14 be 25 3e
       0.1618579

secondGCN.attentionLayer.inAttention.b_alpha f4 [5, 1]
000000 62 62 56 3f bc 27 31 3e 37 50 00 3f d4 dc 78 3e
       0.8374387 0.17300314 0.501224 0.24302989
000010 69 50 70 3f
       0.93872696

secondGCN.attentionLayer.outAttention.W_sum f4 [5, 5]
000000 7c a4 19 3e d8 29 89 3e a6 03 59 3f 0d 00 3f 3f
       0.15004152 0.26789737 0.8477119 0.7460945
000010 f6 c2 b2 3e c0 a8 ef 3c 08 03 60 3f dd 26 24 3f
       0.34914368 0.029255271 0.87504625 0.641218
000020 80 83 69 3d 2b 83 47 3f 5a e7 00 3f 5f c8 6c 3f
       0.057010174 0.7793452 0.50353014 0.9249324
000030 00 e2 dc 3d 10 eb 7f 3e e3 bb 47 3f 8c fc 9d 3e
       0.107852936 0.24992013 0.7802107 0.3085674
000040 90 b9 1d 3e 54 6d ce 3e c3 29 5b 3f 1c c0 69 3f
       0.15402818 0.40317786 0.856106 0.9130876
000050 f0 14 3b 3d c0 1d b9 3e 30 da 69 3f 80 65 44 3d
       0.045674264 0.3615551 0.9134855 0.04794836
000060 a9 54 34 3f
       0.7044168

secondGCN.attentionLayer.outAttention.W_alpha f4 [5, 5]
000000 94 31 2a 3f 14 e6 d0 3e 20 8c 0d 3e e6 f3 65 3f
       0.664819 0.40800536 0.13822985 0.89825284
000010 40 89 10 3e c1 6c 32 3f 8a 1c 6e 3f b0 b6 68 3d
       0.14114857 0.69697195 0.930123 0.05681485
000020 60 3d 5c 3d 9c e2 3b 3f d0 52 52 3f 5e e7 af 3e
       0.05376947 0.73392653 0.8215761 0.34356207
000030 a7 00 1e 3f 10 8b 23 3f 86 76 d1 3e 64 44 bd 3e
       0.61719745 0.6388407 0.4091074 0.3696624
000040 b9 2e 02 3f 3c 89 94 3e 3b f0 27 3f ea 29 87 3e
       0.50852543 0.29010952 0.6560094 0.26399165
000050 00 2d 80 3b a4 fe 5a 3e a9 68 3d 3f df ad 04 3f
       0.0039116144 0.213862 0.73987824 0.51827806
000060 8a cd 01 3f
       0.5070425

secondGCN.attentionLayer.outAttention.a_alpha f4 [5, 1]
000000 70 47 85 3d 1a 84 d7 3e 79 f1 5b 3f 40 ff d5 3e
       0.06507766 0.42092973 0.85915333 0.41796303
000010 a8 53 f8 3e
       0.48501325

secondGCN.attentionLayer.outAttention.b_alpha f4 [5, 1]
000000 be 61 b0 3e 80 e7 bb 3c e4 22 73 3f 1b 80 54 3f
       0.3444957 0.022937536 0.94975114 0.83007973
000010 e0 4c 0d 3e
       0.13798857

secondGCN.linearLayer.weight f4 [5, 10]
000000 9c 52 ba 3d 41 a1 27 3e 5a 30 9f 3e b3 ee 96 be
       0.09097788 0.16370107 0.31091577 -0.29478988
000010 ca b9 22 be 76 99 b6 3d c2 62 ca 35 60 e5 95 be
       -0.15891185 0.08915989 1.5078915e-06 -0.29276562
000020 a3 a8 0f be 3a 31 10 3e 2c bf 83 be e6 2b 99 be
       -0.14029174 0.14081278 -0.2573179 -0.29916304
000030 5a 42 35 be d8 2a 74 3d 1f d6 32 be 7f c8 82 3e
       -0.17701092 0.05961117 -0.17464493 0.2554359
000040 fa d8 c5 3d 66 d4 55 be fa ad 55 3e 16 1f a1 be
       0.096605256 -0.20881805 0.20867148 -0.3146903
000050 41 cb 6e bd f7 4c 2b bd ee 8f 12 be dc e2 1a 3e
       -0.058299307 -0.041821446 -0.14312717 0.15125602
000060 b9 c9 4e 3e 27 ba ed 3d 55 fa 9a be 87 51 87 3d
       0.20194139 0.11607771 -0.30269113 0.06607347
000070 95 15 21 3e 81 41 08 bd da d4 c6 3d 46 58 d2 bd
       0.15730889 -0.033265594 0.09708567 -0.10270743
000080 26 96 db 3d bb 86 0d bd d3 f0 e1 bc fc d1 24 be
       0.10721998 -0.034552317 -0.027580654 -0.16095728
000090 80 3b 7d be 01 16 76 be 79 eb 65 bc f9 a5 2b be
       -0.24729729 -0.24031831 -0.014033192 -0.16762532
0000a0 18 d0 85 3e 4a 31 d4 bb 1d c6 fe 3d 82 82 83 3e
       0.26135325 -0.0064756023 0.12440131 0.25685507
0000b0 6d 4e 7d 3e 8d 55 fd 3d 3c 17 29 bd a5 43 70 be
       0.24736948 0.12369833 -0.041281924 -0.23463304
0000c0 db 52 0b be 4b 66 18 be
       -0.13605826 -0.14882772

secondGCN.linearLayer.bias f4 [5]
000000 0f ad d8 bd ac f4 b3 bd 1a e5 5a 3d 9a 4c 74 3e
       -0.10579883 -0.08786902 0.053441145 0.23857346
000010 74 b7 78 3e
       0.24288732

thirdGCN.attentionLayer.linear.weight f4 [5, 10]
000000 8e 99 37 be 83 6b 87 be 6e 60 63 3e eb 22 65 be
       -0.1792967 -0.26449212 0.22204754 -0.22376601
000010 f7 5b 81 bd 42 e0 9a be 2b 14 59 3d e9 55 fa 3d
       -0.06316369 -0.3024922 0.05299775 0.12223417
000020 76 35 8b 3e 12 d6 d2 bb 50 de 7c 3e 0d bf d3 3c
       0.27189225 -0.0064342106 0.2469418 0.025847936
000030 a8 a8 af 3d 9f a3 2b 3e bb fe c9 bd 60 b7 95 3e
       0.085770905 0.16761635 -0.09863039 0.29241467
000040 c1 28 01 be 9e 43 75 3e 99 5c 13 be a6 6a 91 3c
       -0.12613203 0.23951575 -0.14390792 0.01775105
000050 1b 5a 8c be 7c cc b5 bd 29 b8 82 be 7a ef 90 bd
       -0.27412495 -0.08876893 -0.25531128 -0.070769265
000060 5e 5f 3d be 81 0b fb bd ad 49 57 3e 3f 7d a1 be
       -0.18493411 -0.122580536 0.21024199 -0.31540868
000070 a0 55 27 3e 99 22 5b 3e d0 a0 16 bb b3 b6 44 3e
       0.16341257 0.21399917 -0.0022984035 0.19210319
000080 a5 4e 92 be bb 09 3f be e9 51 87 3e 44 b3 0e bb
       -0.28575626 -0.18656056 0.2642968 -0.002177433
000090 a3 c5 74 3e b7 36 85 3e 4d 6e 8d 3e 2d d0 db 3c
       0.23903517 0.26018307 0.27623215 0.026832664
0000a0 4c 91 c3 3d 66 20 6f be 78 4d dd 3b 75 03 59 be
       0.095491976 -0.23352203 0.0067536198 -0.21192725
0000b0 7f b2 90 be 71 ed 86 3d 50 4b 96 3e 80 0d de 3c
       -0.28261182 0.06588257 0.29354334 0.027106047
0000c0 50 b2 ce 3d ae ee 85 bc
       0.10092604 -0.016349163

thirdGCN.attentionLayer.linear.bias f4 [5]
000000 82 1e 2e be c0 16 c8 3d 52 2f 00 be 55 4a 44 3e
       -0.17003825 0.09769964 -0.12518051 0.1916898
000010 d0 72 40 be
       -0.18793797

thirdGCN.attentionLayer.inAttention.W_sum f4 [5, 5]
000000 98 77 d7 3d 9c e2 27 3f e3 a5 07 3f f4 ae be 3e
       0.105208576 0.65580153 0.529875 0.37242854
000010 45 c3 11 3f ed 37 31 3f ab 5e 64 3f 66 7a 3e 3f
       0.5693858 0.6922596 0.8920695 0.74405515
000020 34 7c 32 3f 0e 0a 22 3f 00 4a e6 3a 70 e7 af 3e
       0.6972077 0.6329659 0.0017569661 0.3435626
000030 ca a9 c5 3e 10 22 15 3f 44 33 3d 3e 4a b6 be 3e
       0.386061 0.582551 0.18476588 0.3724845
000040 55 b1 24 3f 8c b6 cc 3e 57 72 0a 3f 20 49 3d 3d
       0.6433309 0.39983022 0.5408072 0.046212316
000050 c8 bb bb 3d 9d 21 13 3f 00 8e 10 3c 5a 66 7d 3f
       0.09166676 0.57473165 0.008822918 0.989843
000060 b8 9d 42 3f
       0.7602191

thirdGCN.attentionLayer.inAttention.W_alpha f4 [5, 5]
000000 b0 5b c2 3e 92 d6 1f 3f e8 de ec 3e 7f b3 5c 3f
       0.37960577 0.62436783 0.46263814 0.8621139
000010 7b 74 44 3f 13 fc 4a 3f 08 64 0c 3f 20 39 60 3e
       0.76740235 0.79290885 0.54840136 0.21896791
000020 20 5e c6 3e bc 41 04 3f 00 0e 5b 3e 4c a0 05 3e
       0.38743687 0.516628 0.2139206 0.1304943
000030 2a 74 30 3f cc 49 5e 3e 7a 03 fe 3e 5c aa 3b 3f
       0.6892725 0.21707839 0.49612027 0.7330682
000040 04 53 21 3e 25 b1 69 3f af 9c 47 3f ea 85 42 3f
       0.15754324 0.91285926 0.77973455 0.75985587
000050 29 3e 20 3f 95 40 2a 3f 31 1a 44 3f 05 aa 19 3f
       0.6259485 0.66504794 0.76602465 0.60025054
000060 88 52 2b 3e
       0.16730702

thirdGCN.attentionLayer.inAttention.a_alpha f4 [5, 1]
000000 da c0 04 3f 44 de cb 3e f2 fd dd 3e 86 44 66 3f
       0.5185677 0.39818013 0.43357807 0.8994831
000010 60 26 7f 3d
       0.062292457

thirdGCN.attentionLayer.inAttention.b_alpha f4 [5, 1]
000000 92 74 c2 3e d8 eb 62 3f 40 bf e2 3e 54 de fa 3e
       0.3797956 0.8864112 0.44286537 0.48997748
000010 72 7a a2 3e
       0.31734043

thirdGCN.attentionLayer.outAttention.W_sum f4 [5, 5]
000000 ea 14 19 3f f4 ca 74 3e 04 b5 36 3f f8 37 6c 3f
       0.5979754 0.23905545 0.7136996 0.922729
000010 fc 2d e4 3e 0d 76 7e 3f 38 56 5e 3e 22 10 c5 3e
       0.44566333 0.9939888 0.21712577 0.3848887
000020 bb 7c 0f 3f c0 be d3 3d 60 de da 3c 52 db c0 3e
       0.560497 0.10339117 0.026717365 0.37667328
000030 6d 20 34 3f 98 1c 51 3f 74 b3 23 3e 3e c0 c5 3e
       0.7036198 0.81684256 0.15986425 0.38623232
000040 0e dc f8 3e ba bf 90 3e d8 39 16 3e da 6b 68 3f
       0.48605388 0.28271276 0.14670503 0.9078957
000050 43 c3 5e 3f 6a f0 3e 3f 76 a7 26 3f 48 04 7f 3f
       0.87016696 0.7458559 0.65099275 0.9961591
000060 04 db e7 3e
       0.45284283

thirdGCN.attentionLayer.outAttention.W_alpha f4 [5, 5]
000000 34 2e 21 3e cf ac 65 3f e4 a6 50 3f d8 6f 96 3d
       0.15740281 0.8971681 0.81504655 0.07345551
000010 cd 5e 74 3f 70 4d 3d 3d b4 70 29 3f 4a 51 85 3e
       0.95457155 0.04621643 0.66187596 0.2603858
000020 f6 2a dc 3e 1e 63 39 3f 0e ba a1 3e 63 86 31 3f
       0.43001527 0.72416866 0.3158726 0.6934568
000030 e0 39 4d 3d 64 29 3f 3f b3 be 6a 3f ea ad b4 3e
       0.050104022 0.7467253 0.91697234 0.35288936
000040 ee e9 b8 3e 2d c9 40 3f 3a 2b f8 3e 0c 50 62 3e
       0.36115974 0.7530697 0.4847048 0.22100848
000050 1c d9 17 3f 7c 36 4c 3e 0c 9f 47 3f b0 f1 38 3d
       0.5931566 0.19942659 0.7797706 0.045152366
000060 cc 4c 14 3f
       0.5792968

thirdGCN.attentionLayer.outAttention.a_alpha f4 [5, 1]
000000 f9 50 66 3f 69 f8 1c 3f 5b f5 46 3f 25 81 25 3f
       0.89967304 0.61316544 0.7771813 0.64650184
000010 1e 45 c8 3e
       0.39115232

thirdGCN.attentionLayer.outAttention.b_alpha f4 [5, 1]
000000 50 4b ff 3d 3e 3e f3 3e 10 0b 5f 3e 88 be eb 3e
       0.124655366 0.47508425 0.21781564 0.460438
000010 40 33 2b 3f
       0.66875076

thirdGCN.linearLayer.weight f4 [5, 10]
000000 b9 9e f1 bd 2d e2 33 be a6 9f a3 3d c4 78 a1 be
       -0.11797852 -0.17566748 0.07989435 -0.3153745
000010 8a ab bf bd 34 5c 9e bd 60 f4 a6 3d 18 dd 8c be
       -0.0935889 -0.0773243 0.081520796 -0.2751243
000020 ed 0a 02 3e 63 18 f1 bb 8e a6 91 3d eb d4 d1 3d
       0.1269948 -0.0073576435 0.07111846 0.10245689
000030 5d 65 8a be 42 02 d2 3d f0 5a 65 3e 42 bc 9e be
       -0.2703046 0.10254337 0.22397971 -0.31003004
000040 0f 15 43 be 12 a9 0f be 3d 06 01 be 8f 3b f0 3d
       -0.19051002 -0.14029339 -0.12600036 0.1173011
000050 77 d0 cd 3d fb fd 8f be 7c d9 fe 3d 1a 83 88 be
       0.10049527 -0.2812346 0.124438256 -0.26662523
000060 ea 92 dc 3d df a0 e3 bb 6c 9e 7d 3e 97 21 86 bc
       0.10770209 -0.0069466676 0.24767464 -0.016373439
000070 68 38 eb bb ff 08 6f 3d 5f 4d 9d 3d 30 12 89 be
       -0.007178355 0.05835819 0.07680773 -0.26771688
000080 a3 55 24 be 5c 9b 91 3e 02 c7 9e 3e 80 71 ea 3a
       -0.16048293 0.28438842 0.31011206 0.0017886609
000090 81 53 cb 3d de ec b3 3c d8 5e ea 3d c7 74 2e 3e
       0.099280365 0.021963533 0.11443871 0.17036735
0000a0 81 c9 71 3e 92 43 6f be 17 4e 94 be dd 9f 39 3d
       0.23612024 -0.2336562 -0.28965828 0.045318473
0000b0 58 ca d1 3d d8 dd 8c 3e fe 04 28 3e cf ab 07 3d
       0.10243672 0.27513003 0.16408154 0.033122834
0000c0 b3 55 2b 3d c4 61 38 be
       0.041829776 -0.18006045

thirdGCN.linearLayer.bias f4 [5]
000000 9d fe 8c 3d 3c a7 69 3e 7f 40 9a 3e 48 93 22 3e
       0.06884501 0.22817701 0.30127332 0.15876496
000010 41 42 c2 bd
       -0.09485293

ff4.weight f4 [5, 5]
000000 ac 0e 60 be 8e eb e6 3d ca 9b c5 be 3c 36 d9 3e
       -0.21880597 0.11275397 -0.3859542 0.4242419
000010 7d 5e 46 be 76 86 02 3e 4d 0e 84 bd d9 ab 69 3d
       -0.19371982 0.12746605 -0.0644804 0.057048652
000020 1c f3 d8 be 03 e9 a7 3e 64 bb 6a 3e 2b 76 c3 3d
       -0.42372978 0.3279496 0.22923046 0.09544023
000030 d7 a3 ac bb 12 f8 92 3d 66 65 07 be c5 50 9a be
       -0.0052685547 0.07176222 -0.13222274 -0.30139747
000040 2b d2 64 3e 39 e2 38 be b1 3f 6e 3e ba 75 36 3b
       0.22345798 -0.18055047 0.23266484 0.0027841167
000050 54 4f 56 be eb ec 8f bd 86 cb 51 3f d0 73 59 3f
       -0.20928699 -0.070276104 0.8195118 0.8494234
000060 6f 50 7f be
       -0.24933027

ff4.bias f4 [5]
000000 17 f4 53 3e 96 d7 e9 3d 5c 9a a9 be f8 15 3b be
       0.20698582 0.11418073 -0.3312558 -0.18270099
000010 39 44 07 3e
       0.13209619

ff5.weight f4 [5, 5]
000000 4f 93 6a be ff 5c 90 3e 44 62 68 3e 64 aa aa 3d
       -0.22907756 0.2819595 0.22693735 0.08333281
000010 51 ff 91 bd ac e6 61 3e 05 41 94 3e 0e bb 3b be
       -0.07128776 0.2206065 0.28955856 -0.18333074
000020 ec f7 7a 3e 68 fd 7e be b9 90 52 bd 0d f0 80 bc
       0.24508637 -0.24901354 -0.05140755 -0.015739465
000030 66 e9 da be be 10 dd 3e f2 4b aa bc fd 74 7c be
       -0.42756194 0.43176836 -0.020788167 -0.24654002
000040 eb 86 a3 be 8b d0 a8 3e 79 c5 5d 3e 75 a4 95 be
       -0.31938872 0.32971606 0.21657361 -0.29227033
000050 63 41 9e bd 08 9b 96 be 5e 34 d3 be e2 a8 6f 3e
       -0.07727315 -0.29415154 -0.4125089 0.23404267
000060 e6 4c 85 be
       -0.2603523

ff5.bias f4 [5]
000000 2b 7f d6 be ec e1 86 3c 86 bc c4 be 97 4c 2a 3e
       -0.41893896 0.01646515 -0.38425082 0.16630779
000010 39 01 bf 3e
       0.3730562

ff6.weight f4 [20, 5]
000000 4e e4 51 be 8c 42 c9 3e 22 99 b9 be b8 1b b1 3e
       -0.20497248 0.39308584 -0.36249644 0.3459146
000010 0e 10 e1 be e6 39 d3 3e 63 e9 45 be 6e 91 5b 3e
       -0.4395756 0.4125511 -0.19327311 0.21442196
000020 bc 62 94 be 7c a8 da be 66 d9 e9 be 78 cd 9e 3e
       -0.28981578 -0.42706668 -0.45673674 0.31016135
000030 11 d1 02 be 6d c9 b0 3e 86 06 c5 be 35 ea ae 3e
       -0.12775065 0.34528676 -0.3848154 0.3416306
000040 ce 93 96 3e e4 63 83 ba b3 ea 8c 3e e1 77 b1 be
       0.2940964 -0.0010024277 0.2752281 -0.34661773
000050 06 ba 33 3e 60 9f 52 bd b2 ab d4 bd 0b 81 a2 3e
       0.17551431 -0.051421523 -0.10384311 0.31739077
000060 6c 25 b0 be fb 6d 16 3e 71 b2 50 be 2c 13 3f 3e
       -0.3440355 0.14690392 -0.2038057 0.18659657
000070 ad 3e 43 be 8e ab a2 be 55 3a 3b be 7f f3 8a 3e
       -0.19066878 -0.3177151 -0.1828397 0.27138898
000080 84 b7 d9 be 33 95 41 3e 82 ae 03 bf a0 dc 83 3e
       -0.42522824 0.18904571 -0.5143815 0.2575426
000090 0e d8 50 be 29 11 af 3e 8b 90 08 3e cd 80 b0 be
       -0.20394918 0.3419278 0.13336389 -0.34473267
0000a0 23 38 e0 3d 09 f2 28 be a8 49 c2 be c2 36 26 bc
       0.10948207 -0.16498579 -0.3794682 -0.010144891
0000b0 3c ba 9e be 90 68 2a 3e f0 11 d8 3e 8b 51 59 be
       -0.3100146 0.1664145 0.42201185 -0.21222512
0000c0 a3 ec 36 be 3a e5 99 be 07 45 af 3e 84 9a f2 bc
       -0.17863707 -0.30057698 0.3423235 -0.029614694
0000d0 5d fe a7 3e 93 1b c1 3e 06 1d c1 be b0 90 0d bd
       0.3281125 0.3771635 -0.37717456 -0.034561813
0000e0 27 9c c0 3d 3e a4 93 3b 81 62 8e be 59 f3 fa be
       0.09404784 0.004505663 -0.27809528 -0.49013785
0000f0 c9 8b 23 3f 15 fc 5e 3e f6 3f f3 3d ae b0 7c 3e
       0.6388517 0.21775849 0.11877434 0.24676773
000100 73 b4 45 be c2 d4 05 be 47 88 91 be 80 07 83 be
       -0.19307117 -0.13069442 -0.28424284 -0.2559166
000110 49 86 fb bb 3a e4 ec be a0 c6 a2 3c db b0 da be
       -0.00767592 -0.46267873 0.019870102 -0.42713055
000120 81 11 88 bd 88 a8 0c be 5b 23 99 be 4d 93 5f be
       -0.066439636 -0.13736165 -0.29909787 -0.21833535
000130 cd da ca 3c 41 80 45 3d c1 b3 6c be a8 b7 d2 be
       0.024762535 0.048218016 -0.23115446 -0.41155744
000140 18 7d 7b 3e 4f eb 97 3e 06 d3 34 3e 2f 9d c3 3e
       0.24559438 0.29671714 0.17658624 0.3820586
000150 d0 81 c2 be bc 03 d9 be 6b c8 d9 be bc a7 e8 3d
       -0.37989664 -0.42385662 -0.4253572 0.11360118
000160 32 90 ca be b0 6d 7c be 88 36 ac be 3a ec 44 be
       -0.39563137 -0.24651217 -0.33635354 -0.19230738
000170 e6 79 38 3d ae 9a 86 be af bb ba be b8 b6 9f be
       0.045038126 -0.26289886 -0.36471316 -0.3119409
000180 bb 5d cb 3e 74 d3 bd 3e 63 47 b3 3e 19 67 f3 be
       0.39719948 0.37075388 0.350154 -0.47539595

ff6.bias f4 [20]
000000 10 3c fd be a9 ed e4 3d a0 05 b8 3d 30 10 04 bf
       -0.49459887 0.111781426 0.08985448 -0.515872
000010 de 47 9f be 6f 17 8f be 36 9a 68 bd 4f ae 35 be
       -0.31109518 -0.27947566 -0.056787692 -0.17742275
000020 56 a4 fa be 78 4d bc be 0f 55 d1 be f3 d6 32 3e
       -0.48953503 -0.36777854 -0.40885207 0.17464809
000030 29 d9 2e 3e e9 d1 38 3e e1 5c 84 be eb 57 ca be
       0.17075028 0.18048824 -0.2585211 -0.395202
000040 4d 5d 45 be d9 a7 0c bf b6 fa 9d be 2f 78 d6 be
       -0.19273873 -0.54943615 -0.3085534 -0.41888568
