code/ml_model/useless_models/model_weights_m6p8n20_lr0.100000_bs30_epochs10.pth (torch, 22066 bytes, 48 tensors)

ff1.weight f4 [5, 5]
00000000: 1846 b7be 6ab5 273e a0e6 b83e b360 b63e
00000010: fabc 5e3e 814a b1bd 691f 8dbe 0494 c73e
00000020: da36 cd3e 983e b93e 2610 c3be 708a 5bbe
00000030: d9b9 a9bd b7f4 c63e 238d 5c3e 253f 133e
00000040: 518c a53e a2d3 803e 6f48 6d3e bc0d 9f3e
00000050: 6b6b a23e cb16 9f3d 1e7c acbe 8905 e6bd
00000060: 733f 9ebe
-0.35795665 0.16377798 0.36113453 0.3562065 0.21751776 -0.086567886 -0.27563027 0.38980114
0.4008091 0.36180568 -0.38098258 -0.21439528 -0.08287401 0.38858578 0.21538214 0.14379556
0.32333615 0.25161463 0.23172162 0.31065166 0.31722578 0.07768019 -0.33688444 -0.112315245
-0.30907783

ff1.bias f4 [5]
00000000: 6638 c4be d929 04be abe8 be3e dd49 40be
00000010: 4b6c 98be
-0.3832428 -0.12906589 0.37286887 -0.18778177 -0.2977012

ff2.weight f4 [5, 5]
00000000: 6e4a 44bd 82b5 1d3e b557 363e f6da dfbe
00000010: 7b49 3e3e 032b 96be e982 80be c6aa 443e
00000020: 5369 f8bb 7806 9c3e a02a afbe 0c1d 603e
00000030: d6ca d53d d21c bdbe 462d 62be 6382 72be
00000040: 8f1f d6be a62b 7dbd 2e74 9d3e 9602 8a3e
00000050: 4f9b 553e e296 d93e 0d2e b53e b5b0 1a3d
00000060: 1cd4 98be
-0.047922544 0.15401271 0.17806895 -0.4372174 0.18582718 -0.2932969 -0.25099877 0.1920577
-0.007580915 0.30473685 -0.34212208 0.2188608 0.104390785 -0.3693605 -0.22087583 -0.23682551
-0.41820952 -0.061809205 0.307527 0.26955098 0.20860027 0.42497927 0.35386696 0.037766177
-0.29849327

ff2.bias f4 [5]
00000000: 5da9 b53e 70b9 2fbd 1136 cfbe 2b8e 0f3e
00000010: 0e22 7abd
0.35480776 -0.042901456 -0.40470937 0.14019077 -0.061067633

ff3.weight f4 [5, 5]
00000000: 7f7b 9dbd a447 d03e 60b0 333e ce4e ddbc
00000010: e6ec 0b3e 399d d9be 30e3 88be 3ea4 d8be
00000020: 7b5a aabd 9d47 d8bc 0211 203d 37c1 393e
00000030: 6bf7 e4bd 745d 7b3e f149 d9be c73d e83d
00000040: f3f0 9b3e 40a5 143e 98da 76be a222 e23e
00000050: f9f4 853e b5c2 473e 86db b63e 1be4 ae3e
00000060: b480 60bd
-0.07689571 0.40679657 0.1754775 -0.027015116 0.13664588 -0.42502764 -0.2673583 -0.42312807
-0.08318039 -0.026401335 0.03907872 0.18140112 -0.11180004 0.24547368 -0.42439225 0.11339908
0.30457267 0.14516163 -0.24106824 0.44167048 0.26163462 0.19507869 0.35714358 0.34158406
-0.05481024

ff3.bias f4 [5]
00000000: df30 73be 9b95 98be 0d9c e23e bbec 20be
00000010: c2f4 e13d
-0.23749112 -0.2980164 0.44259682 -0.15715306 0.11033012

firstGCN.attentionLayer.linear.weight f4 [5, 10]
00000000: 647e 87be d027 973c 041c 83be 4b27 fd3d
00000010: 8b0f 3c3e 8491 f9bd a6ba 80be 634c 883e
00000020: 7eeb 7bbe 46f7 4fbe 04c2 99be 6ba1 1f3e
00000030: 503c 27be 21e6 9fbe eec6 9dbd 5123 af3c
00000040: 6f80 35be cca8 8bbe d157 853e 3259 46be
00000050: f667 83be 8c1a 5dbe f02a dcbd ecb0 6ab8
00000060: 7444 6bbe b179 f03d ae47 84be c963 5ebe
00000070: af35 06be 0334 3ebe e833 be3e da41 aa3e
00000080: 44c0 1dbc 4ff1 ed3e 6be6 cb3d 5421 653e
00000090: e008 09bc 3990 da3e 71d0 913e f2d3 e43e
000000a0: bd34 e03d 3f26 503d 2990 69be 3bf0 893e
000000b0: c246 1fbe b825 563e 967c 90be 2e21 66be
000000c0: ece5 143e 7fc2 31be
-0.26463616 0.018451601 -0.25607312 0.1236101 0.18365304 -0.12185958 -0.251424 0.26620778
-0.24601552 -0.20309171 -0.30030835 0.1558892 -0.16331601 -0.31230262 -0.077039585 0.021379145
-0.17724775 -0.2727722 0.2604356 -0.19369963 -0.25665253 -0.21592158 -0.10750377 -5.595472e-05
-0.22975332 0.11741961 -0.25835937 -0.21717753 -0.13106416 -0.18574528 0.37148976 0.33253366
-0.009628359 0.46473166 0.09956058 0.22375995 -0.008363932 0.42688158 0.2847934 0.4469295
0.10947559 0.050817724 -0.22808899 0.26941094 -0.15554336 0.20912826 -0.28220052 -0.22473595
0.14540833 -0.1735935

firstGCN.attentionLayer.linear.bias f4 [5]
00000000: bd06 37bd bc76 83bd ed5f 5cbe 75c1 af3e
00000010: 1e76 a73d
-0.04468416 -0.06419131 -0.21520968 0.34327284 0.08176826

firstGCN.attentionLayer.inAttention.W_sum f4 [5, 5]
00000000: 99a4 093f 7237 9a3e b0ff 1b3f 9ea2 713f
00000010: 1c72 5e3f 8915 193f 4061 533e 10fc 403f
00000020: 040c 1f3f f8b4 be3e 56d1 253f 584f 573f
00000030: 951c 053f 8808 413f d829 fb3e d3eb de3e
00000040: e6d6 ce3e 7f4a 343f 3561 7a3f 7868 003f
00000050: 1c92 013f 9948 fb3e 8fa3 a53c 7546 1d3f
00000060: d081 283f
0.5376678 0.30120426 0.60937023 0.9438876 0.8689287 0.59798485 0.20642567 0.75384617
0.6212771 0.37247443 0.64772546 0.84105444 0.5199674 0.7540364 0.49055362 0.43539295
0.4039833 0.7042617 0.97804576 0.50159407 0.5061357 0.49078825 0.020219592 0.61435634
0.6582308

firstGCN.attentionLayer.inAttention.W_alpha f4 [5, 5]
00000000: f184 dc3e eaa8 363f fc14 293f 4fb4 a63e
00000010: 1c9b ed3e c5c6 5c3f 93bf 873e 6ed3 d33e
00000020: 4185 c63e 41e4 753f f380 c33e 784a 5b3f
00000030: 6b13 5d3e 96d3 313f e985 883e 30fe 7c3e
00000040: 3ce4 173e 2208 013f e250 5a3e 78ff 693e
00000050: 07bd d63e 8c9c c63d c47f 503e 0896 8c3e
00000060: 1748 4e3f
0.43070176 0.7135149 0.66047645 0.3255944 0.46407402 0.862408 0.26513347 0.41372246
0.3877354 0.9605141 0.38184318 0.85660505 0.21589439 0.6946348 0.26664665 0.2470634
0.14833158 0.50403035 0.21319917 0.2285136 0.4194109 0.09697828 0.20361239 0.27458215
0.8057875

firstGCN.attentionLayer.inAttention.a_alpha f4 [5, 1]
00000000: 6c57 493e 98a3 793f 98d0 bc3e 30da 353e
00000010: f66c e73e
0.19662255 0.9751525 0.36877894 0.17759013 0.45200318

firstGCN.attentionLayer.inAttention.b_alpha f4 [5, 1]
00000000: b908 053e 10c7 323e 28b4 b03e bc1f 583f
00000010: 3710 2f3f
0.12991609 0.17458749 0.34512448 0.8442342 0.68384117

firstGCN.attentionLayer.outAttention.W_sum f4 [5, 5]
00000000: 99db 693c ceb0 673f 53fe 643f 2ad4 6c3f
00000010: ecce bc3e 2ec1 c83e a04b 8c3e e971 e83e
00000020: b9df 0d3f 7216 4a3f 0fff 793f 39c0 5c3f
00000030: 37d3 e63e 6660 543f 8ff0 c93e d6ac 6c3f
00000040: 5d03 233f 091c 493f bebb 853e 4376 7a3f
00000050: 2637 403f e27e e53c 9511 063f 2ef9 a23e
00000060: f0ca b83e
0.014273548 0.9050416 0.8945057 0.92511237 0.3687662 0.39209884 0.27401447 0.45399407
0.554195 0.789405 0.97654814 0.8623081 0.4508302 0.8295959 0.39441344 0.92451227
0.63677007 0.78558403 0.26119798 0.97836703 0.7508415 0.028014604 0.5237058 0.31830734
0.3609233

firstGCN.attentionLayer.outAttention.W_alpha f4 [5, 5]
00000000: 5951 5c3f 955e 483f 0dee 7d3e 7d9c 523d
00000010: d54f 453f 5d93 593f 52bc 1a3f b08a 6f3e
00000020: 1164 513f 1571 e83e b225 323d 7587 ab3e
00000030: 0f00 6f3f f42a ae3e eca4 c93e e788 6e3f
00000040: 4a80 153f 3e9b 483f 8642 883e 2f7f f83e
00000050: f9fa 073e 4c59 ae3e 4abf 0d3f 9e9a 6b3f
00000060: b065 263f
0.86061627 0.7826932 0.2479784 0.05141877 0.7707494 0.84990484 0.60443604 0.23392749
0.81793314 0.45398775 0.04349298 0.33501783 0.93359464 0.34017146 0.39383638 0.93177646
0.5839888 0.7836188 0.26613253 0.48534533 0.13279332 0.34052503 0.5537001 0.920328
0.6499891

firstGCN.attentionLayer.outAttention.a_alpha f4 [5, 1]
00000000: a0bc d53e 1474 4b3e 1c0f 363e 58d8 033f
00000010: a02a 1c3f
0.41745472 0.19868499 0.17779201 0.5150199 0.6100254

firstGCN.attentionLayer.outAttention.b_alpha f4 [5, 1]
00000000: 20f5 693e 0bdb bc3e 90a9 3f3e 914c c93e
00000010: c3eb d73d
0.22847414 0.36885867 0.18717027 0.39316228 0.10543015

firstGCN.linearLayer.weight f4 [5, 10]
00000000: 25b0 6f3e 8d9a 8fbe 526a 0f3e 757e 203e
00000010: ff1b 8cbd 95ed 7e3e 2c5c 8a3e d250 b23d
00000020: a58f b43d 1a22 6b3e f3d9 3e3e f432 eb3d
00000030: 133d aebd bcda 06be 926c 083e 6de1 a03e
00000040: 8a11 f33d 94d4 573c 91b2 aabd a74a 553d
00000050: 0922 b8bd b1c1 533e 8205 6a3c 38d3 463e
00000060: 9c3c 6abd eaec 7b3d 7c1f c1bd f437 01ba
00000070: c8be a7bb 9f75 7abe 770d 7c3e 3d33 f33c
00000080: cfb6 f03d 787b cbbd d98b 2abe 1fb2 62bc
00000090: 317e 873e 6e9d e63c 9284 9a3e 0a13 f93d
000000a0: 4d86 9cbe b2bf 03be ff70 62be 9431 023d
000000b0: d52a 9e3c 7dee 7fbe 5896 873e abe2 68be
000000c0: b95e 78be 613b bf3c
0.23407038 -0.280476 0.14005402 0.1567324 -0.06841277 0.24895318 0.27023447 0.087068215
0.088164605 0.22962227 0.18637829 0.11484328 -0.08507743 -0.13169378 0.13322666 0.31421986
0.1186858 0.013173241 -0.0833484 0.052073147 -0.08990867 0.20679356 0.01428354 0.19416511
-0.057186708 0.061505236 -0.09429833 -0.0004929297 -0.0051191784 -0.24458931 0.24614511 0.029687518
0.11753618 -0.09935659 -0.1665491 -0.013836413 0.26463464 0.02815124 0.30179268 0.121618345
-0.30571213 -0.12866095 -0.22113417 0.031785563 0.019307533 -0.2499332 0.2648189 -0.22742717
-0.24254884 0.023343744

firstGCN.linearLayer.bias f4 [5]
00000000: c502 abbd 4c56 d93c 3651 4e3e 54a6 9f3e
00000010: 8865 8f3e
-0.083501376 0.026530407 0.20148167 0.31181586 0.2800715

secondGCN.attentionLayer.linear.weight f4 [5, 10]
00000000: 2c2d 29be 26d8 5c3c f833 0fbc dd28 89be
00000010: 4726 83bd cc1f 0dbe e3dd f7bd 9c65 e8bd
00000020: 2488 723e 8c38 903e 0215 07bd 38f6 5abc
00000030: 7c89 283c 141a 2e3e 9a58 12be ff8c 85be
00000040: b7ef 13be 8354 0c3e 76a1 0fbd 69ad 46be
00000050: 881a c93d 21c9 b93c 5c94 19bd 640d 90be
00000060: d7b7 03bd 0fe4 66be 8af4 9b3e 1e03 05be
00000070: ee56 51be 7ded 2ebe b9bc 823e 74d8 12be
00000080: fe9b dd3d 7612 8ebd c773 6e3d 5338 5f3e
00000090: 93c9 fbbc f8e3 87be 0537 52be 7c67 debd
000000a0: 2932 973e d9ac 0fbd 3b93 9bbe e2ec 71be
000000b0: 0209 80bd e06d 443e e0ab 283e 104c 9bbe
000000c0: bd80 b33d 3c5a e03c
-0.16521138 0.013479268 -0.008740418 -0.2678899 -0.06403785 -0.13781661 -0.121028684 -0.113475055
0.23684746 0.28168142 -0.03297902 -0.013364367 0.010286685 0.17002136 -0.14291611 -0.26084134
-0.14446913 0.13704114 -0.03506609 -0.19402088 0.098195136 0.022678914 -0.037495002 -0.28135216
-0.032157745 -0.22547935 0.30460006 -0.1298947 -0.20443317 -0.17082782 0.2553461 -0.14340383
0.10820769 -0.06937115 0.058215883 0.2179883 -0.030735767 -0.26541114 -0.20528801 -0.10859582
0.29530457 -0.03507695 -0.30385765 -0.2362552 -0.06251718 0.19182539 0.16471815 -0.3033147
0.08764789 0.027386777

secondGCN.attentionLayer.linear.bias f4 [5]
00000000: 1a13 73bd 5126 903e 12a3 e7bd 255c 8ebd
00000010: 98de c9bd
-0.05934439 0.28154233 -0.113104 -0.06951169 -0.098569095

secondGCN.attentionLayer.inAttention.W_sum f4 [5, 5]
00000000: 14bd 193f 376c 783f 189c 0c3f aa4d d13e
00000010: 8d56 773f 18ea 133f b4a5 e63e ca82 363f
00000020: 7fab 583f cb1f 1a3f c191 1a3f c917 793f
00000030: a220 933e fad4 6b3f 3e34 ad3e 584a dd3e
00000040: 133e 2f3f fbb3 4e3f c502 013f 3223 e43e
00000050: bc48 603f ce7e d73e 8eec 853e 08c8 e93e
00000060: 8944 503f
0.60054135 0.9704012 0.5492568 0.40879565 0.9661644 0.57779074 0.45048296 0.7129332
0.8463668 0.6020476 0.6037865 0.9730192 0.28735834 0.9212185 0.3382892 0.43220782
0.6845409 0.8074338 0.5039485 0.44558102 0.87610984 0.42088932 0.2615704 0.45660424
0.81354576

secondGCN.attentionLayer.inAttention.W_alpha f4 [5, 5]
00000000: 32d4 ed3e 50e3 d43d 5db3 2e3f 9793 6a3f
00000010: 0053 fc3c b008 8e3e 08f2 ca3d 7e31 303f
00000020: 8806 5c3e d348 343f 00db b93b 25e4 1e3f
00000030: 00f9 b93c 8403 c73e 26a8 473f 74be 9d3e
00000040: 9ed4 533f 0646 b13e 2737 573f b89c c83e
00000050: e75e 473f 372e 633f fc07 543e 7a56 353f
00000060: 2a34 883e
0.46450955 0.10394919 0.68242437 0.91631454 0.030801296 0.27741003 0.09909445 0.6882552
0.21486866 0.7042362 0.005671859 0.6206687 0.02270174 0.3886987 0.7799095 0.30809367
0.82746303 0.34623736 0.8406853 0.39182067 0.77879184 0.88742393 0.20706171 0.7083508
0.26602298

secondGCN.attentionLayer.inAttention.a_alpha f4 [5, 1]
00000000: 17cb 083f a844 793e 28d1 963e 70b0 bc3e
00000010: 5649 5c3f
0.5343489 0.24342597 0.2945645 0.3685336 0.860494

secondGCN.attentionLayer.inAttention.b_alpha f4 [5, 1]
00000000: e796 4b3f ac16 b53e c0be d53e 57c2 0b3f
00000010: 9082 0b3f
0.79527134 0.3536886 0.41747093 0.54593414 0.544961

secondGCN.attentionLayer.outAttention.W_sum f4 [5, 5]
00000000: 65a8 4b3f 5f0d 023f 88f0 893d 1159 513f
00000010: 3148 543f 80a9 3a3d 40a4 893d 366d 533f
00000020: 7e2f 313f cc57 003e 0a20 f53e 552d 2e3f
00000030: aca1 d23e 31ab 0f3f 0e69 c13e 0cac 903e
00000040: 7c8e 7a3f 752c 0f3f 1c31 7d3f ebe6 603f
00000050: 90c2 1e3e 0053 043b e2d2 773f ead2 dc3e
00000060: 6aa1 f53e
0.79553825 0.5080165 0.06735331 0.8177653 0.82922655 0.045571804 0.06720781 0.8258852
0.6921309 0.12533492 0.47876006 0.6803792 0.4113897 0.5612059 0.37775463 0.2825626
0.97873664 0.5592721 0.9890306 0.8785235 0.15503907 0.0020191073 0.96806157 0.43129665
0.47974712

secondGCN.attentionLayer.outAttention.W_alpha f4 [5, 5]
00000000: 6810 e13d 3025 113d f390 4b3f 4337 5e3f
00000010: e2f9 c53e cbf3 373f 3abd 593f 2a12 f83e
00000020: c217 5a3f 50cb e73d dccb 733e 18be 533e
00000030: 9068 d83e 1014 1e3f c318 7a3f c867 e33e
00000040: d214 5a3f 601e cc3e 69d8 6d3f 3c95 153e
00000050: a699 4d3f 30a6 193d b7cc 603f 0009 4a3d
00000060: 42f2 a33e
0.10989457 0.035435855 0.7951805 0.8680307 0.38667208 0.71856374 0.8505436 0.48451358
0.851925 0.11318076 0.23808235 0.20677984 0.42267275 0.6174936 0.97694033 0.44415116
0.8518802 0.39866924 0.9290834 0.1460771 0.80312574 0.037512004 0.8781237 0.04932499
0.32020766

secondGCN.attentionLayer.outAttention.a_alpha f4 [5, 1]
00000000: 41ec 763f 7e71 a43e 60db 9b3c 00e5 423f
00000010: c8bc 723e
0.96454245 0.32117838 0.019025505 0.76130676 0.23704827

secondGCN.attentionLayer.outAttention.b_alpha f4 [5, 1]
00000000: 80cf b83d 15a5 203f 4bee 363f 709c 7f3e
00000010: 6423 0a3f
0.090239525 0.62751895 0.71457356 0.2496202 0.5396025

secondGCN.linearLayer.weight f4 [5, 10]
00000000: 3cc8 93be d63d 2d3c 2ff5 293d 6103 7bbb
00000010: 043b 2cbe c860 2d3c eb2e 7b3e d1da 573e
00000020: 358f 20be 51e0 43bd 2ee5 25be 9223 053e
00000030: 4837 01be e67e 60be f79c 57be 227b ebbd
00000040: f19a 8c3b 14fe 533e df94 54be 7457 7ebd
00000050: 1202 ca3c 6f87 6b3e 8ae2 8e3e 2eef 6fbe
00000060: 4894 433e 8616 4d3e 57a1 3d3e e83c da3d
00000070: 786f 82be 7bfd fc3d 28fa 243d bdf9 ba3c
00000080: 0947 133e b45b 973b 90e7 74be 7eaf 123d
00000090: 1872 babd 61dc 123e 72fe 7b3e 25be 303d
000000a0: f683 323e a116 5e3e cb8d 2a3e c1c8 493e
000000b0: 3f3a 31be 87b9 293e df8f 2cbd 7b01 5c3e
000000c0: c028 a7bd ed2f 3cbe
-0.28863704 0.010573825 0.04149359 -0.0038301575 -0.16819388 0.0105821565 0.24529617 0.21079566
-0.15679629 -0.047821347 -0.16200706 0.1300185 -0.12618744 -0.21923408 -0.21055971 -0.11498095
0.0042909314 0.20702392 -0.20759915 -0.06209512 0.02465919 0.23000883 0.2790721 -0.23431084
0.19099534 0.20028123 0.18518578 0.10656148 -0.2547567 0.12353035 0.04027763 0.022824163
0.14382567 0.004619086 -0.23916459 0.035811894 -0.09103793 0.1434188 0.24608782 0.043150086
0.17433152 0.2168832 0.16655652 0.19705488 -0.17307375 0.1657468 -0.042129394 0.2148494
-0.08162069 -0.18377657

secondGCN.linearLayer.bias f4 [5]
00000000: f92f ef3c ec5f 15be 347b f0bd 35b7 1b3e
00000010: 667b e63d
0.02919768 -0.14587373 -0.11742249 0.15206607 0.11254005

thirdGCN.attentionLayer.linear.weight f4 [5, 10]
00000000: 8570 a13c 6156 36bd 806e 1a3e 681e 92bd
00000010: f38e cdbd 2191 94bd 4315 a03d fdf0 86be
00000020: 00a9 e43d 564d fb3d 663b f93d bdcf 86be
00000030: 5ec5 c8bd 968d 7abe 0aea 0c3e ac07 943e
00000040: f1e8 eb3c e886 37be 0729 873d a0db 253d
00000050: e8a7 83be 3c25 84be d7e8 123e c279 f33d
00000060: 1966 77bb 12fc 8ebe 9e48 9ebe cc7b 403d
00000070: 8056 91be 27c9 19be 9636 823e 923b abbc
00000080: 4ff6 843e c53e 9abe 4df4 e7bd 784f 273c
00000090: c155 9f3e 5061 20bd 6c13 8f3e 575d 4dbe
000000a0: 992b 903e 6ad3 2d3c 2cb8 8bbe ad9d 913e
000000b0: 7c1c 38bc 5dab 3c3d 7907 f8bd 2e22 413e
000000c0: 6f2a cebd d842 0e3e
0.019706974 -0.04451597 0.15081215 -0.07134706 -0.10037031 -0.07254244 0.07816555 -0.26355734
0.11165047 0.1227061 0.121695325 -0.26330367 -0.0980327 -0.24468073 0.13761154 0.28912103
0.028797599 -0.17922556 0.06599622 0.040492654 -0.2571404 -0.25809658 0.14346634 0.11888458
-0.0037750064 -0.2792669 -0.30914778 0.046993062 -0.28386307 -0.1501814 0.2543227 -0.020902429
0.2596917 -0.30126014 -0.113258936 0.010211818 0.31120113 -0.039155304 0.27944505 -0.20055138
0.28158262 0.010609487 -0.2728895 0.2844061 -0.01123726 0.046061862 -0.121108 0.18860695
-0.10066687 0.13892686

thirdGCN.attentionLayer.linear.bias f4 [5]
00000000: 1bbe 1bbe 0c8b 8c3e 8bc1 16bd 2802 bebd
00000010: 8754 7c3e
-0.15209238 0.27449834 -0.03680567 -0.09277755 0.2464162

thirdGCN.attentionLayer.inAttention.W_sum f4 [5, 5]
00000000: 6868 a83e 1039 493e ee0d f03e 3c23 293e
00000010: 3c4c 643e be84 ea3e 9f5f 363f 631f 0a3f
00000020: 5a51 133f 208d 033e d38f 503f 3146 7a3f
00000030: 193b 3a3f 3e15 a23e 4001 013c fa8a 2c3f
00000040: 0016 423e 5ada 853e 6ac6 0c3f ee16 e03e
00000050: c83a 0e3f 6e95 ab3e ae62 613f e067 e53e
00000060: e8b9 c53e
0.32892156 0.19650674 0.46885628 0.16517347 0.22294706 0.458044 0.71239656 0.5395414
0.5754601 0.12846804 0.8146946 0.97763354 0.72746426 0.31656832 0.007873833 0.6739956
0.18953705 0.26143152 0.54990256 0.43767494 0.55558443 0.33512443 0.880412 0.44805813
0.38618398

thirdGCN.attentionLayer.inAttention.W_alpha f4 [5, 5]
00000000: e08f fe3c 0f8c 633f f592 123f 00f7 153e
00000010: 8aa1 063f 579a 163f 386f 5f3e ac5f c33e
00000020: c865 3d3e 9811 2f3f ed00 473f 57f6 4f3f
00000030: 9d8b 6f3f b38f 3f3f 892d 623f 7a1a 8f3e
00000040: 6f74 5e3f b209 b63e 026f 443f 45bb 3e3f
00000050: 4a0c 4f3f dc26 1f3e 5810 953d 39ff 243f
00000060: aa75 c43e
0.031074464 0.8888559 0.5725549 0.14645004 0.5259024 0.58829254 0.2181977 0.3815893
0.18495858 0.6838622 0.7773579 0.8123526 0.9357241 0.7482864 0.8835073 0.27949888
0.86896414 0.35554272 0.76731884 0.745045 0.80878127 0.15542167 0.07278508 0.6445194
0.3837102

thirdGCN.attentionLayer.inAttention.a_alpha f4 [5, 1]
00000000: 90db 583e dccc 0f3e 60bc ab3d 5093 643d
00000010: bc79 d33e
0.21177506 0.14042991 0.08385539 0.05580455 0.41303813

thirdGCN.attentionLayer.inAttention.b_alpha f4 [5, 1]
00000000: 08d7 c33d ce2c bf3e 0465 2e3f b435 243e
00000010: 6ba8 003f
0.09562498 0.3733887 0.6812289 0.16036111 0.50256985

thirdGCN.attentionLayer.outAttention.W_sum f4 [5, 5]
00000000: 6ce3 313e 4651 8c3e 4e6e 883e d4ff 3f3f
00000010: d0a6 df3d a294 1e3f f454 6e3e f8dc e73d
00000020: c289 c63e cc44 623f 0a06 273f f8bd 063f
00000030: 61b4 0d3f 4c18 a73e 96f6 223f 348c 2a3e
00000040: 284e 643f e8da 5b3f f215 813e 3667 c43e
00000050: a653 e93e 2412 493e 047a 143e 96ad 0b3f
00000060: c088 493d
0.17371911 0.27405757 0.26646656 0.7499974 0.10920489 0.61945546 0.23274595 0.11321443
0.38776976 0.88386226 0.6524359 0.5263362 0.5535336 0.32635725 0.6365751 0.16655046
0.89181757 0.858809 0.25212055 0.38359994 0.4557163 0.19635826 0.1449967 0.54561746
0.04920268

thirdGCN.attentionLayer.outAttention.W_alpha f4 [5, 5]
00000000: 8f19 7f3f 8880 7d3e e40f b63e f806 603e
00000010: 9c39 c03e 58a7 a73d 7423 d43e 3c7d ad3e
00000020: 2fad 143f 3816 183f 541f 573e 1ea3 ae3e
00000030: 9247 403f b832 f83d 8dd0 213f 799f 3c3f
00000040: 909f e73d f462 a63e e780 5f3f ce1b 7b3f
00000050: 583c 7c3e a466 2a3e a689 993e 80c6 503c
00000060: 1cb1 993e
0.99648374 0.24756062 0.35559 0.21877658 0.37543952 0.08186215 0.414333 0.3388461
0.5807676 0.59408903 0.21008044 0.34108824 0.7510921 0.12119049 0.6320885 0.73680836
0.11309731 0.3249737 0.87306064 0.980893 0.24632394 0.16640717 0.2998783 0.012742639
0.30017936

thirdGCN.attentionLayer.outAttention.a_alpha f4 [5, 1]
00000000: c871 a73e a0c2 e83c e860 ce3e 48ea ae3d
00000010: 06e7 853e
0.32703996 0.028413117 0.4030831 0.08540779 0.2615282

thirdGCN.attentionLayer.outAttention.b_alpha f4 [5, 1]
00000000: 3f24 2a3f 88ec 213e 15f5 023f dff8 613f
00000010: 20a0 fb3d
0.6646156 0.15812886 0.51155216 0.8827037 0.12286401

thirdGCN.linearLayer.weight f4 [5, 10]
00000000: f909 f0bd 2b51 8d3e ba8c c53c 12c8 873b
00000010: 7628 883d fd50 25be afb2 00be a1e5 983e
00000020: f66e 13be daf5 30be 6c7e e03d c5e0 233e
00000030: 8f81 06be 0f97 41bc a6a1 4cbe 5786 f2bd
00000040: 0cc6 44be b98c bebd a1f0 693e 9b72 cd3d
00000050: d16c a03b 5bdd ba3c 2854 d1bd 20c1 9b3e
00000060: dffb 08be 762c 0c3d eb0f ecbd c210 a03e
00000070: 8e41 0a3e 9053 9b3e 5fe0 613e 469b 953e
00000080: f33c 373d c3bb 13be 5325 04be a31e dbbd
00000090: c0ce f7bd 7514 01bd a084 3f3d 9495 45bc
000000a0: 2657 90be 8d19 6fbe 4cf4 393b c2b8 92be
000000b0: afdc 9a3c ddf1 733e 6a20 883e ec89 49be
000000c0: 48d0 e23d 4561 3bbe
-0.11720652 0.2760099 0.024114955 0.0041437233 0.06648342 -0.16144176 -0.12568162 0.29862693
-0.14397797 -0.17281285 0.10961613 0.16003712 -0.1313536 -0.0118158 -0.19983539 -0.118420295
-0.19216174 -0.093041845 0.22845699 0.10031625 0.0048957844 0.022810629 -0.1022113 0.3042078
-0.13377331 0.03422209 -0.115264736 0.31262785 0.1350157 0.3033719 0.22058247 0.29220027
0.04473586 -0.14427094 -0.12904863 -0.10699203 -0.12099981 -0.03151365 0.04675734 -0.012059588
-0.2819149 -0.2334959 0.0028374372 -0.28656584 0.018904058 0.23822732 0.2658723 -0.1968152
0.11074883 -0.18298824

thirdGCN.linearLayer.bias f4 [5]
00000000: 577e 6c3e a230 8f3e 8595 723d aa6b bf3d
00000010: 5943 60be
0.2309507 0.2796679 0.059224624 0.09346707 -0.21900691

ff4.weight f4 [5, 5]
00000000: afb7 043e 2f5f aa3e f56d 013e 86fe aebe
00000010: e29e 4dbd e988 013e ded2 463d 58a6 063e
00000020: df68 813f 9b04 913e 1198 9c3e 53b6 933e
00000030: 4c09 003e 9ce4 ad3d 14e4 8e3e 3cf4 0abe
00000040: 5d2f 123e fe82 5cbc ba7b a6be 9b5e 01be
00000050: 782a dd3d 7b3e 1f3e 3db2 9fbe 2303 f93a
00000060: f4dd bd3c
0.12960695 0.33275744 0.12639602 -0.3417856 -0.05020035 0.12649883 0.048540942 0.13149393
1.0110129 0.28323826 0.30584767 0.2885004 0.12503546 0.084908694 0.27908385 -0.1356973
0.1427588 -0.013458965 -0.3251627 -0.12633745 0.10799116 0.15551178 -0.31190673 0.0018998127
0.023177125

ff4.bias f4 [5]
00000000: 8727 9cbb 65a4 843e 02fd 1dbe 6331 983e
00000010: c1c6 ebbd
-0.004765454 0.25906673 -0.15428546 0.2972518 -0.11512519

ff5.weight f4 [5, 5]
00000000: 32c6 88bd 492e 27be 9b05 37be ae65 c33e
00000010: 243a 493e 21e6 eab8 7f8b b4bd faab 3c3e
00000020: 5927 2cbe 7c27 3a3e 16b4 a83c 64ea 263e
00000030: f75e 12bd edf8 b8be c529 0f3d c9e5 393b
00000040: 994c c13e ef36 f93c 8f6c b5bd 3bab c8bd
00000050: f10b 8c3e 4af4 56bc 4276 6c3e c0fb c13e
00000060: a716 aabe
-0.06678428 -0.1632625 -0.17873232 0.38163513 0.19651085 -0.00011200854 -0.08815669 0.18424979
-0.16811885 0.18179125 0.020593684 0.1630035 -0.035735097 -0.36127415 0.034951944 0.0028365722
0.37753752 0.030421702 -0.088585965 -0.097982846 0.2735286 -0.0131197665 0.23091987 0.37887383
-0.33220407

ff5.bias f4 [5]
00000000: 7122 dcbe 343d 0c3e e4ce 09bd 440c 873d
00000010: 3ad3 483d
-0.42995027 0.13695222 -0.033644572 0.06594136 0.049029566

ff6.weight f4 [20, 5]
00000000: 9c67 debe 6e7e dfbe a7e5 bcbe 9f23 6bbe
00000010: 7be7 943e aef9 713d b35f 69be 791f 8e3e
00000020: cf2d 8dbe 3832 273e c306 5cbe 5c52 67be
00000030: 9408 a33e 83cf 3cbd 643e d23e 4abd e93c
00000040: 66f4 ecbe bfbe 98be d441 143e 2744 0bbe
00000050: 2c47 acbe 96dd 84be 8cb9 863e 733b da3e
00000060: faea a83e e744 483d ac67 e0be 686b e3be
00000070: 8a79 3e3c e115 113e 59f9 73bd e6c3 b8be
00000080: cac0 17be 4afb dabe b1e6 a43e cd3f 503e
00000090: e900 32be a5b4 95bd 91cc 8d3e e3e7 ee3d
000000a0: 66c4 ed3d 9f19 f1be 7fc8 19bc 8a1a 68be
000000b0: 2b5b c33e 53a4 ac3e 6d35 abbe e12c cdbd
000000c0: 8213 74be 9377 123d d120 b8be bfb2 f5be
000000d0: b731 cf3e 23b1 ccbe 8746 5b3e 8e33 a73e
000000e0: df5a a4be 63b0 14be 6841 70be d271 b43d
000000f0: f1f8 723e 1440 fcbe d660 b3be 65d9 5c3e
00000100: 02ee e53d 9e24 8b3d 1834 45be 7cce 033e
00000110: 3238 e13e 7921 8d3e ec09 193e 9424 e9be
00000120: 4fa7 bfbd 175e a8be dd9b a6be 3b6c be3e
00000130: 7267 86be bd6e 09bd 42e1 72be 6059 cf3e
00000140: 4940 a33e 820f b4be a9a5 023e 31db afbe
00000150: 87c1 21be 2556 c33e 9bb8 37be ca2b b23b
00000160: ff91 883e 3887 fb3d 1599 3dbe 9f5a 6cbe
00000170: b6a8 2fbe 8364 d5be 8dd4 a83e c8c6 163d
00000180: d98f 5dbe e081 e2bd 5cc8 233a a63b fa3d
-0.43438423 -0.43651146 -0.3689396 -0.22962807 0.29082856 0.059076004 -0.22790413 0.27758387
-0.27574012 0.1632775 -0.21486954 -0.22590011 0.31842482 -0.046096336 0.41063225 0.028532643
-0.4628021 -0.29833028 0.14478236 -0.13600217 -0.3364805 -0.25950307 0.26313436 0.4262348
0.32991773 0.048893835 -0.43829095 -0.44417882 0.011625657 0.14168502 -0.05956397 -0.3608696
-0.14819637 -0.42769843 0.32207254 0.20336838 -0.1738316 -0.07309846 0.27695134 0.11665323
0.11609726 -0.4708986 -0.009386181 -0.22666374 0.38155493 0.3371912 -0.33439198 -0.100183256
-0.23835567 0.035758566 -0.35962537 -0.47987935 0.40467617 -0.39978895 0.21413623 0.3265652
-0.3210058 -0.14520411 -0.2346245 0.08810772 0.23727776 -0.49267638 -0.35034817 0.21567304
0.11227037 0.067940935 -0.19258153 0.12871736 0.43988186 0.275646 0.14945191 -0.4553572
-0.093580835 -0.32884285 -0.3254079 0.37191948 -0.26250798 -0.033552874 -0.23718742 0.40497875
0.31884983 -0.35168082 0.12758507 -0.34346917 -0.15796481 0.3815166 -0.17941515 0.005437349
0.26673886 0.1228165 -0.18515427 -0.23081444 -0.17154202 -0.41678247 0.32974663 0.036810666
-0.21636905 -0.11059928 0.00062478124 0.12218408

ff6.bias f4 [20]
00000000: 5090 a6be 28d4 7fbe bc72 b8be 8163 883e
00000010: 400f 8bbe 45da c93b 6a44 16be 6f83 8dbc
00000020: 0588 993e 2324 d4be 34ff aabe f61c 283e
00000030: 1782 b73d e43d 0ebf 7fc7 b5be 9f78 2cbe
00000040: f886 293c 2897 a8bc f913 08bf fa4b 99be
-0.32531977 -0.24983275 -0.36025035 0.26638415 -0.27160072 0.006160053 -0.14674535 -0.017274586
0.29986587 -0.4143382 -0.3339783 0.16417298 0.089603595 -0.5556319 -0.35503766 -0.16842888
0.01034712 -0.02057989 -0.53155476 -0.29940778
