code/ml_model/useless_models/model_weights_m6p8n10_lr0.100000_bs30_epochs10.pth (torch, 21874 bytes, 48 tensors)

ff1.weight f4 [5, 5]
0	0x3e5e925a	0.21735516
1	0xbed5fb18	-0.41793132
2	0xbe3fa757	-0.18716179
3	0xbe404a93	-0.18778448
4	0xbd32c341	-0.04364324
5	0xbdeec890	-0.11659348
6	0x3eb1fdda	0.34763986
7	0x3ead63a9	0.33865097
8	0xbb490dd0	-0.00306784
9	0x3e9da0a6	0.30786628
10	0x3e679a0e	0.22617361
11	0xbe8aa154	-0.2707621
12	0xbec3cbae	-0.38241333
13	0xbedea99d	-0.4348878
14	0xbd5df235	-0.054186065
15	0xbe03a144	-0.12854487
16	0x3e88891c	0.26667106
17	0x3d2ffe5e	0.042967193
18	0x3ea60195	0.32423082
19	0xbeba5c47	-0.36398527
20	0xbe49ec9f	-0.1971917
21	0x3c699c16	0.014258405
22	0x3dacdd2f	0.08440625
23	0x3ebe2383	0.37136468
24	0x3da9aaba	0.08284517

ff1.bias f4 [5]
0	0xbeb07dfd	-0.3447112
1	0x3ed558f9	0.41669443
2	0xbec77b33	-0.3896118
3	0x3de6d41f	0.11270928
4	0x3c85b1d1	0.016320141

ff2.weight f4 [5, 5]
0	0x3d1d793b	0.038445693
1	0xbe25a4fd	-0.1617622
2	0xbed3e71b	-0.41387257
3	0xbea073f9	-0.3133848
4	0x3e046a42	0.12931159
5	0x3e9565aa	0.29179126
6	0xbe2edf93	-0.17077474
7	0xbe66cac2	-0.22538283
8	0x3e3a883d	0.18216033
9	0xbe04a9a7	-0.12955342
10	0x3ed44fcc	0.4146713
11	0xbda3b55d	-0.07993577
12	0xbeb84b74	-0.35995066
13	0xbe5de36c	-0.21668786
14	0x3eaa5571	0.33268312
15	0x3ebdedf7	0.37095615
16	0xbe7f853c	-0.24953169
17	0xbe508b7e	-0.20365712
18	0x3e99d6d1	0.30046704
19	0x3de62db3	0.11239185
20	0x3e9827b0	0.2971778
21	0xbda99be9	-0.082816906
22	0xbd092f59	-0.03349242
23	0x3da866c6	0.082227275
24	0xbea2eba8	-0.31820416

ff2.bias f4 [5]
0	0x3e8c2016	0.2736823
1	0x3e92a352	0.2864023
2	0x3ead1b2d	0.33809796
3	0xbedb72de	-0.42861074
4	0xbe7acb36	-0.24491581

ff3.weight f4 [5, 5]
0	0xbe7f3365	-0.24921949
1	0xbe673e4b	-0.22582357
2	0x3dd8407d	0.10559175
3	0xbecfe339	-0.40603045
4	0x3db0b93f	0.08629083
5	0xbe6b2c66	-0.22966155
6	0x3eb1e5dd	0.34745684
7	0xbe75c91f	-0.24002503
8	0x3e30431c	0.172131
9	0xbee2ade9	-0.44273308
10	0x3e1da33e	0.15394303
11	0x3eb2c73d	0.34917632
12	0xbd0aa50d	-0.03384881
13	0xbec6b566	-0.3881027
14	0xbd32cc41	-0.043651823
15	0xbe9cd171	-0.3062854
16	0xbd4941ea	-0.049135126
17	0xbb70abb9	-0.0036723448
18	0x3ec2d288	0.38051248
19	0xbd05241b	-0.032505136
20	0xbd3f32ea	-0.046679415
21	0x3ec8b271	0.3919864
22	0xbd0cb747	-0.034354474
23	0x3e8dfd2c	0.27732217
24	0xbecd12b2	-0.40053326

ff3.bias f4 [5]
0	0x3ec66c38	0.3875444
1	0xbe8543ff	-0.2602844
2	0xbe0647a5	-0.13113268
3	0x3e432c68	0.19059908
4	0x3e4bb9fe	0.19895169

firstGCN.attentionLayer.linear.weight f4 [5, 10]
0	0x3e2c47cd	0.16824265
1	0x3d952b1e	0.072836146
2	0x3e79774a	0.24361911
3	0x3ed5f0ab	0.41785178
4	0x3e0f7563	0.14009623
5	0x3e35d4ef	0.17757009
6	0xbdb1c06d	-0.086792804
7	0x3e87318c	0.2640499
8	0x3e53d913	0.20688276
9	0x3c872ff9	0.016502367
10	0x3d88ec79	0.066857286
11	0xbe19bf3e	-0.1501436
12	0x3d4bb9a5	0.04973759
13	0xbe785e4e	-0.24254724
14	0xbc6a5a1b	-0.014303709
15	0xbe5e517b	-0.2171077
16	0x3ebeb628	0.3724835
17	0x3d6e9c11	0.058254305
18	0x3d9def65	0.077116765
19	0xbdefbd96	-0.117060825
20	0x3e7ce29b	0.24695818
21	0x3e71407e	0.23559758
22	0xbe1d80c3	-0.1538115
23	0xbe45b513	-0.19307356
24	0x3c349731	0.011022375
25	0x3e00c3cc	0.1257469
26	0x3e6df1e0	0.23236799
27	0xbe22f2ff	-0.15913008
28	0x3e5e3457	0.21699654
29	0x3d82aac5	0.06380228
30	0x3e7cb1a4	0.2467714
31	0x3dce9a15	0.100879826
32	0xbd2a33c5	-0.041553278
33	0x3eb6b591	0.356854
34	0x3e0c25c7	0.13686286
35	0xbe915075	-0.28381696
36	0x3f0dece9	0.5543962
37	0x3d5fd4fb	0.054646473
38	0x3eb7beb7	0.3588769
39	0xbd0fb2f1	-0.03508276
40	0xbe3ac9bf	-0.18241023
41	0x3e18d08a	0.14923301
42	0x3e86d71b	0.26335987
43	0x3e405f34	0.18786317
44	0xbbd15177	-0.006387885
45	0xbdd5e698	-0.10444373
46	0xbe247d5d	-0.16063447
47	0xbe7f1756	-0.24911246
48	0xbe9b8411	-0.30374196
49	0xbe816646	-0.2527334

firstGCN.attentionLayer.linear.bias f4 [5]
0	0xbe92c432	-0.2866531
1	0x3e976104	0.29566205
2	0x3eaaa564	0.33329308
3	0x3e9a761b	0.30168232
4	0x3e05ac1e	0.13053939

firstGCN.attentionLayer.inAttention.W_sum f4 [5, 5]
0	0x3f2dbf8a	0.6787039
1	0x3f39d65a	0.725927
2	0x3f7c4737	0.98546165
3	0x3f106be0	0.56414604
4	0x3eb9b27b	0.36268982
5	0x3ee1d09c	0.4410447
6	0x3e1b8f6b	0.15191428
7	0x3e3933ef	0.18086217
8	0x3eeaf7c4	0.45892155
9	0x3f3bdb0b	0.7338111
10	0x3eb82bdb	0.3597096
11	0x3e9ec2c1	0.3100796
12	0x3ee5e3c4	0.44900334
13	0x3f687ae5	0.9081252
14	0x3d2c5883	0.0420766
15	0x3e6e72e6	0.23286018
16	0x3f43d49e	0.76496303
17	0x3f4390e4	0.7639296
18	0x3f09f6ff	0.5389251
19	0x3ee3e2b0	0.44508886
20	0x3f6884b9	0.9082752
21	0x3f18ea9a	0.59732974
22	0x3ebddcf2	0.3708263
23	0x3cf39e49	0.029738562
24	0x3f2785c6	0.654385

firstGCN.attentionLayer.inAttention.W_alpha f4 [5, 5]
0	0x3e3b22e5	0.1827503
1	0x3e395352	0.1809819
2	0x3ec44747	0.3833563
3	0x3e515802	0.20443729
4	0x3e57829b	0.21045916
5	0x3dadd8a1	0.08488584
6	0x3dbe7f5e	0.09301637
7	0x3f7b91db	0.9826943
8	0x3f36e7e2	0.71447575
9	0x3f27ae28	0.65500116
10	0x3efbdd60	0.49192333
11	0x3c70f28d	0.014706266
12	0x3ea5a43f	0.32351872
13	0x3f0ed3d5	0.5579198
14	0x3e5f8d25	0.21831186
15	0x3eac2fa2	0.3363009
16	0x3f4d5f6e	0.8022374
17	0x3ef403c3	0.4765912
18	0x3f6924eb	0.9107196
19	0x3d7c5a82	0.061609752
20	0x3f77c91b	0.9679124
21	0x3e31c305	0.1735955
22	0x3d136aa8	0.035990387
23	0x3f646f88	0.89232683
24	0x3f275a3c	0.6537206

firstGCN.attentionLayer.inAttention.a_alpha f4 [5, 1]
0	0x3dd70660	0.10499263
1	0x3f6d34ca	0.92658675
2	0x3f319f01	0.69383246
3	0x3f6b9e15	0.9203809
4	0x3e97216e	0.29517692

firstGCN.attentionLayer.inAttention.b_alpha f4 [5, 1]
0	0x3f565853	0.8372852
1	0x3f25f239	0.6482273
2	0x3f59844e	0.84967506
3	0x3e92407c	0.28564823
4	0x3f0449ef	0.51675314

firstGCN.attentionLayer.outAttention.W_sum f4 [5, 5]
0	0x3f6633eb	0.8992297
1	0x3f454150	0.77052784
2	0x3ef85619	0.48503187
3	0x3f226a86	0.6344379
4	0x3c63f2a7	0.013912833
5	0x3db5516a	0.08853419
6	0x3f923509	1.1422435
7	0x3e11ab5a	0.14225522
8	0x3f7d2ef3	0.98899764
9	0x3f10e21e	0.5659503
10	0x3f0ab7af	0.5418653
11	0x3eb560ee	0.35425514
12	0x3f2224cd	0.63337404
13	0x3ddb022d	0.10693774
14	0x3f19e2e9	0.6011186
15	0x3e83b11e	0.25721067
16	0x3f5ed0d9	0.87037426
17	0x3ecbc7b9	0.39800814
18	0x3f130b09	0.57438713
19	0x3e5cbe57	0.21556984
20	0x3f367020	0.7126484
21	0x3d18ff20	0.03735268
22	0x3f74fa9e	0.9569491
23	0x3edb1cf5	0.4279553
24	0x3f5c9ad2	0.8617374

firstGCN.attentionLayer.outAttention.W_alpha f4 [5, 5]
0	0x3e1e1172	0.15436342
1	0x3ed02621	0.4065409
2	0x3c2a66af	0.010400458
3	0x3f76ecd8	0.96455145
4	0x3f5edea9	0.870585
5	0x3dd0dfd2	0.1019894
6	0x3f24d3a3	0.6438543
7	0x3eb9906c	0.36242998
8	0x3d90ca34	0.07069817
9	0x3f18f983	0.59755725
10	0x3f214654	0.6299794
11	0x3e1b0ef4	0.15142423
12	0x3f3d1429	0.73858887
13	0x3e76d7f5	0.24105819
14	0x3f76d65c	0.96420836
15	0x3f2c3283	0.67264575
16	0x3ef5b780	0.47991562
17	0x3e9fc59b	0.31205449
18	0x3e9df8c5	0.3085386
19	0x3e8e0a77	0.2774236
20	0x3f2615e5	0.6487716
21	0x3e85a713	0.2610403
22	0x3e785b4a	0.24253574
23	0x3e116851	0.1419995
24	0x3efa7f54	0.4892527

firstGCN.attentionLayer.outAttention.a_alpha f4 [5, 1]
0	0x3f0aab13	0.5416729
1	0x3eed433a	0.46340352
2	0x3f05dec4	0.5229304
3	0x3ec2212e	0.3791594
4	0x3d1be620	0.03806126

firstGCN.attentionLayer.outAttention.b_alpha f4 [5, 1]
0	0x3ef02d22	0.46909434
1	0x3f178f66	0.59203184
2	0x3f6ce978	0.92543745
3	0x3f5723dd	0.840391
4	0x3f3af863	0.7303526

firstGCN.linearLayer.weight f4 [5, 10]
0	0x3e57064a	0.20998493
1	0x3ce172a6	0.027520489
2	0xbe579d01	-0.21055986
3	0x3c10dfd3	0.008842426
4	0x3e75345e	0.23945758
5	0x3d9099a9	0.07060558
6	0xbd8ebd1b	-0.06969663
7	0xbe3361f4	-0.17517835
8	0xbe814f6a	-0.252559
9	0x3e9bc317	0.3042228
10	0x3cd97952	0.026547108
11	0xbe881771	-0.26580384
12	0x3e7ca248	0.2467128
13	0xbd334558	-0.043767303
14	0xbe14f673	-0.14547138
15	0x3ddf4bbe	0.109031186
16	0xbe93dd58	-0.2887981
17	0x3c2384cf	0.0099803945
18	0xbe382bee	-0.17985508
19	0x3e198971	0.14993836
20	0xbe931a8e	-0.28731197
21	0x3e340d43	0.17583184
22	0x3e1ec51f	0.15504883
23	0x3d86c8bd	0.065812565
24	0x3e8edc02	0.27902228
25	0xbd7b6031	-0.061371032
26	0x3d8186fe	0.06324576
27	0x3d7af3c4	0.06126763
28	0x3e6e982c	0.23300236
29	0x3e8ba0f3	0.27271232
30	0x3e8674ac	0.2626089
31	0x3e16ad20	0.1471448
32	0xbc9861db	-0.018601349
33	0x3bc13db9	0.0058972505
34	0x3dbb5cc1	0.09148551
35	0xbda1455f	-0.078745596
36	0xbe45faf6	-0.19334015
37	0x3ea1cc09	0.3160098
38	0x3e454fb1	0.19268681
39	0x3e3f7ac8	0.18699181
40	0xbe9aaa61	-0.30208114
41	0xbe89d35f	-0.26919076
42	0x3df94e5f	0.12173151
43	0x3d000bf9	0.031261418
44	0x3e700297	0.23438488
45	0x3d78c054	0.060730293
46	0x3e9a84cf	0.3017945
47	0xbe2a79b4	-0.16647989
48	0xbd1a2f5a	-0.037642814
49	0x3e271558	0.16316736

firstGCN.linearLayer.bias f4 [5]
0	0xbe6b5504	-0.2298165
1	0xbd886ada	-0.06661005
2	0xbe959d7b	-0.2922171
3	0x3d687bf6	0.056758843
4	0xbdfe4d93	-0.1241714

secondGCN.attentionLayer.linear.weight f4 [5, 10]
0	0x3dae5178	0.08511633
1	0xbdd477c5	-0.10374407
2	0x3e5af12b	0.21381061
3	0xbe487676	-0.1957644
4	0x3d65e197	0.056123342
5	0x3c5f7dab	0.013640801
6	0x3e43a645	0.19106396
7	0xbe04b2ab	-0.12958781
8	0x3e85717d	0.26063147
9	0xbe0b8c33	-0.136277
10	0xbe281f70	-0.16418242
11	0xbe6e3b5a	-0.23264828
12	0x3c306e05	0.010768418
13	0xbddae237	-0.10687678
14	0x3e0cfc48	0.13768113
15	0x3dac5af2	0.08415784
16	0x3e1c393d	0.1525621
17	0x3e8f29d8	0.27961612
18	0xbce48035	-0.027893165
19	0xbe3450fb	-0.17609017
20	0xbe10d16d	-0.1414239
21	0x3e3b5b99	0.1829666
22	0x3e8dd2a5	0.27699772
23	0x3ea16815	0.3152472
24	0x3e84e43a	0.25955373
25	0x3c17f199	0.00927391
26	0xbd5c736e	-0.05382102
27	0x3d47bd84	0.04876472
28	0x3e0a0528	0.1347853
29	0xbe85f210	-0.26161242
30	0xbde9d516	-0.11417596
31	0x3e49af15	0.19695695
32	0xbe81a186	-0.25318545
33	0xbe581343	-0.21101098
34	0xbe5548d6	-0.20828566
35	0xbd609555	-0.054829914
36	0xbe834e99	-0.25645903
37	0x3c6a166d	0.014287573
38	0xbded9c0d	-0.1160203
39	0xbe2db284	-0.1696263
40	0xbe017daf	-0.126456
41	0xbd97f18e	-0.0741912
42	0xbe857d19	-0.26072004
43	0xbe70b5ec	-0.23506898
44	0xbe9858b9	-0.2975519
45	0xbd21d58e	-0.039510302
46	0x3e12bdf6	0.14330277
47	0x3debd023	0.11514308
48	0x3e2c75af	0.16841768
49	0x3d6efdee	0.058347635

secondGCN.attentionLayer.linear.bias f4 [5]
0	0xbe9f8c66	-0.31161803
1	0x3e8efa4b	0.27925333
2	0x3d719667	0.058981325
3	0x3dfe527e	0.12418078
4	0xbe27d046	-0.16388044

secondGCN.attentionLayer.inAttention.W_sum f4 [5, 5]
0	0x3b5ee200	0.0034009218
1	0x3dd263a0	0.10272908
2	0x3dd9f9a8	0.10643321
3	0x3e9c88be	0.30573076
4	0x3edbd462	0.42935473
5	0x3e6e67fc	0.23281854
6	0x3d7ffe90	0.06249863
7	0x3e2220e0	0.15832853
8	0x3f1c06d2	0.60947907
9	0x3f4f9af9	0.81095845
10	0x3f42f5c5	0.76156265
11	0x3f47bece	0.7802552
12	0x3f489d28	0.783648
13	0x3f153568	0.58284616
14	0x3ebaea5e	0.36506933
15	0x3f126c77	0.57196754
16	0x3f7dde39	0.9916721
17	0x3f606481	0.87653357
18	0x3f560534	0.8360169
19	0x3f06039c	0.5234926
20	0x3f5e91be	0.86941135
21	0x3efdfa14	0.49604857
22	0x3c28c400	0.010300636
23	0x3f4dfecb	0.8046691
24	0x3f18b6e1	0.5965405

secondGCN.attentionLayer.inAttention.W_alpha f4 [5, 5]
0	0x3f561a06	0.8363346
1	0x3ee832e0	0.45351315
2	0x3da6bdf8	0.081417024
3	0x3e8614c4	0.26187718
4	0x3e192d98	0.14958799
5	0x3ec1e55a	0.37870294
6	0x3f27a159	0.6548057
7	0x3e68bd04	0.22728354
8	0x3e3287bc	0.17434591
9	0x3c863240	0.016381383
10	0x3f639d06	0.88911474
11	0x3f5d2212	0.8638011
12	0x3f567bbb	0.8378255
13	0x3f58d16a	0.8469454
14	0x3f43706e	0.7634343
15	0x3e3ccfe4	0.18438679
16	0x3ced4340	0.028962731
17	0x3f57d774	0.8431313
18	0x3e64870c	0.22317141
19	0x3f6abec8	0.9169736
20	0x3f250da4	0.6447394
21	0x3f5b9ac9	0.8578306
22	0x3f6dbf2b	0.92869824
23	0x3d97f1a0	0.07419133
24	0x3dff5c10	0.124687314

secondGCN.attentionLayer.inAttention.a_alpha f4 [5, 1]
0	0x3edf8c4e	0.4366173
1	0x3ecffca2	0.4062243
2	0x3e76c138	0.24097145
3	0x3f164180	0.58693695
4	0x3ee095ea	0.43864375

secondGCN.attentionLayer.inAttention.b_alpha f4 [5, 1]
0	0x3e0fe33c	0.14051527
1	0x3f30fdcf	0.6913728
2	0x3dc22730	0.09480131
3	0x3eeae20a	0.4587558
4	0x3e9d9b8c	0.30782735

secondGCN.attentionLayer.outAttention.W_sum f4 [5, 5]
0	0x3e1caba8	0.15299857
1	0x3e795bb4	0.24351388
2	0x3c852960	0.01625508
3	0x3f77bdc6	0.96773946
4	0x3f1dc5fb	0.6163022
5	0x3f6e2aac	0.9303386
6	0x3f068fae	0.5256299
7	0x3ed62c76	0.41830796
8	0x3cb5cea0	0.022193253
9	0x3f1a4550	0.6026201
10	0x3f31ffc7	0.6953091
11	0x3f2eda5e	0.6830195
12	0x3e7f04a8	0.2490412
13	0x3db3d4d0	0.08780825
14	0x3f0ab8b0	0.5418806
15	0x3f397015	0.7243665
16	0x3f74f05c	0.9567926
17	0x3ed4b95a	0.41547662
18	0x3f63d037	0.88989586
19	0x3e6d7d18	0.2319225
20	0x3ec1de9c	0.3786515
21	0x3f6aaf7b	0.9167401
22	0x3f5671fd	0.8376768
23	0x3ebe4bf2	0.37167317
24	0x3eece67c	0.46269596

secondGCN.attentionLayer.outAttention.W_alpha f4 [5, 5]
0	0x3f77ace3	0.9674818
1	0x3a89cc00	0.0010513067
2	0x3e430620	0.19045305
3	0x3dd643a0	0.10462117
4	0x3da6c500	0.081430435
5	0x3e8f8df0	0.28037977
6	0x3f071ed4	0.52781415
7	0x3ecb6dd0	0.39732218
8	0x3f058a7e	0.5216445
9	0x3efe708e	0.49695247
10	0x3ee7756a	0.45206767
11	0x3d27ed90	0.04099804
12	0x3e1fc6f0	0.15603232
13	0x3f0bbed0	0.5458803
14	0x3f0f39c6	0.5594753
15	0x3f48f936	0.78505266
16	0x3e43f854	0.19137698
17	0x3f0e13d2	0.55498993
18	0x3d4b9af0	0.049708307
19	0x3f760332	0.96098626
20	0x3f6aab72	0.91667855
21	0x3e9c2070	0.30493498
22	0x3f244b39	0.6417728
23	0x3f627696	0.884622
24	0x3f4e73cc	0.8064544

secondGCN.attentionLayer.outAttention.a_alpha f4 [5, 1]
0	0x3dd58c80	0.10427189
1	0x3d3c6670	0.04599613
2	0x3eb1513e	0.34632295
3	0x3ec61de4	0.3869468
4	0x3f35de54	0.7104237

secondGCN.attentionLayer.outAttention.b_alpha f4 [5, 1]
0	0x3f33763f	0.70102304
1	0x3e91728c	0.28407705
2	0x3da78270	0.08179176
3	0x3db18558	0.086680114
4	0x3d07d0a0	0.033157945

secondGCN.linearLayer.weight f4 [5, 10]
0	0x3e977e9f	0.29588792
1	0xbe2df3b3	-0.16987495
2	0x3e8c414e	0.27393574
3	0xbe139465	-0.14412077
4	0x3dcafb70	0.09911239
5	0xbe8dcad0	-0.27693796
6	0x3e8bb5e1	0.272872
7	0xbb2a92a1	-0.002602734
8	0x3e823711	0.25432637
9	0x3bbaf37e	0.005705296
10	0xbe1e8a4b	-0.15482442
11	0xbdd55d78	-0.104182184
12	0xbdb79a23	-0.08964946
13	0x3d600327	0.054690506
14	0xbe60607b	-0.21911804
15	0xbe931c06	-0.28732318
16	0x3e6c1390	0.23054338
17	0x3e178538	0.14796913
18	0x3e0f0cba	0.13969699
19	0xbe7f428d	-0.24927731
20	0x3e12a220	0.14319658
21	0x3dd3b2a4	0.10336807
22	0xbe9c06e1	-0.30473998
23	0xbcb5eceb	-0.022207698
24	0x3d1bfb07	0.038081195
25	0xbe200835	-0.1562813
26	0xbd4d2d1e	-0.050091855
27	0x3e6be5c7	0.23036872
28	0x3dac2c8a	0.08406933
29	0x3c1ac72e	0.009446902
30	0xbe5aca3e	-0.21366212
31	0x3e83b5fc	0.2572478
32	0xbd261732	-0.040549465
33	0x3e88c671	0.267139
34	0x3e96270c	0.29326665
35	0x3cd00fbf	0.025398133
36	0x3e5c60ee	0.2152135
37	0x3e9143ec	0.28372133
38	0xbe1c3c29	-0.15257324
39	0x3e74a4f8	0.23891056
40	0x3e9e74f9	0.30948618
41	0xbe008e1c	-0.1255421
42	0xbdb57572	-0.088602915
43	0x3db8e9e5	0.09028987
44	0x3e7a1843	0.24423318
45	0x3e0524e3	0.13002352
46	0xbe0d5816	-0.13803133
47	0x3e55e725	0.20888956
48	0xbde8b6f0	-0.113630176
49	0xbe843bf2	-0.25826985

secondGCN.linearLayer.bias f4 [5]
0	0x3e957629	0.29191712
1	0x3e240a07	0.1601945
2	0x3e8f2594	0.27958357
3	0xbe9d6bfb	-0.30746445
4	0x3d41015d	0.04712044

thirdGCN.attentionLayer.linear.weight f4 [5, 10]
0	0xbe72afef	-0.23699926
1	0xbe5dd031	-0.2166145
2	0xbe4dfd71	-0.20116211
3	0xbde7349c	-0.11289331
4	0xbe9ca740	-0.30596352
5	0xbd68a2bd	-0.056795824
6	0xbe9182be	-0.2842006
7	0x3d07fb10	0.033198416
8	0x3d48838e	0.048953585
9	0x3d283b60	0.04107225
10	0x3d528a37	0.051401343
11	0x3ca71534	0.020395853
12	0x3cb61f33	0.022231674
13	0x3d2679e6	0.040643595
14	0xbe031b2b	-0.12803333
15	0x3e4e3595	0.20137627
16	0x3e923c11	0.28561452
17	0x3e5019fb	0.20322411
18	0x3e7f0744	0.24905115
19	0x3daa3b4f	0.083120935
20	0xbaaad791	-0.0013034214
21	0xbe391336	-0.18073735
22	0x3c35d9a1	0.01109925
23	0xbe9f28a7	-0.31085703
24	0xbe20934f	-0.15681194
25	0x3db8b7ac	0.09019408
26	0x3d24f221	0.040269975
27	0x3e60beb0	0.21947742
28	0x3e06f104	0.13177878
29	0x3d29e33d	0.041476477
30	0x3e5d2190	0.21594834
31	0xbe7d7ed9	-0.2475542
32	0x3e6813b5	0.22663768
33	0x3dd81600	0.10551071
34	0x3e6c5b21	0.23081638
35	0x3e52697f	0.20548056
36	0xbe9fc5f7	-0.31205723
37	0xbe2cac07	-0.16862498
38	0xbe9ea270	-0.30983305
39	0xbe6f328d	-0.23359127
40	0x3d50d48e	0.050983958
41	0xbdf3199b	-0.11870118
42	0xbda10bae	-0.07863556
43	0x3d46a9b0	0.04850167
44	0x3dd69fc3	0.10479691
45	0x3e926555	0.28592935
46	0x3e9180ad	0.28418484
47	0xbe687889	-0.2270223
48	0x3d7acece	0.06123238
49	0x3e76ab88	0.24088871

thirdGCN.attentionLayer.linear.bias f4 [5]
0	0xbe491f58	-0.19640863
1	0x3e97b47c	0.29629886
2	0xbda7e5b8	-0.08198112
3	0x3e838ad6	0.2569186
4	0xbd22c89d	-0.0397421

thirdGCN.attentionLayer.inAttention.W_sum f4 [5, 5]
0	0x3e682c70	0.22673202
1	0x3f0adb2d	0.54240686
2	0x3f6283c9	0.8848234
3	0x3f0eb237	0.55740684
4	0x3cd5b580	0.026087523
5	0x3dce4200	0.10071182
6	0x3f773ad1	0.9657412
7	0x3f5c7fc6	0.86132467
8	0x3f350b9c	0.7072084
9	0x3ee86cb2	0.45395428
10	0x3f67c150	0.90529346
11	0x3e8181b2	0.25294262
12	0x3f663e35	0.8993867
13	0x3f220164	0.6328337
14	0x3f2d4993	0.6769039
15	0x3f64bafd	0.8934782
16	0x3cccf280	0.025017977
17	0x3ea649ea	0.32478267
18	0x3f139951	0.5765582
19	0x3e6043c4	0.2190085
20	0x3f0371e8	0.5134568
21	0x3e970878	0.2949865
22	0x3f048fa5	0.51781684
23	0x3f4885be	0.78329074
24	0x3f29f66e	0.66391647

thirdGCN.attentionLayer.inAttention.W_alpha f4 [5, 5]
0	0x3d7857e0	0.06063068
1	0x3e07b74c	0.13253516
2	0x3f400abf	0.750164
3	0x3f18746e	0.5955266
4	0x3f157a02	0.58389294
5	0x3ed9c538	0.42533278
6	0x3f05b462	0.5222837
7	0x3eb7c6b8	0.35893798
8	0x3e4a7520	0.19771242
9	0x3e703c24	0.23460442
10	0x3f5a2230	0.85208416
11	0x3e626cb4	0.2211178
12	0x3ecfd0d0	0.40589
13	0x3d9bdb10	0.07610142
14	0x3f0adaad	0.5423992
15	0x3ebf7ed2	0.37401444
16	0x3ed4ca48	0.41560578
17	0x3eb3c7a2	0.35113245
18	0x3f241095	0.640878
19	0x3f0d37a5	0.5516303
20	0x3f322d9f	0.6960086
21	0x3e840bb0	0.25790167
22	0x3f1151e7	0.567656
23	0x3ec322e8	0.3811257
24	0x3e9813c2	0.29702574

thirdGCN.attentionLayer.inAttention.a_alpha f4 [5, 1]
0	0x3e7a2fc8	0.2443229
1	0x3f76373a	0.9617802
2	0x3de841c8	0.11340672
3	0x3aec8800	0.0018045902
4	0x3ef99fb8	0.48754668

thirdGCN.attentionLayer.inAttention.b_alpha f4 [5, 1]
0	0x3e9627d6	0.29327267
1	0x3f286a74	0.65787435
2	0x3f1bf410	0.60919285
3	0x3e8e750e	0.2782368
4	0x3ef8e59e	0.48612684

thirdGCN.attentionLayer.outAttention.W_sum f4 [5, 5]
0	0x3eda45b6	0.4263131
1	0x3e9cf1b8	0.30653167
2	0x3d7b7d80	0.061398983
3	0x3e3f6764	0.18691784
4	0x3f602f87	0.8757252
5	0x3f43d95a	0.7650353
6	0x3f080e72	0.5314704
7	0x3f1e8b97	0.6193175
8	0x3f516c4f	0.8180589
9	0x3dec9af0	0.115529895
10	0x3eca1b26	0.39473838
11	0x3f002135	0.5005067
12	0x3f638b35	0.8888429
13	0x3f01b935	0.5067323
14	0x3ebec9b8	0.37263274
15	0x3d9d2c78	0.07674497
16	0x3eeaa2f6	0.45827454
17	0x3f18eaaa	0.5973307
18	0x3f4e07b5	0.8048051
19	0x3f6e80dd	0.9316538
20	0x3e83fe14	0.25779784
21	0x3d841c00	0.06450653
22	0x3f6099a1	0.8773442
23	0x3f7ed3d9	0.99542004
24	0x3f44253f	0.76619333

thirdGCN.attentionLayer.outAttention.W_alpha f4 [5, 5]
0	0x3d8c95c8	0.06864506
1	0x3e22a1d4	0.15882045
2	0x3f0d1f0f	0.55125517
3	0x3f56b9ad	0.8387707
4	0x3ea00918	0.31256938
5	0x3c14f500	0.009091616
6	0x3f608db9	0.8771625
7	0x3edd2afa	0.4319685
8	0x3ea53342	0.3226567
9	0x3f214b95	0.63005954
10	0x3e8ad066	0.2711212
11	0x3eef076e	0.46685356
12	0x3ef4beb6	0.4780175
13	0x3e950df0	0.29112196
14	0x3f659989	0.896874
15	0x3d43a8e0	0.047768474
16	0x3e3a9fe8	0.18225062
17	0x3f7e86b4	0.9942429
18	0x3f1ed481	0.62043005
19	0x3f151dd0	0.58248615
20	0x3f52bf03	0.8232271
21	0x3ed4671c	0.41484916
22	0x3f08fc7d	0.53510267
23	0x3dfecbb0	0.12441194
24	0x3f2e26fe	0.6802825

thirdGCN.attentionLayer.outAttention.a_alpha f4 [5, 1]
0	0x3ee32b04	0.44368756
1	0x3e5e443c	0.21705717
2	0x3f525963	0.82167643
3	0x3e3867f8	0.18008411
4	0x3f6995dd	0.912443

thirdGCN.attentionLayer.outAttention.b_alpha f4 [5, 1]
0	0x3f35ad05	0.7096713
1	0x3e86a8f2	0.2630077
2	0x3cc11940	0.02357161
3	0x3e8cb4ca	0.2748168
4	0x3f068d27	0.5255913

thirdGCN.linearLayer.weight f4 [5, 10]
0	0x3e8918d4	0.26776755
1	0x3c150cd5	0.009097298
2	0xbe2d72fc	-0.16938394
3	0xbd4def84	-0.050277248
4	0x3e5bb19a	0.21454468
5	0x3e93af80	0.28844833
6	0x3db286e6	0.08717136
7	0xbe39c40a	-0.18141189
8	0xbdbb1707	-0.091352515
9	0xbe809af6	-0.25118226
10	0x3e86ec10	0.26351976
11	0xbe15f138	-0.14642799
12	0x3e9f4e45	0.31114402
13	0x3c88db45	0.016706118
14	0x3e559865	0.20858915
15	0xbe99675c	-0.2996167
16	0xbe037cba	-0.12840548
17	0x3e205a7a	0.15659514
18	0xbe474529	-0.19459976
19	0xbdbeaa7d	-0.09309862
20	0xbcbcd8be	-0.02305257
21	0x3ddfe166	0.10931663
22	0xbe3f7ed3	-0.18700723
23	0x3e1d3316	0.15351519
24	0xbe14f12f	-0.14545129
25	0xbe960506	-0.29300708
26	0xbe9bc599	-0.30424193
27	0xbd7960b2	-0.06088323
28	0x3e1cf691	0.15328433
29	0x3e2fa55b	0.17152922
30	0x3b0ee16f	0.002180185
31	0x3e85fc29	0.26168945
32	0xbe5c4916	-0.21512255
33	0xbea15a13	-0.31514034
34	0x3e5d06be	0.21584603
35	0x3e8f93e2	0.28042513
36	0x3e86003a	0.26172048
37	0x3e0b0452	0.13575867
38	0x3e8de7e1	0.27715972
39	0x3e61158a	0.21980873
40	0x3e73296a	0.23746267
41	0xbe993e30	-0.29930258
42	0x3e2034cb	0.15645139
43	0x3d1e69a4	0.038674966
44	0x3e7f9013	0.24957304
45	0x3d6c70f5	0.05772491
46	0xbd65bb21	-0.056086663
47	0x3e842bfc	0.25814807
48	0xbe0777e3	-0.13229327
49	0xbe816f8c	-0.25280416

thirdGCN.linearLayer.bias f4 [5]
0	0xbdc15789	-0.09440524
1	0xbe96c7b8	-0.29449248
2	0xbdc185be	-0.094493374
3	0xbd8dc0ad	-0.069215156
4	0x3e9932ee	0.2992167

ff4.weight f4 [5, 5]
0	0x3edc296d	0.43000355
1	0xbde7db4b	-0.11321124
2	0x3e61dd9a	0.2205719
3	0x3f2e3d92	0.680627
4	0xbea0ff90	-0.3144498
5	0x3ee19bfe	0.44064325
6	0xbe2d7d46	-0.1694232
7	0xbdf29473	-0.11844721
8	0xbedd718a	-0.43250686
9	0x3dd4600c	0.10369882
10	0xbe4923c4	-0.1964255
11	0xbccd7d2d	-0.025084103
12	0xbeaea998	-0.34113765
13	0xbe293c0e	-0.16526815
14	0x3e6e56dc	0.23275322
15	0xbe7c1871	-0.24618699
16	0x3e31e28a	0.17371574
17	0x3e9b5f00	0.30345917
18	0x3f014c8c	0.50507426
19	0x3e75dc0d	0.24009724
20	0xbe4e4e70	-0.20147109
21	0x3ec334ec	0.38126314
22	0x3e99fd7f	0.30076215
23	0x3deef2c9	0.11667401
24	0xbed5a638	-0.41728377

ff4.bias f4 [5]
0	0x3ede26b9	0.43388918
1	0xbeca97f5	-0.3956906
2	0xbeb7d633	-0.3590561
3	0xbe999dc9	-0.30003193
4	0xbd3ae835	-0.045631606

ff5.weight f4 [5, 5]
0	0x3b7b8ddd	0.0038384118
1	0x3d8aad93	0.06771388
2	0x3dd5f027	0.10446196
3	0xbeb7414e	-0.3579201
4	0xbd7b46de	-0.06134688
5	0x3d6ef557	0.058339443
6	0x3ec083ca	0.37600547
7	0xbe31967d	-0.17342563
8	0x3b22a47b	0.0024817276
9	0xbead0b63	-0.3379775
10	0x3e9c9bcc	0.30587614
11	0x3e274766	0.1633583
12	0xbe4503f0	-0.19239783
13	0x3edc0023	0.42968854
14	0x3ea79c60	0.32736492
15	0xbedf1341	-0.43569377
16	0x3ed12873	0.40851173
17	0xbec6ed22	-0.38852793
18	0x3e946dfa	0.28990155
19	0x3e8b6359	0.27224234
20	0xbd872db9	-0.06600518
21	0xbe9bfb5c	-0.3046521
22	0xbe7cbada	-0.24680653
23	0x3e1b5d95	0.15172417
24	0xbd43773b	-0.04772113

ff5.bias f4 [5]
0	0x3edf54a7	0.43619272
1	0xbeb061bb	-0.34449562
2	0xbebeeb36	-0.37288827
3	0x3ed481b0	0.41505194
4	0x3e05fa19	0.13083686

ff6.weight f4 [10, 5]
0	0x3e244a17	0.16043888
1	0x3ed39c27	0.41330072
2	0xbe016e8f	-0.12639831
3	0xbf3a9a3b	-0.72891587
4	0xbe0e3517	-0.1388744
5	0xbebb6acd	-0.3660492
6	0x3eccf850	0.40033197
7	0x3e59e1c0	0.21277523
8	0xbed3e25c	-0.41383636
9	0xbe936f30	-0.28795767
10	0xbeef10e4	-0.46692574
11	0x3e8c355c	0.2738446
12	0x3e903a1c	0.28169334
13	0xbe788013	-0.24267606
14	0x3e4d813b	0.20068829
15	0xbea625e2	-0.32450777
16	0xbea55fe6	-0.32299727
17	0xbd9a5e07	-0.075374655
18	0xbed4b3ec	-0.4154352
19	0x3e9838b5	0.29730764
20	0xbec0bc29	-0.37643555
21	0x3e86633d	0.26247588
22	0x3cea4ffa	0.028602589
23	0xbe02633e	-0.1273317
24	0xbde0f97f	-0.109850876
25	0xbee59098	-0.4483688
26	0xbd0d756f	-0.03453582
27	0x3e9ef9c7	0.3104994
28	0xbea3b1a9	-0.3197148
29	0xbeb4c00c	-0.3530277
30	0xbf00bff4	-0.502929
31	0x3e41ef99	0.18939056
32	0xbed67bf5	-0.41891447
33	0x3e82b030	0.25525045
34	0x3ebb0e2f	0.3653426
35	0xbed90cff	-0.42392728
36	0x3dd03650	0.10166609
37	0x3e4cb47d	0.19990726
38	0x3d4b6675	0.049658258
39	0xbe98da2b	-0.2985395
40	0xbed6b6f1	-0.41936448
41	0x3be534f0	0.006994836
42	0xbeb5d092	-0.3551069
43	0x3d6d08ca	0.05786971
44	0x3ebecc52	0.3726526
45	0xbf08bba4	-0.53411317
46	0xbeb9a12b	-0.36255774
47	0x3e1e9f78	0.1549052
48	0x3e7ab26e	0.24482128
49	0xbe589ec6	-0.21154317

ff6.bias f4 [10]
0	0xbef294ae	-0.4737906
1	0x3dd72cf0	0.10506618
2	0x3e10d7a2	0.14144757
3	0xbebd04f3	-0.36917838
4	0x3defcb60	0.117087126
5	0x3e8d5c06	0.2760927
6	0xbeb701dd	-0.3574361
7	0xbb536a69	-0.003225947
8	0x3e2d8ca3	0.1694818
9	0x3dfa0cf1	0.122094996
