code/ml_model/useless_models/model_weights_m8p8n10_lr0.100000_bs10_epochs10.pth (torch, 21874 bytes, 48 tensors)

ff1.weight f4 [5, 5]
000000 43 99 ca 3d 8f 8b 9c 3e f9 a2 d1 bc 5c 33 b4 be
       0.098925136 0.30575225 -0.025590407 -0.35195434
000010 df 10 8f 3e 98 20 e7 bc 2e 12 20 be af 28 e3 be
       0.2794256 -0.028213784 -0.15631935 -0.44366977
000020 4a 76 cc 3e 11 49 8e 3e 85 e2 61 3e 79 a0 e1 be
       0.39933997 0.2779012 0.22059067 -0.44067743
000030 6c 0c 26 be 4f 2a fe 3d b7 3f d6 3e 19 c6 cf be
       -0.16215676 0.124104135 0.41845486 -0.40580824
000040 a0 f1 98 3e b5 8d b5 be 3f ce a6 be fb f6 8d be
       0.29871845 -0.35459676 -0.32579228 -0.27727494
000050 ad 1f 87 be fa 28 3f 3e 09 3d ff 3c 4e e2 02 3e
       -0.26391354 0.18667975 0.031157034 0.12781641
000060 9f e0 8d bd
       -0.06927609

ff1.bias f4 [5]
000000 54 19 80 be 53 95 d1 3e 34 ad 04 bd 0e e9 20 be
       -0.25019324 0.40934238 -0.032391742 -0.15713903
000010 37 df 7c be
       -0.24694525

ff2.weight f4 [5, 5]
000000 d0 d0 b3 bd 44 b6 6b be e3 51 04 3e 34 70 3c be
       -0.08780062 -0.23018748 0.12921862 -0.18402177
000010 98 da a2 3d e0 e6 b7 3e bc 1a 18 3e 57 71 c9 3e
       0.0795185 0.3591833 0.14853948 0.39344284
000020 fe 89 b3 3e 85 55 50 bd 10 a5 d6 be 0d be ec 3d
       0.35066217 -0.050862808 -0.41922808 0.11559687
000030 e5 45 c8 3e 76 9a 9c 3c ac 1c e1 be 2b 74 db 3e
       0.39115825 0.019116621 -0.43967187 0.42862067
000040 45 a2 c3 be ea ab b9 3e 6b 61 5c be 85 f2 94 be
       -0.3820974 0.36263973 -0.21521537 -0.29091278
000050 a5 2a 97 3e cd b6 76 3d af 67 bb be 21 2b 8d be
       0.29524723 0.060232926 -0.36602542 -0.27571967
000060 16 f9 0a 3e
       0.13571581

ff2.bias f4 [5]
000000 ac 10 d9 3e 98 f8 d5 bd 04 da 8d be a1 9f 6e 3e
       0.42395532 -0.10447806 -0.27705395 0.23303081
000010 d3 76 be be
       -0.3720003

ff3.weight f4 [5, 5]
000000 7c ea 39 bd 32 5c 81 bd 4b a4 11 3e 32 f9 b0 3d
       -0.045389637 -0.06316413 0.14222829 0.0864128
000010 29 00 81 3e 57 5c 87 3e 75 43 90 3e e0 79 80 3a
       0.25195435 0.26437637 0.28176466 0.0009801947
000020 52 82 75 be 93 c3 93 be 0c 91 0e be ab dc 0e 3e
       -0.23975495 -0.2886015 -0.13922518 0.13951366
000030 20 d0 22 be 35 2b d3 3d 90 fb a7 3e cd 2b 75 3d
       -0.15899706 0.103109755 0.32809114 0.059856225
000040 d0 6e db be 0c b9 5c 3e bd 45 bf 3e cb ac da be
       -0.4285798 0.21554965 0.37357894 -0.42709956
000050 52 76 05 be 37 b5 d7 3e f1 bc 25 bc ad f6 b8 3e
       -0.13033417 0.42130443 -0.010115848 0.361257
000060 e2 01 83 3e
       0.25587374

ff3.bias f4 [5]
000000 e6 54 ab 3e e1 c5 df 3e 81 31 77 be 66 6f b0 be
       0.3346321 0.43705657 -0.24139978 -0.3445999
000010 c2 e0 d8 3e
       0.42358977

firstGCN.attentionLayer.linear.weight f4 [5, 10]
000000 66 5f 04 be 0f fe ee bc f3 7d 7e 3e 61 cf 96 3e
       -0.12927017 -0.029173879 0.24852733 0.29455093
000010 38 af 82 bd b2 c2 8b be 25 5f 16 3e a9 31 a9 be
       -0.063810766 -0.27296978 0.14684732 -0.330457
000020 2e 78 b2 3e 24 7c 8a bd cc 1c 19 3f 44 22 8c 3e
       0.34857315 -0.06761959 0.59809566 0.27369893
000030 1b 9e e8 bd 94 a6 28 bd e7 9d 05 3f 1b ae 92 3e
       -0.11358281 -0.041174486 0.52194065 0.28648457
000040 59 6e da 3e 39 8a bf bd da f0 95 3e 19 5c f6 bd
       0.42662314 -0.09352536 0.29285318 -0.12029285
000050 32 af 4a be c7 9a fe bc d9 3d 99 be 6e 47 81 3e
       -0.19793394 -0.031079663 -0.2993 0.2524981
000060 1a 35 ee bd 65 05 86 be e0 b5 5e be d5 c4 2a 3e
       -0.11631222 -0.2617599 -0.21749067 0.16676648
000070 c7 13 57 3e 59 7d 19 bd 47 d6 12 3e 69 5a d5 3e
       0.21003638 -0.037473056 0.14339553 0.4167054
000080 85 31 ee 3e 3a 11 ec 3b 48 c9 94 3e 7f 89 33 be
       0.46522155 0.007204202 0.29059815 -0.1753292
000090 55 3f 2c be a8 37 9d 3d 98 71 f5 3e 01 61 ee 3e
       -0.16821034 0.07676631 0.47938228 0.46558383
0000a0 a9 00 d2 3d f5 f5 94 3a 72 37 9b 3e f4 3e b6 bd
       0.10254032 0.0011364805 0.3031574 -0.08898726
0000b0 d2 e7 57 be 81 83 10 be 88 96 a2 be 78 92 64 3e
       -0.21084526 -0.14112665 -0.3175547 0.22321498
0000c0 06 f6 0b 3e 58 f5 96 be
       0.13668069 -0.29484057

firstGCN.attentionLayer.linear.bias f4 [5]
000000 00 10 7b bd 7f ee c7 bd bc 87 2e 3e ea 12 76 be
       -0.061294556 -0.097622864 0.17043966 -0.24030653
000010 da 34 b4 bd
       -0.08799143

firstGCN.attentionLayer.inAttention.W_sum f4 [5, 5]
000000 13 58 4f 3f 29 11 4d 3f 10 ac a2 3e 97 f3 8f 3e
       0.80993766 0.8010431 0.31771898 0.28115532
000010 3e b0 7a 3e ff 14 3e 3f cc ce 2c 3f b9 7b 41 3e
       0.24481294 0.7425079 0.67503047 0.18894853
000020 67 b9 b3 3e d7 13 f2 3e 11 ad 27 3f 36 dc 12 3f
       0.35102388 0.47280762 0.65498453 0.57367265
000030 74 66 87 3f fb 3a 22 3d da a6 76 3d 82 0e 54 3f
       1.0578141 0.03960703 0.060217716 0.8283464
000040 84 23 8e 3e 15 cd 78 3f f1 7b f4 3e b7 d2 7e 3f
       0.2776147 0.9718793 0.4775081 0.99540275
000050 c7 2f e7 3e 0a 4e a2 3e b2 4a 34 3f 8b bc 77 3e
       0.4515364 0.31700164 0.70426476 0.24193017
000060 ef 07 05 3f
       0.5196523

firstGCN.attentionLayer.inAttention.W_alpha f4 [5, 5]
000000 a2 f1 93 3e a4 0c b5 3e 63 36 24 3d d5 4f cb 3e
       0.2889529 0.35361207 0.04009093 0.39709345
000010 f6 36 d2 3b 01 4f ed 3e 55 df 04 3e 27 6e 2f 3f
       0.0064152433 0.46349338 0.1297582 0.68527454
000020 87 43 47 3e 97 07 3a 3f 80 01 4b 3e 16 09 ff 3d
       0.19459353 0.7266783 0.19824791 0.12452905
000030 cb 26 b5 3e 9d f0 73 3f 81 54 69 3f 6a 4a 32 3f
       0.3538116 0.9528902 0.9114457 0.69644797
000040 47 16 d7 3e 10 84 92 3e fc 7d c0 3e ca 24 ab 3e
       0.42009184 0.2861638 0.37596118 0.33426505
000050 b4 51 2b 3e 53 d1 e0 3e 4a d8 ed 3e 7e f3 2c 3f
       0.16730386 0.43909702 0.46454078 0.6755904
000060 44 1a 02 3f
       0.5082133

firstGCN.attentionLayer.inAttention.a_alpha f4 [5, 1]
000000 10 5a 8f 3d 8f f3 6b 3f fd ba 6d 3c 1b 96 7f 3f
       0.069996 0.92168516 0.0145099135 0.9983842
000010 e1 41 b8 3a
       0.0014057719

firstGCN.attentionLayer.inAttention.b_alpha f4 [5, 1]
000000 5b 91 32 3f 03 3b 0b 3f 78 c4 4d 3f 36 fa c9 3e
       0.69753045 0.5438692 0.8037791 0.39448708
000010 f0 fc 2d 3f
       0.67964077

firstGCN.attentionLayer.outAttention.W_sum f4 [5, 5]
000000 b9 7a 79 3f 7f 2c 42 3f 1e 59 01 3f 1c 10 bb 3e
       0.97452885 0.75849146 0.5052661 0.36535728
000010 01 9e 57 3f a5 2f 56 3f b2 99 89 3f ff 7e 07 3f
       0.8422547 0.8366645 1.0750029 0.52928156
000020 46 b2 18 3e b2 d3 1f 3e f1 e6 8d 3e 7e 00 11 3f
       0.14911756 0.15608099 0.27715257 0.56641376
000030 88 87 75 3e 9b c2 11 3f 92 95 5c 3f d8 ce 29 3e
       0.23977482 0.5693757 0.86165726 0.16582811
000040 21 cf 80 3f ad fc 43 3e 3a 04 1a 3e d6 e6 06 3f
       1.0063211 0.19139357 0.15040675 0.5269598
000050 6c 6d 68 3f ce 73 1a 3f cb 74 80 3e f5 e2 66 3f
       0.90791965 0.60332954 0.25089106 0.9019006
000060 14 bc 29 3f
       0.6630261

firstGCN.attentionLayer.outAttention.W_alpha f4 [5, 5]
000000 12 1c 75 3f 39 29 cf 3e 02 e8 33 3f fb 49 2b 3e
       0.95745957 0.40461138 0.7027589 0.1672744
000010 37 df 8f 3e b3 39 30 3f e9 08 20 3f 19 97 14 3e
       0.28099987 0.6883804 0.62513596 0.14510764
000020 79 af dd 3e db 82 79 3e 46 16 e8 3d f5 56 0d 3f
       0.43297938 0.24366324 0.11332373 0.5521081
000030 c9 fe e4 3e d1 6c 17 3f 7f 09 eb 3d c1 82 6e 3f
       0.44725636 0.59150416 0.114764206 0.93168265
000040 4f ce ad 3e 43 1f 02 3f 1b dd c0 3e 23 26 26 3f
       0.33946463 0.5082895 0.3766869 0.6490194
000050 8a 69 86 3d c5 65 42 3f 3f 07 f4 3e 7d 8b 0c 3f
       0.06563099 0.7593654 0.47661778 0.5490034
000060 6b a0 3c 3f
       0.7368228

firstGCN.attentionLayer.outAttention.a_alpha f4 [5, 1]
000000 6b 93 79 3f 78 9f 98 3d cc 9c 1e 3e ec f5 96 3e
       0.97490567 0.07452291 0.15489501 0.29484499
000010 4c 8a 2c 3f
       0.67398524

firstGCN.attentionLayer.outAttention.b_alpha f4 [5, 1]
000000 36 4d 74 3e ff aa 12 3e 70 56 06 3f 8d f5 43 3f
       0.23857579 0.14323042 0.52475643 0.76546556
000010 23 06 55 3f
       0.8321249

firstGCN.linearLayer.weight f4 [5, 10]
000000 ea 1c 17 be 0c 81 88 3d 9c 22 6d 3e 39 46 21 bd
       -0.14757124 0.06665239 0.23157734 -0.03937361
000010 1f e0 aa bd 3b d4 e2 bd 93 66 8b 3e e3 78 51 be
       -0.08343529 -0.11075636 0.27226695 -0.20456271
000020 6c f4 aa bc 2f d1 ee 3d 21 6a da bb 4c 5e 8b 3d
       -0.020868503 0.11660992 -0.0066654836 0.06805095
000030 3e bd 56 be 9a f7 ba 3c 49 c1 86 3d 94 47 3e 3e
       -0.20970628 0.022823144 0.06579835 0.18581992
000040 33 d8 04 3d 85 34 9f bd 4b b8 8c be 87 58 52 3d
       0.032432746 -0.07773689 -0.27484354 0.051353958
000050 0b 55 87 bd a2 a8 5a 3e 40 a9 2f be 92 61 65 be
       -0.066080175 0.21353391 -0.17154408 -0.22400501
000060 5f a1 44 3e fc 8f a1 3c 1e 2f d1 bc 54 a9 4e be
       0.19202183 0.019721977 -0.025535163 -0.20181781
000070 41 d8 83 3c 44 a2 36 3e 21 25 f0 bd fe b1 05 be
       0.016094329 0.17835337 -0.11725832 -0.1305618
000080 0e 5b 91 bd 3a 11 26 be 46 f8 54 3d f0 47 95 be
       -0.070974454 -0.16217509 0.051994585 -0.29156446
000090 02 2e 51 bb 9e 47 89 be b5 8f d8 3c 0a 6a 25 3e
       -0.0031918292 -0.26812452 0.026435712 0.16153732
0000a0 55 fe 5c 3e 6b 5f 77 bd 26 bb 96 3e e1 72 88 be
       0.21581395 -0.060393732 0.29439658 -0.26650146
0000b0 74 a1 56 be 56 33 46 be 01 48 ef 3d f6 2d 0f 3c
       -0.20960027 -0.1935552 0.116836555 0.008738985
0000c0 46 d5 44 3d 1e 3d 9b be
       0.048054956 -0.30320066

firstGCN.linearLayer.bias f4 [5]
000000 44 ea 1e 3e 0d 90 11 3e 5d 4d 95 be b9 72 d3 3d
       0.15519053 0.14215107 -0.29160586 0.10324616
000010 d7 dc 3d 3e
       0.18541275

secondGCN.attentionLayer.linear.weight f4 [5, 10]
000000 af 28 d9 bc 66 3f f4 bb 0e 3f 71 be ba a5 03 3e
       -0.026508657 -0.0074538467 -0.2355921 0.12856188
000010 06 40 82 bd d1 e3 32 3e 2a 6f 8c bd 8a 71 8f be
       -0.06359868 0.17469718 -0.0685714 -0.2801631
000020 27 0d 59 3e be da e0 bd 13 f6 f6 bd 3b ff d4 bc
       0.21196423 -0.10979222 -0.12058654 -0.02600061
000030 41 21 fd bd f0 ea 93 3e ae 3c 55 be bf 29 d2 3d
       -0.12359858 0.2889018 -0.20823929 0.10261869
000040 fe ee 2b bd 64 de 28 be 19 41 0b be eb 57 89 be
       -0.041975968 -0.16491085 -0.13599052 -0.2682489
000050 70 f9 bd bd 34 46 8d 3e c1 39 0e 3e bd c1 73 3e
       -0.09276092 0.27592623 0.13889219 0.23804374
000060 ce 72 9c be ee 5e 9b bd 26 dd c2 3d e9 4f 8b be
       -0.3055634 -0.07586466 0.09514837 -0.27209404
000070 e7 48 30 be 06 27 91 3e 70 ac 18 be a6 b0 9d 3d
       -0.1721531 0.28350085 -0.1490953 0.07699709
000080 de dd 23 be 3c e6 99 be 6e 61 97 be 46 e1 68 be
       -0.16002604 -0.30058467 -0.2956652 -0.22742185
000090 d2 de 56 be ef 38 c0 bd 5d 5c 95 3b d4 ff 56 3e
       -0.20983437 -0.09385859 0.0045581297 0.20996028
0000a0 e6 9f fc bc e2 fe 45 3b 4b 53 96 be a1 40 97 be
       -0.030837964 0.0030211736 -0.29360422 -0.29541495
0000b0 74 c0 3c be e7 8e 42 3d ed fb b6 bd d0 fc 3f 3e
       -0.1843279 0.047499564 -0.0893477 0.18748784
0000c0 d8 96 5d 3e 4f 44 28 3e
       0.21639574 0.16432308

secondGCN.attentionLayer.linear.bias f4 [5]
000000 d0 06 77 be 05 2c 7c 3e 12 f5 5d 3e 64 b6 81 3e
       -0.24123693 0.24626167 0.21675518 0.25334466
000010 20 4b 86 be
       -0.2622919

secondGCN.attentionLayer.inAttention.W_sum f4 [5, 5]
000000 12 b3 8c 3e a8 d3 47 3f e8 6f 4a 3e c0 17 a9 3c
       0.2748037 0.78057337 0.19769251 0.020641208
000010 ca 6c 3e 3f 80 81 59 3e 08 27 a6 3e e7 52 15 3f
       0.7438475 0.21240807 0.32451653 0.58329624
000020 f2 7e c9 3e 06 9f ef 3e 06 55 fd 3e 66 22 53 3f
       0.39354664 0.46801013 0.4947893 0.8247436
000030 48 cc 65 3e 20 84 5d 3e 59 9e 0e 3f b8 32 c9 3e
       0.22441208 0.21632433 0.5571037 0.39296508
000040 80 90 a8 3b 54 29 50 3e 9b e4 57 3f 82 d4 1b 3f
       0.005144179 0.20328265 0.843332 0.60871136
000050 a2 1c 16 3f d4 b3 8b 3e f8 e6 c9 3d 00 a0 07 3f
       0.5863744 0.27285635 0.09858507 0.52978516
000060 16 50 33 3f
       0.70044076

secondGCN.attentionLayer.inAttention.W_alpha f4 [5, 5]
000000 e1 8f 4e 3f 60 e6 fe 3c 56 b0 3b 3f c4 ec 05 3e
       0.8068829 0.03111571 0.7331594 0.130786
000010 05 b1 56 3f 5c 30 cb 3e 80 e7 47 3c 6b 4d 5b 3f
       0.8386386 0.39685333 0.01220119 0.85665005
000020 da c9 b4 3e da 91 73 3f 4e ab f9 3e 50 ed 19 3f
       0.3531025 0.95144427 0.48763508 0.60127735
000030 ba b4 9b 3e b4 83 32 3f 04 1f a2 3e 14 b5 f3 3e
       0.3041132 0.69732213 0.31664288 0.4759909
000040 25 e2 1b 3f 90 b6 14 3d 34 b6 14 3f 4a 4e 0b 3f
       0.60891944 0.036306918 0.5809052 0.54416335
000050 09 aa 6c 3f 52 b9 f6 3e 31 f0 10 3f 3c b7 28 3e
       0.92446953 0.48188263 0.56616503 0.16476148
000060 f8 93 36 3f
       0.7131953

secondGCN.attentionLayer.inAttention.a_alpha f4 [5, 1]
000000 10 26 f4 3d 00 fc 85 3e 47 ed 16 3f 78 d0 44 3e
       0.11921322 0.26168823 0.58955806 0.1922015
000010 64 2c 14 3f
       0.57880235

secondGCN.attentionLayer.inAttention.b_alpha f4 [5, 1]
000000 35 c9 20 3f 3c 8f 9c 3e 24 5f 51 3e 32 82 71 3f
       0.6280702 0.3057803 0.2044645 0.9433929
000010 2c 1b 50 3f
       0.8129146

secondGCN.attentionLayer.outAttention.W_sum f4 [5, 5]
000000 c2 52 50 3f ba f3 b5 3e 58 85 db 3d 0c 03 17 3f
       0.8137628 0.3553751 0.10718793 0.58989024
000010 37 88 14 3f 61 99 52 3f 1c cb 9a 3e e0 ff a5 3d
       0.5802035 0.8226529 0.30233085 0.08105445
000020 22 c4 26 3f 22 79 8e 3e 50 cc 19 3d b3 5e 53 3f
       0.65143025 0.27826792 0.037548363 0.82566375
000030 38 e5 f5 3e e6 c1 92 3e 0a 64 8f 3e 1b 21 6d 3f
       0.48026443 0.28663558 0.2800601 0.9262864
000040 56 ae 3c 3f 88 42 14 3f 80 e7 39 3d 0d 39 00 3f
       0.73703516 0.5791402 0.04538679 0.5008705
000050 b1 0f 20 3f 51 42 54 3f 66 3e ae 3e 12 a9 9c 3e
       0.62523943 0.8291369 0.3403198 0.3059774
000060 ec d3 ca 3e
       0.3961481

secondGCN.attentionLayer.outAttention.W_alpha f4 [5, 5]
000000 fc 70 6d 3f 1a c1 99 3e 96 28 22 3f e6 60 b6 3e
       0.92750525 0.30030137 0.6334318 0.35620803
000010 d0 42 45 3d 32 b5 bd 3e 7f cb 12 3f c8 d1 f6 3e
       0.04815942 0.37052304 0.5734176 0.48206925
000020 49 e7 66 3f 24 6e 8b 3e 20 ac 4b 3e da 02 e5 3e
       0.90196663 0.27232468 0.19889879 0.44728738
000030 8c 66 6d 3f 18 ec c9 3e db 56 08 3f 87 c0 29 3f
       0.927346 0.39437938 0.5325753 0.663094
000040 34 25 ed 3e 46 ee 24 3f 88 cf 8e 3d b0 12 65 3e
       0.46317446 0.64426076 0.06973177 0.2237041
000050 e5 da 13 3f 90 e1 8d 3e f0 3e 4a 3d e4 de 04 3e
       0.5775588 0.27711153 0.049376428 0.12975651
000060 92 63 59 3f
       0.8491756

secondGCN.attentionLayer.outAttention.a_alpha f4 [5, 1]
000000 70 b0 3b 3d a5 cd 19 3f a4 0e 00 3f 34 59 2d 3e
       0.04582256 0.60079414 0.5002234 0.1692856
000010 00 bd c6 3b
       0.006065011

secondGCN.attentionLayer.outAttention.b_alpha f4 [5, 1]
000000 cf cb 01 3f 81 2c 44 3f 10 cc dc 3d 48 3b ad 3d
       0.5070161 0.7663041 0.10781109 0.084585726
000010 95 94 7b 3f
       0.98273593

secondGCN.linearLayer.weight f4 [5, 10]
000000 75 98 37 3c 93 43 99 be 26 ff 93 3e 10 be 8f 3e
       0.011205782 -0.29934368 0.289056 0.28074694
000010 8d ae 8c 3e 85 91 ea bd 1e ff 5b 3e b8 9d 99 3e
       0.27476922 -0.11453537 0.21484038 0.30003142
000020 1c bc ca bd fd 23 9f 3e cb f1 8d bd 31 47 cb bd
       -0.0989916 0.31082144 -0.06930884 -0.09925688
000030 3a 00 cc 3d c3 4d d3 3d 94 d0 52 3e 0c 62 10 3d
       0.09960981 0.10317566 0.20587379 0.035249755
000040 69 e1 8c be 4f 4f 84 3e bb 5f 50 3e 68 61 f6 bd
       -0.27515724 0.25841758 0.20349018 -0.120302975
000050 1b 7e 4e be ed 37 98 be d0 c9 d1 3d 02 60 ed bd
       -0.20165293 -0.29730168 0.10243571 -0.11590578
000060 d0 12 12 3e f8 d9 0a be e6 83 01 3e 87 e5 85 3d
       0.14264989 -0.13559711 0.12647972 0.065379195
000070 de 87 76 bd 4f 57 29 3d 48 bc 59 bd 16 88 68 3e
       -0.060188167 0.04134303 -0.053158075 0.22708163
000080 86 6e 9e 3e 42 b7 15 be c2 be 84 3e 9d 70 71 b9
       0.30943698 -0.14620689 0.25926787 -0.00023025503
000090 68 27 3f be e3 95 a1 3e bb bf 14 be 8e f3 41 bd
       -0.18667376 0.31559667 -0.14526264 -0.047351412
0000a0 a4 8a 47 bd 8a ed 7d be ad e0 62 3e a4 d4 5e 3e
       -0.048716202 -0.24797645 0.2215602 0.21760803
0000b0 90 9a 2f 3e b7 9e c9 bd f3 6a 87 be 9c 4a 93 be
       0.17148805 -0.098447256 -0.26448783 -0.2876786
0000c0 a8 1d 9e be 85 91 83 3e
       -0.30882 0.2569696

secondGCN.linearLayer.bias f4 [5]
000000 97 ca 8d be 10 27 5c 3d 91 e1 8a 3d 8d 0b 8a 3e
       -0.27693626 0.05374819 0.06781305 0.26961938
000010 db b4 33 bd
       -0.04387365

thirdGCN.attentionLayer.linear.weight f4 [5, 10]
000000 dc f1 0d be 12 e3 0a bd 90 92 43 be f3 7d 6b be
       -0.13861793 -0.033907957 -0.19098878 -0.22997265
000010 47 94 4c be 84 37 9a 3e 5f f6 4e be 86 da a6 bd
       -0.19978438 0.3012048 -0.2021117 -0.08147149
000020 f5 75 e2 3d b8 94 90 3d 9e 39 9f be 5e 36 80 3e
       0.11057655 0.07059616 -0.31098646 0.2504148
000030 62 9d 80 be 38 ca 01 3e 53 f9 3e be d8 f9 42 3e
       -0.25120074 0.12674797 -0.18649797 0.1904062
000040 d6 8a 26 be a5 bd bc bd 6c d6 eb 3d c9 18 c1 3d
       -0.16263899 -0.09215859 0.11515507 0.094285555
000050 4d cc ee bd 09 8b 45 3e d7 fb 7c bd 00 f4 95 3e
       -0.11660061 0.19291319 -0.06176361 0.2928772
000060 1a 24 bd 3d 0b c4 91 bd f9 47 5d 3e 30 a3 50 bc
       0.092354015 -0.0711747 0.21609487 -0.012734219
000070 6e 05 e4 bd 69 5e 89 3e 19 ba de 3d ef 71 6d 3e
       -0.11133848 0.26829842 0.10875339 0.23187993
000080 ad b9 75 3e 83 87 14 3e 5a 47 ab 3d c5 4b 08 3e
       0.23996611 0.14504819 0.083632186 0.13310154
000090 10 28 01 be cc ff 49 be df a7 33 be 4e 57 47 3e
       -0.12612939 -0.19726485 -0.17544506 0.19466898
0000a0 1d 21 9f be 86 d0 14 be e8 8f ff 3d ba 2f a1 be
       -0.3107995 -0.1453267 0.1247862 -0.31481725
0000b0 cd 22 90 bc fd 5c 0f 3e 33 3c 61 3e f0 99 bd bd
       -0.01759472 0.14000316 0.2199562 -0.09257877
0000c0 df fb 4a 3e ef e0 1d 3e
       0.19822644 0.15417837

thirdGCN.attentionLayer.linear.bias f4 [5]
000000 f8 39 39 3e 1e 7f dd 3b 63 d5 26 3e 4b 25 79 3e
       0.1808852 0.0067595383 0.16292338 0.24330632
000010 4c 7e 9b 3d
       0.075924486

thirdGCN.attentionLayer.inAttention.W_sum f4 [5, 5]
000000 e6 1b b8 3e ee f7 67 3f b4 b5 74 3e 1c 1d ce 3e
       0.35958785 0.90612686 0.23897439 0.40256584
000010 54 15 f0 3e 9f 00 54 3f 84 2a b3 3e 7e 1c 66 3f
       0.46891272 0.8281345 0.34993374 0.89887226
000020 b9 c5 59 3f 76 10 a5 3e 2c a0 11 3f c4 45 fb 3e
       0.85067326 0.3223912 0.5688503 0.49076664
000030 96 89 1f 3f c8 11 0c 3f 23 3a 41 3f e4 90 b1 3e
       0.62319314 0.5471463 0.75479335 0.34680855
000040 69 70 52 3f b2 4f ee 3e 0a bc 41 3f 74 0a 3e 3e
       0.82202774 0.46545178 0.7567755 0.18558675
000050 e2 fa 59 3f ae 54 68 3f 0a 8a 79 3f 0b 0d 26 3f
       0.8514844 0.9075421 0.97476256 0.6486365
000060 bd cd 18 3f
       0.5968893

thirdGCN.attentionLayer.inAttention.W_alpha f4 [5, 5]
000000 80 76 de 3b 88 0b f6 3e 39 dc 0f 3f 38 2d 69 3e
       0.0067890286 0.48055673 0.5619541 0.22771156
000010 8e d2 19 3f 48 1d 8f 3e ef 82 45 3f d5 e3 76 3f
       0.60086906 0.27952027 0.77152914 0.96441394
000020 5a f7 cd 3e 9a 05 e0 3e da b1 5f 3f 7e 57 8c 3e
       0.40227777 0.43754274 0.87380755 0.274105
000030 34 68 e5 3e 1c 3b be 3e c5 9c 79 3f b0 45 3c 3f
       0.44806063 0.37154472 0.97504836 0.73543835
000040 84 84 8b 3e 4a 5d b6 3e 18 57 21 3e ac 13 20 3f
       0.2724954 0.3561805 0.1575588 0.62530017
000050 08 d7 99 3d 90 af 26 3e 6b 04 4c 3f b4 c0 98 3e
       0.07511717 0.1627791 0.7969424 0.2983452
000060 6d 40 23 3f
       0.6377018

thirdGCN.attentionLayer.inAttention.a_alpha f4 [5, 1]
000000 10 6c 15 3d 2a f5 62 3f 04 1d 6b 3f 38 b4 81 3d
       0.03648001 0.8865534 0.9184115 0.06333202
000010 c0 a2 0b 3f
       0.5454521

thirdGCN.attentionLayer.inAttention.b_alpha f4 [5, 1]
000000 90 37 61 3f 8d e7 13 3f ec c1 ea 3e f6 23 43 3f
       0.87975407 0.57775193 0.45851076 0.7622675
000010 92 ce 46 3f
       0.7765895

thirdGCN.attentionLayer.outAttention.W_sum f4 [5, 5]
000000 b7 fe 73 3f 5c 2d b2 3e e2 41 4a 3f f8 5c 3f 3f
       0.9531054 0.3480023 0.7900678 0.74751234
000010 a8 18 4d 3e ca 27 38 3f 48 66 34 3f a5 b7 56 3f
       0.20028937 0.71935713 0.7046857 0.8387397
000020 1e 9b 4f 3f 94 c1 f1 3e 70 26 f8 3d 9c 79 92 3e
       0.81096065 0.47218 0.12116706 0.28608406
000030 34 50 30 3f 82 f4 1d 3f 32 28 34 3f 40 3e 51 3c
       0.6887238 0.61701214 0.70373833 0.012771189
000040 98 99 e8 3d a6 47 29 3f 2d fd 67 3f 32 36 7d 3f
       0.11357421 0.6612495 0.9062069 0.9891082
000050 98 d3 24 3e 81 ac 63 3f 0e a9 44 3f f0 49 c2 3d
       0.16096342 0.88935095 0.76820457 0.09486759
000060 74 85 b6 3e
       0.35648692

thirdGCN.attentionLayer.outAttention.W_alpha f4 [5, 5]
000000 ef d5 68 3f 57 3a 46 3f 56 c0 b5 3e 04 bb 85 3e
       0.90951437 0.7743277 0.35498303 0.26119244
000010 6c 48 bb 3e 44 07 f3 3e 94 0d d4 3e a4 e0 3a 3f
       0.3657869 0.4746648 0.4141661 0.72999024
000020 09 72 29 3f be cb 01 3f 18 c1 e4 3e 9e 9e af 3e
       0.6618963 0.5070151 0.4467857 0.34300703
000030 6f 25 1b 3f 58 62 05 3f c0 38 9e 3d 9c 34 92 3e
       0.60603994 0.52103186 0.07725668 0.28555763
000040 40 59 76 3f 64 e9 a8 3e 54 be f9 3e b2 e8 32 3f
       0.96229935 0.32990563 0.4877802 0.69886315
000050 0f ae 50 3f d6 ab 14 3f f0 df 13 3e 54 e1 1f 3f
       0.8151559 0.580747 0.14440894 0.624532
000060 4e d8 a4 3e
       0.32196277

thirdGCN.attentionLayer.outAttention.a_alpha f4 [5, 1]
000000 65 b3 7e 3f c4 66 93 3e 2b 65 67 3f 78 b1 12 3e
       0.99492484 0.2878934 0.90388745 0.14325511
000010 09 ba 31 3f
       0.6942449

thirdGCN.attentionLayer.outAttention.b_alpha f4 [5, 1]
000000 34 94 79 3f e8 08 73 3e 4e 9a 72 3f 8a c9 f2 3e
       0.97491765 0.23733866 0.947667 0.47419387
000010 31 cd 44 3f
       0.768756

thirdGCN.linearLayer.weight f4 [5, 10]
000000 32 dc 1e 3d 50 d9 2a be c8 dc 37 3e 8d e7 26 3d
       0.038784213 -0.1668446 0.17955315 0.040748168
000010 68 ec b2 bc 16 94 33 3c eb 66 83 be a8 97 77 be
       -0.021841243 0.010960599 -0.25664458 -0.24178946
000020 60 8f 8b 3e 1b 7d 71 3c 6a f3 51 bd 78 b4 1e be
       0.27257824 0.0147393 -0.05125753 -0.15498531
000030 c2 46 89 3e 1f aa d6 3d db 3a 8a 3e 94 6c e0 bd
       0.26811796 0.10481667 0.26998028 -0.1095821
000040 36 ff 15 be b7 2e 1e 3e eb 21 03 3e d6 85 bd 3d
       -0.14648136 0.15447508 0.12805907 0.09254043
000050 38 65 bc bd be 2e 26 3e dc 16 1b 3e 2e a5 26 3c
       -0.091989934 0.16228768 0.15145439 0.010171218
000060 cf f5 91 3e 47 27 95 3e f1 8f eb bd 5f 60 33 3e
       0.2850785 0.2913153 -0.11502064 0.17517231
000070 7f 51 87 3e e6 78 9e 3e 32 53 1a be 77 8e 62 bd
       0.26429364 0.30951613 -0.15070799 -0.055311646
000080 a6 20 89 be b4 d7 d4 bc 41 06 27 3e 84 8f af bd
       -0.2678272 -0.025981762 0.1631098 -0.08572295
000090 e2 b9 11 be b9 e6 37 bc 24 9f 5e 3e 54 8e f9 3d
       -0.14231065 -0.011224442 0.21740395 0.1218535
0000a0 5c 44 00 be 15 bb 77 bd 5c 1e 7a 3e dd c1 9d be
       -0.12526077 -0.06048115 0.24425644 -0.30811968
0000b0 0a 1f f0 3c 70 ec 07 bc a0 d6 bf bd b9 bb 0b bd
       0.029311676 -0.008296117 -0.09367108 -0.034114573
0000c0 5f e1 f8 bd 2e b8 5f be
       -0.12152361 -0.21847603

thirdGCN.linearLayer.bias f4 [5]
000000 c4 02 34 3c 27 0a 8b 3e 30 66 ef 3d c9 02 a1 3c
       0.0109869875 0.27156183 0.116894126 0.019654648
000010 2f 43 79 3e
       0.24342035

ff4.weight f4 [5, 5]
000000 1e 27 17 3e 9c ad 61 3f db 8f bb be 0c 1e 2b 3f
       0.14761016 0.8815553 -0.3663319 0.6684272
000010 f8 4a d1 3d de 67 ba 3e 3c 8c 85 be 31 0f bc 3e
       0.10219377 0.3640737 -0.26083553 0.3673034
000020 e8 04 2d 3f f2 d3 8d bd 26 b3 a7 be ce 20 a3 3a
       0.6758561 -0.06925191 -0.32753867 0.001244569
000030 fc b0 af 3e d4 36 ae be d6 ec b4 3e ec f5 d8 3e
       0.34314716 -0.34026206 0.3533694 0.42375124
000040 fe ba fd 3c 75 d4 98 be 3b 91 54 3c 5a 75 df 3e
       0.030972954 -0.29849592 0.012974079 0.4364422
000050 af 2d 62 3e 3b 56 af be 42 c0 e4 3b 09 b2 5e be
       0.2208774 -0.34245476 0.0069809267 -0.21747603
000060 26 b0 11 be
       -0.14227352

ff4.bias f4 [5]
000000 0d 93 08 3e 69 d0 9e bc 1c 37 14 be eb fd a8 bd
       0.13337345 -0.019386487 -0.14474148 -0.08251556
000010 2a 3d 29 3c
       0.010329524

ff5.weight f4 [5, 5]
000000 19 84 5e be 35 39 d9 be b1 2d c5 be d0 71 b5 3d
       -0.21730079 -0.42426458 -0.38511422 0.08859599
000010 79 58 f9 bc ac a6 86 be ee 4f b9 be 17 c3 53 3e
       -0.030437695 -0.26299036 -0.36193794 0.2067989
000020 61 fd d8 be fd 07 7a 3e 23 f2 5c 3e 72 27 d9 3d
       -0.42380813 0.2441711 0.21576743 0.10603227
000030 26 d3 34 3e 82 63 13 3e 93 32 9a be 3a c9 cc 3d
       0.17658672 0.14393428 -0.3011671 0.099993184
000040 9d 0a b4 bd 2e 04 bf 3e 19 28 19 3e 7b 7a ca be
       -0.08791087 0.37307876 0.14956702 -0.3954657
000050 ac af db be 04 fe 3f 3e 25 52 be 3e 3d fd b9 bd
       -0.42907465 0.18749243 0.37172046 -0.090815045
000060 95 f0 8f be
       -0.28113237

ff5.bias f4 [5]
000000 7d fe 0f be 9b c9 cb be 9e 75 a9 3c 7b 40 26 bd
       -0.14061923 -0.3980225 0.020685967 -0.040588837
000010 14 25 d0 be
       -0.40653288

ff6.weight f4 [10, 5]
000000 b1 02 c0 be a3 02 05 3e e9 75 2f 3c 9b 9c 9d 3e
       -0.37502053 0.12989287 0.010709264 0.30783543
000010 a4 21 07 be 82 2f 8d be d4 a2 1d be b6 68 0e 3e
       -0.13196427 -0.27575308 -0.15394145 0.13907132
000020 d5 22 d0 bc 33 b1 c0 3d 15 3e 6e be 49 f0 31 3f
       -0.025407234 0.09408798 -0.2326587 0.6950727
000030 8a c9 64 3e cc d3 e9 3e 19 1e ce bd 53 8b b5 be
       0.22342506 0.456694 -0.100643344 -0.35457858
000040 1f cc e4 bd 1b eb a6 be b2 9a 3a be 8f 7e 0d 3e
       -0.111717455 -0.32601246 -0.18223074 0.1381781
000050 67 b7 da be 01 76 89 3e 1b 33 b2 3e 81 1a 3b bc
       -0.4271805 0.26847842 0.34804615 -0.011419893
000060 04 14 c2 3d fc 9f 05 bf b4 75 fc bd cc 4d 63 3e
       0.09476474 -0.5219724 -0.123271376 0.22197646
000070 69 82 93 3e 27 4c da be 41 45 96 be 68 f1 23 be
       0.28810433 -0.42636225 -0.29349712 -0.16010058
000080 4c 6c 31 bd d9 14 ae 3e 50 9c 1d 3e 6f dd e1 be
       -0.04331617 0.3400028 0.1539166 -0.44114253
000090 b9 04 d2 3e 68 04 ad 3e 5e 25 d1 3e 28 79 42 3e
       0.41019228 0.33792424 0.4084882 0.1899153
0000a0 76 66 f2 be e8 bb a1 be bc cc 1d 3e 35 2a 3d 3e
       -0.47343796 -0.31588674 0.15410131 0.18473132
0000b0 43 e2 b4 be e3 e6 dc be 93 2a 9c 3e 0a 2d e0 be
       -0.35328874 -0.43144903 0.30501232 -0.43784362
0000c0 c9 59 98 3e c2 9f c2 3d
       0.29756 0.09503128

ff6.bias f4 [10]
000000 b3 5b cd be e7 d4 34 bf 70 da 13 bf 2e 24 d5 be
       -0.40109023 -0.70637363 -0.57755184 -0.41629165
000010 52 17 ba be 32 75 07 bf 5f 71 d5 be aa a1 e1 be
       -0.36345917 -0.529132 -0.41688058 -0.44068652
000020 73 a1 ec be 7f 26 cb be
       -0.46216926 -0.39677808
