code/ml_model/useless_models/model_weights_m8p8n10_lr0.100000_bs10_epochs20.pth (torch, 21874 bytes, 48 tensors)

ff1.weight f4 [5, 5]
0.25314805 -0.00030297218 -0.16049832 0.33982491 0.27637684 -0.33562562 0.27898347 -0.37620854
0.01735594 0.30796447 0.3449806 -0.0380321 0.17019956 0.019044438 -0.041215252 -0.07423837
0.057309244 -0.20348763 -0.115118496 -0.21920578 -0.25922936 0.2926393 0.1627321 0.12308827
-0.40310743
00000000: 9f9c 813e 3dd8 9eb9 ac59 24be 88fd ad3e
00000010: 4481 8d3e 1fd7 abbe ecd6 8e3e 689e c0be
00000020: 0b2e 8e3c 85ad 9d3e 4ca1 b03e 8cc7 1bbd
00000030: cb48 2e3e 1503 9c3c 53d1 28bd 490a 98bd
00000040: 19bd 6a3d 105f 50be 3fc3 ebbd 7b77 60be
00000050: b6b9 84be d1d4 953e 3ea3 263e b415 fc3d
00000060: 1964 cebe

ff1.bias f4 [5]
-0.17778778 -0.096372075 0.43925855 0.32793644 -0.0044599767
00000000: 000e 36be b95e c5bd 7fe6 e03e 49e7 a73e
00000010: ff24 92bb

ff2.weight f4 [5, 5]
0.16113444 0.08285108 -0.12604037 -0.08348459 0.4295487 -0.17051373 0.30198112 0.28832588
0.23851097 -0.3022715 -0.32935858 0.29246655 0.18291938 -0.1279586 0.38208637 0.03439302
0.21784408 0.37312934 -0.15527897 0.41148368 -0.16507132 0.19558339 -0.082580894 0.28554937
0.17199597
00000000: 6d00 253e d4ad a93d ba10 01be f8f9 aabd
00000010: cfed db3e 279b 2ebe 459d 9a3e 739f 933e
00000020: 383c 743e 54c3 9abe b0a1 a8be 2dbe 953e
00000030: 384f 3b3e 9407 03be d3a0 c33e b2df 0c3d
00000040: 8512 5f3e cf0a bf3e 7301 1fbe fdad d23e
00000050: 7508 29be 0347 483e 2c20 a9bd 8733 923e
00000060: b61f 303e

ff2.bias f4 [5]
-0.2633568 -0.37005192 -0.08608878 -0.3451477 0.28296572
00000000: b4d6 86be 7277 bdbe 504f b0bd 33b7 b0be
00000010: e2e0 903e

ff3.weight f4 [5, 5]
0.24766922 -0.29487947 -0.26468125 -0.01813051 -0.25994277 -0.066895865 -0.0056452625 0.20256683
0.1965454 -0.29244736 -0.25704893 -0.26113605 0.038506787 -0.24777927 0.17878157 -0.26376086
-0.30708766 0.4062118 0.082725264 0.23789527 -0.21119085 -0.12628599 -0.0031940828 -0.36998725
0.3675206
00000000: 009d 7d3e 71fa 96be 4d84 87be 6f86 94bc
00000010: 3817 85be b300 89bd e5fb b8bb ae6d 4f3e
00000020: 3343 493e a9bb 95be eb9b 83be a0b3 85be
00000030: 4bb9 1d3d d9b9 7dbe 8412 373e aa0b 87be
00000040: 983a 9dbe fefa cf3e dd6b a93d d19a 733e
00000050: 6a42 58be 1d51 01be d153 51bb f86e bdbe
00000060: a92b bc3e

ff3.bias f4 [5]
0.06715347 -0.102199025 -0.20634308 0.36876917 -0.29226783
00000000: c287 893d b94d d1bd 9a4b 53be 50cf bc3e
00000010: 21a4 95be

firstGCN.attentionLayer.linear.weight f4 [5, 10]
0.03876569 0.0042441916 0.22657469 0.42276487 0.37533876 -0.18794319 0.33433706 0.33065906
-0.1026368 0.5526441 0.026147708 -0.05482006 0.22897726 -0.30260807 -0.03683829 -0.254988
0.026095025 0.10328701 -0.26122075 -0.27884975 -0.22206903 -0.23538077 -0.15521559 -0.14521484
-0.19437042 0.08078555 0.30963987 0.03866755 -0.16132785 -0.06870885 -0.19881901 0.350758
0.24190065 0.030077435 0.14354819 -0.07385195 0.31849045 0.29168692 0.39339766 0.045798637
-0.5557925 0.59438396 0.27645433 0.59147346 0.12710859 0.10052317 0.33664232 -0.14761254
0.09553439 0.0054726657
00000000: c6c8 1e3d dc12 8b3b 3203 683e a374 d83e
00000010: 672c c03e 2e74 40be 3a2e ab3e 254c a93e
00000020: 3e33 d2bd 157a 0d3f b833 d63c 008b 60bd
00000030: 0479 6a3e 72ef 9abe bfe3 16bd ca8d 82be
00000040: 3cc5 d53c 2488 d33d babe 85be 65c5 8ebe
00000050: 1066 63be a807 71be d6f0 1ebe 33b3 14be
00000060: 0a09 47be e572 a53d 1e89 9e3e dd61 1e3d
00000070: 2133 25be 3ab7 8cbd 3697 4bbe 8d96 b33e
00000080: ceb4 773e f464 f63c 4cfe 123e b13f 97bd
00000090: 2e11 a33e fd57 953e 6b6b c93e 5a97 3b3d
000000a0: 6b48 0ebf 8c29 183f 6c8b 8d3e ce6a 173f
000000b0: c128 023e 17df cd3d 625c ac3e be27 17be
000000c0: 89a7 c33d 0c54 b33b

firstGCN.attentionLayer.linear.bias f4 [5]
0.29749367 -0.13738798 -0.13838074 -0.123983495 0.30326372
00000000: 1751 983e 6faf 0cbe aeb3 0dbe 0feb fdbd
00000010: 6245 9b3e

firstGCN.attentionLayer.inAttention.W_sum f4 [5, 5]
0.18680638 0.2559722 0.121609166 0.13707027 0.90560937 1.1212643 0.0050246124 0.49082872
0.0839287 0.111662 0.084273964 0.9283817 0.9348976 0.9596988 0.6859019 0.35259795
0.31028304 0.16591705 0.18851638 0.75528437 0.8712189 0.17336784 0.9253924 0.5670227
0.9125114
00000000: 2c4a 3f3e ca0e 833e 3a0e f93d 265c 0c3e
00000010: 04d6 673f 9785 8f3f 81a5 a43b e74d fb3e
00000020: cfe2 ab3d 0caf e43d d497 ac3d 6caa 6d3f
00000030: 7355 6f3f d2ae 753f 4497 2f3f b887 b43e
00000040: 6bdd 9e3e 29e6 293e 700a 413e 515a 413f
00000050: 3408 5f3f 5787 313e 84e6 6c3f 6628 113f
00000060: 599a 693f

firstGCN.attentionLayer.inAttention.W_alpha f4 [5, 5]
0.12097418 0.21691291 0.21434249 0.27541047 0.15990464 0.7897465 0.79124326 0.78671575
0.4363594 0.39980572 0.44011235 0.77197593 0.73608595 0.41947675 0.06440514 0.00570337
0.70905215 0.7246941 0.7400116 0.6035876 0.07762463 0.18288781 0.571589 0.19870786
0.1791301
00000000: 50c1 f73d 6b1e 5e3e 997c 5b3e 9a02 8d3e
00000010: 0bbe 233e d42c 4a3f eb8e 4a3f 3466 493f
00000020: 806a df3e 56b3 cc3e 6856 e13e 37a0 453f
00000030: 2170 3c3f a8c5 d63e d8e6 833d 56e3 ba3b
00000040: 7184 353f 8d85 393f 6671 3d3f b884 1a3f
00000050: a9f9 9e3d f146 3b3e a853 123f 137a 4b3e
00000060: e26d 373e

firstGCN.attentionLayer.inAttention.a_alpha f4 [5, 1]
0.38776755 0.08719349 0.6217579 0.4278974 0.86752504
00000000: 7889 c63e 8092 b23d 872b 1f3f 5e15 db3e
00000010: 1f16 5e3f

firstGCN.attentionLayer.inAttention.b_alpha f4 [5, 1]
0.5416341 0.23310958 0.85655975 0.3248457 0.8582858
00000000: 88a8 0a3f 47b4 6e3e 8047 5b3f 2d52 a63e
00000010: 9eb8 5b3f

firstGCN.attentionLayer.outAttention.W_sum f4 [5, 5]
0.96661824 0.61338824 0.008162581 0.89496243 0.57750535 0.15267096 0.6689867 0.9222152
0.8049828 1.0238456 0.62577385 0.43037933 0.8261505 0.7474641 0.074667536 0.7929075
0.3616201 0.35604608 0.039052706 0.5197929 0.9480783 0.08919411 0.960492 0.11769917
0.24426939
00000000: 4b74 773f 0307 1d3f 59bc 053c 421c 653f
00000010: 64d7 133f c755 1c3e b642 2b3f 4c16 6c3f
00000020: 5a13 4e3f 5f0d 833f b732 203f ae5a dc3e
00000030: 997e 533f cf59 3f3f 4beb 983d fcfb 4a3f
00000040: 4526 b93e ac4b b63e bbf5 1f3d 2611 053f
00000050: 42b5 723f 67ab b63d cee2 753f 430c f13d
00000060: c121 7a3e

firstGCN.attentionLayer.outAttention.W_alpha f4 [5, 5]
0.2918697 0.47827065 0.6005569 0.9631673 0.37243652 0.82468617 0.33890826 0.51780224
0.84107345 0.11992598 0.23241095 0.48212174 0.043961514 0.116618864 0.8016641 0.52333987
0.590939 0.3378039 0.40081167 0.39234945 0.7128761 0.37584153 0.2845061 0.0417176
0.16861011
00000000: f26f 953e e4df f43e 19be 193f 2292 763f
00000010: 00b0 be3e a21e 533f 6285 ad3e b08e 043f
00000020: 9750 573f c19b f53d 23fd 6d3e a9d8 f63e
00000030: fd10 343d dfd5 ee3d dc39 4d3f 9af9 053f
00000040: c747 173f a2f4 ac3e 3037 cd3e 07e2 c83e
00000050: 0c7f 363f 4d6e c03e c9aa 913e 13e0 2a3d
00000060: 21a8 2c3e

firstGCN.attentionLayer.outAttention.a_alpha f4 [5, 1]
0.08001959 0.06609988 0.5506293 0.62694144 0.9982244
00000000: 50e1 a33d 605f 873d 0bf6 0c3f 3c7f 203f
00000010: a28b 7f3f

firstGCN.attentionLayer.outAttention.b_alpha f4 [5, 1]
0.2191714 0.65028167 0.58788216 0.021863686 0.69105905
00000000: 786e 603e dc78 263f 727f 163f 791b b33c
00000010: 3fe9 303f

firstGCN.linearLayer.weight f4 [5, 10]
0.029521123 -0.05816077 -0.21447144 0.0072808163 -0.14740841 0.20151846 0.19345671 0.18600792
0.06846917 -0.31067532 -0.18677038 -0.0009130283 0.28974718 -0.15574902 0.026474541 -0.11142896
-0.049608912 -0.27314696 0.18012594 0.030944875 -0.15129836 -0.0004517643 0.00042428297 -0.13988061
-0.24261054 -0.21927886 -0.2962711 0.29612342 0.05350862 -0.18327832 -0.15742591 0.061613653
0.23723544 -0.3088813 -0.24516672 -0.15546592 0.2927465 -0.0800307 -0.29460412 -0.017496215
-0.12838072 -0.25074354 -0.056592073 0.2275955 -0.2376429 0.009435669 -0.011538951 0.09144755
0.26482213 0.1867622
00000000: 48d6 f13c fd39 6ebd 679e 5bbe ea93 ee3b
00000010: 3bf2 16be db5a 4e3e 8419 463e dc78 3e3e
00000020: 9039 8c3d d610 9fbe bc40 3fbe 4b58 6fba
00000030: be59 943e ac7c 1fbe 23e1 d83c de34 e4bd
00000040: b732 4bbd ebd9 8bbe ef72 383e 1b80 fd3c
00000050: f5ed 1abe c7da ecb9 4c72 de39 dd3c 0fbe
00000060: e66e 78be a38a 60be d8b0 97be 7d9d 973e
00000070: db2b 5b3d 50ad 3bbe 4234 21be 995e 7c3d
00000080: d9ed 723e b125 9ebe fc0c 7bbe 7532 1fbe
00000090: dfe2 953e 23e7 a3bd 5ad6 96be 3954 8fbc
000000a0: 3c76 03be 7561 80be 17cd 67bd cb0e 693e
000000b0: a958 73be 1098 1a3c de0d 3dbc da48 bb3d
000000c0: c496 873e 973e 3f3e

firstGCN.linearLayer.bias f4 [5]
-0.22315079 0.15064126 -0.090065494 -0.2512421 0.20985055
00000000: a481 64be b441 1a3e 4274 b8bd cea2 80be
00000010: 10e3 563e

secondGCN.attentionLayer.linear.weight f4 [5, 10]
-0.10662259 -0.241823 0.19726512 0.27141094 -0.046058055 -0.06418347 -0.19632943 0.28316182
-0.19532494 0.102719225 0.25026655 0.17550914 0.03810785 -0.31567204 -0.13616747 0.12455538
-0.053808767 -0.28489938 0.21507142 -0.23549257 -0.071924955 0.038497034 0.10099993 0.18704286
-0.18668438 -0.23745355 0.1480123 0.07057618 -0.21073017 0.16015142 0.10162657 -0.22558442
0.073560186 0.29018325 -0.028430352 0.07408874 -0.071623 -0.29032415 -0.016837116 0.26705077
0.27927873 0.003374058 -0.2275602 0.102314964 0.25011373 0.21096344 0.08410661 -0.27899095
-0.18866083 0.065554
00000000: f25c dabd 73a0 77be deff 493e 60f6 8a3e
00000010: 5fa7 3cbd a072 83bd 950a 49be 96fa 903e
00000020: 4303 48be 755e d23d f022 803e abb8 333e
00000030: fa16 1c3d c49f a1be 7c6f 0bbe e416 ff3d
00000040: 9566 5cbd 55de 91be af3b 5c3e f724 71be
00000050: 644d 93bd 11af 1d3d 0dd9 ce3d 2a88 3f3e
00000060: 312a 3fbe 0627 73be 8990 173e 3f8a 903d
00000070: a6c9 57be bcfe 233e 9721 d03d 9aff 66be
00000080: b9a6 963d e692 943e c5e6 e8bc d6bb 973d
00000090: 14af 92bd 5ea5 94be feed 89bc e1ba 883e
000000a0: 9ffd 8e3e 4d1f 5d3b 8b05 69be 828a d13d
000000b0: e80e 803e cd06 583e 1640 ac3d e7d7 8ebe
000000c0: 4e30 41be 2d41 863d

secondGCN.attentionLayer.linear.bias f4 [5]
-0.23022872 -0.24788348 -0.11636557 0.23003258 0.007349199
00000000: 14c1 6bbe 2bd5 7dbe 1251 eebd a98d 6b3e
00000010: 8dd1 f03b

secondGCN.attentionLayer.inAttention.W_sum f4 [5, 5]
0.3197037 0.4253983 0.7937921 0.8224412 0.9782541 0.033863187 0.8388165 0.53004736
0.8202085 0.8752956 0.13361269 0.61552936 0.80421066 0.38474667 0.788984 0.8319609
0.14009976 0.7278999 0.93893933 0.0341627 0.93691576 0.37671787 0.7021949 0.6339574
0.65472174
00000000: 34b0 a33e cecd d93e f635 4b3f 828b 523f
00000010: dc6e 7a3f 20b4 0a3d aebc 563f 2fb1 073f
00000020: 2ff9 513f 5f13 603f c4d1 083e 5593 1d3f
00000030: c0e0 4d3f 84fd c43e dbfa 493f 64fb 543f
00000040: 5076 0f3e a657 3a3f 545e 703f 30ee 0b3d
00000050: b6d9 6f3f 2ae1 c03e 0cc3 333f 084b 223f
00000060: d89b 273f

secondGCN.attentionLayer.inAttention.W_alpha f4 [5, 5]
0.30814832 0.7339318 0.07853943 0.6264641 0.5636607 0.021549284 0.72742695 0.15957195
0.98237616 0.19350469 0.5283009 0.6649546 0.8084688 0.93958503 0.16520709 0.54904133
0.84885 0.824606 0.17807764 0.02547127 0.4971001 0.9883712 0.8681869 0.52130574
0.6599912
00000000: 9ec5 9d3e f4e2 3b3f 48d9 a03d f45f 203f
00000010: 114c 103f 2088 b03c a738 3a3f d466 233e
00000020: 017d 7b3f 1826 463e ba3e 073f 773a 2a3f
00000030: d0f7 4e3f a588 703f 0c2c 293e f98d 0c3f
00000040: 3c4e 593f 6119 533f fc59 363e 20a9 d03c
00000050: e883 fe3e e505 7d3f 7f41 5e3f 4b74 053f
00000060: 2ff5 283f

secondGCN.attentionLayer.inAttention.a_alpha f4 [5, 1]
0.0060400963 0.8221129 0.017709017 0.7414357 0.6316908
00000000: 00ec c53b fe75 523f 8012 913c bbce 3d3f
00000010: 7db6 213f

secondGCN.attentionLayer.inAttention.b_alpha f4 [5, 1]
0.5559563 0.010883212 0.6599698 0.28616023 0.1105687
00000000: 2753 0e3f 804f 323c c8f3 283f 9883 923e
00000010: d871 e23d

secondGCN.attentionLayer.outAttention.W_sum f4 [5, 5]
0.85640687 0.58363307 0.62288076 0.33116013 0.11212063 0.28493184 0.866191 0.66506726
0.74547887 0.29724902 0.76988596 0.24159694 0.7722582 0.84048027 0.787703 0.6020538
0.42099494 0.74698055 0.1491391 0.6417408 0.17929351 0.31449354 0.6812998 0.812815
0.26052845
00000000: 7b3d 5b3f fa68 153f 1d75 1f3f d28d a93e
00000010: 809f e53d 96e2 913e b2be 5d3f d941 2a3f
00000020: b4d7 3e3f 0631 983e 3f17 453f 3065 773e
00000030: b7b2 453f b729 573f e7a6 493f 3320 1a3f
00000040: a68c d73e 1e3a 3f3f ecb7 183e 2049 243f
00000050: b898 373e 4c05 a13e aa69 2e3f a514 503f
00000060: fc63 853e

secondGCN.attentionLayer.outAttention.W_alpha f4 [5, 5]
0.9085885 0.81006175 0.8373795 0.419236 0.041329324 0.25088066 0.82934695 0.80372983
0.7456464 0.9056417 0.429451 0.7420703 0.3518756 0.8082733 0.5774795 0.7521855
0.73584986 0.52957815 0.6500533 0.14989066 0.48137462 0.760064 0.15507597 0.083694816
0.08111459
00000000: 4299 683f 3560 4f3f 815e 563f 1aa6 d63e
00000010: f048 293d 6e73 803e 1550 543f 3dc1 4d3f
00000020: afe2 3e3f 22d8 673f 00e1 db3e 52f8 3d3f
00000030: 0a29 b43e 00eb 4e3f b2d5 133f 3b8f 403f
00000040: a860 3c3f 6f92 073f e569 263f f07c 193e
00000050: bc76 f63e 8e93 423f 3ccc 1e3e 3068 ab3d
00000060: 681f a63d

secondGCN.attentionLayer.outAttention.a_alpha f4 [5, 1]
0.23050922 0.03819847 0.13684452 0.018954515 0.6799102
00000000: 9c0a 6c3e 0076 1c3d f820 0c3e 8046 9b3c
00000010: 980e 2e3f

secondGCN.attentionLayer.outAttention.b_alpha f4 [5, 1]
0.7383276 0.8521231 0.46866542 0.5606845 0.050249457
00000000: 0a03 3d3f bd24 5a3f eaf4 ef3e 0589 0f3f
00000010: 60d2 4d3d

secondGCN.linearLayer.weight f4 [5, 10]
0.08953012 -0.024303403 -0.15749274 -0.18606292 0.081336685 -0.2669475 -0.059903327 0.20280431
0.26595584 0.109119736 -0.103086025 -0.2730932 0.24967057 0.19138373 0.12857945 -0.083494514
0.21247597 0.014802443 -0.24744545 -0.27478924 -0.09197829 -0.037460323 -0.09340558 -0.31036136
0.14567053 -0.19545734 0.17976324 -0.21210206 0.2540628 -0.30532926 0.2574169 -0.020645598
-0.078137316 0.09588139 -0.1666815 0.058233187 -0.17406353 -0.22089867 -0.083205566 0.055928487
0.18632151 -0.032764144 -0.06259028 0.28300574 0.155115 0.3150008 -0.16570333 -0.30976874
0.17331542 -0.25619557
00000000: 915b b73d ee17 c7bc c745 21be 4787 3ebe
00000010: d993 a63d 58ad 88be 315d 75bd efab 4f3e
00000020: 5d2b 883e 2b7a df3d c41e d3bd dfd2 8bbe
00000030: a4a9 7f3e 19fa 433e 55aa 033e 2cff aabd
00000040: 4d93 593e f285 723c 5762 7dbe 2db1 8cbe
00000050: 1d5f bcbd ff6f 19bd 6d4b bfbd afe7 9ebe
00000060: a82a 153e f825 48be db13 383e 4831 59be
00000070: 8514 823e 1e54 9cbe 26cc 833e f520 a9bc
00000080: 7506 a0bd 765d c43d 8eae 2abe ec85 6e3d
00000090: b63d 32be 4333 62be ae67 aabd 4515 653d
000000a0: 11cb 3e3e b233 06bd 552f 80bd 21e6 903e
000000b0: 77d6 1e3e c947 a13e 22ae 29be 029a 9ebe
000000c0: 9979 313e 112c 83be

secondGCN.linearLayer.bias f4 [5]
0.13533571 0.3139213 0.11321208 -0.25398177 0.16723613
00000000: 7295 0a3e 4bba a03e bcdb e73d e609 82be
00000010: f33f 2b3e

thirdGCN.attentionLayer.linear.weight f4 [5, 10]
-0.12817307 -0.13649547 -0.2961745 -0.13175364 0.10945193 -0.12558335 -0.28850785 -0.2887623
-0.0034588391 -0.11932541 0.027389303 -0.16149634 0.016621413 0.27008379 0.16833769 0.04573337
0.25941348 0.31286147 -0.121241674 -0.2667953 -0.28408197 0.047534358 0.22623695 0.271216
-0.16436465 0.17973019 0.026362957 -0.052866336 0.27136195 -0.2558699 0.19785108 0.087710954
0.0016397189 0.0925379 0.21975476 0.2733951 -0.16458938 0.20868582 0.114334814 -0.2839244
0.03440846 0.18282868 -0.28710306 -0.2287848 -0.031080244 -0.27734387 -0.2798488 -0.09051639
-0.12085241 -0.29335976
00000000: cd3f 03be 78c5 0bbe 2fa4 97be 6dea 06be
00000010: 5528 e03d ec98 00be 4db7 93be a7d8 93be
00000020: b1ad 62bb e160 f4bd 885f e03c 4c5f 25be
00000030: a129 883c 6c48 8a3e b760 2c3e ea52 3b3d
00000040: d8d1 843e 612f a03e 8e4d f8bd 6599 88be
00000050: 3173 91be 63b3 423d a9aa 673e d3dc 8a3e
00000060: 354f 28be 310b 383e 21f7 d73c 5f8a 58bd
00000070: f4ef 8a3e 6101 83be 7999 4a3e cda1 b33d
00000080: d6eb d63a 8384 bd3d 6407 613e 71fa 8b3e
00000090: 1e8a 28be bcb1 553e 5f28 ea3d 8a5e 91be
000000a0: e3ef 0c3d 7137 3b3e 2cff 92be 9046 6abe
000000b0: ff9b febc 0400 8ebe 5848 8fbe a860 b9bd
000000c0: 7881 f7bd 4033 96be

thirdGCN.attentionLayer.linear.bias f4 [5]
-0.058888137 0.051962167 -0.14756079 -0.28239977 -0.01891665
00000000: b034 71bd 48d6 543d 2d1a 17be b496 90be
00000010: 17f7 9abc

thirdGCN.attentionLayer.inAttention.W_sum f4 [5, 5]
0.016644895 0.81412035 0.7402418 0.5409856 0.029577851 0.1370992 0.22342777 0.3861354
0.19264358 0.35139793 0.83771414 0.41491473 0.75610304 0.5230074 0.58113706 0.09660357
0.29068476 0.25248086 0.8207743 0.43606538 0.6905485 0.3720039 0.5291081 0.0011521578
0.18781209
00000000: e05a 883c 316a 503f 7d80 3d3f 087e 0a3f
00000010: 404d f23c bc63 0c3e 40ca 643e 8ab3 c53e
00000020: 5c44 453e 6eea b33e 6f74 563f b46f d43e
00000030: f88f 413f d0e3 053f 66c5 143f 18d8 c53d
00000040: a2d4 943e 2c45 813e 441e 523f f643 df3e
00000050: c9c7 303f 4c77 be3e a173 073f 0004 973a
00000060: d051 403e

thirdGCN.attentionLayer.inAttention.W_alpha f4 [5, 5]
0.227934 0.20346934 0.7764098 0.90496033 0.13411826 0.44239748 0.04456979 0.5480572
0.59163165 0.34222156 0.44492054 0.9107378 0.24275595 0.7089458 0.2398476 0.25928444
0.959494 0.53396016 0.9762335 0.949252 0.3186921 0.9418804 0.20676237 0.1399799
0.54994214
00000000: 8867 693e 445a 503e cbc2 463f 7bab 673f
00000010: 4c56 093e ec81 e23e d08e 363d 7a4d 0c3f
00000020: 2c75 173f aa37 af3e a0cc e33e 1d26 693f
00000030: 0495 783e 797d 353f 9c9a 753e eec0 843e
00000040: 66a1 753f 9db1 083f 70ea 793f 2e02 733f
00000050: 9c2b a33e 131f 713f 84b9 533e e456 0f3e
00000060: 02c9 0c3f

thirdGCN.attentionLayer.inAttention.a_alpha f4 [5, 1]
0.24817765 0.67493105 0.76471275 0.82971716 0.18995243
00000000: 4822 7e3e 48c8 2c3f 37c4 433f 5868 543f
00000010: e482 423e

thirdGCN.attentionLayer.inAttention.b_alpha f4 [5, 1]
0.674199 0.85591435 0.4475972 0.7172662 0.825087
00000000: 4e98 2c3f 341d 5b3f 762b e53e c29e 373f
00000010: e738 533f

thirdGCN.attentionLayer.outAttention.W_sum f4 [5, 5]
0.4192425 0.27455384 0.3341787 0.50115913 0.34982264 0.066137075 0.6516999 0.735574
0.45666748 0.89869106 0.18115914 0.7032043 0.69120955 0.36664402 0.5839666 0.99674195
0.27107716 0.33845532 0.93369216 0.668941 0.6694112 0.10893637 0.42099208 0.17461687
0.5057729
00000000: f4a6 d63e 5292 8c3e 7819 ab3e f74b 003f
00000010: f41b b33e e072 873d ced5 263f 944e 3c3f
00000020: 52d0 e93e 9e10 663f c881 393e 3205 343f
00000030: 1cf3 303f c4b8 bb3e d67e 153f 7b2a 7f3f
00000040: a0ca 8a3e 044a ad3e 7306 6f3f b83f 2b3f
00000050: 885e 2b3f 081a df3d 468c d73e c4ce 323e
00000060: 557a 013f

thirdGCN.attentionLayer.outAttention.W_alpha f4 [5, 5]
0.17071372 0.6055166 0.9701007 0.34120756 0.30894357 0.44041616 0.5860608 0.91408896
0.96587384 0.54442656 0.005611062 0.64760345 0.08234638 0.13757992 0.53987 0.20473647
0.66024226 0.6041751 0.9638929 0.8569989 0.04255438 0.39932328 0.5896233 0.8218545
0.026982307
00000000: 94cf 2e3e 2303 1b3f 8558 783f c2b2 ae3e
00000010: da2d 9e3e 3a7e e13e 1508 163f bc01 6a3f
00000020: 8243 773f 8a5f 0b3f 00dd b73b 57c9 253f
00000030: 38a5 a83d c0e1 0c3e ec34 0a3f 70a6 513e
00000040: a305 293f 38ab 1a3f afc1 763f 4864 5b3f
00000050: 804d 2e3d 1a74 cc3e 8df1 163f 0e65 523f
00000060: 000a dd3c

thirdGCN.attentionLayer.outAttention.a_alpha f4 [5, 1]
0.033551037 0.53208673 0.79869944 0.8413299 0.23273504
00000000: d06c 093d d636 083f 9177 4c3f 6561 573f
00000010: 1852 6e3e

thirdGCN.attentionLayer.outAttention.b_alpha f4 [5, 1]
0.17106986 0.83908004 0.8507225 0.6430525 0.4014461
00000000: f02c 2f3e f3cd 563f f3c8 593f 179f 243f
00000010: 588a cd3e

thirdGCN.linearLayer.weight f4 [5, 10]
0.19579515 -0.20169361 -0.2846762 0.10375745 0.019966217 0.22897284 -0.30092284 0.22002047
0.04884675 0.30380997 0.21865283 -0.040932205 0.0028085234 -0.016151892 -0.052776616 0.07700316
0.25665545 0.16920997 -0.0022067614 0.02674973 0.08794468 0.21940413 0.07369262 0.046686355
0.1670789 0.09830039 -0.007292314 -0.24053143 0.20835057 0.0019710404 0.02238857 -0.0504254
0.19618528 -0.31527132 -0.13260902 -0.27870876 -0.29445145 0.15497355 0.17747743 -0.24415998
-0.0657855 -0.10206435 -0.20035493 0.15446547 0.21824177 -0.2662346 0.16518721 -0.11943601
0.19407539 -0.25116098
00000000: 867e 483e c588 4ebe 14c1 91be c97e d43d
00000010: 3190 a33c db77 6a3e 8f12 9abe 0c4d 613e
00000020: 8813 483d fb8c 9b3e 87e6 5f3e 87a8 27bd
00000030: 340f 383b f950 84bc 4b2c 58bd d5b3 9d3d
00000040: 5868 833e 6145 2d3e 509f 10bb 4022 db3c
00000050: 571c b43d 7aab 603e 28ec 963d 313a 3f3d
00000060: bb16 2b3e b751 c93d 5df4 eebb df4d 76be
00000070: da59 553e 922c 013b 3c68 b73c dd8a 4ebd
00000080: cbe4 483e 3e6b a1be a9ca 07be eab2 8ebe
00000090: 57c2 96be 63b1 1e3e a5bc 353e 1305 7abe
000000a0: 8cba 86bd 1d07 d1bd d829 4dbe 322c 1e3e
000000b0: c57a 5f3e e74f 88be d626 293e de9a f4bd
000000c0: b3bb 463e 2c98 80be

thirdGCN.linearLayer.bias f4 [5]
0.12772387 -0.075210914 -0.114211924 -0.023671634 -0.16189356
00000000: 0cca 023e 2e08 9abd f1e7 e9bd 04eb c1bc
00000010: 6dc7 25be

ff4.weight f4 [5, 5]
0.43324727 -0.39175826 -0.4186292 0.10885564 -0.88041073 -0.22885926 -0.35364103 -0.12968993
-0.090253696 0.15223819 -0.007944663 0.40537316 0.2985682 -0.0985295 -0.36379656 0.6781911
-0.15314879 -0.47376394 0.610287 0.64728755 -0.10270266 0.28059387 0.23607035 -0.10996616
-0.28418934
00000000: 96d2 dd3e 8a94 c8be 9156 d6be b5ef de3d
00000010: 9962 61bf 155a 6abe 7010 b5be 70cd 04be
00000020: eed6 b8bd 54e4 1b3e 552a 02bc 128d cf3e
00000030: eedd 983e d6c9 c9bd 8b43 babe ef9d 2d3f
00000040: 09d3 1cbe 3091 f2be c53b 1c3f a3b4 253f
00000050: c655 d2bd 00aa 8f3e 6dbc 713e f035 e1bd
00000060: 4481 91be

ff4.bias f4 [5]
0.08854014 -0.2555262 -0.3240814 0.08808847 0.18376225
00000000: 8854 b53d 55d4 82be ffed a5be ba67 b43d
00000010: 2c2c 3c3e

ff5.weight f4 [5, 5]
0.18858394 -0.27694932 0.1672191 0.049932193 -0.24498886 0.14551562 0.17573255 -0.1778654
0.24922578 -0.3342248 0.38073277 -0.17769752 0.24124295 -0.096547365 0.3451304 -0.3808017
0.10515139 -0.38361555 -0.4146689 -0.056211974 -0.10982978 -0.16250904 0.20296971 -0.34942678
0.18136859
00000000: 261c 413e 4dcc 8dbe 7c3b 2b3e b385 4c3d
00000010: 5cde 7abe 0c02 153e 3cf3 333e 5922 36be
00000020: 0b35 7f3e 831f abbe 68ef c23e 57f6 35be
00000030: 6408 773e a0ba c5bd efb4 b03e 71f8 c2be
00000040: 9d59 d73d 4269 c4be 7b4f d4be 873e 66bd
00000050: 70ee e0bd c568 26be 4bd7 4f3e 11e8 b2be
00000060: b0b8 393e

ff5.bias f4 [5]
-0.2841066 0.1710381 0.34635702 0.12904434 0.38651642
00000000: 6c76 91be 9d24 2f3e b555 b13e 3324 043e
00000010: 7be5 c53e

ff6.weight f4 [10, 5]
-0.29754823 -0.08995989 -0.42931473 -0.50849825 -0.32985562 0.5242874 0.22628245 -0.18788934
-0.54744107 -0.22056732 0.32279176 0.3650379 -0.07531202 -0.5208279 -0.11033566 -0.32357308
0.059386287 0.1911346 -0.49989352 0.42776754 -0.38505527 -0.2706452 -0.12505138 -0.38272944
0.30699685 0.026696395 -0.20834014 0.11045967 -0.49727872 0.3873902 -0.2879983 0.39679712
-0.290013 -0.44684222 -0.31924924 -0.20899445 0.005322009 0.07589456 -0.48518422 -0.3234789
-0.21624339 -0.23019454 0.3654082 -0.4314608 0.16103305 0.7447883 0.39622334 -0.3558769
-0.28981352 -0.024838228
00000000: 3e58 98be e43c b8bd 24cf dbbe f12c 02bf
00000010: d6e2 a8be b337 063f 96b6 673e 1066 40be
00000020: 1925 0cbf 66dc 61be f644 a53e 3fe6 ba3e
00000030: 303d 9abd fa54 05bf aaf7 e1bd 5fab a5be
00000040: 093f 733d cab8 433e 0bf2 ffbe 5904 db3e
00000050: f725 c5be 0292 8abe 780d 00be 1df5 c3be
00000060: b12e 9d3e 66b2 da3c 1e57 55be ae38 e23d
00000070: 519b febe 0258 c63e 8374 93be fe28 cb3e
00000080: 957c 94be 81c8 e4be a374 a3be a402 56be
00000090: 3f64 ae3b 9b6e 9b3d 116a f8be 079f a5be
000000a0: e86e 5dbe 1eb8 6bbe c916 bb3e 6ee8 dcbe
000000b0: d9e5 243e 72aa 3e3f c9dd ca3e 7f35 b6be
000000c0: 7062 94be 8a79 cbbc

ff6.bias f4 [10]
0.22093503 -0.41136795 -0.30252552 -0.0909868 -0.3626052 0.03804905 -0.15868567 0.17321342
0.2697629 0.47047505
00000000: cb3c 623e d29e d2be a0e4 9abe 4a57 babd
00000010: 64a7 b9be 52d9 1b3d 7f7e 22be dc5e 313e
00000020: 5d1e 8a3e 1be2 f03e
