code/ml_model/useless_models/model_weights_m8p8n30_lr0.100000_bs20_epochs10.pth (torch, 22322 bytes, 48 tensors)

ff1.weight f4 [5, 5]
00000000: b3e4 8d3d 1244 b1be c8a0 693c 95a5 b0be
00000010: 095b cb3e 73b8 47be a21d 333e 32f1 a83e
00000020: 71f9 5a3e fceb f13d 691f 983e 3a04 ab3e
00000030: 3e61 373d d3ba 46be 5b9e 6dbe 3e2b d4be
00000040: e82d c83e e54b b3be d879 c23e 4a18 99bd
00000050: 7ef7 a13e d188 c93e 80f9 55be 5a7b d8be
00000060: a533 a4bd
0.069283865 -0.34622246 0.014259525 -0.3450133 0.39717892 -0.19503956 0.17491773 0.32996517
0.21384217 0.118125886 0.29711464 0.33401662 0.04477047 -0.19407205 -0.23204939 -0.4143924
0.39097524 -0.3501884 0.37983584 -0.07475336 0.31634134 0.39362195 -0.20895958 -0.4228161
-0.08017663

ff1.bias f4 [5]
00000000: 1b75 773e 17ff 633e 426b bdbe e9f7 6c3e
00000010: 194a 30be
0.24165766 0.22265278 -0.36995894 0.23141445 -0.17215766

ff2.weight f4 [5, 5]
00000000: a48c 34be 5dc0 e43e 55a0 6fbe 73ff 3b3d
00000010: f418 70be 3f30 d8bc e78d e23e 87c6 70be
00000020: 8f99 97be 2d8f e03e e5e6 d23e a6c8 e03e
00000030: b112 06bd 2fbc 323e 5bd3 70be 3aff 703e
00000040: e001 88be 1a31 423e fb84 60be d5da aabe
00000050: 42c6 31be 7ce8 22be 5141 9d3e f501 463e
00000060: 76d4 81be
-0.17631775 0.44678012 -0.23401006 0.045897912 -0.23447019 -0.026390193 0.44248888 -0.23513232
-0.29609343 0.43859234 0.41191784 0.43903083 -0.03273267 0.17454599 -0.23518126 0.23534861
-0.2656393 0.18964043 -0.21925728 -0.3337008 -0.17360786 -0.15908998 0.30713895 0.19336684
-0.25357407

ff2.bias f4 [5]
00000000: 0018 b93e 1d65 5f3e 2bf0 02bd 20f6 c2bd
00000010: b1ac 27be
0.36151123 0.21815915 -0.031967323 -0.09519601 -0.1637447

ff3.weight f4 [5, 5]
00000000: 07d1 733e f79f 76be 27bf 84be b0ad df3e
00000010: 399e 42bd 11ea 8c3e 7402 ca3e c3bb 39be
00000020: 0834 a93e 3865 b53e 7b7e 293e 0660 45be
00000030: 7b74 80bd 0f71 c6be 5f92 d5be ffcf 81bc
00000040: 5aeb 523e feb9 adbe bb2c dabd 6ba5 583c
00000050: 0748 c9be bea8 b9bc 6da8 713e 8245 153b
00000060: 2a4a a3be
0.23810206 -0.24084459 -0.25927088 0.436872 -0.047514174 0.27522328 0.39454997 -0.18138032
0.3304751 0.35428786 0.16552155 -0.19274911 -0.06272217 -0.38758132 -0.41713235 -0.01584625
0.20597592 -0.33930963 -0.10653063 0.0132230325 -0.39312765 -0.02266347 0.23599406 0.0022777026
-0.3189252

ff3.bias f4 [5]
00000000: 3f14 e03e 56ca b83e 9770 cdbe c708 b8be
00000010: d531 e3bd
0.43765447 0.3609187 -0.40124962 -0.35944197 -0.11093489

firstGCN.attentionLayer.linear.weight f4 [5, 10]
00000000: 10b5 063f 000c 843e 7eb1 933e a003 bc3e
00000010: 3bae b43e 2752 eabd 172b e23d 33d8 9d3e
00000020: db1c 093f 86ed 8a3e 991a 223e e1a5 acbe
00000030: 56ed dfbb f18e 313e d1bf 12be 19cd a7bd
00000040: ece0 cfbe d14d b6bc 8cf4 133e cdc9 743d
00000050: 11d4 4e3e 7e6d 863e 9b74 31be 4da8 d7bc
00000060: dcae 20bd 06ea 3dbe afa1 623e 09d6 25be
00000070: 2370 5abe da41 87be d428 6c3d 6476 0dbe
00000080: 10e4 d4bc 400d 12be 8d62 27be 0cb8 06be
00000090: 40d7 243e 2bf3 a0bd 8407 bf3c 6db0 043e
000000a0: 6944 2cbe 2354 1abd 952f abbe 0cdb 063e
000000b0: 1923 17bd 0a27 ccbd faf9 6f3d 6479 43be
000000c0: 3dc9 1f3e f42b 023a
0.5262003 0.25790405 0.28846353 0.36721516 0.35289177 -0.114414506 0.11043375 0.3082901
0.53559655 0.2713434 0.15830459 -0.33720306 -0.0068337126 0.17339684 -0.14330985 -0.08193416
-0.4060129 -0.022253903 0.14448756 0.059762765 0.20198084 0.2625541 -0.17329638 -0.02632537
-0.03922926 -0.18546304 0.2213199 -0.16194929 -0.2133184 -0.26417428 0.057656124 -0.13814694
-0.025987655 -0.14262867 -0.16346188 -0.13156146 0.16097736 -0.078588806 0.023319013 0.12957926
-0.16822971 -0.037677895 -0.3343474 0.13169497 -0.036898706 -0.099683836 0.058588006 -0.19089276
0.1560411 0.0004965656

firstGCN.attentionLayer.linear.bias f4 [5]
00000000: 1a5a a93d 0b66 81bb 36a5 8abe a0d3 d53c
00000010: 8f08 953e
0.08269139 -0.003948932 -0.2707917 0.026101887 0.29108092

firstGCN.attentionLayer.inAttention.W_sum f4 [5, 5]
00000000: 65e6 533f 28d1 733f 0cc6 773f 1937 0e3f
00000010: 5152 1b3f 2ff5 583f 081c 0a3f dd1f d93e
00000020: 1d94 403f c1e2 403f e3b3 0d3f 57e0 073f
00000030: 34e8 f83e e4ad cb3e d9e5 543f b610 943e
00000040: 3931 293f c5de e13d adca 203f 1d20 bc3e
00000050: dfba 733e f2ac ed3e ae47 0a3f 66ba 5b3e
00000060: 7673 633f
0.8277343 0.9524102 0.9678657 0.5555282 0.6067248 0.8474912 0.5394902 0.42407122
0.75226 0.75346 0.5535261 0.5307669 0.48614657 0.39781106 0.8316322 0.28919
0.6609073 0.11028818 0.6280926 0.3674325 0.23801754 0.4642101 0.54015625 0.21457824
0.88848054

firstGCN.attentionLayer.inAttention.W_alpha f4 [5, 5]
00000000: 32d9 fd3e b4f4 3f3f e64b f03e b725 6a3f
00000010: ba1a 203f 2ece 193f 7378 e93d 1428 2d3f
00000020: 0136 193f 58ca b93e 6788 7e3e 17a3 533f
00000030: 3ab0 763f bda6 323f b399 693e 1335 9a3e
00000040: c16f 053e de52 683f e47c be3c 4f5c 7e3f
00000050: d5a3 173f 0033 553e 9737 1b3f 6e4f 7d3f
00000060: d711 da3e
0.4957977 0.7498276 0.46932906 0.914638 0.6254078 0.6008023 0.11399927 0.6763928
0.5984803 0.3628719 0.24856721 0.8267073 0.9636265 0.6978567 0.22812538 0.30118617
0.13030912 0.90751445 0.023252912 0.993596 0.5923436 0.20820236 0.606317 0.98949325
0.42591736

firstGCN.attentionLayer.inAttention.a_alpha f4 [5, 1]
00000000: 209d 873e 24df 3f3f 8a73 4b3f 9063 373d
00000010: 9456 6c3e
0.26487064 0.7494986 0.79473174 0.044772685 0.23079902

firstGCN.attentionLayer.inAttention.b_alpha f4 [5, 1]
00000000: 56e5 b13e 5e75 cb3e 63f4 cb3e 04c1 9e3e
00000010: e267 743e
0.34745282 0.39737982 0.3983489 0.31006634 0.23867753

firstGCN.attentionLayer.outAttention.W_sum f4 [5, 5]
00000000: 7b45 2f3f 069e 543f 52ed 4a3f 13b5 3f3f
00000010: 6427 4e3f 920a e03e 0514 3b3f c563 453f
00000020: 630d 5f3f f397 4b3f 51db be3e 2c46 7c3f
00000030: 0e7a 063f 2256 ee3e b105 4a3f 217c 363f
00000040: 3c3e ed3e 84ce 833e 2da8 7d3f 2de7 573f
00000050: bc0e 443e 3486 ef3e 038d 203f 1ea2 6c3f
00000060: 92e6 7c3f
0.68465394 0.83053625 0.7926837 0.7488567 0.80528855 0.43758065 0.7307742 0.7710536
0.871298 0.7952873 0.372767 0.98544574 0.5252999 0.4655009 0.78914934 0.71283156
0.46336544 0.25743496 0.9908474 0.8433712 0.19146246 0.46782076 0.62715167 0.9243487
0.9878932

firstGCN.attentionLayer.outAttention.W_alpha f4 [5, 5]
00000000: 70ec 853d 8cb2 113f f832 843e 44ef 1f3e
00000010: f1c0 e13d 32ed 4c3e ce19 2c3e 4f65 663f
00000020: 5ccb 183f 8c53 1b3e 0017 1f3f f594 3b3f
00000030: 8c96 363f e812 b63e c3b2 4c3f ddcc 7c3f
00000040: 4cff 483e 457a 963e 53bd f23e 7bfd f53e
00000050: 3aff 983e fc96 8a3e 1901 263d 3475 a23d
00000060: 6c4e 873e
0.065392375 0.56913066 0.25820136 0.15618616 0.11023129 0.20012358 0.16806719 0.89998335
0.596853 0.1516859 0.6214447 0.73274165 0.71323466 0.355613 0.7996027 0.98750097
0.19628638 0.2939016 0.47410068 0.48044953 0.29882222 0.27068317 0.04052839 0.07932511
0.2642702

firstGCN.attentionLayer.outAttention.a_alpha f4 [5, 1]
00000000: 05ea 5b3f 18d7 8d3d c829 343e 22be 073f
00000010: e01f 843e
0.8590396 0.069257915 0.17594063 0.53024495 0.2580557

firstGCN.attentionLayer.outAttention.b_alpha f4 [5, 1]
00000000: 2f4b 1c3f 75b3 8e3e be69 d83e 9ff3 fe3e
00000010: 12bd 573f
0.6105222 0.2787129 0.42268175 0.49795243 0.84272873

firstGCN.linearLayer.weight f4 [5, 10]
00000000: 76d9 8dbd a719 febd 1fbc 3dbe a508 14be
00000010: ecd4 843b dac6 003e 824e 9bbe 3a8b bcbd
00000020: 0afd d1bd 6140 4fbc 8b32 1f3e 43f4 74be
00000030: 4aff babd c36b 823d 28d5 1fbe 35c9 0abe
00000040: 8de3 9cbe e2d0 13bd 5c82 033e bb83 f53d
00000050: 126f cabd 5bf4 46bd 0e68 813e f641 9b3e
00000060: 6666 91bd 75b9 293d 1cfd 56be f639 97be
00000070: df0f 92be 7436 f23d 4dca 3d3e b343 3f3e
00000080: 25eb 4ebe daf3 84be 179d d5bd 6aa3 28bb
00000090: c862 0cbe dc2d 1abe b44a f4bc 6335 353e
000000a0: 0cda 8a3e dc5c 003e 518f 7e3e 06f0 153e
000000b0: 24a7 653e e40c 843e d780 b73d a07e 25be
000000c0: 66cd f3bd c56b 9a3d
-0.06926243 -0.124072365 -0.18528794 -0.14456423 0.0040537026 0.12575856 -0.30333334 -0.09206243
-0.102533415 -0.0126496265 0.15546624 -0.23921303 -0.09130724 0.0636821 -0.15608656 -0.13553317
-0.30642357 -0.036087878 0.12842697 0.11988016 -0.09884466 -0.04857288 0.252747 0.30323762
-0.07099609 0.04143663 -0.20994991 -0.29536408 -0.28527734 0.11826792 0.18534203 0.18678169
-0.20206888 -0.25967294 -0.10430353 -0.0025732168 -0.13709557 -0.15056556 -0.029820777 0.17696147
0.27119482 0.12535423 0.24859358 0.14642343 0.2242704 0.25791085 0.08960121 -0.16161585
-0.11904411 0.07540087

firstGCN.linearLayer.bias f4 [5]
00000000: fcd4 64be d488 873e e894 863e d062 11be
00000010: e82b 9ebe
-0.22346872 0.2647158 0.2628548 -0.1419785 -0.30892873

secondGCN.attentionLayer.linear.weight f4 [5, 10]
00000000: 181b 023e 3c6e e33d 2690 4e3e 30e4 59be
00000010: bda4 4a3e 5a2b 0cbe 7316 643e acc4 02be
00000020: d984 a3bd 48d6 1a3d 40ff 9bbe 929c e1bd
00000030: e46f 6c3b 50f0 24bd 8a17 663e 7965 40be
00000040: 3ddc 673e 06d1 ba3a 2e79 84be c1cd 223d
00000050: fb2b d5bd 899d 08be 3d3c 6cbe 562b 133e
00000060: f587 1c3e 809e 433d 927d 443e 2e2d 313b
00000070: 3f1f e13c e34f 2cbe cbf1 573e 7cf6 9cbe
00000080: 0040 0e3e 683f 68bc 2a6b 033e d6e7 eb3d
00000090: 8abb 9dbe 8842 253c 7786 823d 16e5 043d
000000a0: 401e 39be 1e1f 98be 4530 9d3e 0c87 22be
000000b0: 25ff 4e3e 358f 033e bbf1 9fbe 1e43 61be
000000c0: 645b 4ebe 1a71 a1be
0.12705648 0.1110501 0.20172176 -0.21278453 0.19789405 -0.13688412 0.22274189 -0.12770337
-0.07984323 0.03780201 -0.30468178 -0.110161915 0.0036077434 -0.040268242 0.22469917 -0.18788709
0.22642608 0.0014252968 -0.25873703 0.039747003 -0.10408779 -0.13341345 -0.23069854 0.14372
0.15286238 0.04775858 0.19188526 0.0027034986 0.02748072 -0.1682735 0.2108833 -0.30656803
0.13891602 -0.0141752735 0.12833849 0.115188286 -0.30807143 0.010086663 0.063733034 0.032445036
-0.18077946 -0.2971124 0.3070089 -0.15871829 0.20214517 0.12847598 -0.31239113 -0.2199826
-0.2015205 -0.31531602

secondGCN.attentionLayer.linear.bias f4 [5]
00000000: dba6 44be 8784 8cbe 399c 6fbe f839 dbbc
00000010: f3aa 8fbe
-0.19204275 -0.2744486 -0.23399438 -0.02676104 -0.2806011

secondGCN.attentionLayer.inAttention.W_sum f4 [5, 5]
00000000: 8ee2 6d3f 3c4e 9b3e 6289 793f 2c6f 203e
00000010: 6c34 263f 582a 343e 9886 a03e 9846 583e
00000020: 9524 143f 57a2 713f 0517 633f a15c 643f
00000030: 4012 1a3f 2888 653f 5e01 563f c61e 7c3f
00000040: d356 493f 7103 6b3f 14d9 133f ba25 ac3e
00000050: 8b76 483f 1888 7e3f 544d 053f 60e4 a13c
00000060: a0d9 533f
0.9292382 0.30333126 0.97475255 0.15667409 0.6492374 0.17594278 0.31352687 0.2112068
0.5786832 0.94388336 0.88707 0.8920384 0.601841 0.8966088 0.83595836 0.98484457
0.7864811 0.91802126 0.5775311 0.33622533 0.7830588 0.9942641 0.5207112 0.019762218
0.82753944

secondGCN.attentionLayer.inAttention.W_alpha f4 [5, 5]
00000000: 16e4 3a3f 88be a63d 007c ab3c 387f cb3e
00000010: 5614 733f 222a 063f d333 093f e4b6 7b3f
00000020: f4c6 223e 4c01 353e 80f1 183e 1635 0d3f
00000030: 17cd 4a3f 0879 373e 7627 5b3f 1843 303e
00000040: 91fd 343f 429d d33e 8918 4d3f 0396 1a3f
00000050: a68d 5b3f b901 363f 389a 243f bd9a 763f
00000060: e00e 703e
0.7300428 0.0814181 0.020933151 0.39745498 0.94952905 0.5240804 0.535947 0.98325944
0.15896207 0.17676276 0.14935875 0.5515913 0.7921919 0.17917264 0.8560709 0.17213094
0.7069941 0.41330916 0.8011556 0.6038515 0.85763013 0.7109638 0.6429782 0.9632986
0.23443174

secondGCN.attentionLayer.inAttention.a_alpha f4 [5, 1]
00000000: 101c 563e afee 0e3f 0c8f 173f b1b7 3d3f
00000010: 00cb ac3d
0.20909142 0.5583295 0.5920265 0.74108416 0.08437157

secondGCN.attentionLayer.inAttention.b_alpha f4 [5, 1]
00000000: 20ae e93e 67a0 453f 3989 533f cd8f 013f
00000010: dac9 573f
0.4564066 0.7719788 0.8263126 0.5061005 0.84292376

secondGCN.attentionLayer.outAttention.W_sum f4 [5, 5]
00000000: 211a 413f e7ce 573f 0925 373f 40c1 c93d
00000010: 0c11 e03e e2c3 213f 50e3 903d e843 193f
00000020: 8bca 593f e084 773d 11f0 0c3f a0ba 303d
00000030: da87 893e 2d30 2f3f d17f 613f e74a 203f
00000040: ae9b a73e 3ca7 273f e08d 683e 2498 933e
00000050: 74be 903e 7d03 643f 9760 523f 4064 153c
00000060: 9069 2c3d
0.75430495 0.8430008 0.71540886 0.09851313 0.43763006 0.6318952 0.070746064 0.5986924
0.8507468 0.060429454 0.5505381 0.04314673 0.2686146 0.68432885 0.8808566 0.6261429
0.32735962 0.65489554 0.22710371 0.28827012 0.28270304 0.8906782 0.82178634 0.00911814
0.04209286

secondGCN.attentionLayer.outAttention.W_alpha f4 [5, 5]
00000000: 8c34 f83e cefa 323f 748a ff3e 6c68 9f3e
00000010: 98c0 3b3f 547c 373f 8c88 653e f9e6 3e3f
00000020: ecea 043f 3e9f 193f 054b 5e3f 80b1 863c
00000030: c5c7 233f 8459 663e 8a9b 5a3f 08ca ee3e
00000040: f16b 103f 40fa f33c c03d 6c3e b8d9 2d3f
00000050: 48ab 6b3f 35d5 153f e3ac 223f e8e5 4b3f
00000060: 7243 f73e
0.4847759 0.6991395 0.4991032 0.31134355 0.7334075 0.71674085 0.2241537 0.74571186
0.5192096 0.6000861 0.8683322 0.01644206 0.639767 0.22495085 0.85393584 0.46638513
0.56414706 0.029782414 0.23070431 0.6791034 0.9205823 0.58528453 0.63545054 0.79647684
0.48293644

secondGCN.attentionLayer.outAttention.a_alpha f4 [5, 1]
00000000: 1a82 0f3f 00bc dc3e 480a 1d3f c100 173f
00000010: 8263 1f3f
0.56057894 0.43112183 0.6134381 0.58985525 0.6226121

secondGCN.attentionLayer.outAttention.b_alpha f4 [5, 1]
00000000: b23b 7b3f 01e6 543f a09e be3d 04d6 e53e
00000010: 4cac 213f
0.9813796 0.8316346 0.09307599 0.44889843 0.6315353

secondGCN.linearLayer.weight f4 [5, 10]
00000000: 9ede 353e 7088 153e 37ac 8f3d 20db a1be
00000010: 76ac 31be 7c35 e5bd fecd 6e3e d625 9cbd
00000020: 5f31 90be 8729 18be 6416 de3d aa1f e5bd
00000030: 2f16 3cbe f1f1 693d d2db 2b3d 1435 9dbe
00000040: 4762 56bc 956a 33bd 64e6 21bd 93a1 ab3d
00000050: 3625 4abe 1587 9c3e 7864 afbd ab04 0e3d
00000060: 34b4 60be 52a4 9ebe c995 93bc 6f58 d9bc
00000070: 9a74 f03d ba97 173e 5bde dcbd f6ed 973e
00000080: 02be 993e 962c 34bd 8543 dc3d 7ec7 89bd
00000090: 60ed 9bbe aa6e 77be 01b5 90be c969 9ebe
000000a0: 1164 de3c 0657 92be 1dc6 02be 2377 31bd
000000b0: 18f0 febd f758 323c 0d75 373e 272e a83d
000000c0: ef8c 55be 995d 8d3e
0.17760703 0.14602828 0.07015269 -0.31612492 -0.17350945 -0.11191842 0.23320767 -0.07624404
-0.28162667 -0.14859591 0.108441144 -0.1118768 -0.18367837 0.0571155 0.041957684 -0.30704558
-0.013084955 -0.043802816 -0.03952636 0.08380427 -0.19740757 0.3057181 -0.08564085 0.03467242
-0.21943742 -0.3098474 -0.018015759 -0.026531426 0.1174099 0.14803973 -0.107845984 0.29673737
0.30027777 -0.043987833 0.10755066 -0.06727503 -0.3045454 -0.24163309 -0.28263095 -0.30940083
0.027147325 -0.2858202 -0.12770887 -0.04332651 -0.12448138 0.010885469 0.17915745 0.08211928
-0.20854543 0.27610472

secondGCN.linearLayer.bias f4 [5]
00000000: 83f3 babd 3b0d 8c3e a890 75bc 5fab c7bb
00000010: e433 633e
-0.091284774 0.27353844 -0.014988102 -0.006093427 0.22187763

thirdGCN.attentionLayer.linear.weight f4 [5, 10]
00000000: 792b 583e 505b 2ebd 67f7 303e 5c32 eb3d
00000010: 4bcd 723e c2b4 86bd 84af b93d 9a55 89be
00000020: 3f0e 9ebe 64aa 8fbe 6f8a 5a3e 7922 303e
00000030: ccf1 733e b7f2 193d 360d f3bd ef54 8f3d
00000040: 91e5 6fbd 3adb f5bd c948 bd3d b2bc 023e
00000050: 5c08 44be d978 53be 5d97 04be f601 3d3e
00000060: 6ee7 fdbc 97ba 5abe 34c9 a13e 52fc 8cbe
00000070: 55a4 b03c 428a af3d 7b5a 4e3d f934 95bd
00000080: 0a41 2a3e 1e88 bb3c edcc 5ebe 295a 5abc
00000090: dfe8 76bd 3af7 35be a266 8dbe d1a7 61bd
000000a0: b267 c0bd 9b4a 9a3d 73d4 77be 59d5 65be
000000b0: bcd2 0fbe be22 57be 1e0b f63c bec6 45be
000000c0: 57da 90be 329e 50be
0.21110334 -0.04256755 0.17281877 0.11484215 0.23711126 -0.065774456 0.0906668 -0.2682312
-0.30870244 -0.28059685 0.2134187 0.1720065 0.23822707 0.037584987 -0.11867754 0.06998622
-0.05856854 -0.12004705 0.09242398 0.12767294 -0.19143814 -0.20651568 -0.12948366 0.1845778
-0.030994143 -0.21360241 0.31598818 -0.27536255 0.021562735 0.085712925 0.050379258 -0.07285494
0.16626373 0.022892054 -0.2175786 -0.01332716 -0.060280677 -0.1777009 -0.27617365 -0.055091683
-0.09394778 0.07533761 -0.24202137 -0.22444667 -0.14045233 -0.21009347 0.030034598 -0.19314095
-0.2829158 -0.20372847

thirdGCN.attentionLayer.linear.bias f4 [5]
00000000: 0ae1 8abe 35ea 94bc 4619 9dbd d819 a03d
00000010: 7799 7c3e
-0.27124816 -0.018178085 -0.07670836 0.07817429 0.24667917

thirdGCN.attentionLayer.inAttention.W_sum f4 [5, 5]
00000000: eb77 753f ea1c 9b3e 6caa 4a3f 0054 5f3c
00000010: b84c 343f b955 473f 80e0 3f3d f0c3 243d
00000020: 474f 203f 4d13 383f b04d 313e 8c21 9c3e
00000030: 30af 2b3d 20a0 593d 84b6 343f 2224 ba3e
00000040: 8ac8 7c3f 8eb0 1b3f 48ef 273e 4c3a 923e
00000050: 48a7 bd3e 8009 c23e 1afe 103f 6b68 2b3f
00000060: 88c3 2c3f
0.95886105 0.30295497 0.79166293 0.013630867 0.70429564 0.7786518 0.04684496 0.040225923
0.6262097 0.7190445 0.17314792 0.30494344 0.04191512 0.053131223 0.70590997 0.36355692
0.987435 0.60816276 0.16399872 0.28560102 0.37041688 0.37897873 0.5663773 0.66956204
0.67485857

thirdGCN.attentionLayer.inAttention.W_alpha f4 [5, 5]
00000000: 1a3d f43e 88fb ed3e 119f 1c3f 78c0 fc3d
00000010: 2968 683f 8adb 7f3f cc04 463e 11b1 303f
00000020: d85b 203f 1ef5 e83e c899 813d 208f 5a3e
00000030: 198a 2f3f 80ef 053f 9df9 643f 1b73 573f
00000040: 50b7 083d 8ae3 983e 9b08 423f 834f 243f
00000050: 24d6 c53e 1c04 643f ba90 e93e 077a 6a3f
00000060: 707d d33d
0.47702867 0.46480966 0.61180216 0.12341398 0.90783936 0.99944365 0.19337767 0.6902018
0.6264014 0.4549951 0.063281596 0.2134366 0.68570095 0.52318573 0.8944338 0.8416001
0.033377945 0.298611 0.7579438 0.64183825 0.3863994 0.8906877 0.4561823 0.9159245
0.1032666

thirdGCN.attentionLayer.inAttention.a_alpha f4 [5, 1]
00000000: e43b aa3e 2513 413f 9bf8 483f 44c1 fe3e
00000010: 0375 403f
0.33248818 0.7541984 0.7850434 0.49756825 0.75178546

thirdGCN.attentionLayer.inAttention.b_alpha f4 [5, 1]
00000000: b852 453e c478 213f ed40 363f 6987 183f
00000010: b47f 623e
0.19269836 0.630749 0.7119282 0.5958162 0.22119027

thirdGCN.attentionLayer.outAttention.W_sum f4 [5, 5]
00000000: dd1c 373f 54e1 823e 4a8d 453f 33e2 3a3f
00000010: 0885 6e3f d002 c93d 4a2e 843e d842 8a3d
00000020: 74dd 2a3e 6a51 2a3f 507b 703d 84f8 f13e
00000030: 30c8 563d fccc 9d3e a385 373f 38b1 4c3e
00000040: e4eb 933e c09e 9b3d 6664 453f 212d 5e3f
00000050: 2996 563f ff5a 693f 8298 513f b858 fb3d
00000060: 9453 853e
0.71528417 0.25562537 0.77168715 0.730014 0.9317174 0.098149896 0.25816566 0.06751031
0.1668604 0.6653048 0.05871135 0.47259915 0.052437007 0.30820453 0.7168829 0.19989479
0.28890908 0.075986385 0.7710632 0.8678761 0.83822876 0.91154474 0.81873333 0.12272781
0.26040328

thirdGCN.attentionLayer.outAttention.W_alpha f4 [5, 5]
00000000: a77b 773f c8f5 5a3f fcef 293e 9c03 bd3e
00000010: 1d97 733f e2f2 8f3e 881e e13d d070 b33d
00000020: 1e96 df3e c718 003f 62cb cf3e 6e17 483f
00000030: 7c74 883e a4fe ae3e e251 2e3f d86b 053e
00000040: 6c3b 513f 9e12 443f 94cf 643f d4df 933e
00000050: c8d5 e53d f898 cd3d e40d fc3e e563 713f
00000060: 0012 f43e
0.96673054 0.8553128 0.16595453 0.36916816 0.95152456 0.28114992 0.109921515 0.08761752
0.43669218 0.5003781 0.40584856 0.7816075 0.2665137 0.3417865 0.68093693 0.1302942
0.81731296 0.7659091 0.8937924 0.28881705 0.11222416 0.10038942 0.49229348 0.9429305
0.47669983

thirdGCN.attentionLayer.outAttention.a_alpha f4 [5, 1]
00000000: de30 6c3f a963 303f 4631 7f3f 6062 8f3d
00000010: 7a3b 7a3f
0.92262065 0.6890207 0.9968456 0.070011854 0.97747004

thirdGCN.attentionLayer.outAttention.b_alpha f4 [5, 1]
00000000: f80d 5f3f 584e 033e 5762 1a3f 888e 463e
00000010: a07c 203f
0.8713069 0.12822855 0.60306305 0.19390309 0.6269016

thirdGCN.linearLayer.weight f4 [5, 10]
00000000: b596 383c 1428 ad3d 95f8 4fbc ca4a b1bd
00000010: e01e 60be 74db 86bc 5888 41be c9b5 00be
00000020: d82d d6bd 3946 5b3a 7d2a 8d3d 20f2 80be
00000030: a974 84be 8660 bd3d 5127 003e 834d f13d
00000040: bd6e 913d 3ee8 d33c abed 7d3e 4e16 8d3e
00000050: 6af6 dd3d 910b 7abe 0581 543d 4345 593e
00000060: fad2 7abe e2ce 1ebe d27f 843e deec 9f3e
00000070: 307c 92bc 4164 59be 9229 253e 8d01 023d
00000080: 1397 1d3e 43f3 6a3e 54a4 873e e4f0 7f3d
00000090: 413a 393e 023f 2c3e bf67 16be d8bf 4dbe
000000a0: 1d09 85be 6b0b bd3d 354f 19be c410 88be
000000b0: feef 8c3e a0da 16be 422f 553e bcfb fe3a
000000c0: e2dc 0d3e 00d7 a53d
0.0112664 0.0845491 -0.012693544 -0.08656843 -0.21886778 -0.016462065 -0.18899667 -0.12569346
-0.10457963 0.0008364651 0.068928696 -0.25184727 -0.25870255 0.09246926 0.12514998 0.11782362
0.071012 0.025867578 0.24797694 0.2755608 0.108380154 -0.24418475 0.051880855 0.21217827
-0.24494544 -0.15508607 0.2587877 0.31235403 -0.017881483 -0.2122965 0.16129139 0.03173976
0.15389661 0.2294436 0.2649256 0.06248559 0.18088628 0.1682091 -0.14688013 -0.20092714
-0.25983515 0.092306934 -0.14971621 -0.2657529 0.2752685 -0.14731836 0.20818809 0.0019453685
0.13853791 0.080976486

thirdGCN.linearLayer.bias f4 [5]
00000000: a0c5 933e 1de2 46be 5132 173d 2c7d c23d
00000010: 52be 96be
0.28861713 -0.19422193 0.03691322 0.09496531 -0.29442078

ff4.weight f4 [5, 5]
00000000: 58cf 743f 486c c1be 025a e9bd 3941 dbbd
00000010: 9fa7 6dbe 32c0 97bc 1106 b93e 0647 983e
00000020: 300b 3f3e 630c bcbe 6606 35be 6301 ee3d
00000030: e540 6ebe be7a b3be af32 e23d f551 d9be
00000040: 0e06 2abe 12c1 7d3e 3a98 3a3d c416 a8be
00000050: 87ea 07be f593 c23e 9bdf a33e 7aad 1c3e
00000060: a705 503e
0.9562888 -0.37777925 -0.11394121 -0.107057996 -0.23208474 -0.018524263 0.3613744 0.29741687
0.18656611 -0.367282 -0.17678222 0.11621358 -0.23266943 -0.35054582 0.110448234 -0.4244534
-0.16603872 0.24780682 0.04555533 -0.3282987 -0.13273059 0.38003507 0.32006535 0.15300551
0.20314656

ff4.bias f4 [5]
00000000: fe99 b83d ea80 263e dfd9 983e 0a62 30bd
00000010: 383a 823e
0.09013747 0.16260114 0.29853722 -0.043062247 0.25435042

ff5.weight f4 [5, 5]
00000000: 4172 13be 2cd0 dabe 638a 583e 295d 86be
00000010: 19dd da3e a062 fdbd 310c abbd 514b b93e
00000020: 0bfb 473e c44a 84be 3edf c23e b339 443e
00000030: 6c33 9c3e f4a7 a9be 688b a83e 03d6 68be
00000040: 52aa c1be 9913 b23e c16e 4d3c 6999 02bd
00000050: 912a 553e 5548 93be 66f7 aa3d 123a 323e
00000060: 5cde bd3d
-0.14399053 -0.42736948 0.2114654 -0.2624295 0.4274681 -0.12372327 -0.08351935 0.36190274
0.19529359 -0.25838292 0.38060945 0.19162636 0.30507982 -0.3313595 0.3291886 -0.22737889
-0.37825257 0.34780577 0.012538613 -0.031884585 0.20817019 -0.28766122 0.08347969 0.17404965
0.09270927

ff5.bias f4 [5]
00000000: 94cf 30be 3d4d 2d3e 2a52 adbe 81bc 83be
00000010: f971 48be
-0.17266685 0.16923995 -0.3385175 -0.25729755 -0.19574727

ff6.weight f4 [30, 5]
00000000: 4a6f 38be 1ccf b5be 838d bb3e 1941 a53e
00000010: 24c6 babd 8516 11bf e474 8f3e 0bf6 6ebe
00000020: 572a 833e a503 cbbe fc19 85be eac4 283c
00000030: 7d38 5d3e f473 82be 0543 a53e 5e59 84be
00000040: 37c6 1dbc 5eef a23d d85c 843e 2880 ba3e
00000050: 45ae 55be 7ce2 8e3e 9a5a a53e 9a0d 1bbe
00000060: 26d3 d1bd 7063 e1bd 6446 70be 4f61 9dbe
00000070: 0e48 843e b8af 253e e647 4ebe f82d 86be
00000080: 1d64 d43e ffa0 a33e 33a9 9dbc 2926 58be
00000090: 6775 c6bd 5966 c13e b9eb c33e a32c 2d3e
000000a0: ba6d 5ebe 9070 b63d 5144 af3e be75 a7be
000000b0: 82ac a03e 54dc 83be 3734 ddbe a432 923c
000000c0: 2b8c 0e3e 9a39 013e 6d53 87be aaed 413e
000000d0: 5f79 3ebe 979f b3bd 3561 9c3e e776 0bbf
000000e0: 682e c43e a999 97be b260 82be f134 353e
000000f0: 1c97 77be f870 23be 5c10 0cbe e7da 7f3c
00000100: 72ad 92be f80f 3abe 6fec ca3e 8fc4 1c3e
00000110: cd4b 893e 1637 4c3e ef07 90be 76c8 2cbe
00000120: 29f5 523c 1338 c53e 7335 dc3d 2c11 a6be
00000130: 2218 1c3d 0503 9ebe f619 d73e 1656 25bd
00000140: 93c0 d6be b644 4cbe 47ce b8bd 86c0 c23e
00000150: 76d2 393e 583b d4be 8bbe 0c3e 617f bfbe
00000160: 429b 493e 5e52 83be 86de ffbe 7273 653e
00000170: 1871 063d e146 cb3e 8692 c6bb 9531 35be
00000180: c1bf 143e e33c 4fbd 33c1 c0be 2e9a a73e
00000190: 5d96 6cbe 6f94 febd 2263 aabe d4c7 893e
000001a0: 0532 86be 4a74 cebe 034a 1cbd 0c4d 94be
000001b0: 2822 993e efbf c63e 8d84 82be 8537 243e
000001c0: 432c 9b3e a52a 24be 8f42 983d dd29 8cbe
000001d0: 21a0 ba3e a9ef 453e e2d0 e43e 61ea 46be
000001e0: 9e8a 68be ff48 33be 6176 4bbd 3e45 b1be
000001f0: cb70 d1be c7a4 82be 7c9e b63d e9f4 403e
00000200: 4056 07be 69b9 9fbe cb21 7fbe e843 c43e
00000210: 3124 5c3e 5506 b73e ab66 723d c3f7 b2be
00000220: d932 d93d 65da 4d3e 4704 823e 2ff6 0fbe
00000230: 8e40 4abe 489c bfbe 0c5d 8f3e 64ea 1d3e
00000240: e1fb be3e 6aaf cabe dec1 c63e 7867 85be
00000250: 7168 8bbe 65e3 aabe
-0.18011203 -0.35509574 0.36631402 0.32276228 -0.091198236 -0.5667499 0.28018868 -0.23336045
0.2561824 -0.39651218 -0.25996387 0.010300854 0.2160358 -0.2547909 0.32277694 -0.25849432
-0.009629778 0.07955812 0.25852084 0.364259 -0.2086726 0.2790717 0.32295686 -0.15141907
-0.102453515 -0.11005294 -0.23464352 -0.30738303 0.25836223 0.16180313 -0.20144615 -0.26206946
0.4148263 0.31958768 -0.01924572 -0.21108307 -0.096903615 0.37773398 0.3826578 0.16911559
-0.21721545 0.08908188 0.3423181 -0.32707018 0.31381613 -0.25754035 -0.432039 0.017846413
0.13920657 0.1261963 -0.26430836 0.18938318 -0.18600987 -0.08770674 0.30542913 -0.54478306
0.38316655 -0.2960942 -0.25464398 0.17695977 -0.24178737 -0.15961063 -0.13678116 0.015616155
-0.28647953 -0.18170154 0.3963351 0.15309356 0.26815644 0.19942889 -0.28131053 -0.16873345
0.012875834 0.38519344 0.10752382 -0.32434976 0.038108952 -0.3086168 0.42011994 -0.0403653
-0.41943797 -0.19948086 -0.09023719 0.3803751 0.1814669 -0.41451526 0.13744561 -0.3740187
0.19688132 -0.2564878 -0.4997446 0.2240732 0.0328227 0.39702514 -0.0060599474 -0.17694695
0.14526273 -0.050595175 -0.376474 0.32734817 -0.23104234 -0.12430655 -0.33278757 0.2691027
-0.26210037 -0.40323097 -0.03815652 -0.28965032 0.29908872 0.3881831 -0.25491753 0.16036804
0.30307207 -0.16031893 0.0743457 -0.2737569 0.36450294 0.19329704 0.44690615 -0.19425346
-0.22709128 -0.17508315 -0.04967344 -0.3462314 -0.40906367 -0.2551634 0.08916947 0.18843426
-0.13216496 -0.31196144 -0.24915235 0.38333058 0.21498181 0.35747018 0.059179943 -0.34954652
0.106054015 0.20102842 0.25393888 -0.14058755 -0.19751188 -0.3742392 0.28000677 0.15421444
0.37301543 -0.39586955 0.38819784 -0.26055503 -0.2722812 -0.33376613

ff6.bias f4 [30]
00000000: 4627 17bf b541 e43d b816 033e b7ef d5be
00000010: 5bbc 97be cb46 313e 18b4 13bf c07f 5ebe
00000020: 6525 54be c231 f7be 3f9d a3be 644d 833d
00000030: 4ada 2ebe 2bde 12bf 8c36 c2be b4d3 6cbe
00000040: 7358 9cbe 34a7 c83d d767 8d3d c808 20bf
00000050: 7392 8cbe 8486 f8bd 2358 43be 9556 0ebe
00000060: ffbe 18be 35fb f1be 8fc4 5a3d 12f4 0e3e
00000070: 83c6 d7be 7ea1 e1be
-0.590443 0.11145345 0.12801635 -0.4178445 -0.2963589 0.17312162 -0.57696676 -0.2172842
-0.2071739 -0.4828015 -0.31955907 0.064112455 -0.17075458 -0.5737025 -0.3793224 -0.23127633
-0.3053623 0.097975165 0.069045715 -0.625134 -0.27455482 -0.12135032 -0.1907659 -0.13900216
-0.14916609 -0.47261968 0.05341011 0.13960293 -0.4214364 -0.4406852
